models/RaceModels/cat_pos_3copies_0to10_theelayers_mse/model.pt (torch, 539165 bytes, 24 tensors)

fc1.weight f4 [128, 240]
0.10316925 -0.041976314 -0.12955286 -0.01760045 0.09749086 0.19787261 -0.019343423 -0.070284024
-0.10044015 0.12583765 -0.06986209 -0.10345984 -0.12188879 0.35399288 0.12403178 0.002818018
-0.09596364 -0.14629284 0.0518261 0.08985962 -0.022499582 -0.10972118 -0.034558754 0.07740887
0.0068545705 0.13068824 -0.15905589 0.030651407 -0.042577017 0.11447698 -0.07533943 -0.07777351
-0.08636014 0.11069656 -0.11557368 -0.15493926 -0.107188866 0.07018659 0.122856095 0.04690106
-0.08310633 -0.08013191 0.0995858 -0.039128024 0.087037764 -0.12049396 0.023785029 -0.15227573
0.029571181 0.16947085 -0.14160733 0.04041495 -0.08048904 0.108059265 -0.08972856 -0.03792234
-0.07835364 0.0005832608 0.08807353 -0.21697998 -0.09459885 0.09546469 -0.056569617 0.09017693
-0.11801591 -0.13267913 0.10021478 -0.13142738 -0.027723592 -0.03233383 0.03543312 -0.16782501
-0.008732345 0.026196523 -0.12871957 -0.024722748 -0.06930754 -0.030868294 -0.02315954 -0.03333966
-0.091065995 0.0290201 0.08051978 -0.22819328 -0.053653043 0.07748324 -0.05828483 0.13001785
-0.07115585 -0.04532173 0.032026403 -0.063967384 0.0634394 0.14185613 0.23515275 -0.16578817
0.008876537 0.06564908 0.0136187505 -0.10149458 -0.050569016 -0.06285324 0.0131961685 -0.06421512
-0.0463747 -0.04020175 0.034749188 -0.14441516 -0.02343593 0.074390985 -0.023118446 0.027402505
0.010147843 -0.010831312 0.09513514 0.0290726 0.056051802 -0.0070173764 0.09422335 -0.15884195
-0.0129153775 0.03272768 0.04465924 0.048006795 -0.057358854 -0.10369014 0.03972533 -0.024482101
-0.14382194 -0.07200923 0.050419845 -0.049133223 0.032960173 0.012081138 -0.029421896 0.047100563
0.0153047135 0.037686974 0.107930586 0.10617188 0.14120974 -0.05073217 0.023089608 -0.1669866
0.036874086 -0.034312345 0.00023096983 0.021923535 -0.014488095 0.0039562206 -0.035301898 -0.07721686
-0.082138196 0.09648932 0.10722761 0.08030139 -0.030667646 -0.11340154 -0.13953473 0.13506827
-0.056207504 -0.0038621463 0.104593515 0.09615473 -0.017714327 0.1544307 -0.02109135 -0.22369853
-0.0015942627 -0.12388984 0.039793205 -0.11963272 -0.09647851 -0.009181377 -0.092141196 -0.015627353
-0.052095197 0.12949443 0.16238753 0.02132376 0.020881288 0.038871497 -0.029683556 0.123780094
-0.02452375 -0.036721237 -0.02069197 0.20698139 0.06940984 0.062096395 0.041763104 -0.026021529
-0.019590318 -0.22444564 -0.023606302 -0.008993766 0.09013635 -0.039981306 0.12281984 0.15304516
-0.14881188 -0.02901 0.01958438 -0.09110575 -0.016314095 -0.0016788455 -0.07697247 0.05714801
0.107953236 -0.06496581 0.08357606 0.13635382 0.2774001 0.2584313 0.23574148 -0.08315808
0.0108490735 -0.17311175 -0.10107229 -0.26455605 0.074575335 -0.07713386 0.35349596 0.09027424
-0.13054366 0.073609844 -0.0557414 -0.15639322 0.010491076 -0.066298366 0.057565648 -0.009082101
0.3141827 -0.016692305 0.052132804 0.2444813 0.47958946 0.5041916 0.048191242 0.040831916
0.06651798 0.12959728 0.15032794 0.089710705 -0.061138727 0.09454281 0.038952105 -0.3615544
0.13778216 0.064883515 -0.028164294 -0.19789068 0.13101333 0.21665525 -0.30591685 0.19641049
00000000: 664a d33d 5bef 2bbd 81a9 04be d22e 90bc
00000010: 4aa9 c73d 1e9f 4a3e 1976 9ebc 12f1 8fbd
00000020: 91b3 cdbd 96db 003e db13 8fbd c1e2 d3bd
00000030: d4a0 f9bd 8e3e b53e 6004 fe3d 7fae 383b
00000040: 9688 c4bd cacd 15be 9b47 543d 5208 b83d
00000050: 0b51 b8bc 7fb5 e0bd 7b8d 0dbd 8b88 9e3d
00000060: 4e9c e03b 23d3 053e 8cdf 22be a918 fb3c
00000070: 3d65 2ebd e872 ea3d 8f4b 9abd b847 9fbd
00000080: 96dd b0bd e1b4 e23d e5b1 ecbd 66a8 1ebe
00000090: d685 dbbd fdbd 8f3d fa9b fb3d 531b 403d
000000a0: a733 aabd 331c a4bd a4f3 cb3d b544 20bd
000000b0: db40 b23d 8ac5 f6bd d2d8 c23c 2bee 1bbe
000000c0: 433f f23c c489 2d3e 8301 11be 268a 253d
000000d0: 70d7 a4bd 2d4e dd3d 9bc3 b7bd 7554 1bbd
000000e0: e077 a0bd f8e5 183a e55f b43d 0030 5ebe
000000f0: 0bbd c1bd fe82 c33d 8bb5 67bd afae b83d
00000100: 53b2 f1bd 0add 07be 683d cd3d e694 06be
00000110: 961c e3bc 7a70 04bd 5222 113d 52da 2bbe
00000120: 1c12 0fbc 179a d63c 10cf 03be 5c87 cabc
00000130: 1df1 8dbd 81df fcbc 13b9 bdbc 2b8f 08bd
00000140: cf80 babd 90bb ed3c 8ee7 a43d 80ab 69be
00000150: 4bc3 5bbd 88af 9e3d 13bc 6ebd 6623 053e
00000160: 29ba 91bd 47a3 39bd 1e2e 033d 5501 83bd
00000170: 84ec 813d bc42 113e e2cb 703e 60c4 29be
00000180: e56e 113c 0673 863d 2e21 5f3c 64dc cfbd
00000190: 7521 4fbd 33b9 80bd be34 583c 3883 83bd
000001a0: 66f3 3dbd 97aa 24bd 2a55 0e3d 91e1 13be
000001b0: b5fc bfbc 4d5a 983d e562 bdbc 387b e03c
000001c0: 2343 263c d175 31bc 36d6 c23d a929 ee3c
000001d0: 9396 653d 05f2 e5bb 2cf8 c03d 77a7 22be
000001e0: 059b 53bc 760d 063d 9bec 363d c6a2 443d
000001f0: 1ef1 6abd 7f5b d4bd 07b7 223d b08e c8bc
00000200: 0f46 13be 9379 93bd 0a85 4e3d eb3f 49bd
00000210: 3f01 073d f7ef 453c 3006 f1bc 85ec 403d
00000220: 9fc0 7a3c a85d 1a3d b60a dd3d a570 d93d
00000230: 4999 103e 89cc 4fbd 6b26 bd3c 89fe 2abe
00000240: 4809 173d 1a8b 0cbd 7e30 7239 fc98 b33c
00000250: 7a5f 6dbc 2fa3 813b b998 10bd e023 9ebd
00000260: 1238 a8bd 319c c53d 269a db3d 0e75 a43d
00000270: b73a fbbc 113f e8bd 31e2 0ebe 564f 0a3e
00000280: d739 66bd 101c 7dbb 2035 d63d c5ec c43d
00000290: a31d 91bc 1523 1e3e c4c7 acbc 3a11 65be
000002a0: 94f6 d0ba f5b9 fdbd 33fe 223d 0002 f5bd
000002b0: 8696 c5bd 7c6d 16bc 86b4 bcbd ef04 80bc
000002c0: c661 55bd 309a 043e eb48 263e 2aaf ae3c
000002d0: 3c0f ab3c b837 1f3d ee2a f3bc 6b80 fd3d
000002e0: 08e6 c8bc 0269 16bd 3582 a9bc eef2 533e
000002f0: bf26 8e3d ca58 7e3d ca0f 2b3d 1a2b d5bc
00000300: e07b a0bc 14d5 65be 0162 c1bc 975a 13bc
00000310: 6899 b83d 70c3 23bd f888 fb3d dfb7 1c3e
00000320: 2462 18be 61a6 edbc 6c6f a03c a795 babd
00000330: 23a5 85bc b50c dcba bea3 9dbd 0814 6a3d
00000340: 9616 dd3d cb0c 85bd ed29 ab3d 56a0 0b3e
00000350: 6307 8e3e 1b51 843e 3766 713e c94e aabd
00000360: 50c0 313c 3544 31be fdfe cebd e473 87be
00000370: f4ba 983d 5bf8 9dbd 6cfd b43e b3e1 b83d
00000380: 3dad 05be c2c0 963d 1851 64bd 8b25 20be
00000390: c3e2 2b3c 70c7 87bd f5c9 6b3d 18cd 14bc
000003a0: 8edc a03e 4dbe 88bc 3589 553d 4e59 7a3e
000003b0: c08c f53e b312 013f 2e64 453d 5e3f 273d
000003c0: 943a 883d 26b5 043e 91ef 193e 3fba b73d
000003d0: 9a6c 7abd a99f c13d 3e8c 1f3d a91d b9be
000003e0: c416 0d3e a6e1 843d ceb8 e6bc dba3 4abe
000003f0: 5c28 063e e0da 5d3e 22a1 9cbe d51f 493e

fc1.bias f4 [128]
-0.024603147 0.013930396 -0.06164503 -0.047450583 -0.0069478154 -0.03428802 -0.03290316 -0.0015054957
-0.06662757 -0.010945724 0.004003567 -0.049292963 0.032409575 0.02069458 0.048719585 0.037477292
0.015167108 -0.054105118 0.026673 -0.02211979 -0.010198687 0.057159126 -0.03157463 0.020715889
0.020049484 0.013507956 -0.021723853 -0.015536953 -0.021021167 0.021099264 -0.044746622 -0.123668864
0.09946448 -0.034611885 0.0508144 -0.01716536 0.022134295 -0.012996237 0.02950606 0.001710353
0.0018234402 0.012540443 -0.09238619 -0.0059371134 -0.0555916 -0.14182594 -0.07183113 -0.03949096
-0.059043895 0.0017940848 -0.008918203 -0.0051597054 -0.032088693 -0.049739152 0.0468493 -0.023504002
-0.13622323 0.017333379 0.052005205 -0.06378365 -0.06371137 0.022472499 -0.050752103 -0.0013351638
0.021552294 -0.058972392 -0.10387192 -0.132868 0.040012814 -0.028628174 -0.18477221 -0.0039621857
-0.02410945 -0.009136963 -0.10146672 -0.073558025 -0.011049447 0.02331279 -0.017557058 -0.036245145
0.017236624 0.028186211 -0.12931517 -0.0076363906 -0.060594916 -0.06070069 0.07443721 0.0483933
0.020179592 0.020640211 -0.01967962 -0.0033477992 -0.0026546738 -0.058677312 0.058492173 -0.06974145
-0.053486343 -0.07053368 -0.032809086 -0.037706487 -0.029192152 -0.06200232 0.032184057 0.010155934
-0.008954447 -0.054027144 -0.07540955 0.015069418 -0.009616371 0.04285719 -0.08062929 0.026336927
-0.040096544 -0.062242955 0.013297454 0.02616738 -0.12935045 -0.07088956 0.040210906 -0.0672426
-0.0152344145 -0.022933584 -0.07810024 0.044301387 0.018907044 -0.024983538 0.013278012 -0.060371213
00000000: 8a8c c9bc 513c 643c 807f 7cbd 8b5b 42bd
00000010: 80aa e3bb 9871 0cbd 77c5 06bd 0e54 c5ba
00000020: 0974 88bd b255 33bc 5b30 833b 6be7 49bd
00000030: e7bf 043d ae87 a93c 308e 473d ca81 193d
00000040: 767f 783c 549d 5dbd 5681 da3c 9034 b5bc
00000050: 6518 27bc b01f 6a3d 6654 01bd 5eb4 a93c
00000060: d13e a43c 7950 5d3c 39f6 b1bc b48e 7ebc
00000070: 9534 acbc 5dd8 ac3c 3c48 37bd 1a46 fdbd
00000080: 09b4 cb3d 31c5 0dbd c322 503d 5e9e 8cbc
00000090: fb52 b53c 2bee 54bc b1b6 f13c ec2d e03a
000000a0: 8000 ef3a 6e76 4d3c f934 bdbd 1e8c c2bb
000000b0: 04b4 63bd d23a 11be 331c 93bd 46c1 21bd
000000c0: 03d8 71bd 7f27 eb3a a81d 12bc bf12 a9bb
000000d0: 6f6f 03bd 48bb 4bbd 0de5 3f3d 778b c0bc
000000e0: 1a7e 0bbe bbfe 8d3c 6903 553d 01a1 82bd
000000f0: 1b7b 82bd 3f18 b83c 70e1 4fbd aa00 afba
00000100: 708e b03c 098d 71bd cdba d4bd 8d0e 08be
00000110: 7ae4 233d a285 eabc ed34 3dbe 39d5 81bb
00000120: 2e81 c5bc 33b3 15bc c9cd cfbd 97a5 96bd
00000130: bd08 35bc 77fa be3c d2d3 8fbc ca75 14bd
00000140: d233 8d3c c5e6 e63c 326b 04be b03a fabb
00000150: 6032 78bd 49a1 78bd 8972 983d 0e38 463d
00000160: ac4f a53c a915 a93c 2837 a1bc c066 5bbb
00000170: 09fa 2dbb 9f57 70bd 7d95 6f3d 9bd4 8ebd
00000180: 7f14 5bbd f673 90bd d262 06bd 1e72 1abd
00000190: 6124 efbc 25f6 7dbd 6ed3 033d 1365 263c
000001a0: acb5 12bc 914b 5dbd 5270 9abd b8e5 763c
000001b0: fc8d 1dbc 058b 2f3d f820 a5bd 8ac0 d73c
000001c0: 463c 24bd 78f2 7ebd 91dd 593c f95c d63c
000001d0: 7274 04be 8c2e 91bd 31b4 243d 7db6 89bd
000001e0: c499 79bc 36df bbbc 05f3 9fbd 5f75 353d
000001f0: f2e2 9a3c 47aa ccbc 058c 593c ce47 77bd

fc2.weight f4 [64, 128]
-0.12598225 -0.15760054 -0.015073946 0.04715733 -0.0043495772 -0.072276175 0.008040881 -0.043307327
0.17720555 -0.14046109 0.03487598 -0.030662253 0.036910426 0.0952258 0.05816354 0.006255612
-0.03258989 0.07417976 -0.026489738 -0.049271964 -0.007191357 0.063218325 0.014850892 -0.074518844
0.08338187 -0.029073495 -0.25835907 0.044569645 -0.029358322 0.056221645 0.023439959 0.13804477
0.09254036 -0.042689335 0.08944997 -0.23374608 -0.045764618 -0.0055714957 -0.08983484 -0.047078818
0.051703297 -0.047323495 0.14883849 -0.03984269 -0.029633228 -0.11368354 -0.16295463 0.07148341
-0.121734284 0.02376743 -0.069404885 -0.0757266 0.06438216 0.15361127 0.107296474 0.013345568
-0.081858605 0.0120095005 0.046725083 0.082103446 -0.085904494 0.034738623 0.07570284 -0.021556119
0.0049566687 0.031896107 0.057035726 0.016741958 0.20937933 -0.049461503 0.108485736 -0.028582565
0.24269372 0.03430468 -0.1876936 0.10913357 0.045096144 -0.057326894 0.05157314 0.006959444
-0.1262052 -0.033842318 0.033317648 -0.042697296 0.035921887 -0.060625456 -0.34556854 0.079636715
-0.04646467 -0.09653344 -0.020411234 0.05914203 0.13988148 -0.036349773 -0.07201063 -0.075794406
-0.022039656 0.12211601 0.14531314 0.18137513 0.089872204 -0.065879114 0.028005565 -0.060517546
0.028179206 -0.015115572 0.15410459 -0.012989268 0.006529331 0.087499216 0.11130494 0.02119738
0.010908722 -0.22799739 0.13535786 0.23228705 0.21444647 0.070924036 0.13424881 -0.069834225
0.07001016 -0.080120616 -0.11969892 -0.028748073 -0.016957328 -0.015190734 0.033796243 -0.021337617
-0.12790002 -0.10569689 0.058671422 -0.07012791 0.02659916 0.049302183 0.06681425 0.10204035
-0.008861061 0.05870104 0.13066722 0.028998263 0.07705071 0.05939974 -0.0023166346 0.066305526
-0.072526194 -0.24049117 -0.0699145 0.018473491 -0.033633452 -0.028323272 0.050118573 -0.006255484
-0.006476988 -0.035320856 0.14663285 0.0762876 -0.06456213 0.047727507 0.064784095 -0.018894944
0.15423086 0.0023268687 0.1621204 0.14120561 0.062131744 -0.07928843 0.026782673 0.07483445
0.07145063 -0.05106987 -0.022508234 -0.01626143 0.0706509 0.056407172 0.06725205 0.00570726
0.09295519 -0.028094739 -0.060756758 0.08403471 -0.0012136908 -0.13839722 -0.083940715 -0.06939132
0.055371776 0.017512918 -0.015602207 0.102921486 -0.0627025 -0.048250515 0.034898326 -0.008779647
-0.0636771 -0.054206003 0.07412616 -0.014915391 0.11886871 -0.042939276 0.006029131 0.03506546
-0.02378228 -0.07927622 0.10352126 0.15848903 -0.004695144 0.08836938 0.03246482 0.017346919
0.12807423 -0.020629324 0.10350075 -0.022249714 0.09377366 0.06736336 -0.009205628 0.0012409375
0.044417866 0.09838721 0.025377141 0.017472416 0.14092892 -0.08804338 0.08621903 -0.030168844
0.14139643 0.10045481 0.099702194 0.019122483 -0.025498636 -0.009730814 0.07663529 0.062522374
-0.08771721 -0.055740636 0.02337996 0.04723748 0.10954502 -0.010899177 0.05585712 -0.045717303
-0.056342587 -0.012311324 0.098540194 0.05789552 0.10209108 0.14991252 -0.07362468 -0.04164281
-0.0689758 -0.10807468 0.170798 -0.04924628 0.030296763 -0.0037796139 0.137827 0.07149621
00000000: 7e01 01be 0962 21be b6f8 76bc 0b28 413d
00000010: e686 8ebb 8805 94bd e6bd 033c 0663 31bd
00000020: 5f75 353e 08d5 0fbe 1eda 0e3d 682f fbbc
00000030: 632f 173d bf05 c33d e43c 6e3d e0fb cc3b
00000040: fa7c 05bd 8feb 973d 0201 d9bc 66d1 49bd
00000050: 7aa5 ebbb 9c78 813d 2851 733c 569d 98bd
00000060: 1dc4 aa3d 8a2b eebc a447 84be a98e 363d
00000070: dd80 f0bc ab48 663d 2805 c03c 9c5b 0d3e
00000080: cd85 bd3d 03db 2ebd 8c31 b73d 225b 6fbe
00000090: ae73 3bbd 1891 b6bb 54fb b7bd b8d5 40bd
000000a0: d6c6 533d 48d6 41bd 1e69 183e 1732 23bd
000000b0: 62c1 f2bc ead2 e8bd 94dd 26be e565 923d
000000c0: d34f f9bd eab3 c23c 2624 8ebd 8c16 9bbd
000000d0: cbda 833d 464c 1d3e 41be db3d 5fa7 5a3c
000000e0: 7ca5 a7bd 7fc3 443c cd62 3f3d da25 a83d
000000f0: b2ee afbd 164a 0e3d 170a 9b3d 7596 b0bc
00000100: 8d6b a23b 7ea5 023d 4b9e 693d 6e26 893c
00000110: 8967 563e 2598 4abd c52d de3d fc25 eabc
00000120: b484 783e 1083 0c3d c032 40be 6c81 df3d
00000130: bcb6 383d 9bcf 6abd 5b3e 533d 0c0c e43b
00000140: f03b 01be 3e9e 0abd 1678 083d 5ce3 2ebd
00000150: d422 133d 6652 78bd 5cee b0be 9318 a33d
00000160: bd51 3ebd 53b3 c5bd 7635 a7bc ea3e 723d
00000170: 173d 0f3e 80e3 14bd 4f7a 93bd 193a 9bbd
00000180: 828c b4bc f517 fa3d f8cc 143e 67ba 393e
00000190: eb0e b83d a1eb 86bd ed6b e53c 3fe1 77bd
000001a0: 14d8 e63c 4ea7 77bc 98cd 1d3e f0d0 54bc
000001b0: 00f4 d53b ca32 b33d d8f3 e33d 21a6 ad3c
000001c0: 7fba 323c 2678 69be 409b 0a3e a8dc 6d3e
000001d0: db97 5b3e 9f40 913d 8578 093e 3f05 8fbd
000001e0: 7d61 8f3d 4716 a4bd b524 f5bd 1481 ebbc
000001f0: 18ea 8abc 8ee2 78bc ee6d 0a3d 3acc aebc
00000200: 39f8 02be 9c77 d8bd 7251 703d 399f 8fbd
00000210: 7be6 d93c 16f1 493d e9d5 883d 88fa d03d
00000220: fc2d 11bc 8070 703d a1cd 053e c48d ed3c
00000230: c3cc 9d3d 244d 733d aed2 17bb 31cb 873d
00000240: 9d88 94bd 5143 76be 552f 8fbd b855 973c
00000250: 3bc3 09bd 3506 e8bc 2249 4d3d cefa ccbb
00000260: ea3c d4bb 9aac 10bd ec26 163e ac3c 9c3d
00000270: 2639 84bd eb7d 433d 86ad 843d 92c9 9abc
00000280: b2ee 1d3e 617e 183b e402 263e 3498 103e
00000290: db7d 7e3d f961 a2bd 5667 db3c ce42 993d
000002a0: b554 923d a42e 51bd 3063 b8bc b136 85bc
000002b0: 6bb1 903d 350b 673d 71bb 893d f803 bb3b
000002c0: 4a5f be3d f026 e6bc 14dc 78bd 641a ac3d
000002d0: b514 9fba 00b8 0dbe 1ce9 abbd 091d 8ebd
000002e0: 84cd 623d 4077 8f3c 66a0 7fbc 80c8 d23d
000002f0: 2b6a 80bd 55a2 45bd 8cf1 0e3d 82d8 0fbc
00000300: 2469 82bd 1d07 5ebd 75cf 973d af5f 74bc
00000310: 7071 f33d 18e1 2fbd 0490 c53b cda0 0f3d
00000320: 0ed3 c2bc 925b a2bd f402 d43d f34a 223e
00000330: b9d9 99bb 01fb b43d d5f9 043d 201b 8e3c
00000340: e425 033e d4fe a8bc 34f8 d33d 0845 b6bc
00000350: 680c c03d cdf5 893d 34d3 16bc f4a6 a23a
00000360: 82ef 353d 3c7f c93d b9e3 cf3c 5022 8f3c
00000370: ac4f 103e 1650 b4bd 9a93 b03d a724 f7bc
00000380: 3aca 103e 40bb cd3d aa30 cc3d c1a6 9c3c
00000390: 84e2 d0bc fe6d 1fbc f7f2 9c3d bb0b 803d
000003a0: 15a5 b3bd 4b50 64bd 5487 bf3c 167c 413d
000003b0: 2459 e03d 7692 32bc 6fca 643d 1142 3bbd
000003c0: 7cc7 66bd 6fb5 49bc 71cf c93d da23 6d3d
000003d0: 2115 d13d ab82 193e 89c8 96bd a791 2abd
000003e0: 2f43 8dbd 4256 ddbd ace5 2e3e 78b6 49bd
000003f0: eb30 f83c 66b3 77bb 8522 0d3e 9b6c 923d

fc2.bias f4 [64]
0.06084007 0.07036273 0.14782941 -0.019925196 0.14414741 0.15724108 0.048219204 0.024505155
-0.09428794 -0.00011008271 -0.052251372 0.07398392 0.08360499 0.060119282 -0.022035237 0.015157363
0.07634956 0.13918759 -0.09587858 0.10630041 -0.1290346 0.16484056 -0.0582948 0.02870235
0.047859166 0.044276364 -0.054664616 -0.019183699 0.048283488 0.036113355 0.062777966 -0.0022482243
-0.05453415 0.13662386 0.07875752 0.047164194 0.17001653 0.14473367 -0.079008326 -0.07010362
-0.1366572 -0.042877316 0.040921487 -0.11308074 -0.09832719 -0.09213619 0.14640343 0.0054056435
0.0122799855 -0.052160695 -0.04200119 0.070180595 0.081434116 0.12893999 -0.06814126 0.02528563
0.17962913 -0.061188467 0.05318806 -0.10818879 0.043112878 0.08322116 0.021730429 0.04407385
00000000: 7033 793d 561a 903d 9860 173e 2a3a a3bc
00000010: 619b 133e ce03 213e 8081 453d 09bf c83c
00000020: 091a c1bd 34dc e6b8 8905 56bd e284 973d
00000030: 1839 ab3d a33f 763d 3e83 b4bc 9756 783c
00000040: 285d 9c3d 3187 0e3e fd5b c4bd 08b4 d93d
00000050: a521 04be f7cb 283e 87c6 6ebd 3121 eb3c
00000060: f907 443d 225b 353d 01e8 5fbd 2227 9dbc
00000070: e8c4 453d 99eb 133d bc91 803d f256 13bb
00000080: 335f 5fbd 20e7 0b3e 9f4b a13d 3e2f 413d
00000090: d018 2e3e 1035 143e 1ecf a1bd 7d92 8fbd
000000a0: ddef 0bbe 20a0 2fbd 4a9d 273d e096 e7bd
000000b0: c45f c9bd e6b1 bcbd c8ea 153e d321 b13b
000000c0: fe31 493c 74a6 55bd 7109 2cbd d8ba 8f3d
000000d0: eec6 a63d d808 043e a58d 8bbd cf23 cf3c
000000e0: b3f0 373e c2a0 7abd b9db 593d 1692 ddbd
000000f0: 2197 303d db6f aa3d 0304 b23c c886 343d

fc3.weight f4 [32, 64]
0.2283366 0.13012968 -0.34266627 0.039581716 0.15812026 0.2749293 -0.0049918783 -0.015100155
0.097962976 -0.13115089 0.028666994 -0.048135918 0.12569785 0.077685654 0.022154074 -0.051055383
0.043519452 0.10736075 -0.019141266 -0.20441155 0.08328534 0.08787265 -0.08017523 0.3413245
-0.08512334 -0.101080164 0.09668434 0.13009217 -0.14240465 -0.06345338 -0.023143955 0.20597741
0.47293973 -0.12088355 0.06343273 -0.10776758 0.03796116 0.12195817 -0.012196292 0.0765477
0.045591336 0.081122614 -0.071913764 -0.17010634 -0.12969016 0.10305042 -0.35399994 0.08932191
0.23612867 -0.1558056 -0.10300562 0.2695924 -0.07062993 0.19628353 -0.012441411 0.0023937682
0.064913996 -0.07896081 0.14340176 0.0009026024 0.06741954 -0.023137484 -0.08852919 -0.07951819
-0.16740555 -0.10700653 -0.13253818 0.11705298 -0.14980502 -0.13887465 0.11368923 0.0314753
-0.01787293 0.0057523395 -0.0071612494 -0.1556539 -0.034572314 0.0070501417 0.032608107 -0.11707146
-0.055122033 -0.0156144295 -0.023249656 -0.0306877 0.0016469156 0.0816848 -0.009955687 -0.076031305
0.062683865 0.022103764 -0.12129846 -0.051016066 0.02071747 0.009424033 -0.011103001 -0.11726074
-0.069688335 -0.08636372 0.04914337 -0.10334855 -0.0069881505 -0.053676337 -0.034710467 0.046286996
-0.071781866 -0.06048132 -0.09522642 0.06765594 -0.018520711 0.034527972 -0.0060200444 0.07220434
-0.057662275 0.09692725 -0.036974207 -0.043856625 0.01730354 0.053443085 0.013022108 0.0562047
-0.060748104 0.027611926 0.048767924 0.103450716 -0.045803595 -0.1550582 0.0872182 0.07102688
-0.04728984 -8.9932284e-05 0.08910003 0.09946677 -0.09530393 -0.03460224 -0.059167624 -0.040811867
-0.07484092 -0.012484834 -0.003067702 -0.0620589 -0.102905825 0.085461184 0.107253864 0.066227205
-0.06465423 -0.01976195 -0.1246047 -0.026477996 -0.08316374 0.07637623 -0.045120373 0.07753186
-0.04368548 0.07519093 -0.064353704 -0.09004071 -0.11316666 -0.008357853 0.016633173 -0.067766115
-0.025825605 0.053825974 -0.06802806 -0.13401356 -0.10676799 -0.10154035 -0.008097231 -0.0063385665
0.038733914 -0.11449586 0.027470618 0.124402806 -0.108618684 -0.09893021 0.04824667 -0.0846726
-0.015553281 -0.07675466 0.031551495 0.020954607 -0.09464952 -0.09648928 0.03186897 0.019560888
-0.11987318 0.06587094 0.010965988 -0.10261172 -0.036367923 0.042959563 -0.0859783 0.08667056
0.04350668 -0.12937336 0.042883076 -0.06792343 -0.04111433 -0.13173656 0.122774914 0.039458856
-0.050356105 -0.061763093 -0.122494966 0.000639773 0.052446634 -0.0007149875 0.019564703 0.06489588
0.040565826 0.11042248 -0.0869126 -0.005577495 -0.00040210783 -0.022181407 0.115337685 -0.03742458
0.062306643 -0.11534846 0.10273336 0.012246981 -0.09476946 -0.042049095 0.095144436 -0.017853081
0.012617722 0.09783755 -0.08611429 0.013591431 -0.067058995 -0.104583874 0.038072497 -0.036209747
0.024727955 -0.040479124 0.11605331 -0.12458542 -0.026183324 0.078376204 -0.03162171 0.06131141
-0.10921824 -0.07107833 -0.07428126 -0.1158002 -0.0052436125 -0.029884843 -0.13294628 -0.1028744
-0.1027088 -0.034529492 -0.09720872 0.056064084 0.04648125 -0.09764646 -0.05729547 0.018464163
00000000: 12d1 693e b740 053e f471 afbe 7020 223d
00000010: 47ea 213e 89c3 8c3e e992 a3bb a466 77bc
00000020: d0a0 c83d 6b4c 06be 0bd7 ea3c 2b2a 45bd
00000030: f0b6 003e a819 9f3d 767c b53c 731f 51bd
00000040: 7441 323d f4df db3d 25ce 9cbc 4351 51be
00000050: 8191 aa3d 93f6 b33d e932 a4bd 16c2 ae3e
00000060: 2555 aebd 1e03 cfbd 7002 c63d e236 053e
00000070: 86d2 11be d8f3 81bd 6498 bdbc beeb 523e
00000080: 2825 f23e cb91 f7bd 05e9 813d 40b5 dcbd
00000090: 297d 1b3d 34c5 f93d f5d2 47bc 0ac5 9c3d
000000a0: fbbd 3a3d 9d23 a63d 8647 93bd 5b30 2ebe
000000b0: 7fcd 04be 190c d33d 7b3f b5be 68ee b63d
000000c0: b7cb 713e 818b 1fbe 9cf4 d2bd 0408 8a3e
000000d0: 6da6 90bd 8dfe 483e 0fd7 4bbc c4e0 1c3b
000000e0: a1f1 843d 35b6 a1bd e9d7 123e 9f9c 6c3a
000000f0: 4113 8a3d d28a bdbc cb4e b5bd 6fda a2bd
00000100: 5c6c 2bbe 3d26 dbbd 17b8 07be 79b9 ef3d
00000110: 7d66 19be 2835 0ebe e6d5 e83d 3fec 003d
00000120: 406a 92bc 1f7e bc3b eaa8 eabb bc63 1fbe
00000130: b39b 0dbd e004 e73b 1490 053d 29c3 efbd
00000140: a4c7 61bd aad3 7fbc 1076 bebc c564 fbbc
00000150: 51dd d73a 5c4a a73d 2e1d 23bc 4db6 9bbd
00000160: 6660 803d f412 b53c 546b f8bd 39f6 50bd
00000170: afb7 a93c 4267 1a3c 5de9 35bc 6626 f0bd
00000180: c2b8 8ebd 76df b0bd 8f4a 493d 68a8 d3bd
00000190: dbfc e4bb b8db 5bbd 902c 0ebd 6f97 3d3d
000001a0: 5f02 93bd 43bb 77bd 1206 c3bd 338f 8a3d
000001b0: bfb8 97bc 346d 0d3d cb43 c5bb dedf 933d
000001c0: 472f 6cbd cb81 c63d 4472 17bd 01a3 33bd
000001d0: 27c0 8d3c 23e7 5a3d ae5a 553c e636 663d
000001e0: 01d3 78bd 6832 e23c e0c0 473d f8dd d33d
000001f0: 8d9c 3bbd 94c7 1ebe 759f b23d 8a76 913d
00000200: feb2 41bd 079a bcb8 147a b63d 3cb5 cb3d
00000210: b52e c3bd 14bb 0dbd c059 72bd 582a 27bd
00000220: 3246 99bd 308d 4cbc 800b 49bb 7931 7ebd
00000230: 4ac0 d2bd 4606 af3d eaa7 db3d 21a2 873d
00000240: 7069 84bd d0e3 a1bc c030 ffbd 62e8 d8bc
00000250: c051 aabd 246b 9c3d 24d0 38bd 06c9 9e3d
00000260: 8cef 32bd b4fd 993d e0cb 83bd 4467 b8bd
00000270: ecc3 e7bd 60ef 08bc 4b42 883c f6c8 8abd
00000280: 3890 d3bc a078 5c3d 4c52 8bbd da3a 09be
00000290: 2da9 dabd 63f4 cfbd 40aa 04bc c0b3 cfbb
000002a0: 74a7 1e3d ce7c eabd 100a e13c e6c6 fe3d
000002b0: 7973 debd ec9b cabd 4d9e 453d d468 adbd
000002c0: 30d3 7ebc 8c31 9dbd 243c 013d ffa8 ab3c
000002d0: 9cd7 c1bd 2c9c c5bd 0989 023d 283e a03c
000002e0: 1280 f5bd 58e7 863d b0aa 333c 1826 d2bd
000002f0: 88f6 14bd 5ef6 2f3d 6415 b0bd 5680 b13d
00000300: 0f34 323d 737a 04be 2aa6 2f3d 701b 8bbd
00000310: 8067 28bd f3e5 06be 6a71 fb3d 9c9f 213d
00000320: 3442 4ebd 4cfb 7cbd a4de fabd 70b6 273a
00000330: 48d2 563d 006e 3bba 2846 a03c 22e8 843d
00000340: 5a28 263d 2e25 e23d 3cff b1bd 6bc3 b6bb
00000350: 00d2 d2b9 c8b5 b5bc 2a36 ec3d 844a 19bd
00000360: 4035 7f3d d03b ecbd de65 d23d 90a7 483c
00000370: 7e16 c2bd ac3b 2cbd 16db c23d a040 92bc
00000380: 90ba 4e3c 0e5f c83d b05c b0bd 98ae 5e3c
00000390: 3a56 89bd 1230 d6bd e8f1 1b3d ac50 14bd
000003a0: 4892 ca3c 70cd 25bd 5cad ed3d a426 ffbd
000003b0: 697e d6bc b483 a03d c485 01bd ac21 7b3d
000003c0: d0ad dfbd 8491 91bd c620 98bd a828 edbd
000003d0: 9cd2 abbb 0fd1 f4bc 1223 08be d0af d2bd
000003e0: fe58 d2bd cc6e 0dbd 5e15 c7bd 74a3 653d
000003f0: 2063 3e3d defa c7bd a8ae 6abd 2842 973c

fc3.bias f4 [32]
0.14507599 0.07430406 -0.12405564 -0.124898046 -0.08836755 0.21428545 0.096876286 -0.14091241
-0.014748917 0.057204667 -0.1505591 0.18493232 -0.027837334 0.20614451 0.28507775 0.053753104
0.2966458 -0.09408482 0.18153419 -0.08830073 0.0727929 -0.15558521 0.08352538 -0.01796984
0.008912244 -0.011165002 0.030193448 0.069222674 0.04538991 0.23418184 0.09105156 -0.03851958
00000000: cd8e 143e ba2c 983d e210 febd 8cca ffbd
00000010: 0cfa b4bd a56d 5b3e 1367 c63d 584b 10be
00000020: 71a5 71bc 714f 6a3d 2a2c 1abe e65e 3d3e
00000030: 1f0b e4bc 8c17 533e b6f5 913e 372c 5c3d
00000040: f5e1 973e 8baf c0bd 19e4 393e 03d7 b4bd
00000050: 7214 953d bb51 1fbe 5b0f ab3d 7c35 93bc
00000060: a904 123c 6aed 36bc 4058 f73c 9ec4 8d3d
00000070: c5ea 393d 5dcd 6f3e 3e79 ba3d b5c6 1dbd

fc4.weight f4 [24, 32]
0.12855008 0.10745766 -0.13542257 0.11243096 0.17386164 -0.060505018 0.07373191 -0.14351158
0.074650556 -0.049155533 -0.06908836 0.036256935 -0.04374299 0.05066226 0.12549564 -0.11290898
0.14734882 -0.12890813 0.05610484 -0.12145139 0.06442669 0.07291859 0.07919141 -0.11029127
-0.19877054 -0.01493868 -0.062815264 0.08101466 0.21994038 -0.075663246 0.10336602 -0.024887554
0.28811127 -0.07337305 0.117781475 0.008538597 0.05713694 0.18680587 0.022813123 -0.061450966
-0.25355557 0.53891623 -0.15780437 0.06856992 0.05780747 -0.093256876 -0.12934479 -0.14331743
0.12934816 0.07015633 -0.14722356 -0.07658719 -0.09939874 0.06253227 -0.06133954 -0.0010256211
0.008768333 -0.13721648 0.02433619 -0.21294104 -0.28218183 0.027712872 0.08863059 -0.038639236
0.016688727 -0.018780926 -0.1300744 -0.057618935 0.10697302 0.05082912 -0.19915247 0.17181826
-0.26391637 0.43847457 -0.0106078 0.11612305 -0.16067001 -0.15795106 0.24246773 -0.12227064
0.2298332 0.17246273 0.11989373 0.11884589 -0.14286862 0.09600088 0.12671848 -0.06441586
-0.008361288 0.15417467 -0.13679467 -0.0069636493 0.11101554 -0.022912208 0.11405481 0.06471298
0.16874106 0.1489988 0.07864815 0.07048423 -0.117934264 0.12020901 0.09918011 0.004669367
0.14658974 0.086630926 0.029269267 0.25294867 0.09422928 -0.13837884 0.24422157 -0.0016877365
-0.18886784 -0.03413222 -0.016641144 0.13835467 0.008852915 -0.089152135 0.08292782 -0.21352994
0.0739964 0.21728034 0.57934123 -0.018504644 -0.010234268 0.07810817 -0.13429609 -0.12455263
-0.09529841 0.10120947 -0.04954716 -0.00036539845 0.16452819 0.1573052 0.08708614 -0.0010474545
0.25554946 0.14739576 0.018393073 -0.1481282 -0.24100566 -0.03927157 0.024565406 0.024968894
0.10463924 -0.16430552 0.1276313 -0.124754585 -0.04535023 -0.101328775 -0.19435467 0.10366377
0.24766277 -0.07386038 0.11758307 0.069368415 -0.08822676 -0.06086867 -0.19553678 -0.0125657
0.15391299 0.039429422 -0.07006177 -0.0044129468 -0.09613771 -0.04560175 0.013993178 -0.04530287
0.32152957 0.21332115 0.10433975 -0.0716642 -0.026589299 0.05501844 0.21556313 0.044250157
-0.014389801 -0.016471427 0.16863468 0.046896867 -0.1254703 0.0030865984 -0.111073546 -0.0039358633
-0.106443085 0.06870116 0.00022419923 0.15172969 -0.22480391 0.26708764 -0.09843797 -0.04124051
-0.12582336 -0.008832668 -0.061458368 -0.057714544 0.09861119 0.16268153 -0.021040617 -0.06696419
0.052754108 -0.3813368 -0.0233221 -0.31888273 0.18966626 0.23538049 -0.033727586 0.026164977
0.21984817 -0.10792474 -0.13106802 -0.09207016 -0.005826119 -0.020566272 0.039160166 0.056951948
-0.060709182 0.1835764 0.59529513 -0.16099165 -0.07846687 0.121308275 0.00656939 -0.1489234
-0.051424176 -0.1460644 0.080042645 -0.029352212 -0.024864508 -0.2717288 0.011815534 -0.098118976
-0.026312774 -0.2151931 0.11237088 0.18153693 0.014419872 -0.16084492 0.047491718 -0.10180697
0.0004868578 0.09095757 0.12202576 -0.033308785 -0.0776451 -0.15717354 -0.12971398 0.2632835
0.27201864 0.008607793 -0.11000881 -0.22043219 0.08369066 0.42319837 0.13279651 -0.042029973
00000000: a2a2 033e c312 dc3d 37ac 0abe 3442 e63d
00000010: c908 323e 1cd4 77bd c100 973d b3f4 12be
00000020: 64e2 983d 5057 49bd 337e 8dbd 2782 143d
00000030: d92b 33bd 3b83 4f3d ee81 003e d33c e7bd
00000040: 9ce2 163e 7e00 04be 30ce 653d 82bb f8bd
00000050: 24f2 833d 5756 953d 1b2f a23d 64e0 e1bd
00000060: 818a 4bbe 5ec1 74bc 4aa5 80bd 04eb a53d
00000070: 0d38 613e 55f5 9abd 90b1 d33d fce0 cbbc
00000080: 5283 933e 9c44 96bd 6a37 f13d 79e5 0b3c
00000090: 6d08 6a3d 0a4a 3f3e 96e2 ba3c 02b4 7bbd
000000a0: 09d2 81be 6af6 093f 7897 21be 636e 8c3d
000000b0: 87c7 6c3d 76fd bebd f672 04be cec1 12be
000000c0: d873 043e 1fae 8f3d c6c1 16be bfd9 9cbd
000000d0: 9191 cbbd eb10 803d 2b3f 7bbd 226e 86ba
000000e0: 0ea9 0f3c 7a82 0cbe b15c c73c 370d 5abe
000000f0: 237a 90be 1b06 e33c f483 b53d 2d44 1ebd
00000100: ccb6 883c 75da 99bc 3932 05be d501 6cbd
00000110: ac14 db3d 3232 503d a0ee 4bbe 20f1 2f3e
00000120: 0c20 87be bd7f e03e 57cc 2dbc ecd1 ed3d
00000130: ae86 24be ecbd 21be 7649 783e 0869 fabd
00000140: 6559 6b3e 129a 303e d88a f53d 7965 f33d
00000150: 274c 12be 1c9c c43d 7dc2 013e 76ec 83bd
00000160: c9fd 08bc f7df 1d3e e713 0cbe 532f e4bb
00000170: 1e5c e33d 62b2 bbbc 9195 e93d 3d88 843d
00000180: 75ca 2c3e 2493 183e 4812 a13d 095a 903d
00000190: 8587 f1bd 2430 f63d f11e cb3d 7d01 993b
000001a0: 9f1b 163e 8e6b b13d 1ac6 ef3c 7d82 813e
000001b0: 48fb c03d 2fb3 0dbe 3815 7a3e 0a37 ddba
000001c0: 9266 41be 3ace 0bbd 0253 88bc d9ac 0d3e
000001d0: d10b 113c 6595 b6bd 10d6 a93d 98a7 5abe
000001e0: 6d8b 973d bd7e 5e3e b54f 143f 0d97 97bc
000001f0: a2ad 27bc 2df7 9f3d ea84 09be 7315 ffbd
00000200: d02b c3bd e946 cf3d f6f1 4abd f392 bfb9
00000210: 147a 283e 9d14 213e 385a b23d be4a 89ba
00000220: 61d7 823e eaee 163e 12ad 963c ebae 17be
00000230: 30ca 76be 3adb 20bd 643d c93c 918b cc3c
00000240: 194d d63d b53f 28be c8b1 023e 557f ffbd
00000250: 2ac1 39bd 7685 cfbd e904 47be ac4d d43d
00000260: 4f9b 7d3e 1c44 97bd 65cf f03d 0711 8e3d
00000270: 3bb0 b4bd 6d51 79bd cb3a 48be 5ee0 4dbc
00000280: 5e9b 1d3e bf80 213d 8c7c 8fbd 7b9a 90bb
00000290: d9e3 c4bd e7c8 3abd a443 653c 818f 39bd
000002a0: 869f a43e dc70 5a3e 14b0 d53d aec4 92bd
000002b0: cdd1 d9bc 045b 613d 95bc 5c3e a73f 353d
000002c0: 33c3 6bbc 16ef 86bc 92ae 2c3e ee16 403d
000002d0: 497b 00be 8748 4a3b 877a e3bd 6af8 80bb
000002e0: d5fe d9bd 32b3 8c3d 0617 6b39 075f 1b3e
000002f0: ff32 66be b6bf 883e d999 c9bd cfeb 28bd
00000300: d7d7 00be e5b6 10bc c5bb 7bbd 1666 6cbd
00000310: aaf4 c93d fd95 263e 5f5d acbc 8524 89bd
00000320: b114 583d 943e c3be fd0d bfbc 9944 a3be
00000330: df37 423e 9507 713e f025 0abd ef57 d63c
00000340: e11f 613e a507 ddbd b236 06be 488f bcbd
00000350: 07e9 bebb 997a a8bc 6966 203d 7246 693d
00000360: 31aa 78bd 74fb 3b3e 4365 183f ffda 24be
00000370: 3db3 a0bd 7970 f83d 0a44 d73b 607f 18be
00000380: 28a2 52bd e891 15be 66ed a33d 0d74 f0bc
00000390: a7b0 cbbc 0a20 8bbe f195 413c 9af2 c8bd
000003a0: e38d d7bc 945b 5cbe b422 e63d d1e4 393e
000003b0: 5441 6c3c 88b4 24be ad86 423d 2c80 d0bd
000003c0: f340 ff39 f647 ba3d a4e8 f93d cb6e 08bd
000003d0: 6504 9fbd 1af2 20be bed3 04be 18cd 863e
000003e0: 0746 8b3e b307 0d3c 4d4c e1bd fab8 61be
000003f0: 0266 ab3d 75ad d83e cffb 073e 9f27 2cbd

fc4.bias f4 [24]
0.3333998 0.45795077 0.3167637 0.12832034 0.17189568 0.19182588 0.32160625 0.34913018
0.0730288 -0.023955734 0.07819156 0.18035547 -0.017807325 0.25348428 0.3229556 0.0044700564
0.13610819 0.4115406 0.4077661 0.051471673 0.27276707 0.12661593 0.30640626 0.30223557
00000000: 61b3 aa3e 8678 ea3e da2e a23e 6866 033e
00000010: 6c05 303e 016e 443e 93a9 a43e 31c1 b23e
00000020: 2090 953d d13e c4bc e622 a03d 1baf 383e
00000030: abe0 91bc b1c8 813e 705a a53e 8d79 923b
00000040: f25f 0b3e 73b5 d23e b8c6 d03e f6d3 523d
00000050: 20a8 8b3e 9ba7 013e 48e1 9c3e 9fbe 9a3e

exp_avg f4 [128, 240]
-1.5485952e-05 -9.558136e-06 -1.3273413e-05 -4.2037835e-05 -6.589662e-06 -1.3527577e-05 8.3682535e-06 9.552943e-06
-3.6022742e-05 -3.684294e-05 -2.3302617e-05 -1.5980972e-05 2.9804178e-06 2.7371352e-06 -9.357707e-06 -1.5366015e-05
-2.6284946e-05 -1.3713516e-05 -5.3511136e-05 1.3513176e-05 -1.8880011e-05 -1.583224e-05 1.8416213e-06 3.929017e-09
-1.846956e-05 -1.5972288e-05 -1.25223705e-05 -4.048978e-05 -1.6092417e-06 -1.457584e-05 4.6552523e-06 8.38555e-06
-4.156169e-05 -3.480338e-05 -2.1313614e-05 -1.4068653e-05 4.228241e-07 1.8654799e-05 -3.6144002e-06 -2.5433805e-05
-2.437773e-05 -1.1890851e-05 -5.1745665e-05 1.294868e-05 -2.2240583e-05 -2.059418e-05 3.697558e-06 -1.140992e-06
-1.8832554e-05 -1.0132833e-05 -1.6725604e-05 -4.1438572e-05 -6.3801563e-06 -1.8731158e-05 8.130464e-06 6.150678e-06
-3.6763086e-05 -3.3860368e-05 -2.3750843e-05 -7.711245e-06 -4.9460396e-06 1.8188144e-05 -3.2343196e-06 -2.2043361e-05
-2.020929e-05 -1.3726742e-05 -5.2553998e-05 1.6036389e-05 -1.6659233e-05 -2.0416739e-05 -8.636089e-07 -9.054402e-07
-1.8218721e-05 -1.18487205e-05 -1.8963314e-05 -4.0927887e-05 -4.616635e-06 -1.6217416e-05 2.4586734e-06 4.20214e-06
-3.657736e-05 -3.03972e-05 -1.949212e-05 -6.3423613e-06 -1.4551752e-06 1.571358e-05 -3.709546e-06 -2.3325592e-05
-2.1389833e-05 -1.3933362e-05 -5.174547e-05 1.4747173e-05 -1.631866e-05 -2.315885e-05 -3.206953e-06 -1.2754099e-06
-1.7145983e-05 -1.1060592e-05 -2.5186655e-05 -4.091626e-05 -3.971163e-06 -1.3177407e-05 1.921644e-06 8.789508e-06
-3.4545505e-05 -2.7184893e-05 -1.6210608e-05 -9.233314e-06 -1.6676131e-07 1.0119734e-05 -6.2116123e-06 -2.517449e-05
-2.5527443e-05 -1.3588777e-05 -5.250013e-05 1.49546795e-05 -1.7049217e-05 -2.2330747e-05 1.2375349e-06 -1.2134515e-06
-1.9851035e-05 -8.710822e-06 -2.7274575e-05 -4.3963162e-05 -3.926485e-06 -1.3425484e-05 2.545914e-06 1.01056385e-05
-3.5354347e-05 -2.928674e-05 -1.3880075e-05 -1.2868428e-05 -2.330702e-06 6.84713e-06 -4.2731062e-06 -2.5017418e-05
-2.3445682e-05 -1.32681325e-05 -5.3131283e-05 1.7728707e-05 -2.1610475e-05 -1.8162082e-05 2.7085262e-06 -3.3406977e-06
-1.7910668e-05 8.060488e-08 -2.547882e-05 -4.545461e-05 -4.442447e-06 -1.8963412e-05 5.3399544e-06 1.2155423e-05
-3.6475532e-05 -2.8683684e-05 -1.619237e-05 -1.3152245e-05 -4.9984974e-06 8.940085e-06 -6.116168e-06 -2.547237e-05
-2.1074644e-05 -1.6853734e-05 -5.1089577e-05 1.8812021e-05 -1.5970028e-05 -1.9909023e-05 4.9442424e-06 -5.9712274e-06
-1.618349e-05 -5.0572617e-06 -2.697787e-05 -4.27767e-05 -4.9924e-06 -2.1442209e-05 1.0553451e-05 7.585305e-06
-4.0347724e-05 -2.6769832e-05 -1.5446247e-05 -1.0400954e-05 -7.482822e-06 7.4661793e-06 -6.154468e-06 -2.2637158e-05
-1.8656317e-05 -1.8460694e-05 -4.906801e-05 2.035786e-05 -1.7229944e-05 -1.493973e-05 7.858809e-06 -1.2194201e-05
-1.7847378e-05 -5.329968e-06 -2.04309e-05 -4.2971427e-05 -1.0443891e-05 -2.4526527e-05 3.1067575e-06 3.4310497e-06
-3.9928364e-05 -2.349099e-05 -6.497272e-06 -1.3237484e-05 -3.5171524e-06 2.603655e-06 -7.127407e-06 -2.1282387e-05
-2.109238e-05 -2.2166187e-05 -5.101101e-05 2.0255728e-05 -2.0167205e-05 -1.4844307e-05 6.251761e-06 -8.669759e-06
-1.4419518e-05 -9.260595e-06 -1.6027992e-05 -4.054794e-05 -7.565588e-06 -2.4217974e-05 1.8955598e-06 -3.8028156e-06
-4.5356825e-05 -2.9217128e-05 -5.5350156e-06 -1.0715803e-05 -1.8899373e-06 -8.695306e-07 -1.6746411e-05 -1.933549e-05
-2.2679835e-05 -1.870733e-05 -4.9643175e-05 2.21683e-05 -2.6750717e-05 -2.260146e-05 1.9945932e-05 -8.8768875e-06
-4.5014764e-05 -1.4413428e-05 -2.459219e-05 -2.5180037e-05 -5.3391355e-05 -3.2741715e-05 -2.7988395e-05 -1.3573581e-05
-3.9123795e-05 -4.2217307e-05 -2.7190963e-06 -3.1839587e-05 -4.04464e-05 -2.8450484e-05 -2.5031309e-06 -3.155707e-05
00000000: d4e7 81b7 e25b 20b7 e0b0 5eb7 c851 30b8
00000010: c41c ddb6 80f4 62b7 6065 0c37 9445 2037
00000020: 2017 17b8 ce87 1ab8 fd79 c3b7 e00e 86b7
00000030: 3003 4836 a0af 3736 0cff 1cb7 44e6 80b7
00000040: 7e7e dcb7 1a13 66b7 2571 60b8 a6b6 6237
00000050: 8460 9eb7 7acf 84b7 a02d f735 0000 8731
00000060: 14ef 9ab7 3afc 85b7 2c17 52b7 92d3 29b8
00000070: 20fd d7b5 c28a 74b7 5034 9c36 aaaf 0c37
00000080: 8652 2eb8 d8f9 11b8 a3ca b2b7 6808 6cb7
00000090: 8000 e334 e07c 9c37 ec8e 72b6 ae5a d5b7
000000a0: c77e ccb7 d17e 47b7 7c09 59b8 283e 5937
000000b0: 4a91 bab7 aac1 acb7 9023 7836 3024 99b5
000000c0: 9afa 9db7 3000 2ab7 f64d 8cb7 54ce 2db8
000000d0: 2015 d6b6 db20 9db7 1468 0837 ec61 ce36
000000e0: 1032 1ab8 4b05 0eb8 8c3c c7b7 8c5f 01b7
000000f0: 28f6 a5b6 be92 9837 300d 59b6 c2e9 b8b7
00000100: 1f87 a9b7 e84b 66b7 6d6d 5cb8 e285 8637
00000110: 6ebf 8bb7 9d44 abb7 c0d2 67b5 600d 73b5
00000120: 68d4 98b7 dec9 46b7 6813 9fb7 fca9 2bb8
00000130: 98e8 9ab6 a30a 88b7 b0ff 2436 1c00 8d36
00000140: a46a 19b8 7dfd feb7 0283 a3b7 78d0 d4b6
00000150: 704f c3b5 a8d0 8337 84f1 78b6 54ab c3b7
00000160: 516e b3b7 56c3 69b7 4609 59b8 a06a 7737
00000170: 0ee4 88b7 4045 c2b7 0837 57b6 c02e abb5
00000180: b8d4 8fb7 e290 39b7 ee47 d3b7 809d 2bb8
00000190: 0840 85b6 8814 5db7 98f5 0036 a676 1337
000001a0: f4e4 10b8 1d0b e4b7 04fc 87b7 c8e8 1ab7
000001b0: 000f 33b4 edc7 2937 586d d0b6 ce2d d3b7
000001c0: c423 d6b7 5afb 63b7 9633 5cb8 dce5 7a37
000001d0: ea04 8fb7 ea52 bbb7 6019 a635 e0dd a2b5
000001e0: c685 a6b7 b224 12b7 b4cb e4b7 1665 38b8
000001f0: 40c0 83b6 043e 61b7 78da 2a36 638b 2937
00000200: 7149 14b8 ccac f5b7 78de 68b7 7ae5 57b7
00000210: 2869 1cb6 66c0 e536 b461 8fb6 7fdc d1b7
00000220: 38ad c4b7 329a 5eb7 48d9 5eb8 1cb8 9437
00000230: 2448 b5b7 c65a 98b7 20c4 3536 c030 60b6
00000240: de3e 96b7 0019 ad33 59bb d5b7 84a6 3eb8
00000250: 5410 95b6 9e13 9fb7 dc2d b336 25ef 4b37
00000260: 4efd 18b8 be9d f0b7 dad4 87b7 76a8 5cb7
00000270: c4b8 a7b6 5ffd 1537 7c39 cdb6 80ad d5b7
00000280: 74c9 b0b7 1e61 8db7 0449 56b8 82ce 9d37
00000290: 60f7 85b7 4d02 a7b7 b8e6 a536 745c c8b6
000002a0: c8c1 87b7 8cb1 a9b6 894e e2b7 226b 33b8
000002b0: 6484 a7b6 cbde b3b7 ba0e 3137 4685 fe36
000002c0: 0a3b 29b8 c78f e0b7 9092 81b7 c27f 2eb7
000002d0: f414 fbb6 fe85 fa36 7a82 ceb6 ede4 bdb7
000002e0: 2380 9cb7 0adc 9ab7 60ce 4db8 2cc6 aa37
000002f0: 0689 90b7 a7a5 7ab7 54d9 0337 b295 4cb7
00000300: f4b6 95b7 14d8 b2b6 0663 abb7 383c 34b8
00000310: 2c38 2fb7 51be cdb7 b07d 5036 fc40 6636
00000320: c178 27b8 840e c5b7 2403 dab6 9016 5eb7
00000330: 3808 6cb6 74ba 2e36 f627 efb6 9487 b2b7
00000340: 8bef b0b7 86f1 b9b7 a8f4 55b8 d8ea a937
00000350: be2c a9b7 d00b 79b7 38c6 d136 5574 11b7
00000360: 5ceb 71b7 f45d 1bb7 da73 86b7 0512 2ab8
00000370: e8db fdb6 b427 cbb7 f06a fe35 e033 7fb6
00000380: 853d 3eb8 4e17 f5b7 6cb9 b9b6 06c8 33b7
00000390: c0a9 fdb5 b069 69b5 a57a 8cb7 a632 a2b7
000003a0: 9340 beb7 afed 9cb7 f437 50b8 10f6 b937
000003b0: ba66 e0b7 4498 bdb7 9051 a737 f1ed 14b7
000003c0: 3cce 3cb8 34d1 71b7 534b ceb7 b839 d3b7
000003d0: 88f0 5fb8 2654 09b8 9fc8 eab7 16ba 63b7
000003e0: db18 24b8 7d12 31b8 b879 36b6 7f8b 05b8
000003f0: fea4 29b8 f3a8 eeb7 76fb 27b6 255c 04b8

exp_avg_sq f4 [128, 240]
2.161338e-07 5.6646012e-08 1.6993958e-07 7.962324e-08 9.9009355e-08 1.0773076e-07 3.7407737e-08 5.7455686e-08
7.439525e-08 1.01640474e-07 5.892787e-08 7.7523715e-08 1.1814231e-07 5.845349e-08 5.724469e-08 6.991413e-08
1.4888735e-07 1.4910297e-07 1.9892772e-07 7.749085e-08 1.5992781e-07 6.768931e-08 7.152211e-08 4.2170544e-08
2.1552104e-07 5.774841e-08 1.7091445e-07 8.147551e-08 1.0090925e-07 1.07345706e-07 4.050542e-08 5.8574468e-08
7.859132e-08 1.0063379e-07 5.9203e-08 7.620871e-08 1.213161e-07 6.239994e-08 5.8886545e-08 7.0925935e-08
1.4493529e-07 1.4916884e-07 2.0037183e-07 7.988506e-08 1.6362922e-07 6.85385e-08 7.022096e-08 4.1649923e-08
2.1693023e-07 5.7081355e-08 1.700984e-07 7.781677e-08 1.008342e-07 1.060634e-07 4.1579028e-08 5.6473155e-08
8.013231e-08 1.0090878e-07 5.9336593e-08 7.690607e-08 1.2080702e-07 6.059235e-08 5.889958e-08 7.3074965e-08
1.4069745e-07 1.4946377e-07 2.0065833e-07 8.081809e-08 1.5919827e-07 6.9893936e-08 7.3601235e-08 4.375564e-08
2.1630218e-07 5.7941143e-08 1.7165056e-07 7.9307455e-08 1.02501396e-07 1.0587057e-07 4.3022414e-08 5.485312e-08
7.952502e-08 9.9928734e-08 6.234352e-08 7.617047e-08 1.215675e-07 6.038049e-08 5.9091942e-08 7.205226e-08
1.3897832e-07 1.4990529e-07 2.0193953e-07 8.048802e-08 1.5866794e-07 6.949757e-08 7.369813e-08 4.325778e-08
2.1547905e-07 5.721104e-08 1.7438828e-07 7.841531e-08 1.0407069e-07 1.0632435e-07 4.2927976e-08 5.418874e-08
7.948172e-08 9.9165185e-08 6.543756e-08 7.595061e-08 1.2131275e-07 5.920718e-08 5.930164e-08 7.203528e-08
1.3838445e-07 1.4876065e-07 2.020923e-07 8.003882e-08 1.60446e-07 6.961948e-08 7.344704e-08 4.4125564e-08
2.1281829e-07 5.739557e-08 1.7366521e-07 7.9066346e-08 1.0380081e-07 1.07458185e-07 4.240723e-08 5.370903e-08
7.929818e-08 9.6824266e-08 6.6251054e-08 7.8660385e-08 1.220074e-07 5.8593983e-08 5.890042e-08 7.3158894e-08
1.4573969e-07 1.4811675e-07 2.0186594e-07 7.9087684e-08 1.5914613e-07 7.168821e-08 7.3106214e-08 4.4215735e-08
2.11464e-07 5.674882e-08 1.7404771e-07 7.7064534e-08 1.0435033e-07 1.08896465e-07 4.2194788e-08 5.5347375e-08
8.2810544e-08 9.901538e-08 6.6888695e-08 8.17598e-08 1.2217384e-07 5.980492e-08 5.974543e-08 7.369635e-08
1.4511983e-07 1.4803193e-07 2.0082867e-07 8.023571e-08 1.5908957e-07 7.1926515e-08 6.981858e-08 4.507224e-08
2.1218025e-07 5.8026433e-08 1.7257739e-07 7.593831e-08 1.0351172e-07 1.08229656e-07 4.4871527e-08 5.5152068e-08
8.379659e-08 1.0022975e-07 6.759367e-08 8.075043e-08 1.2202415e-07 6.02585e-08 5.8929874e-08 7.407074e-08
1.4419403e-07 1.4767124e-07 1.9849323e-07 8.2518035e-08 1.6245906e-07 7.16089e-08 7.140989e-08 4.5345516e-08
2.1397729e-07 5.920293e-08 1.7418512e-07 7.706793e-08 1.043014e-07 1.0824701e-07 4.645186e-08 5.494117e-08
8.325386e-08 9.9514445e-08 6.636529e-08 8.128229e-08 1.2162022e-07 6.2948395e-08 6.1236626e-08 7.5490895e-08
1.4709002e-07 1.4730293e-07 1.9871749e-07 8.188396e-08 1.5941963e-07 7.012412e-08 7.257407e-08 4.553481e-08
2.1043036e-07 5.6975168e-08 1.7199932e-07 7.757658e-08 1.05559565e-07 1.0761616e-07 4.570131e-08 5.6797475e-08
8.601386e-08 1.0744865e-07 6.7310246e-08 8.083233e-08 1.2132784e-07 6.687076e-08 6.255691e-08 7.320882e-08
1.4872283e-07 1.4772124e-07 1.9835323e-07 8.3252814e-08 1.6700253e-07 6.443138e-08 7.066548e-08 4.7269424e-08
1.2948134e-07 5.376406e-08 8.836499e-08 4.6107637e-08 7.851062e-08 8.465536e-08 2.6935401e-08 1.2795823e-08
7.892859e-08 6.821031e-08 3.8993843e-08 5.9346817e-08 9.921227e-08 4.93207e-08 3.7190354e-08 4.063826e-08
00000000: 6812 6834 f34a 7333 a378 3634 57fd aa33
00000010: f89e d433 9d59 e733 3eaa 2033 32c5 7633
00000020: 39c3 9f33 7145 da33 e117 7d33 1d7b a633
00000030: 6cb5 fd33 4b0e 7b33 34dd 7533 b323 9633
00000040: d8dd 1f34 1d19 2034 d698 5534 0c69 a633
00000050: 9fb8 2b34 975c 9133 b297 9933 011f 3533
00000060: f969 6734 0c07 7833 9b84 3734 a3f7 ae33
00000070: 72b3 d833 ed85 e633 2ef8 2d33 4f93 7b33
00000080: 09c6 a833 031c d833 6346 7e33 2ea8 a333
00000090: 1e43 0234 bb00 8633 71ea 7c33 f24f 9833
000000a0: 829f 1b34 382b 2034 ca25 5734 478d ab33
000000b0: 0fb2 2f34 702f 9333 62cc 9633 93e2 3233
000000c0: 54ed 6834 9d29 7533 4ba4 3634 391c a733
000000d0: 308a d833 f9c4 e333 a094 3233 e48c 7233
000000e0: 3415 ac33 30b3 d833 46d9 7e33 8f27 a533
000000f0: 2eb7 0134 ff1e 8233 c6f8 7c33 63ed 9c33
00000100: 9f12 1734 4a7c 2034 8b74 5734 378e ad33
00000110: 16f0 2a34 9918 9633 b50e 9e33 d6ed 3b33
00000120: b140 6834 f6da 7833 f24e 3834 bc4f aa33
00000130: bd1e dc33 f65a e333 a5c7 3833 a597 6b33
00000140: 58c7 aa33 6798 d633 b6e1 8533 2993 a333
00000150: 3888 0234 87aa 8133 47cc 7d33 26bb 9a33
00000160: 123a 1534 a7f5 2034 b7d4 5834 c2d8 ac33
00000170: 505e 2a34 b13e 9533 fa43 9e33 6fca 3933
00000180: 6e5e 6734 34b8 7533 7c3f 3b34 4665 a833
00000190: 787d df33 6e54 e433 cf5f 3833 26bd 6833
000001a0: 8aaf aa33 a3f4 d433 ae86 8c33 4a1a a333
000001b0: 3242 0234 fc4a 7e33 d8b2 7e33 d0b1 9a33
000001c0: d496 1434 04bb 1f34 b5fe 5834 cee1 ab33
000001d0: 1047 2c34 b781 9533 f0b9 9d33 9284 3d33
000001e0: 0c83 6434 1983 7633 bb78 3a34 2fcb a933
000001f0: 19e9 de33 c3c3 e633 3e23 3633 b4ad 6633
00000200: a34a aa33 b4ed cf33 e745 8e33 01ec a833
00000210: 2401 0334 c4a8 7b33 b2f9 7c33 871b 9d33
00000220: 9f7c 1c34 060a 1f34 7dc0 5834 ead6 a933
00000230: c1e1 2a34 03f3 9933 91fe 9c33 b7e7 3d33
00000240: c80e 6334 fdbb 7333 dfe1 3a34 ad7e a533
00000250: 3317 e033 77da e933 a939 3533 15b7 6d33
00000260: 94d5 b133 48a2 d433 73a4 8f33 ed93 af33
00000270: e42e 0334 1a6e 8033 664d 8033 ff42 9e33
00000280: 3cd2 1b34 b5f2 1e34 5da3 5734 0c4e ac33
00000290: 35d2 2a34 0576 9a33 2cef 9533 7495 4133
000002a0: aad3 6334 bd38 7933 b64d 3934 8713 a333
000002b0: 2b4a de33 e26b e833 c4b8 4033 57e0 6c33
000002c0: aaf3 b333 e33d d733 0328 9133 0569 ad33
000002d0: be05 0334 7667 8133 151a 7d33 d210 9f33
000002e0: c1d3 1a34 908f 1e34 6721 5534 c534 b133
000002f0: 6870 2e34 69c7 9933 015a 9933 ecc1 4233
00000300: a1c1 6534 4f46 7e33 a407 3b34 8b80 a533
00000310: 4dfc df33 6c75 e833 5c82 4733 75f8 6b33
00000320: 4bc9 b233 a5b4 d533 b484 8e33 698d ae33
00000330: b696 0234 3f2e 8733 3181 8333 8f1d a233
00000340: ccef 1d34 522a 1e34 0c5f 5534 2fd8 af33
00000350: ef2c 2b34 2597 9633 04da 9b33 0e92 4333
00000360: a8f2 6134 dcb4 7433 d0ae 3834 2d98 a633
00000370: fcaf e233 9c1a e733 1f49 4433 7cf1 7333
00000380: 9fb6 b833 85be e633 338c 9033 0b96 ad33
00000390: 5846 0234 979a 8f33 0657 8633 f936 9d33
000003a0: 9fb0 1f34 4e9d 1e34 ecfa 5434 b8c8 b233
000003b0: 4e51 3334 875d 8a33 c2c0 9733 4805 4b33
000003c0: 8f07 0b34 36ea 6633 2bc3 bd33 e207 4633
000003d0: ab99 a833 c7cb b533 935f e732 a0d4 5b32
000003e0: 747f a933 047b 9233 2f7a 2733 84e4 7e33
000003f0: 860e d533 afd4 5333 3abb 1f33 3d8a 2e33

exp_avg f4 [128]
-2.6758276e-05 -5.5579843e-05 -9.838504e-06 6e-45 6e-45 0.00024901042 6e-45 6e-45
-0.0001087877 -0.00014980213 0.0001536408 -4.2308715e-05 6e-45 6e-45 6e-45 6e-45
6e-45 0.00015557086 6e-45 0.0 6e-45 6e-45 0.0 6e-45
6e-45 6e-45 8.264862e-05 6e-45 6e-45 6e-45 0.00029452398 0.0003601881
-0.00010550038 6e-45 -0.00032671436 -0.000118743454 6e-45 -4.2406165e-05 6e-45 6e-45
0.0 6e-45 0.000115772986 6e-45 0.0 0.00029483603 6.391704e-05 6e-45
-0.00015986545 6e-45 0.0 6e-45 -3.1469135e-06 -5.5715278e-05 -0.00018128988 6e-45
5.80051e-05 -1.9312301e-07 2.452659e-06 0.00026607548 0.00015523542 6e-45 0.0 6e-45
6e-45 6e-45 4.525525e-05 0.00021254229 -0.00018917685 6e-45 0.000222828 6e-45
-4.802584e-05 6e-45 8.832591e-05 -0.00013235764 6e-45 0.00029452043 6e-45 6e-45
5.0530463e-05 6e-45 0.00032956572 0.0 6e-45 0.0 -2.0115458e-05 6e-45
-0.00014566668 -4.9462884e-05 6e-45 0.0 -0.00020606826 -4.1695534e-05 0.00023797675 6e-45
4.3829757e-05 0.00033340201 -6.861369e-06 3.947416e-05 6e-45 6e-45 6e-45 6e-45
0.0 6e-45 0.00018421643 0.0 0.00025333752 0.000110743735 0.00039486802 6e-45
6e-45 0.00023631516 -5.8517704e-05 9.813904e-05 0.00014031344 2.7442635e-05 -1.50598935e-05 6e-45
6e-45 0.00030578912 -7.51022e-05 6e-45 6e-45 6e-45 -0.0002989057 6e-45
00000000: f676 e0b7 671e 69b8 0e10 25b7 0400 0000
00000010: 0400 0000 9d8d 8239 0400 0000 0400 0000
00000020: f424 e4b8 3414 1db9 a31a 2139 a374 31b8
00000030: 0400 0000 0400 0000 0400 0000 0400 0000
00000040: 0400 0000 bc20 2339 0400 0000 0000 0000
00000050: 0400 0000 0400 0000 0000 0000 0400 0000
00000060: 0400 0000 0400 0000 a453 ad38 0400 0000
00000070: 0400 0000 0400 0000 576a 9a39 a1d7 bc39
00000080: 1640 ddb8 0400 0000 dc4a abb9 e805 f9b8
00000090: 0400 0000 46dd 31b8 0400 0000 0400 0000
000000a0: 0000 0000 0400 0000 26cb f238 0400 0000
000000b0: 0000 0000 3994 9a39 330b 8638 0400 0000
000000c0: 8ea1 27b9 0400 0000 0000 0000 0400 0000
000000d0: 902f 53b6 d3af 69b8 a218 3eb9 0400 0000
000000e0: 804a 7338 405d 4fb4 5c98 2436 0c80 8b39
000000f0: b1c6 2239 0400 0000 0000 0000 0400 0000
00000100: 0400 0000 0400 0000 74d0 3d38 e3dd 5e39
00000110: c65d 46b9 0400 0000 f0a6 6939 0400 0000
00000120: 5a6f 49b8 0400 0000 9d3b b938 7cc9 0ab9
00000130: 0400 0000 dd69 9a39 0400 0000 0400 0000
00000140: acf0 5338 0400 0000 90c9 ac39 0000 0000
00000150: 0400 0000 0000 0000 9ebd a8b7 0400 0000
00000160: 1abe 18b9 5e76 4fb8 0400 0000 0000 0000
00000170: 0714 58b9 3de2 2eb8 6689 7939 0400 0000
00000180: d8d5 3738 76cc ae39 b63a e6b6 0e91 2538
00000190: 0400 0000 0400 0000 0400 0000 0400 0000
000001a0: 0000 0000 0400 0000 392a 4139 0000 0000
000001b0: 63d2 8439 173f e838 4a06 cf39 0400 0000
000001c0: 0400 0000 5ecb 7739 e870 75b8 ffcf cd38
000001d0: 1a21 1339 9c34 e637 c0a9 7cb7 0400 0000
000001e0: 0400 0000 5252 a039 3080 9db8 0400 0000
000001f0: 0400 0000 0400 0000 72b6 9cb9 0400 0000
