models/RaceModels/binary_pos_3copies0to10_threelayersdropout0.2lr0.0001/model.pt (torch, 578525 bytes, 24 tensors)

fc1.weight f4 [128, 240]
-0.06592029 -0.022757458 0.04191764 0.041929305 -0.069567785 0.021789363 0.056862812 -0.066721894
-0.040328674 -0.02873306 -0.04302716 0.022116717 0.0113420235 -0.29830408 -0.10097557 0.066728376
0.016723253 -0.04446799 0.033652987 -0.05792003 0.0713443 0.031687327 0.07520259 0.0807056
-0.0020067468 0.0046548634 0.022833666 0.08552758 -0.16013636 -0.03362785 0.014521949 -0.040120117
-0.025869021 0.04863621 -0.11786531 0.03232133 0.061636902 -0.27742827 -0.08352053 0.06979825
0.08147229 -0.05064103 0.05440116 -0.08760952 0.060739875 0.016999587 0.09330689 0.106054544
-0.022003202 0.06593581 0.033616927 0.036285866 -0.030331189 0.07922124 0.009585464 -0.099431485
-0.086513385 0.060666263 -0.047006454 0.11219552 0.040054735 -0.25574663 -0.063022286 0.07297285
0.04300678 -0.10476406 -0.05098302 -0.11249262 -0.0060579465 0.07860756 0.095628545 0.093227245
0.024115695 0.040787507 -0.022030052 0.14416258 -0.03428645 0.03606378 0.09832909 -0.11289967
-0.008702325 0.08734373 -0.090887085 0.050323077 -0.02516323 -0.23789509 -0.0557519 0.06851845
0.004053833 -0.016097456 -0.03715628 -0.13759032 0.047047738 0.025088646 -0.04253212 0.050144065
-0.027389113 0.086431965 0.030220738 0.09395508 -0.03558306 0.01866709 0.1316289 -0.06360482
-0.090612486 0.0413088 -0.09919686 0.03717022 0.030114256 -0.19977635 -0.05205321 0.045421034
-0.06702688 -0.013654163 0.035549406 -0.13129222 0.103696264 -0.024725221 0.07316978 0.109306544
-0.03902288 0.034718562 0.06287262 0.044898573 0.055037517 0.045031294 0.10102147 -0.09620527
0.0032870863 0.059950728 -0.034699902 0.13107511 0.022652335 -0.22513947 -0.026114818 0.073909186
-0.026561419 -0.092922695 -0.04844205 -0.067081764 0.0049109296 -0.06790598 0.059580136 0.03286415
0.012107515 0.10815202 -0.017332444 0.036687344 -0.020435361 -0.0027852026 0.0052193585 -0.12437994
-0.007933988 -0.0063419994 -0.034536164 0.16422689 0.010907997 -0.1383278 -0.00973371 0.08109398
0.049456395 -0.080174536 -0.026167847 0.0018364233 0.0258389 0.0015767209 0.06731433 0.07102619
-0.029679522 0.061825965 0.01845636 0.05226983 -0.026305145 0.007827411 0.01798699 -0.15654668
-0.054965235 0.014141744 0.00060445693 0.039792206 0.05687974 -0.08756596 -0.05925664 0.12193036
-0.025109284 -0.009529534 -0.030996097 -0.080615714 0.053347833 0.0013941327 0.05728007 0.045797914
-0.07606591 0.09855609 0.0029528753 0.04035623 -0.042230416 0.10313478 -0.07812991 -0.10047438
0.018849121 0.015806405 -0.0510515 0.08465023 -0.0047146757 -0.0006115547 -0.04887246 0.029745588
-0.022248158 -0.12559302 -0.051661383 0.003493733 -0.011970521 0.08225121 0.068096235 -0.030205851
0.026958749 0.045708124 0.04570858 0.10700209 -0.01727634 0.06203499 -0.08929463 -0.17992693
-0.008283705 0.112339504 -0.041010074 0.0902832 -0.030969793 -0.12822653 -0.009900949 -0.029488176
0.052941382 -0.05832299 0.006969468 -0.0038055202 -0.01765211 0.039691698 0.082233876 -0.05204283
-0.01835127 -0.023740936 -0.0058217705 0.0013953284 0.08422545 -0.095051 -0.0108967675 -0.06912612
0.0030685873 0.024226153 0.11427477 -0.17644578 -0.0658443 -0.09927525 0.0133145545 0.004454039
00000000: 3801 87bd d96d babc d5b1 2b3d 10be 2b3d
00000010: 8e79 8ebd 9b7f b23c fbe8 683d 7da5 88bd
00000020: ae2f 25bd 9861 ebbc 3f3d 30bd 1e2e b53c
00000030: e5d3 393c 50bb 98be 48cc cebd e3a8 883d
00000040: 34ff 883c 1124 36bd b7d7 093d 8e3d 6dbd
00000050: f61c 923d 92ca 013d d103 9a3d fa48 a53d
00000060: a083 03bb d387 983b ab0d bb3c 1529 af3d
00000070: c9fa 23be 5bbd 09bd 78ed 6d3c fe54 24bd
00000080: 45eb d3bc c336 473d 5e63 f1bd 5f63 043d
00000090: fa76 7c3d 140b 8ebe d00c abbd 63f2 8e3d
000000a0: f2da a63d f86c 4fbd c0d3 5e3d 9f6c b3bd
000000b0: 60ca 783d b842 8b3c af17 bf3d 2033 d93d
000000c0: 0f40 b4bc 5b09 873d e7b1 093d 7da0 143d
000000d0: 1d79 f8bc bf3e a23d 5a0c 1d3c bca2 cbbd
000000e0: ee2d b1bd 307d 783d d789 40bd c4c6 e53d
000000f0: 6f10 243d 39f1 82be d411 81bd ca72 953d
00000100: e127 303d 8a8e d6bd 92d3 50bd 8862 e6bd
00000110: bd81 c6bb 00fd a03d e6d8 c33d eded be3d
00000120: 478e c53c cd10 273d 5e78 b4bc 5b9f 133e
00000130: f36f 0cbd 9db7 133d c360 c93d f137 e7bd
00000140: 3294 0ebc 45e1 b23d 0223 babd 921f 4e3d
00000150: 1e23 cebc c59a 73be 1b5c 64bd 6753 8c3d
00000160: 04d6 843b d0de 83bc 2f31 18bd 7ae4 0cbe
00000170: 21b5 403d b486 cd3c 2936 2ebd dd63 4d3d
00000180: 225f e0bc 3e03 b13d 7b91 f73c 856b c03d
00000190: 8bbf 11bd baeb 983c bac9 063e 3e43 82bd
000001a0: 0a93 b9bd 6b33 293d b927 cbbd cd3f 183d
000001b0: 2cb2 f63c 2c92 4cbe bf35 55bd 680b 3a3d
000001c0: 6445 89bd b6b5 5fbc 419c 113d 7871 06be
000001d0: b55e d43d 8c8c cabc 0ada 953d 1cdc df3d
000001e0: 75d6 1fbd 0d35 0e3d 5cc3 803d 91e7 373d
000001f0: 056f 613d bc72 383d 58e4 ce3d 4507 c5bd
00000200: 286c 573b e58e 753d 7c21 0ebd 8e38 063e
00000210: 6491 b93c f68a 66be beee d5bc b35d 973d
00000220: 5597 d9bc 414e bebd 2c6b 46bd 2a62 89bd
00000230: ddeb a03b 4a12 8bbd 4d0a 743d 8f9c 063d
00000240: 995e 463c ce7e dd3d c5fc 8dbc 7845 163d
00000250: 0f68 a7bc f287 36bb 2707 ab3b e9ba febd
00000260: 8ffd 01bc 8cd0 cfbb cb75 0dbd 182b 283e
00000270: 75b7 323c cea5 0dbe 247a 1fbc 9a14 a63d
00000280: ca92 4a3d 8c32 a4bd f45d d6bc 24b4 f03a
00000290: 1aac d33c f9a9 ce3a 18dc 893d 2e76 913d
000002a0: 7822 f3bc 393d 7d3d cb31 973c e418 563d
000002b0: e37d d7bc 8b3e 003c 7459 933c c64d 20be
000002c0: 3a23 61bd c6b2 673c 6b74 1e3a 27fd 223d
000002d0: bbfa 683d c855 b3bd 17b7 72bd a0b6 f93d
000002e0: fcb1 cdbc c321 1cbc 87eb fdbc da19 a5bd
000002f0: 4283 5a3d 55bb b63a 829e 6a3d 9896 3b3d
00000300: 72c8 9bbd c6d7 c93d 0785 413b 934c 253d
00000310: cdf9 2cbd 5438 d33d 9302 a0bd 83c5 cdbd
00000320: 7969 9a3c 6f7c 813c 611b 51bd 1a5d ad3d
00000330: 917d 9abb be50 20ba 7d2e 48bd 05ad f33c
00000340: c541 b6bc 759b 00be e39a 53bd 1df7 643b
00000350: 0120 44bc 5373 a83d 0a76 8b3d 4372 f7bc
00000360: 98d8 dc3c 7138 3b3d ec38 3b3d e923 db3d
00000370: 1c87 8dbc 6718 7e3d 1ae0 b6bd c43e 38be
00000380: 61b8 07bc 4112 e63d 2efa 27bd 66e6 b83d
00000390: 5db4 fdbc d14d 03be 9737 22bc 3091 f1bc
000003a0: 10d9 583d 16e4 6ebd 2360 e43b 0966 79bb
000003b0: 289b 90bc c393 223d 3c6a a83d dd2a 55bd
000003c0: 6755 96bc 5a7c c2bc 8dc4 bebb 74e3 b63a
000003d0: 657e ac3d 19aa c2bd 5b88 32bc ff91 8dbd
000003e0: 5a1a 493b ed75 c63c e408 ea3d 34ae 34be
000003f0: 60d9 86bd d350 cbbd 4a25 5a3c 30f3 913b

fc1.bias f4 [128]
-0.043918468 -0.011575289 0.0053886175 -0.033210263 0.06478116 0.020324966 -0.04992583 -0.04889266
0.055293348 -0.024364682 -0.057507064 0.04994454 0.046693727 -0.0041607223 0.02292351 -0.04020396
0.05521575 0.04970624 0.009111794 -0.0038939982 -0.027756216 -0.057808276 0.051862948 -0.04179052
-0.00030113757 0.0464487 -0.06509768 -0.04419518 -0.029493298 0.009255351 0.025861843 0.024184233
0.037422523 0.04778407 -0.039714284 0.0031039144 -0.032918714 -0.0011831179 0.07082237 0.08470145
-0.0033153654 0.020309187 0.0058385623 0.04354914 0.02864646 -0.03028884 -0.010329066 -0.039423637
-0.031322643 0.026278501 0.032528188 0.05842351 0.007689174 0.0075849793 -0.035583057 -0.05205043
-0.0406936 0.0070526907 0.05607327 -0.022879787 0.012101629 0.0073092766 -0.016899513 0.041051306
-0.024151517 0.0200628 -0.0026342273 0.007476458 0.008057558 -0.040133085 -0.06804343 -0.054615106
-0.054869182 0.029082263 -0.0061981073 0.013899952 -0.05399544 -0.04186588 -0.0341662 -0.023915997
0.030169483 0.057233967 0.0027105229 0.08519446 -0.020716311 -0.039394863 0.0048973733 -0.0317826
0.0038273009 0.0008890763 0.041679025 0.05884106 0.047617592 -0.008325026 -0.014957831 -0.053024612
-0.056397293 -0.046764188 0.022698017 0.006841367 -0.04004146 0.01916419 0.026558364 0.06898429
-0.03420136 -0.049158473 -0.05486344 0.027323486 0.048941698 0.032027654 0.0473747 -0.0161955
0.032146942 0.008220673 -0.030754406 -0.068126775 0.026906159 -0.07592253 -0.057744384 -0.057335496
0.001979794 0.051756065 -0.0758244 -0.02966081 0.011501176 0.014113635 0.004886603 0.014011229
00000000: dae3 33bd 48a6 3dbc 0093 b03b 7c07 08bd
00000010: fcab 843d 8b80 a63c 077f 4cbd ab43 48bd
00000020: 477b 623d 7198 c7bc 878c 6bbd a592 4c3d
00000030: ec41 3f3d ab56 88bb 16ca bb3c e8ac 24bd
00000040: e929 623d c598 4b3d a249 153c 7332 7fbb
00000050: 0161 e3bc 5fc8 6cbd 3e6e 543d 892c 2bbd
00000060: 00e2 9db9 fe40 3e3d ef51 85bd 0106 35bd
00000070: ee9b f1bc c1a3 173c 37dc d33c 031e c63c
00000080: 5c48 193d 3bb9 433d 72ab 22bd 0b6b 4b3b
00000090: c6d5 06bd d912 9bba 520b 913d f477 ad3d
000000a0: 9a46 59bb 745f a63c 6951 bf3b 9560 323d
000000b0: fbab ea3c 4d20 f8bc 3e3b 29bc ae7a 21bd
000000c0: 2c4c 00bd 0346 d73c 473c 053d 7e4d 6f3d
000000d0: 77f5 fb3b 6b8b f83b 8abf 11bd d532 55bd
000000e0: 55ae 26bd 421a e73b 16ad 653d 646e bbbc
000000f0: e945 463c a882 ef3b d970 8abc 6a25 283d
00000100: 67d9 c5bc be5a a43c 00a3 2cbb 13fd f43b
00000110: d903 043c 9762 24bd 5b5a 8bbd 17b4 5fbd
00000120: 82be 60bd ed3d ee3c 7e19 cbbb a0bc 633c
00000130: 532a 5dbd 8f7b 2bbd dbf1 0bbd 7beb c3bc
00000140: fe25 f73c 2a6e 6a3d 07a3 313b 6f7a ae3d
00000150: 41b5 a9bc 825c 21bd 257a a03b 792e 02bd
00000160: 74d3 7a3b e710 693a a0b7 2a3d 5303 713d
00000170: aa0a 433d b165 08bc b111 75bc 5630 59bd
00000180: d900 67bd ce8b 3fbd 31f1 b93c 8c2d e03b
00000190: 8402 24bd 38fe 9c3c ed90 d93c a347 8d3d
000001a0: ba16 0cbd 655a 49bd 7db8 60bd 81d5 df3c
000001b0: 1777 483d 6e2f 033d f90b 423d 6dac 84bc
000001c0: 83ac 033d 00b0 063c aaf0 fbbc 0d86 8bbd
000001d0: 4e6a dc3c 457d 9bbd 6085 6cbd a0d8 6abd
000001e0: 6ebf 013b 2bfe 533d d349 9bbd 3afb f2bc
000001f0: 6e6f 3c3c e03c 673c cc1f a03b 5b8f 653c

fc2.weight f4 [64, 128]
-0.04091057 0.050741266 0.084415115 0.013526455 0.14716461 0.061320066 -0.060551856 -0.11490631
-0.06897717 0.03206896 0.06416569 0.11413719 0.027616609 0.018415345 0.035550043 0.129563
0.06859138 0.039054506 -0.23889886 -0.13475233 -0.14159633 -0.40935513 0.045501143 -0.15329827
-0.019570857 0.05928835 0.03946293 -0.027960967 0.05629791 -0.021301847 -0.16923957 -0.12418326
0.19502357 -0.1258913 -0.3569412 0.13603602 -0.40073687 -0.123427466 0.12896146 0.0047871
0.2186255 0.031306215 -0.012979742 -0.09270339 -0.013012355 0.06257594 -0.1259248 0.083132416
-0.05585284 0.14689954 -0.025639463 -0.0014980108 -0.29968837 0.047933456 0.076566145 0.071481116
-0.26959983 0.013977091 0.07435884 0.1285134 0.23202582 -0.03291295 -0.01741246 0.15223566
-0.052431054 -0.1687256 0.19427428 -0.27226478 0.41737062 0.091469124 -0.16648826 -0.04019276
-0.04044104 -0.17368457 -0.020429904 -0.073204845 0.047009487 0.21761924 0.02475448 0.046106476
0.10780323 0.17952378 -0.0776521 0.06359387 -0.029486496 -0.121634595 -0.10691795 -0.007737154
-0.082706474 -0.19634646 0.052193496 0.058150183 -0.06212648 0.10818868 0.08817803 0.122753136
-0.0810218 -0.05640722 0.11938452 -0.053788107 -0.08153936 0.08272709 0.02117081 -0.21150093
0.14455196 0.17103502 0.17417039 0.15294288 -0.21897587 0.03380511 0.012709176 -0.3202024
0.1088614 0.039634936 0.11677794 0.124280214 0.088193834 -0.32843804 -0.033701003 -0.008588355
0.085215375 0.15878806 -0.07552117 0.016950935 -0.1485039 0.18736497 -0.13043772 0.08141543
-0.124094255 0.12995046 -0.06429023 0.06432753 0.00034434968 -0.028805668 0.06723536 -0.046150662
0.03719383 -0.021416683 0.07340438 0.14428687 0.13709906 0.13752791 0.09078777 -0.0013388402
-0.02290855 -0.1328526 0.04064135 0.21407676 0.07262404 0.04502918 0.19850244 -0.089821115
-0.0054505393 -0.068768665 -0.11557909 0.06758732 -0.014096144 0.11842297 -0.06614084 0.09599046
0.06800563 0.057312753 0.0054337177 -0.08578941 0.020483518 -0.047626305 -0.061628032 0.18077174
0.061121553 -0.00496158 0.078228645 -0.07245096 -0.0192405 0.00822555 0.25765058 0.35287383
0.120871596 -0.19729728 0.026163101 0.010721962 -0.01960865 0.06673664 -0.005835618 -0.0194944
-0.26291922 -0.32861573 0.24300742 0.13638683 -0.17716779 0.15421203 -0.03666915 -0.04306507
-0.24313243 -0.08338705 0.2419078 0.084557414 0.31582513 -0.08400329 -0.15472062 -0.13106865
-0.006926183 -0.32274866 0.11769837 -0.27250713 0.021033041 0.01243427 0.006078205 0.06496667
-0.016718376 -0.17133442 0.013374895 0.1842593 0.08663211 0.03943807 -0.057124656 -0.24093856
0.1647847 0.06901027 -0.11205182 0.23751685 -0.05015383 -0.18110515 0.0021491058 -0.00382436
-0.043359898 0.015493554 0.059976295 0.028518604 -0.016193544 -0.10337258 0.07548407 0.22680001
0.31214032 0.14704749 -0.30519235 -0.14387873 0.04904482 -0.0880241 -0.02199282 -0.08679356
0.011632319 0.026515558 0.19586988 -0.22073661 0.047863767 -0.23808028 -0.09575526 -0.1899553
-0.023168204 -0.22688024 0.04012244 -0.056027364 0.10438152 -0.12833153 0.06613233 0.044313665
00000000: d891 27bd 13d6 4f3d d5e1 ac3d 109e 5d3c
00000010: 52b2 163e c02a 7b3d 3905 78bd 0054 ebbd
00000020: e743 8dbd be5a 033d 4d69 833d c2c0 e93d
00000030: 3a3c e23c c7db 963c ec9c 113d 2aac 043e
00000040: a379 8c3d 9ef7 1f3d e7a1 74be 84fc 09be
00000050: a1fe 10be ff96 d1be 685f 3a3d 39fa 1cbe
00000060: 1053 a0bc 57d8 723d e2a3 213d 660e e5bc
00000070: a398 663d 3681 aebc 234d 2dbe cb53 febd
00000080: 42b4 473e a6e9 00be ffc0 b6be 074d 0b3e
00000090: 622d cdbe 8ac7 fcbd 790e 043e 1bdd 9c3b
000000a0: 5ddf 5f3e f23a 003d fca8 54bc 46db bdbd
000000b0: c631 55bc d027 803d 6ef2 00be 5441 aa3d
000000c0: f3c5 64bd d56c 163e da09 d2bc e758 c4ba
000000d0: c170 99be df55 443d b6ce 9c3d b164 923d
000000e0: fd08 8abe 2b00 653c 7349 983d 0499 033e
000000f0: 2d98 6d3e bbcf 06bd 93a4 8ebc aae3 1b3e
00000100: f2c1 56bd 67c6 2cbe d6ef 463e 4a66 8bbe
00000110: 9ab1 d53e 2a54 bb3d e67b 2abe 2aa1 24bd
00000120: 81a5 25bd 5eda 31be 9d5c a7bc 6cec 95bd
00000130: 058d 403d 94d7 5e3e e8c9 ca3c 25da 3c3d
00000140: f1c7 dc3d 15d5 373e 1008 9fbd 813d 823d
00000150: aa8d f1bc 8f1b f9bd ccf7 dabd f487 fdbb
00000160: 0362 a9bd 0c0f 49be d9c8 553d e32e 6e3d
00000170: 5678 7ebd 0792 dd3d af96 b43d ff65 fb3d
00000180: c2ee a5bd 420b 67bd df7f f43d eb50 5cbd
00000190: 1cfe a6bd d26c a93d 686e ad3c b393 58be
000001a0: 6e05 143e ce23 2f3e b959 323e 0f9d 1c3e
000001b0: 363b 60be 3a77 0a3d 263a 503c 92f1 a3be
000001c0: baf2 de3d 3e58 223d 4629 ef3d a086 fe3d
000001d0: f89e b43d 0829 a8be 100a 0abd 2cb6 0cbc
000001e0: 6685 ae3d 5699 223e d8aa 9abd b0dc 8a3c
000001f0: 6811 18be 9adc 3f3e 7791 05be 22bd a63d
00000200: 2125 febd bc11 053e 99aa 83bd 27be 833d
00000210: d589 b439 ddf9 ebbc b1b2 893d 7a08 3dbd
00000220: 8f58 183d 0a72 afbc 0955 963d f0bf 133e
00000230: b263 0c3e 1ed4 0c3e f0ee b93d 067c afba
00000240: b6aa bbbc 830a 08be 8b77 263d f036 5b3e
00000250: eabb 943d 8470 383d 3944 4b3e 22f4 b7bd
00000260: 709a b2bb 96d6 8cbd bbb4 ecbd 396b 8a3d
00000270: 83f3 66bc be87 f23d d974 87bd a596 c43d
00000280: 8946 8b3d c7c0 6a3d 540d b23b 5cb2 afbd
00000290: 0dcd a73c cd13 43bd ad6d 7cbd 3a1c 393e
000002a0: 985a 7a3d c094 a2bb 5736 a03d 2b61 94bd
000002b0: 419e 9dbc 75c4 063c c7ea 833e e1ab b43e
000002c0: 878b f73d 4c08 4abe 0054 d63c 2bab 2f3c
000002d0: 52a2 a0bc 38ad 883d b638 bfbb b8b2 9fbc
000002e0: 599d 86be 5240 a8be f0d6 783e fda8 0b3e
000002f0: 796b 35be c2e9 1d3e 6432 16bd 0065 30bd
00000300: b5f7 78be d4c6 aabd aeb6 773e 702c ad3d
00000310: d5b3 a13e eb09 acbd 156f 1ebe dc36 06be
00000320: 09f5 e2bb 503f a5be d80b f13d 0e86 8bbe
00000330: 7c4d ac3c 1cb9 4b3c ae2b c73b 3f0d 853d
00000340: faf4 88bc 4a72 2fbe 6022 5b3c 78ae 3c3e
00000350: 2d6c b13d d089 213d 8bfb 69bd 99b8 76be
00000360: 52bd 283e 4255 8d3d 6d7b e5bd 9e37 733e
00000370: 1a6e 4dbd a173 39be 03d8 0c3b 1da2 7abb
00000380: 269a 31bd add8 7d3c b4a9 753d d99f e93c
00000390: 53a8 84bc 01b5 d3bd 6497 9a3d 433e 683e
000003a0: dbd0 9f3e 9e93 163e 2c42 9cbe f254 13be
000003b0: 39e3 483d fb45 b4bd 492a b4bc d2c0 b1bd
000003c0: 7b95 3e3c 2837 d93c 1d92 483e c708 62be
000003d0: cc0c 443d 51cb 73be 551b c4bd a483 42be
000003e0: 3fcb bdbc 4b53 68be 6d57 243d f37c 65bd
000003f0: fac5 d53d 5769 03be 6370 873d 3f82 353d

fc2.bias f4 [64]
-0.0030598817 0.11919119 0.04133181 0.02160368 -0.037222963 0.06992369 -0.031321816 0.07971888
0.030645005 -0.07138627 0.009012855 0.019798912 0.09016135 0.009903239 0.013561515 0.074099906
-0.060969353 0.106599346 0.09443123 0.003244153 0.08680034 0.0006380194 -0.028057385 0.043828253
-0.018986242 0.019588908 0.06648538 0.061383788 0.009102131 0.036686234 0.10650595 -0.033951726
-0.03818464 -0.061199173 0.08038628 0.045786474 0.0018835051 0.069427125 -0.050116356 -0.0041230894
-0.023483677 0.05469185 0.019999802 -0.06411916 0.060202654 0.037318606 -0.01804985 -0.019290188
0.08384713 0.02378905 -0.048727438 -0.0382485 -0.009665919 -0.0048091547 0.0058723683 0.07133523
0.13912135 0.0021664174 0.045545787 0.076736435 0.013822444 -0.02434422 0.06997179 -0.055493325
00000000: 4c88 48bb 831a f43d 8b4b 293d 33fa b03c
00000010: 1b77 18bd 2734 8f3d 4e4b 00bd a743 a33d
00000020: 3c0b fb3c f732 92bd a7aa 133c 5431 a23c
00000030: 84a6 b83d 3241 223c 1e31 5e3c b1c1 973d
00000040: 00bb 79bd c250 da3d 2965 c13d db9b 543b
00000050: 60c4 b13d c240 273a 9ad8 e5bc 4185 333d
00000060: 0989 9bbc eb78 a03c 7d29 883d 916d 7b3d
00000070: 1b21 153c 4e44 163d cb1f da3d f710 0bbd
00000080: 7f67 1cbd fcab 7abd 90a1 a43d 998a 3b3d
00000090: f2df f63a cf2f 8e3d cf46 4dbd fb1a 87bb
000000a0: d760 c0bc 9004 603d a0d6 a33c e850 83bd
000000b0: 0f97 763d 65db 183d 47dd 93bc 7506 9ebc
000000c0: 0bb8 ab3d 41e1 c23c 6c96 47bd 76aa 1cbd
000000d0: cd5d 1ebc 1d96 9dbb ff6c c03b 3418 923d
000000e0: d475 0e3e 74fa 0d3b 388e 3a3d fe27 9d3d
000000f0: 8877 623c 886d c7bc 5f4d 8f3d f84c 63bd

fc3.weight f4 [32, 64]
-0.06525463 0.18434829 -0.02928578 0.093269095 -0.010914836 -0.012730016 -0.012355175 0.13509174
-0.40631127 0.15289564 0.35955063 0.005303335 -0.1147117 0.18746522 -0.13681576 0.08618177
-0.087379776 0.34213096 0.03128748 0.20669393 0.40002432 0.11171862 -0.1730059 -0.13978747
-0.25312662 -0.1189 -0.12734543 -0.1530059 0.026857216 -0.089655526 0.11633761 0.22455814
-0.072607644 0.023085395 -0.04950241 0.06679873 0.11001484 0.2012413 -0.031455502 -0.14610992
-0.22234894 0.02709295 -0.12841299 0.16816913 0.018476417 0.06772889 0.22327799 -0.31206983
0.2976051 -0.11391012 -0.020372955 -0.26352084 -0.031175358 0.056004375 -0.16988204 -0.15814897
0.22560097 0.11554693 -0.12097436 -0.014129409 0.17054398 -0.17064418 0.013129059 -0.21095641
0.43995705 -0.06271441 -0.03991125 -0.1414254 -0.17879416 0.06955238 0.036252357 0.10924925
0.013977346 0.04600264 0.1450801 0.17786072 0.18278076 -0.197075 0.10202916 0.3545822
-0.012925311 -0.084301755 0.053642053 -0.04330604 -0.03473246 0.2108338 -0.031465437 0.16815576
0.14584784 -0.25512215 0.26862326 -0.11505058 0.31393915 0.09111274 -0.16724019 -0.21288782
-0.20096284 -0.060536314 -0.05445274 -0.0049734944 0.018977 0.21350601 -0.13614847 0.2445806
0.22024684 0.41877756 0.09226692 0.09967219 0.10861387 -0.0879042 0.0022051705 -0.13186325
0.21107364 -0.13246551 0.044898465 0.05306315 0.09443407 0.05684039 0.005146906 0.10083315
-0.19085191 0.21726505 0.112955905 0.041396473 -0.047971334 -0.0040538018 -0.21560651 -0.026772492
0.13077727 0.19535145 -0.16354519 0.031375498 -0.20270213 -0.07126588 -0.060532283 -0.017144576
0.07485478 0.08834209 0.2850092 0.034374926 0.0983472 0.18243945 -0.0048431666 -0.010306648
-0.057254326 0.18187712 0.10032588 0.117261104 0.24072777 -0.086496264 -0.23645595 0.06915515
-0.01130292 0.24642779 -0.11439629 0.029511133 -0.022858506 -0.12435459 0.3408929 -0.04394744
0.016639573 -0.109161235 -0.04473699 0.07106798 0.21324515 0.0003912006 -0.16397204 -0.07110957
-0.13690518 -0.003431649 0.12048187 0.017179357 -0.08446473 0.23936227 0.24142715 0.18938337
-0.02591638 -0.11056458 -0.19553214 0.018238166 -0.033391997 -0.008564977 -0.21264106 0.19688275
0.08470271 -0.16505884 -0.25844586 0.09468875 0.48459384 -0.09686554 0.015585255 -0.05360623
-0.15961793 -0.22891471 -0.047254447 -0.030453818 -0.14046828 0.0866498 0.34819627 0.005300518
-0.012039355 -0.08941107 0.07137834 0.04800133 0.43023145 -0.0018535065 0.0854036 0.05893889
0.18073314 -0.40264106 -0.008963016 0.00837342 -0.039424583 -0.3195251 0.06835994 -0.041511405
-0.024303026 0.31104857 0.067548625 -0.20626907 0.070219114 -0.16144292 0.24751054 0.07959851
0.13416335 0.09136598 -0.0218804 -0.19590361 0.30825105 -0.18581505 -0.0682894 0.036555372
-0.1164172 -0.0060423873 0.12795722 0.18823297 -0.12469249 0.1338373 -0.34502378 0.33279198
0.12620194 -0.26460674 0.16300328 -0.18568195 0.23693417 -0.03567329 0.21726787 0.26344606
-0.19874416 0.0920257 -0.12420988 0.089816205 0.09338537 -0.051704235 0.29309836 0.2898971
00000000: 38a4 85bd ccc5 3c3e bbe8 efbc de03 bf3d
00000010: 24d4 32bc 8f91 50bc 5c6d 4abc 7d55 0a3e
00000020: 0808 d0be ad90 1c3e 0517 b83e 99c7 ad3b
00000030: f8ed eabd e2f6 3f3e 6e19 0cbe 1180 b03d
00000040: 2bf4 b2bd ca2b af3e 4d27 003d 93a7 533e
00000050: fdcf cc3e bbcc e43d 7528 31be 7224 0fbe
00000060: d099 81be d881 f3bd d766 02be 94ad 1cbe
00000070: aa03 dc3c 519d b7bd 6a42 ee3d 92f2 653e
00000080: 51b3 94bd 951d bd3c 0ac3 4abd c6cd 883d
00000090: 764f e13d 3312 4e3e 7cd7 00bd d79d 15be
000000a0: 71af 63be 09f2 dd3c b27e 03be 8734 2c3e
000000b0: db5b 973c 72b5 8a3d fca2 643e 9ec7 9fbe
000000c0: b25f 983e b649 e9bd 2fe5 a6bc 34ec 86be
000000d0: 7763 ffbc d864 653d 8ff5 2dbe cef1 21be
000000e0: f103 673e dea3 ec3d 68c1 f7bd 097f 67bc
000000f0: 15a3 2e3e 59bd 2ebe 441b 573c f504 58be
00000100: 0d42 e13e 6a70 80bd fb79 23bd d2d1 10be
00000110: d115 37be 7a71 8e3d 5a7d 143d 12be df3d
00000120: 3d01 653c 446d 3c3d e18f 143e 1f21 363e
00000130: e12a 3b3e 07ce 49be aaf4 d03d cc8b b53e
00000140: afc4 53bc 66a6 acbd c5b7 5b3d ad61 31bd
00000150: a043 0ebd d1e4 573e e7e1 00bd 0631 2c3e
00000160: 2359 153e 5f9f 82be fd88 893e a39f ebbd
00000170: a2bc a03e 5199 ba3d 0341 2bbe 44ff 59be
00000180: 34c9 4dbe edf4 77bd d609 5fbd b2f8 a2bb
00000190: a775 9b3c 52a1 5a3e 816a 0bbe 5673 7a3e
000001a0: 6388 613e 036a d63e 70f6 bc3d ef20 cc3d
000001b0: f370 de3d 1e07 b4bd 9f84 103b 2907 07be
000001c0: b023 583e 0aa5 07be 74e7 373d bf58 593d
000001d0: a666 c13d 78d1 683d 60a7 a83b 9c81 ce3d
000001e0: af6e 43be bb7a 5e3e 6d55 e73d 598f 293d
000001f0: 977d 44bd c1d5 84bb f4c7 5cbe fc51 dbbc
00000200: 7aea 053e 360a 483e 6478 27be 9883 003d
00000210: 2691 4fbe d8f3 91bd b3f0 77bd c872 8cbc
00000220: 774d 993d b3ec b43d baec 913e b9cc 0c3d
00000230: 426a c93d 68d1 3a3e 6db3 9ebb 37dd 28bc
00000240: 8383 6abd ff3d 3a3e a877 cd3d 9726 f03d
00000250: 5781 763e f424 b1bd 8221 72be 37a1 8d3d
00000260: e22f 39bc 9157 7c3e 9a48 eabd 55c1 f13c
00000270: c341 bbbc 9fad febd 8489 ae3e 3b02 34bd
00000280: b74f 883c ed8f dfbd 223e 37bd 178c 913d
00000290: f05c 5a3e 0e1a cd39 49e8 27be e5a1 91bd
000002a0: df30 0cbe 84e5 60bb 33bf f63d b9bb 8c3c
000002b0: d8fb acbd 621b 753e ae38 773e b7ed 413e
000002c0: 974e d4bc af6f e2bd 9439 48be 3568 953c
000002d0: 0cc6 08bd 1e54 0cbc 94be 59be a29b 493e
000002e0: 9d78 ad3d 2f05 29be 0453 84be 2dec c13d
000002f0: af1c f83e 7161 c6bd 4c59 7f3c 3592 5bbd
00000300: e272 23be 9e68 6abe e18d 41bd 497a f9bc
00000310: ebd6 0fbe 7375 b13d c846 b23e f8af ad3b
00000320: b740 45bc 271d b7bd cf2e 923d 0b9d 443d
00000330: 4c47 dc3e 5cf1 f2ba 15e8 ae3d e869 713d
00000340: 1c12 393e f826 cebe 9dd9 12bc ab30 093c
00000350: ac7b 21bd cb98 a3be 4c00 8c3d dd07 2abd
00000360: 2417 c7bc c241 9f3e ef56 8a3d 3338 53be
00000370: 0acf 8f3d 4b51 25be 6773 7d3e 8b04 a33d
00000380: 1e62 093e 161e bb3d 863e b3bc f59a 48be
00000390: 15d3 9d3e 4d46 3ebe 50db 8bbd 16bb 153d
000003a0: 246c eebd 38ff c5bb 3807 033e 25c0 403e
000003b0: c75e ffbd a50c 093e f5a6 b0be b663 aa3e
000003c0: 153b 013e 897a 87be 55ea 263e 6923 3ebe
000003d0: df9e 723e 281e 12bd 787b 5e3e 67e2 863e
000003e0: 9783 4bbe f877 bc3d c061 febd 8ff1 b73d
000003f0: d440 bf3d d2c7 53bd fd10 963e 656d 943e

fc3.bias f4 [32]
0.028648881 0.04512627 0.013503073 -0.02387987 -0.12981428 -0.0036526814 0.027018098 0.12811309
0.212022 0.09188215 0.051452946 0.096640766 0.06676393 0.20570931 0.14841248 0.050414555
-0.034802966 -0.020608677 0.11729284 0.11286602 0.040098168 0.007229585 0.04316877 0.17360891
0.09781815 0.020818744 0.14292435 -0.020510323 0.08026925 0.13487746 -0.08199536 0.043845393
00000000: 0fb1 ea3c 53d6 383d fe3b 5d3c b89f c3bc
00000010: 09ee 04be d361 6fbb 0f55 dd3c 1430 033e
00000020: 4c1c 593e b52c bc3d 53c0 523d 98eb c53d
00000030: 87bb 883d 76a5 523e 71f9 173e 7e7f 4e3d
00000040: 8e8d 0ebd 87d3 a8bc 3a37 f03d 4d26 e73d
00000050: fa3d 243d 28e6 ec3b bcd1 303d 89c6 313e
00000060: e254 c83d 128c aa3c c35a 123e 4405 a8bc
00000070: 3464 a43d 511d 0a3e 2fed a7bd 3a97 333d

fc4.weight f4 [24, 32]
-0.1049796 0.11864142 -0.34203473 -0.2884356 -0.39374897 -0.0618298 0.041284375 -0.7729041
0.23301503 -0.123073384 -0.50906 0.037003934 -0.5042558 -0.3534946 0.17453305 0.12677921
0.098631755 -0.2033696 0.14747183 -0.0807663 -0.24856994 0.075195484 -0.65089846 -0.03371509
-0.12916939 0.044786584 -0.6476345 0.17939042 -0.47510937 -0.794777 -0.3037412 0.0012540158
-0.29252565 -0.59651834 -0.3036114 0.13822445 0.0042347014 0.24930076 -0.88575524 -0.047716215
-0.5604235 0.008253152 -0.35683587 0.13608323 0.14215273 0.049182467 0.05676551 0.14083071
-0.021720609 0.06649855 0.06537954 -0.43441784 0.12858838 -0.48989648 0.05329971 0.19523671
0.16213788 -0.6027671 -0.20124987 0.15204032 0.17450108 0.035793595 0.06453157 0.22270554
0.111390196 0.13220327 0.019855993 -0.26669657 0.037465125 -0.06288998 0.052947752 -0.07124786
0.19919986 0.1014588 0.1663005 0.11028603 -0.19437854 -0.5517135 -0.21119861 -0.39723265
-0.11521025 -0.09816964 -0.04613893 0.19406283 -0.6557618 0.1065657 -0.15035243 -0.044782326
-0.11860865 -0.03564607 -0.22116321 -0.2587244 -0.41869572 -0.7272619 0.1349822 -0.116244435
-0.3147082 -0.2150501 -0.23673579 0.15674637 -0.45869556 -0.24304703 -0.469044 -0.5351239
-0.22485556 -0.042293593 -0.04875856 -0.061982013 -0.38262513 -0.0669098 -0.018986462 0.2172697
0.17533354 0.23650758 0.048561584 0.20300682 -0.45017445 0.14518923 0.23483199 0.15558234
-0.17054226 -0.18296662 -0.42048988 0.07055379 -0.05077034 0.06417219 0.0079183 0.17078592
-0.31905717 -0.6891229 0.24739568 -0.21680063 0.14453205 -0.22903311 0.07375094 0.18969609
-0.29507744 -0.77735287 0.10268995 -0.16061755 0.022656647 -0.12360455 -0.25698942 0.14607872
0.1148414 -0.22047946 0.1351505 -0.09664005 -0.28662568 -0.77960163 0.12889205 -0.11975199
-0.047498073 0.15706821 -0.20663872 -0.43836507 -0.53246397 0.1486368 0.20447451 -0.24726206
-0.7300854 -0.0061419625 -0.2809183 -0.42269948 -0.102364965 -0.5397643 -0.054140106 -0.1150308
-0.091610745 -0.09287372 0.13252994 0.032993685 -0.061022393 -0.22860321 -0.36616635 -0.37018225
0.14740416 -0.013190138 -0.043070707 0.087175466 -0.3385088 -0.029698407 0.097653545 0.13158724
0.0761781 0.17594035 -0.2474483 -0.2743259 -0.209989 0.075695835 0.14760092 -0.30273142
0.22013895 -0.052184746 0.14967272 -0.2978021 0.16486032 -0.11007419 -0.0018696785 0.12407098
-0.11694142 -0.13112712 0.117938936 -0.45705602 0.118776806 -0.08385969 -0.038114555 -0.18419081
-0.14861323 -0.29663944 -0.017392993 -0.5486563 0.16950986 -0.015887499 -0.28593442 0.22618386
0.11314512 -0.12950632 -0.010025941 -0.051208455 0.019165114 -0.07525326 0.16843241 0.24244909
-0.083639346 -0.062471066 0.19416416 0.18889281 -0.10290704 -0.48817533 -0.052299075 0.006737901
0.01668972 -0.14305094 -0.22490403 -0.47204754 -0.33634457 -0.22063667 0.114910886 0.20812455
0.009835663 0.18504134 -0.082569726 -0.076745234 0.13267611 0.014835197 0.13253945 0.025461921
0.23424593 -0.032601632 -0.12870549 -0.46084145 0.011018856 0.008483123 0.092256896 0.13571051
00000000: 8bff d6bd 46fa f23d 2d1f afbe d5ad 93be
00000010: 7799 c9be 3f41 7dbd ce19 293d 0bdd 45bf
00000020: 7e9b 6e3e e60d fcbd c251 02bf 7091 173d
00000030: e816 01bf 3ffd b4be cbb8 323e 69d2 013e
00000040: 72ff c93d 1f40 50be db02 173e cd68 a5bd
00000050: 1e89 7ebe 1700 9a3d 48a1 26bf d618 0abd
00000060: fb44 04be 2372 373d 60cb 25bf 1fb2 373e
00000070: 8941 f3be 8176 4bbf f783 9bbe ca5d a43a
00000080: ecc5 95be 6db5 18bf f472 9bbe b68a 0d3e
00000090: 40c3 8a3b b348 7f3e dbc0 62bf 1472 43bd
000000a0: ea77 0fbf 3a38 073c 31b3 b6be 6759 0b3e
000000b0: 7c90 113e 8e73 493d f482 683d ed35 103e
000000c0: 6bef b1bc 6430 883d b5e5 853d 046c debe
000000d0: acac 033e b6d3 fabe cc50 5a3d 22ec 473e
000000e0: 7907 263e f24e 1abf 7214 4ebe 75b0 1b3e
000000f0: 69b0 323e 4e9c 123d 2129 843d ec0c 643e
00000100: 8b20 e43d 4b60 073e 09a9 a23c 748c 88be
00000110: 0875 193d 76cc 80bd bedf 583d 66ea 91bd
00000120: 0cfb 4b3e a2c9 cf3d ae4a 2a3e a4dd e13d
00000130: 2b0b 47be 193d 0dbf 7344 58be 1462 cbbe
00000140: 5af3 ebbd 2a0d c9bd 2dfc 3cbd 68b8 463e
00000150: 01e0 27bf 1e3f da3d fdf5 19be ac6d 37bd
00000160: 18e9 f2bd 9d01 12bd 9c78 62be 8677 84be
00000170: 495f d6be d62d 3abf c638 0a3e 9011 eebd
00000180: 6f21 a1be 1836 5cbe de6a 72be 1f82 203e
00000190: 25da eabe 52e1 78be 8926 f0be e1fd 08bf
000001a0: 8940 66be 0c3c 2dbd 0eb7 47bd dae0 7dbd
000001b0: 71e7 c3be 0108 89bd 7f89 9bbc f37b 5e3e
000001c0: a38a 333e 0b2f 723e 83e8 463d 05e1 4f3e
000001d0: 447d e6be 7cac 143e cc77 703e fa50 1f3e
000001e0: a1a2 2ebe 9a5b 3bbe 734a d7be 817e 903d
000001f0: 8ff4 4fbd b66c 833d c2bb 013c 81e2 2e3e
00000200: 765b a3be 5c6a 30bf 4b55 7d3e fc00 5ebe
00000210: 3600 143e a887 6abe bc0a 973d b13f 423e
00000220: 6414 97be 9900 47bf 1c4f d23d ed78 24be
00000230: 6f9a b93c 6224 fdbd 1e94 83be a995 153e
00000240: f831 eb3d 5ec5 61be e564 0a3e 38eb c5bd
00000250: 9ac0 92be f993 47bf 47fc 033e 8840 f5bd
00000260: 578d 42bd 7dd6 203e 1a99 53be 6371 e0be
00000270: 8f4f 08bf 3f34 183e c461 513e 4432 7dbe
00000280: e0e6 3abf 8442 c9bb 86d4 8fbe 116c d8be
00000290: b9a4 d1bd fe2d 0abf 04c2 5dbd 4595 ebbd
000002a0: 6a9e bbbd 9434 bebd eeb5 073e 6324 073d
000002b0: 9ef2 79bd f616 6abe 287a bbbe 8788 bdbe
000002c0: 1ef1 163e 731b 58bc e96a 30bd 0d89 b23d
000002d0: 0751 adbe 134a f3bc 95fe c73d cebe 063e
000002e0: 4403 9c3d b529 343e 1663 7dbe 7274 8cbe
000002f0: 5b07 57be 6b06 9b3d b224 173e 9dff 9abe
00000300: 1b6c 613e acbf 55bd ce43 193e 8479 98be
00000310: 25d1 283e 946e e1bd 0010 f5ba ed18 fe3d
00000320: fc7e efbd 3046 06be f889 f13d 3f03 eabe
00000330: 4141 f33d a1be abbd 021e 1cbd 849c 3cbe
00000340: 112e 18be 20e1 97be c07b 8ebc bd74 0cbf
00000350: fe93 2d3e 8026 82bc ff65 92be be9c 673e
00000360: a1b8 e73d 4e9d 04be d843 24bc f5bf 51bd
00000370: 2800 9d3c 621e 9abd 8c79 2c3e 9344 783e
00000380: 1b4b abbd a9e1 7fbd f8d2 463e 1e6d 413e
00000390: edc0 d2bd 1ef2 f9be 8e37 56bd 9cc9 dc3b
000003a0: e1b8 883c f27b 12be 3e4d 66be 37b0 f1be
000003b0: 5b35 acbe 94ee 61be 6656 eb3d 9a1e 553e
000003c0: c325 213c 7a7b 3d3e 511a a9bd 9b2c 9dbd
000003d0: 3fdc 073e 530f 733c 6cb8 073e 8595 d03c
000003e0: 2ade 6f3e 4a89 05bd 5fcb 03be 69f3 ebbe
000003f0: 6f88 343c ccfc 0a3c 2ff1 bc3d b2f7 0a3e

fc4.bias f4 [24]
-0.20400614 -0.11884878 0.14883667 0.12161156 -0.10737984 -0.117192864 -0.14095277 -0.13720784
0.06330038 0.06449096 0.09117288 -0.1536826 -0.06542445 0.1203141 -0.10360849 -0.092343144
0.06481287 -0.13209412 0.037493233 0.09755993 -0.15583362 0.012478223 -0.20075434 -0.08533684
00000000: fce6 50be fd66 f3bd a468 183e 7b0f f93d
00000010: f6e9 dbbd d002 f0bd ec55 10be 3680 0cbe
00000020: a1a3 813d d613 843d d9b8 ba3d f95e 1dbe
00000030: 41fd 85bd 3d67 f63d b030 d4bd 671e bdbd
00000040: 9cbc 843d ae43 07be 8192 193d 80cd c73d
00000050: d992 1fbe 7671 4c3c 8c92 4dbe 15c5 aebd

exp_avg f4 [128, 240]
-0.0010228956 -0.00043382193 2.2510794e-05 7.332284e-05 -0.00017136493 -0.0012417387 -0.00066932803 -0.00031476482
-0.0013591859 -0.0009515211 -0.00018531461 -0.00045474892 -0.0017862541 -0.0005220193 0.00011496671 -0.00036510202
0.0005899167 0.0005211163 -0.0012421401 -0.00013800978 -0.0009187952 0.00022107558 0.0007042978 -1.974986e-07
-0.00084550434 -0.0004087857 -0.00017526242 0.00010968146 -0.00020875798 -0.0011023422 -0.00014597175 -0.00015233544
-0.0014315969 -0.0011503462 -0.00031077876 -0.00096451904 -0.0017591978 -0.0004413284 0.0002451511 -0.00036419882
0.0003111882 0.00059947016 -0.0010301059 -8.6045475e-05 -0.0012547161 0.00010993615 0.0006749677 0.00015745268
-0.00089471485 -0.00037050934 -0.00024734097 0.00017752014 -0.00031800853 -0.0011880838 -7.881576e-05 0.00014752321
-0.0014460706 -0.0012585417 -0.00046917237 -0.00089056866 -0.0018020009 -0.00030114962 0.00018800219 -0.000435782
0.0007140846 0.0006978163 -0.0010467225 -0.00020799058 -0.0013257852 0.00023274966 0.0002919892 -7.2899857e-06
-0.00084945385 -0.00034331268 -0.00024601945 0.00020813083 -0.00048308383 -0.0012077094 -0.00023811415 0.00024003218
-0.0013245326 -0.0014362219 -0.00048471987 -0.0010121488 -0.0019851953 -0.00021959603 0.00011978185 -0.00069076393
0.0010490604 0.0008414841 -0.0010536283 -3.301358e-05 -0.0013569372 0.00018121289 0.00031559975 1.5916303e-05
-0.0009028822 -0.00029179238 -0.00018096325 0.00023621178 -0.00061293604 -0.001249892 -0.00016941351 0.0001596098
-0.0011950082 -0.0015121916 -0.00047753475 -0.0009452862 -0.0017302989 -0.00013391263 7.2966795e-05 -0.0010333488
0.0010870164 0.000814807 -0.0010862215 0.000105444575 -0.0014466685 8.287122e-05 0.00015836828 6.951805e-05
-0.000829799 -0.00023778417 1.8423714e-05 0.0003489487 -0.0008091529 -0.001099371 -0.00021711172 0.00030827837
-0.0015793587 -0.001738459 -0.0004504231 -0.00078519894 -0.0018973409 -0.00037717895 -2.9396673e-05 -0.0011533948
0.000782339 0.0008872822 -0.0009565065 5.760856e-05 -0.0015421396 0.000107733504 0.00019100816 0.00023128017
-0.0007634836 -0.00021526468 0.0003273381 0.0002504221 -0.0007435111 -0.0012849537 -0.00022033154 0.00017000805
-0.0016846221 -0.0018218476 -0.00048222463 -0.00087628193 -0.0021448801 -0.00044802384 9.4626565e-05 -0.0011811982
0.00077321415 0.0010783729 -0.00095382327 4.657812e-05 -0.0014831284 0.00025550026 0.00028057297 0.00028955805
-0.0008533575 0.00028922877 0.0002623075 4.698799e-06 -0.00065872393 -0.0013707376 -0.00046292966 8.495555e-05
-0.0015819655 -0.0017184543 -0.0004537205 -0.00073829497 -0.0017858067 -0.00051165733 -0.00025752018 -0.0012076587
0.00068953016 0.0011108347 -0.00095343246 0.00024932818 -0.0015596699 0.00045825128 0.00025455392 0.00033091914
-0.0009952715 -8.835073e-05 0.0004243995 -2.0797423e-05 -0.0006189724 -0.0013399322 -0.00024857232 0.00024887596
-0.0018594833 -0.0021177256 -0.0005652557 -0.0006519992 -0.0011191083 -0.0010221581 -0.00013259763 -0.0013112767
0.0005882442 0.0013180124 -0.00090556854 0.0002785661 -0.001498545 0.00038061617 -8.444871e-05 0.0007365786
-0.0011143887 0.0008721433 0.00029691303 -0.0003194133 -0.0005635989 -0.00079129776 -0.000113858434 -3.191558e-05
-0.0016592573 -0.0024925962 -0.0010813135 -0.0005941863 -0.00095114694 -0.00095663103 -0.0006956921 -0.0010084816
0.0005189532 0.0013823472 -0.0011345064 2.3885688e-05 -0.001506459 0.00025637058 -5.9712547e-05 0.00075055653
2.140901e-05 4.3277134e-05 0.0009805845 -0.00029491275 0.00032307924 0.0005819983 0.0005487038 0.00031298609
-0.0012586047 -0.0015207225 0.0007245409 -0.0008893851 0.0016276131 0.00056929013 -0.0005789904 0.0010717718
00000000: ae12 86ba 9872 e3b9 90d5 bc37 e6c4 9938
00000010: 6cb0 33b9 d6c1 a2ba d875 2fba 0507 a5b9
00000020: b626 b2ba 806f 79ba 0351 42b9 5e6b eeb9
00000030: be20 eaba 1fd8 08ba 481a f138 2a6b bfb9
00000040: a4a4 1a3a 869b 083a 4ecf a2ba b8b6 10b9
00000050: 4ddb 70ba 86d0 6739 a0a0 383a 0010 54b4
00000060: d6a4 5dba 4a52 d6b9 a6c6 37b9 c904 e638
00000070: 0be6 5ab9 777c 90ba fe0f 19b9 3cbc 1fb9
00000080: 6ca4 bbba 37c7 96ba 05f0 a2b9 c7d7 7cba
00000090: e294 e6ba 1862 e7b9 a087 8039 f0f1 beb9
000000a0: f926 a339 c325 1d3a 9e04 87ba 5073 b4b8
000000b0: 4975 a4ba 858d e638 51f0 303a e219 2539
000000c0: 4c8b 6aba ec40 c2b9 8bad 81b9 b324 3a39
000000d0: 62ba a6b9 7ab9 9bba e449 a5b8 76b0 1a39
000000e0: 148a bdba a7f5 a4ba 40fb f5b9 0d75 69ba
000000f0: 1e31 ecba 9ee3 9db9 7422 4539 ac79 e4b9
00000100: 6831 3b3a a9ed 363a 2e32 89ba 0c18 5ab9
00000110: f8c5 adba 430e 7439 2116 9939 809c f4b6
00000120: e2ad 5eba a6fe b3b9 2cfc 80b9 b23d 5a39
00000130: 6a46 fdb9 014c 9eba 48ae 79b9 26b1 7b39
00000140: f09b adba 9c3f bcba 0022 feb9 14aa 84ba
00000150: 0d1a 02bb 5c43 66b9 6433 fb38 6214 35ba
00000160: a080 893a 0b97 5c3a e619 8aba 1078 0ab8
00000170: 42db b1ba f703 3e39 1577 a539 0084 8537
00000180: 66af 6cba b6fb 98b9 f4c0 3db9 9eaf 7739
00000190: 71ad 20ba 6bd3 a3ba 98a4 31b9 ee5c 2739
000001a0: d2a1 9cba bb34 c6ba a15d fab9 15cd 77ba
000001b0: 32cb e2ba e66a 0cb9 c005 9938 6f71 87ba
000001c0: 387a 8e3a c698 553a 8c5f 8eba 2022 dd38
000001d0: 249e bdba 26cb ad38 a90f 2639 38ca 9138
000001e0: de86 59ba b455 79b9 a08c 9a37 1af3 b639
000001f0: 551d 54ba c518 90ba 7ca8 63b9 6ca0 a139
00000200: 7c02 cfba 01dd e3ba c426 ecb9 cfd5 4dba
00000210: 32b0 f8ba 1ac0 c5b9 e098 f6b7 822d 97ba
00000220: e215 4d3a 8098 683a 11be 7aba b8a0 7138
00000230: 9e21 caba fcee e138 5d49 4839 cc83 7239
00000240: 8424 48ba acb8 61b9 939e ab39 164b 8339
00000250: 2fe8 42ba e46b a8ba cc08 67b9 3044 3239
00000260: 8ace dcba 10cb eeba 18d3 fcb9 49b6 65ba
00000270: 1e91 0cbb bee4 eab9 4072 c638 6fd2 9aba
00000280: 86b1 4a3a 3158 8d3a ff09 7aba e05c 4338
00000290: 8865 c2ba aaf4 8539 de19 9339 d3cf 9739
000002a0: dab3 5fba a1a3 9739 5186 8939 60aa 9d36
000002b0: 37ae 2cba 52aa b3ba 5eb5 f2b9 2a2a b238
000002c0: f459 cfba c23d e1ba 56e1 edb9 238a 41ba
000002d0: bb11 eaba be20 06ba c603 87b9 4d4a 9eba
000002e0: 96c1 343a 6d99 913a c5ef 79ba 43b8 8239
000002f0: d66d ccba 7241 f039 a675 8539 377f ad39
00000300: c573 82ba f048 b9b8 f081 de39 2076 aeb7
00000310: 8942 22ba aaa0 afba d052 82b9 917b 8239
00000320: e8b9 f3ba 8ac9 0abb ab2d 14ba edea 2aba
00000330: 0baf 92ba eff9 85ba e809 0bb9 25df abba
00000340: 6634 1a3a 28c1 ac3a ad63 6dba 820c 9239
00000350: d46a c4ba 708d c739 0e1a b1b8 f416 413a
00000360: ae10 92ba 8ca0 643a feaa 9b39 ed76 a7b9
00000370: 7bbe 13ba 186f 4fba 48c7 eeb8 18dd 05b8
00000380: 707b d9ba d35a 23bb dcba 8dba 2bc3 1bba
00000390: 6456 79ba 6cc6 7aba 1b5f 36ba 072f 84ba
000003a0: 5c0a 083a e02f b53a b8b3 94ba 205e c837
000003b0: 6074 c5ba 7a69 8639 dc73 7ab8 ffc0 443a
000003c0: 8097 b337 7884 3538 f586 803a 859e 9ab9
000003d0: f662 a939 3f91 183a e4d6 0f3a 4818 a439
000003e0: c4f7 a4ba fb52 c7ba 1eef 3d3a a025 69ba
000003f0: a255 d53a 6a3c 153a 63c7 17ba b27a 8c3a

exp_avg_sq f4 [128, 240]
0.00036309575 0.00015630927 0.00026637845 0.00017140106 0.00020520385 0.00019896879 9.044678e-05 6.543759e-05
0.00026142076 0.00019312461 7.4819574e-05 0.00028354858 0.00023153618 5.8711023e-05 0.00014352472 0.00018891707
0.0002125754 0.00032015765 0.00046648044 0.00015216545 0.00017409523 0.00014693172 0.000166456 0.00014080886
0.00036790807 0.00015406411 0.000263544 0.0001724456 0.0002059058 0.0001964746 9.4934934e-05 6.658977e-05
0.00025842784 0.0001914254 7.667097e-05 0.00029058984 0.00023374277 5.837152e-05 0.00014277287 0.00018994352
0.00021373101 0.00031916748 0.0004637539 0.00015703458 0.00017941534 0.00014942548 0.00016407421 0.00014492111
0.0003662634 0.00015485614 0.000265833 0.000175088 0.00020635709 0.00020202271 9.7781594e-05 6.766384e-05
0.00025725126 0.00019116745 7.652049e-05 0.0002891356 0.00023934845 5.59076e-05 0.00013965109 0.00018624852
0.00021650539 0.00031837943 0.00046378412 0.00016116098 0.00017744345 0.00014695185 0.00016315491 0.00014676974
0.00036501733 0.0001542543 0.00026656844 0.00017511878 0.00020249102 0.00020251845 9.782742e-05 6.806628e-05
0.0002563884 0.00019382981 7.6006516e-05 0.00028665856 0.0002414857 5.3849715e-05 0.00013951298 0.00019027217
0.00021991465 0.00031567525 0.0004649518 0.0001618033 0.00017617996 0.00014660563 0.0001661484 0.00014792715
0.00036272645 0.00015577652 0.00026558747 0.00018009689 0.00020250007 0.00020299059 9.617572e-05 6.7694986e-05
0.00025751363 0.00019260703 7.407839e-05 0.0002961918 0.00023896848 5.3053373e-05 0.00013938172 0.00019041065
0.00021964728 0.00031492478 0.0004669494 0.00016127642 0.00017635342 0.0001474284 0.00016569483 0.00014835007
0.00036232063 0.00015886607 0.0002672356 0.00018354919 0.00020423594 0.00020271413 9.670037e-05 6.729258e-05
0.00025798657 0.0001935037 7.566108e-05 0.00029528188 0.00023822348 5.2918123e-05 0.00013954646 0.00019083724
0.0002235444 0.00031409075 0.00046684121 0.00016506593 0.00017578503 0.0001445857 0.00016409275 0.00014748116
0.00036446616 0.00015870912 0.00027855512 0.00018284861 0.00019816378 0.00020027997 9.813806e-05 6.744446e-05
0.0002575669 0.00019621456 7.5473654e-05 0.00029829185 0.00023872362 5.415222e-05 0.00014338616 0.00019140478
0.00022061775 0.00031790638 0.0004679419 0.00016432293 0.00017504969 0.0001430109 0.00016288283 0.00014932861
0.0003629098 0.00015910465 0.00028282183 0.00018133025 0.00019868955 0.00019813546 0.0001000161 6.6783155e-05
0.00025777932 0.00019804829 7.5374024e-05 0.00029679915 0.00024613173 5.540783e-05 0.00014637214 0.00019662736
0.00022023331 0.00032441498 0.00046968213 0.00016770633 0.00017317828 0.00014133533 0.00016149678 0.00014772455
0.00036287672 0.00015041731 0.00028228373 0.00018047291 0.00020122 0.00019442357 0.0001046544 6.641641e-05
0.00025693685 0.00018969181 7.718725e-05 0.00030050872 0.00024138583 5.67241e-05 0.00014769888 0.00019333
0.00022455356 0.00033237188 0.00046902234 0.00017206484 0.00017421713 0.00014512669 0.00016047808 0.00015290493
0.00035985795 0.00015949615 0.0002757639 0.00017611367 0.00020143199 0.00021120615 0.00010513024 6.43709e-05
0.00025857796 0.00018325675 8.08351e-05 0.0003034368 0.00024156507 5.727625e-05 0.00015053242 0.00018954097
0.0002260592 0.00033033188 0.0004729173 0.00017338822 0.00017301954 0.000145176 0.00016142422 0.00015233226
0.00032773815 0.00013089142 0.0002703953 0.00010970516 0.00018911294 0.0001345978 6.605527e-05 9.922241e-05
0.00013912162 0.00015143522 0.00010234406 0.000110461304 0.00025249989 7.508197e-05 0.00011940763 8.836053e-05
00000000: e35d be39 f3e6 2339 b6a8 8b39 1fba 3339
00000010: fd2b 5739 47a2 5039 3fae bd38 8a3b 8938
00000020: 4d0f 8939 7e81 4a39 74e8 9c38 3fa9 9439
00000030: 85c8 7239 7b40 7638 207f 1639 0a18 4639
00000040: c6e6 5e39 d5da a739 f291 f439 9a8e 1f39
00000050: 558d 3639 af11 1a39 b18a 2e39 17a6 1339
00000060: c9e3 c039 458c 2139 472c 8a39 83d2 3439
00000070: 6be8 5739 c004 4e39 ce17 c738 1ca6 8b38
00000080: 997d 8739 5db9 4839 6aca a038 4f5a 9839
00000090: d918 7539 f1d3 7438 4db5 1539 932b 4739
000000a0: fb1c 6039 ef55 a739 ff23 f339 a6a9 2439
000000b0: 7021 3c39 19af 1c39 560b 2c39 f7f5 1739
000000c0: 0b07 c039 e160 2239 805f 8b39 d497 3739
000000d0: 8f61 5839 0fd6 5339 1810 cd38 bfe6 8d38
000000e0: aedf 8639 1f74 4839 a079 a038 2097 9739
000000f0: 9cf9 7a39 547e 6a38 4e6f 1239 b54b 4339
00000100: b905 6339 2aec a639 0d28 f339 52fd 2839
00000110: 1d10 3a39 1617 1a39 9014 2b39 34e6 1939
00000120: cc5f bf39 53bf 2139 36c2 8b39 17a0 3739
00000130: c553 5439 225b 5439 b228 cd38 cebe 8e38
00000140: de6b 8639 cb3e 4b39 b065 9f38 a94a 9639
00000150: 5337 7d39 b1dc 6138 3b4a 1239 cc83 4739
00000160: e498 6639 3781 a539 c6c4 f339 bea9 2939
00000170: f3bc 3839 26ba 1939 1f38 2e39 e41c 1b39
00000180: 522c be39 f157 2339 8c3e 8b39 64d8 3c39
00000190: 3356 5439 dfd9 5439 f2b1 c938 78f7 8d38
000001a0: e502 8739 8ef6 4939 885a 9b38 314a 9b39
000001b0: 9d93 7a39 a085 5e38 ff26 1239 f8a8 4739
000001c0: 1e51 6639 7d1c a539 e3d0 f439 4f1c 2939
000001d0: 83eb 3839 0397 1a39 5ebe 2d39 6b8e 1b39
000001e0: daf5 bd39 4995 2639 c11b 8c39 1c77 4039
000001f0: 2b28 5639 a98f 5439 9ecb ca38 6e1f 8d38
00000200: 5f42 8739 41e7 4a39 3cac 9e38 10d0 9a39
00000210: a1cb 7939 67f4 5d38 3853 1239 7b1b 4839
00000220: 3e67 6a39 8cac a439 5ec2 f439 8c15 2d39
00000230: ef52 3839 ee9b 1739 5010 2c39 2ca5 1a39
00000240: d215 bf39 286b 2639 090b 9239 0dbb 3f39
00000250: 2fca 4f39 3f02 5239 78cf cd38 f870 8d38
00000260: 0b0a 8739 f2be 4d39 9c47 9e38 0e64 9c39
00000270: e251 7a39 8121 6338 ee59 1639 d4b3 4839
00000280: a055 6739 acac a639 1956 f539 1a4e 2c39
00000290: 8b8d 3739 32f5 1539 87cb 2a39 1895 1c39
000002a0: ee44 be39 54d5 2639 b447 9439 7823 3e39
000002b0: 5257 5039 95c2 4f39 bcbf d138 ef0d 8c38
000002c0: 8e26 8739 2fab 4f39 1f12 9e38 b59b 9b39
000002d0: 3e0b 8139 b465 6838 797b 1939 c12d 4e39
000002e0: 6eee 6639 3e16 aa39 ab3f f639 53da 2f39
000002f0: 3197 3539 6a33 1439 7657 2939 82e6 1a39
00000300: 7d40 be39 57b9 1d39 7bff 9339 543d 3d39
00000310: 95fe 5239 2ede 4b39 e779 db38 0a49 8b38
00000320: 7bb5 8639 02e8 4639 97df a138 998d 9d39
00000330: 841c 7d39 0aeb 6d38 9edf 1a39 a0b8 4a39
00000340: 2376 6b39 3342 ae39 1de7 f539 4e6c 3439
00000350: 0eae 3639 262d 1839 0246 2839 1b55 2039
00000360: 51ab bc39 6c3e 2739 6794 9039 27ab 3839
00000370: 7d37 5339 3877 5d39 5e79 dc38 ddfe 8638
00000380: bf91 8739 9c28 4039 0486 a938 9916 9f39
00000390: a14c 7d39 e83b 7038 3dd8 1d39 84bf 4639
000003a0: 4e0a 6d39 6530 ad39 e3f1 f739 8ccf 3539
000003b0: 946c 3539 633a 1839 fc43 2939 61bb 1f39
000003c0: 45d4 ab39 e63f 0939 d8c3 8d39 8211 e638
000003d0: 9e4c 4639 d222 0d39 2787 8a38 a015 d038
000003e0: 2de1 1139 95ca 1e39 8da1 d638 76a7 e738
000003f0: f661 8439 5375 9d38 7c6a fa38 334e b938

exp_avg f4 [128]
-0.00062036153 2.4078763e-05 0.0 0.0 -0.0069618886 -0.004109911 0.0 -0.00094178703
0.0 0.0067770225 0.0 0.0043115625 0.00087776606 -0.00789237 0.0079157725 7.1328424e-05
-0.002013939 0.005464488 0.000980871 0.0020788624 0.001449225 -0.0072876955 0.0039169574 -0.006128234
0.0 -0.0066690776 0.003955461 0.0 -0.009677131 -0.0020277607 -0.0017410525 -0.0044777314
0.0031618192 -0.0032584069 -0.0003860491 0.0014774185 -0.0026854896 0.006521646 0.0021766273 0.0035308297
0.0045392546 0.0 0.0016143012 0.00044510578 0.0081998315 -0.0065768543 -0.0058476594 -0.0015339325
-0.00207682 0.00021743143 0.0055767293 0.0 -0.0022943085 0.0 -0.0051161544 0.0
-0.0018924659 0.0018520174 -0.0037603648 -0.008306521 -0.0021245945 -0.0011865789 0.0 -0.010825206
0.0026516437 -0.004464917 -0.0029893764 -0.007919292 -0.0058054538 0.0065784105 0.0012030668 -0.0009979131
0.0 -0.027649738 -0.0033537566 -0.0008041202 0.0034766356 -0.004032218 0.0 -0.0047742566
-0.0063678105 -0.006448296 0.0031366337 0.0011747777 0.0 0.001671198 0.0044420706 0.008204686
0.005835391 -0.013516628 0.015461458 -0.008376386 -0.0032352943 -0.00470893 -0.011982802 -0.0027059624
-0.00045430532 0.0008469592 -0.004405442 -0.0051696016 -0.0077364296 0.006436824 0.0 0.0027368655
0.0022058862 -0.004010692 0.004267767 0.0106001 -0.0031161068 0.0 0.0 -0.0031937938
-0.0009918388 -0.00503994 0.0060357396 -0.0001860928 0.0035243342 8.1964536e-05 0.003712757 0.0019367465
0.0 0.0069977036 -0.00013604038 0.0 -0.00712323 -0.00019053975 -0.0028450452 0.0007181943
00000000: c29f 22ba c0fc c937 0000 0000 0000 0000
00000010: 8e20 e4bb 6fac 86bb 0000 0000 42e2 76ba
00000020: 0000 0000 c911 de3b 0000 0000 0248 8d3b
00000030: e219 663a 004f 01bc 28b1 013c 2896 9538
00000040: 4afc 03bb 730f b33b 9290 803a 863d 083b
00000050: ecf3 bd3a 9fcd eebb d259 803b 5acf c8bb
00000060: 0000 0000 4788 dabb d09c 813b 0000 0000
00000070: d48c 1ebc 2ee4 04bb 0734 e4ba efb9 92bb
00000080: 8636 4f3b ff8a 55bb a266 cab9 f0a5 c13a
00000090: 0aff 2fbb 88b3 d53b bfa5 0e3b 7e65 673b
000000a0: 07be 943b 0000 0000 f696 d33a 165d e939
000000b0: 9658 063c a782 d7bb b99d bfbb 3c0e c9ba
000000c0: 421b 08bb 4efe 6339 ffbc b63b 0000 0000
000000d0: 1c5c 16bb 0000 0000 6aa5 a7bb 0000 0000
000000e0: 9e0c f8ba 64bf f23a 7470 76bb 1318 08bc
000000f0: c83c 0bbb fb86 9bba 0000 0000 345c 31bc
00000100: 33c7 2d3b 704e 92bb 6ae9 43bb ebbf 01bc
00000110: ad3b bebb b58f d73b 39b0 9d3a 68cc 82ba
00000120: 0000 0000 b481 e2bc b3ca 5bbb 98cb 52ba
00000130: 44d8 633b b220 84bb 0000 0000 5e71 9cbb
00000140: 11a9 d0bb 3a4c d3bb fb8f 4d3b 00fb 993a
00000150: 0000 0000 1a0c db3a ca8e 913b f36c 063c
00000160: cf36 bf3b d974 5dbc 0e52 7d3c 1c3d 09bc
00000170: 3b07 54bb 5e4d 9abb 8453 44bc 8456 31bb
00000180: d42f eeb9 7806 5e3a 875b 90bb c365 a9bb
00000190: e081 fdbb feeb d23b 0000 0000 fc5c 333b
000001a0: a190 103b 1f6c 83bb a0d8 8b3b 0bac 2d3c
000001b0: 9937 4cbb 0000 0000 0000 0000 f84e 51bb
000001c0: 9600 82ba 1526 a5bb 74c7 c53b e821 43b9
000001d0: 84f8 663b 60e4 ab38 ba51 733b 6eda fd3a
000001e0: 0000 0000 fe4c e53b 10a6 0eb9 0000 0000
000001f0: fc69 e9bb a0cb 47b9 f073 3abb 3445 3c3a
