models/RaceModelsOld/test/model.pt (torch, 511965 bytes, 24 tensors)

fc1.weight f4 [128, 240]
0	0x3c6c1d06	0.014411217
1	0xbc60602c	-0.013694804
2	0x3d125335	0.035723884
3	0xbc5759c1	-0.013143958
4	0xbd4606df	-0.048346397
5	0xbcc699bc	-0.024243228
6	0x3cafa3f1	0.021440478
7	0xbd279807	-0.04091647
8	0xbd6b89bd	-0.057504404
9	0x3c028031	0.0079651335
10	0xbd5b5d9d	-0.053556073
11	0x3d0d07a8	0.03443113
12	0x3d1f6a65	0.038919825
13	0xbca3693e	-0.019947644
14	0xbc92b3b9	-0.017907964
15	0xbd3a70fb	-0.045517903
16	0xbd06a4a0	-0.032871842
17	0xbcd13f12	-0.02554277
18	0xbcaa3c5c	-0.020780735
19	0x3ccf994b	0.02534165
20	0x3d2434cf	0.040089425
21	0xbd2ee245	-0.042696256
22	0x3d1f18fc	0.038842186
23	0xbd8f9e89	-0.0701266
24	0x3b9df87e	0.0048208823
25	0x3d179283	0.03700496
26	0x3cf4ed0b	0.029898187
27	0x3b6da339	0.0036260618
28	0xbd2b1a1a	-0.04177294
29	0xbc3cb428	-0.011517562
30	0xb9d0857e	-0.0003977231
31	0x3c915842	0.01774228
32	0xbd87f540	-0.066385746
33	0xbc854e17	-0.016272588
34	0xbd529e52	-0.051420517
35	0x3d0033e9	0.031299505
36	0x3d419bbe	0.047267668
37	0xbc54b04c	-0.012981486
38	0xbc55b668	-0.013043977
39	0x3d129145	0.03578307
40	0x3d1aea77	0.03782126
41	0xbcfaf9aa	-0.030636627
42	0xbd083ca0	-0.03326094
43	0xbd2f498f	-0.04279476
44	0xbd7d85ad	-0.06189506
45	0x3c8ec812	0.017429385
46	0x3cac60a2	0.021042172
47	0x3d66f4b2	0.056385703
48	0xbcba9801	-0.02277756
49	0x3d3c1293	0.04591615
50	0x3d616027	0.05502334
51	0x3cdcf610	0.0269728
52	0xbd6ede97	-0.058317747
53	0x3d342695	0.043982107
54	0x3bbf2af6	0.0058339788
55	0x3d0c9bf7	0.034328427
56	0xbcf0f28f	-0.029412536
57	0xbd7433f7	-0.05961987
58	0xbcd5ea31	-0.026112648
59	0xbc58de40	-0.013236582
60	0xbd666f6d	-0.056258608
61	0x3ba382e1	0.004989967
62	0xbd2638b0	-0.040581405
63	0xbd58edab	-0.052961033
64	0xbd69bcff	-0.057065006
65	0xbc70c8b4	-0.014696289
66	0x39b66ac4	0.00034793292
67	0x3d100a6b	0.035166185
68	0x3d321943	0.043481123
69	0x3d49e155	0.04928716
70	0xbb3e028c	-0.0028993217
71	0x3d41be12	0.047300406
72	0x3cbd36d7	0.023097439
73	0x3d1207cd	0.03565197
74	0xbd54585b	-0.051842075
75	0xbd547036	-0.051864825
76	0xbc9fcc6a	-0.019506652
77	0x3c56fabd	0.013121304
78	0x3ceef8b6	0.029171329
79	0xbd0f105b	-0.034927707
80	0xbd196ccd	-0.037457276
81	0xbc53f954	-0.012937862
82	0xbd4896b8	-0.04897186
83	0xbc95b83b	-0.018276324
84	0x3bc825f0	0.006108038
85	0x3c953fce	0.018218901
86	0xbd14fdab	-0.03637473
87	0x3d15efa3	0.03660549
88	0xbd37d13d	-0.04487728
89	0xbd4a92e3	-0.04945649
90	0x3c50ea97	0.012751243
91	0xbd89e3ec	-0.06732926
92	0xbcad5508	-0.02115871
93	0xbd6d5837	-0.057945456
94	0x3ad96340	0.0016585365
95	0xbd53e41e	-0.05173122
96	0xbd276bcb	-0.040874284
97	0xbd5cd16b	-0.053910654
98	0xbb7e8bf2	-0.0038840738
99	0xbd7295aa	-0.059224762
100	0xbacef6f4	-0.001579015
101	0x3ced8046	0.02899183
102	0xbd105e9c	-0.035246477
103	0xbcfe6369	-0.031053262
104	0xbb22212f	-0.0024739017
105	0x3b30be33	0.0026968836
106	0xbc92efb2	-0.017936561
107	0xbd7c9f6a	-0.061675467
108	0xbce965e1	-0.028490962
109	0xbd22fed4	-0.039793804
110	0xbd726342	-0.05917669
111	0x3c1c3b59	0.009535634
112	0x3d10645b	0.035251956
113	0xbbff642b	-0.0077939234
114	0xbcf11b1e	-0.029431876
115	0xbd510643	-0.051031362
116	0x3c7274c0	0.014798343
117	0xbd4a8869	-0.049446497
118	0xbd28445e	-0.041080825
119	0xbd767720	-0.0601722
120	0x3cc278a3	0.023739165
121	0x3bae7e41	0.005325109
122	0xbd50d1c3	-0.050981294
123	0xbcb3eb3c	-0.021962754
124	0x398f0b1c	0.00027283363
125	0xbd50caba	-0.050974585
126	0xbc93ef8f	-0.018058566
127	0xbcfb39ba	-0.030667175
128	0xbd5e51f4	-0.054277375
129	0xbd4d7c95	-0.05016764
130	0xbc6a19b5	-0.014288356
131	0xbd2af323	-0.04173578
132	0x3d22e884	0.039772525
133	0x3acc0bfa	0.0015567534
134	0xbcd3edbb	-0.025870195
135	0xbbbef752	-0.0058278227
136	0x3cc61f5f	0.02418488
137	0xbc8373e4	-0.016046472
138	0x3cdd5bc0	0.027021289
139	0xbd73dc09	-0.059536014
140	0xbc287220	-0.010281116
141	0x3bf68e72	0.007524305
142	0xbc74efef	-0.014949783
143	0xbd3f9de6	-0.046781443
144	0xbce1e1ef	-0.027573554
145	0x3d28c7ca	0.04120616
146	0xbc8113ef	-0.015756575
147	0xbd4e8f51	-0.050429646
148	0x3c214aae	0.009844465
149	0xbd911534	-0.07084122
150	0xbc685d60	-0.014182419
151	0x3d39abbb	0.04532979
152	0xbcc6162a	-0.02418049
153	0xbd01d798	-0.031699747
154	0xbd69f072	-0.057114072
155	0x3b58047b	0.0032961655
156	0x3d160cdf	0.03663337
157	0xbcad8ac0	-0.021184325
158	0x3d50210c	0.050812766
159	0x3d486265	0.04892196
160	0x3c91333b	0.017724624
161	0x3c934fc5	0.017982373
162	0xbcbadedc	-0.022811346
163	0x3ca0be4e	0.019621994
164	0x3d103035	0.035202224
165	0xbd3707d3	-0.044685196
166	0x3d44872f	0.047980484
167	0xbd1186a8	-0.03552881
168	0x3c930163	0.017944997
169	0xbd49e0ad	-0.049286533
170	0xbd4592a1	-0.04823554
171	0x3cc568b6	0.024097782
172	0xbcebdd7e	-0.02879214
173	0xbd46864d	-0.048467923
174	0xbcdec5e7	-0.027193977
175	0xbd6e7ea6	-0.05822625
176	0xbd4334ba	-0.047657706
177	0xbd17e337	-0.037081923
178	0x3d597c95	0.053097326
179	0x3bbfce06	0.0058534173
180	0x3d05ab13	0.032633852
181	0xbca91425	-0.020639488
182	0xbc3835bd	-0.011243281
183	0xbc7ff431	-0.015622185
184	0x3d319b2f	0.043360885
185	0xbd060019	-0.032714937
186	0x3d20f1f3	0.03929324
187	0xbd8c2e4f	-0.0684477
188	0x3d677c46	0.056515
189	0xbd6d5a07	-0.057947185
190	0xbd79e9da	-0.061014034
191	0xb9e99304	-0.00044550758
192	0x3d65b28f	0.05607849
193	0x3cf72394	0.030168332
194	0xbce44551	-0.027865084
195	0xbcb6ceb1	-0.022315355
196	0xbce33561	-0.027735414
197	0xbc8e953a	-0.017405141
198	0x3c8d5f3d	0.017257327
199	0x3d362a73	0.044474076
200	0x3d581ba9	0.052760754
201	0xbd082fd0	-0.033248723
202	0xbc923708	-0.017848507
203	0xbd1d74b9	-0.038441394
204	0xbd41783a	-0.047233798
205	0xbc499842	-0.0123043675
206	0xbd2b9f38	-0.04189989
207	0xbd6f6782	-0.058448322
208	0x3d1fa51f	0.03897583
209	0xba44ab25	-0.0007502309
210	0xbd6852c9	-0.056719575
211	0xbc497726	-0.012296474
212	0xbd5d0d0b	-0.053967517
213	0x3c3d76f8	0.011564009
214	0x3d61c3d1	0.055118386
215	0xbc4dbc77	-0.012557141
216	0xbd1ec69f	-0.03876364
217	0xbbc5a980	-0.006032169
218	0x3d2ea853	0.042640995
219	0xbd8181ce	-0.063235864
220	0xbd2fb5e2	-0.042898066
221	0xbc524e55	-0.012836059
222	0x3d26575c	0.040610656
223	0x3d3734e6	0.044728182
224	0xbce7f4b4	-0.028314926
225	0xbd7a17ea	-0.061057962
226	0xbd3d5390	-0.04622227
227	0x3c0928ea	0.008371571
228	0x3cd977a0	0.0265463
229	0xbd7257e4	-0.05916585
230	0x3d318f9b	0.043349843
231	0xbd0bff73	-0.034179162
232	0xbd06524f	-0.03279334
233	0x3d2d37a4	0.04228939
234	0xbd82aed3	-0.06381001
235	0xbd046e33	-0.032331657
236	0x3d23ab57	0.039958324
237	0xbd043cfb	-0.032284718
238	0xbcdcf541	-0.026972415
239	0x3ca644c3	0.02029646
240	0x3d03903a	0.032119967
241	0xbd8689d9	-0.06569261
242	0xbd0e7205	-0.034776706
243	0x3c02c7b1	0.00798218
244	0xbd1a2fdc	-0.0376433
245	0xbd21f04f	-0.039535817
246	0xbd34e429	-0.044162903
247	0x3d30df8c	0.04318194
248	0x3d3193d7	0.04335388
249	0xbbfd95c8	-0.0077388026
250	0x3bb710e1	0.005586729
251	0xbd589377	-0.05287501
252	0xbca5cec7	-0.0202402
253	0xbb5e1fa9	-0.0033893383
254	0x3d4ecd7c	0.050488934
255	0xbcdcf1cf	-0.026970772

fc1.bias f4 [128]
0	0xbc104e5a	-0.008807743
1	0xbd3b548e	-0.045734935
2	0xbd7dd907	-0.06197455
3	0x3ce3024a	0.027711052
4	0xbca90a81	-0.020634891
5	0xbcd07d95	-0.025450507
6	0xbd5c2817	-0.05374917
7	0x3d904a98	0.07045478
8	0x3cba76f4	0.0227618
9	0xbd07e799	-0.033179853
10	0x3d7939c9	0.060846124
11	0xbd480101	-0.048829082
12	0xbc94bdc7	-0.0181569
13	0xbc51dd01	-0.012809039
14	0xbd5d58d6	-0.0540398
15	0x3d473976	0.048638783
16	0x3cf6c42e	0.030122843
17	0xbb9b75d5	-0.0047442713
18	0x3c8ef85d	0.017452413
19	0x3d7758d5	0.06038745
20	0x3bd993db	0.00663994
21	0x3cb24c5c	0.021764927
22	0x3d7c98fb	0.06166933
23	0xbd37af41	-0.04484487
24	0x3d8626fe	0.06550406
25	0xbd6492e6	-0.055804156
26	0x3d268d13	0.040661883
27	0x3b994e31	0.0046785106
28	0xbc72660e	-0.01479484
29	0x3ba13198	0.004919242
30	0xbcc835e1	-0.024439754
31	0xbd6434a6	-0.055714272
32	0x3c8eb465	0.017420003
33	0xbbd8f448	-0.0066209175
34	0x3cce6879	0.0251963
35	0x3d3297ee	0.043601923
36	0xbcf9791f	-0.030453263
37	0x3d26c1f2	0.040712304
38	0xbc173990	-0.009230033
39	0xbd873d2f	-0.06603467
40	0x3d4b90fe	0.049698822
41	0xbd248cae	-0.040173225
42	0x3d395684	0.045248523
43	0x3d508f5d	0.050917972
44	0xbd068d12	-0.03284938
45	0xbd32cc53	-0.04365189
46	0x3d81ae9c	0.06332132
47	0x3ce9e1dd	0.028550083
48	0xbb119b33	-0.002221775
49	0xbd707474	-0.05870481
50	0xbd6b20be	-0.057404272
51	0xbc8520a1	-0.01625091
52	0xbc9cf6e2	-0.019160692
53	0x3c5650b3	0.013080764
54	0x3d38f020	0.045150876
55	0x3d5f23c9	0.054477487
56	0x3ce95aaa	0.028485615
57	0xbd111803	-0.03542329
58	0xbd0b67e4	-0.034034625
59	0x3c493e91	0.012282983
60	0x3c8eee68	0.017447665
61	0xbd37bee6	-0.04485979
62	0xbc030d06	-0.0079987105
63	0xbcfab4a0	-0.030603707
64	0xbcb6792a	-0.022274572
65	0x3d2688d0	0.04065782
66	0xbc0c683c	-0.008569773
67	0xbcd306be	-0.02576005
68	0x3c0f2b95	0.008738418
69	0x3d0f23ea	0.03494636
70	0x3c80fe4b	0.015746256
71	0xbd170b11	-0.036875788
72	0x3d9d035d	0.07666657
73	0xbcaefd68	-0.021361068
74	0xbcd948d4	-0.026523985
75	0x3d0a2a76	0.0337319
76	0x3d03dee1	0.032194976
77	0x3c89c192	0.016815934
78	0xbd006f63	-0.031356227
79	0x3d2e44d6	0.042546116
80	0x3d4bc60a	0.04974941
81	0x3d2ce8c7	0.04221418
82	0x3d66baf5	0.05633064
83	0x3d1c850f	0.038212832
84	0x3c561536	0.0130665805
85	0xbd13fc8f	-0.03612953
86	0xbd86f2a0	-0.06589246
87	0xbd2e078d	-0.04248767
88	0xbd1e4938	-0.038644046
89	0xbccb6717	-0.02482943
90	0xbcabda40	-0.020978093
91	0x3d951b47	0.07280593
92	0x3d266bcd	0.04063015
93	0x3cfa939d	0.030587966
94	0x3d0d1a6c	0.034449026
95	0x3cd9284b	0.026508471
96	0xbd6ec778	-0.058295697
97	0xbcfe2758	-0.03102462
98	0xbd8172ce	-0.063207254
99	0xbbac6388	-0.0052608885
100	0xbd13c283	-0.036074173
101	0x3d242de0	0.040082812
102	0x3d21f046	0.039535783
103	0x3cf53824	0.029933996
104	0xbbf67279	-0.0075209704
105	0xbb8dfef2	-0.0043333704
106	0x3d74ef2a	0.059798397
107	0xbd0f3f7a	-0.034972645
108	0x3c86b118	0.016441867
109	0x3d2eecbc	0.042706236
110	0x3d066d65	0.03281917
111	0x3cc08c6d	0.02350446
112	0x3ca1a7a5	0.01973326
113	0x3c94b762	0.01815385
114	0xbc6c3d07	-0.014418847
115	0x3be104b6	0.0068670167
116	0x3cda8e09	0.026679056
117	0xbbe1e0d1	-0.0068932553
118	0x3cb50639	0.022097694
119	0xbd1bbb5e	-0.038020484
120	0xbd72d081	-0.059280876
121	0x3c816734	0.015796281
122	0xbcfcaffe	-0.030845638
123	0x3b47de2f	0.0030497422
124	0xbcff4346	-0.031160008
125	0xbd2d661b	-0.042333703
126	0x3a9238ac	0.0011155806
127	0xbcb10ca1	-0.021612467

fc2.weight f4 [64, 128]
0	0xbc67a19b	-0.014137651
1	0x3d55d840	0.052208185
2	0xbd589932	-0.052880473
3	0x3c307ff1	0.010772691
4	0xbd7aae4b	-0.061201375
5	0x3cb0e307	0.02159263
6	0x3d603ed7	0.05474743
7	0xbc819707	-0.015819086
8	0x3d9ab2e3	0.07553651
9	0x3ccdf090	0.025139123
10	0xbd0171f9	-0.031602833
11	0x3d4d2ad7	0.050089683
12	0x3d0ef57a	0.034902073
13	0x3c02642d	0.007958454
14	0x3c387598	0.011258505
15	0xbd966054	-0.07342592
16	0x3d5af80c	0.053459212
17	0xbcc3980d	-0.023876214
18	0xbd9371de	-0.07199453
19	0x3c8ec82a	0.01742943
20	0xbd25f747	-0.040519025
21	0x3d0ecad0	0.034861386
22	0xbd13f99d	-0.03612672
23	0x3da2775b	0.079329215
24	0x3dc04eb3	0.09390011
25	0x3da0b7bf	0.07847547
26	0x3db4533a	0.08804937
27	0xbc39f5b2	-0.011350082
28	0x3d922c37	0.071373396
29	0x3c315ad8	0.0108248815
30	0x3da989bb	0.08278223
31	0x3d1d8e02	0.038465507
32	0xbd513916	-0.051079832
33	0x3c835ef3	0.016036486
34	0x3d9339c1	0.0718875
35	0x3d2376c9	0.039908204
36	0xbc877283	-0.016534096
37	0x3c4f9459	0.012669646
38	0x3d4b8274	0.049684957
39	0x3d3dd2d0	0.046343625
40	0x3d1bb77e	0.03801679
41	0xbb4f7fcc	-0.0031661866
42	0xbd913c51	-0.070915826
43	0x3d5643be	0.052310698
44	0x3cea4122	0.02859551
45	0xbd5322aa	-0.05154673
46	0x3bcf8f80	0.006334245
47	0xbd81b5a5	-0.06333474
48	0xbd482c40	-0.048870325
49	0xbd5c0e26	-0.05372443
50	0x3d1b553f	0.037923094
51	0xbd32f93d	-0.043694723
52	0xbd004359	-0.031314228
53	0xbd50a7df	-0.050941344
54	0xbd1c2c08	-0.03812793
55	0xbcd045ec	-0.025423966
56	0x3d98c184	0.07458785
57	0xbcc3fd22	-0.023924414
58	0xbd85b605	-0.06528858
59	0x3d8e9786	0.069624946
60	0x3daf7298	0.08566779
61	0xbdb79ba9	-0.08965237
62	0xbdc8d968	-0.09807092
63	0xbd8761e9	-0.06610472
64	0x3c601d20	0.013678819
65	0xbd979a86	-0.0740252
66	0xbc079ff9	-0.008277887
67	0x3d281a7d	0.041040886
68	0xbce6d7fe	-0.028179165
69	0x3cc5799b	0.024105838
70	0x3cba2a28	0.02272518
71	0x3d57a98e	0.052651934
72	0xbbaf0808	-0.0053415336
73	0x3c11cd60	0.008899063
74	0xbc66e328	-0.014092244
75	0x3b2426ec	0.0025047613
76	0xbd1194bd	-0.03554224
77	0x3c8567f0	0.016284913
78	0xbd9b7c5c	-0.07592079
79	0x3dc6fb3e	0.097158894
80	0xbda0d988	-0.07853991
81	0x3d6fbd2a	0.05853001
82	0xbd404b85	-0.04694702
83	0x3d100a09	0.03516582
84	0x3c8c91f3	0.017159438
85	0x3cef8f95	0.02924327
86	0x3da786b6	0.08179991
87	0x3d8931e2	0.066989675
88	0x3dd22d7c	0.10262582
89	0x3d8d421c	0.06897375
90	0xbbcf6d70	-0.0063301846
91	0xbd62da79	-0.055384133
92	0xbd70ec1f	-0.058818933
93	0x3c688f38	0.014194302
94	0x3d7a9f95	0.061187346
95	0xbbd6e327	-0.0065578404
96	0xbd5cb515	-0.05388363
97	0xbc5a818a	-0.013336549
98	0xbcec4c0d	-0.028844858
99	0xbcc8da4b	-0.024518153
100	0xbc46fdb6	-0.01214545
101	0x3dbef731	0.09324492
102	0xbd7373b0	-0.0594365
103	0xbce3ffc8	-0.027831927
104	0xbd5f5ee3	-0.05453385
105	0xbc60a7cb	-0.01371188
106	0x3daf1085	0.08548073
107	0xbccd298d	-0.025044227
108	0x3d319afe	0.043360703
109	0x3dbc04c0	0.091805935
110	0xbc9eb645	-0.019374022
111	0xbd32a3ef	-0.04361337
112	0x3be572b4	0.007002199
113	0xbca66366	-0.020311069
114	0xbd5fd50f	-0.054646548
115	0x3d76d590	0.060262263
116	0xbcc04929	-0.023472385
117	0x3c98114c	0.018562935
118	0x3d5819b3	0.052758884
119	0x3db57f5e	0.08862184
120	0x3c7cf52e	0.015439315
121	0xbc65688d	-0.014001978
122	0xbc2c300f	-0.010509505
123	0x3d2d5fc4	0.042327657
124	0x3d884912	0.06654562
125	0x3d558c68	0.052135855
126	0x3d5227a0	0.05130732
127	0xbda0465c	-0.0782592
128	0xbcb4ace1	-0.022055091
129	0xbd600a74	-0.05469747
130	0x3d688a81	0.056772713
131	0x3cb2c397	0.02182178
132	0x3c36cce3	0.011157247
133	0x3cb7f6fc	0.022456639
134	0x3d21c083	0.039490234
135	0x3d5ba024	0.05361952
136	0x3d5aaca2	0.05338729
137	0x3d066db3	0.03281946
138	0x3cbdc9af	0.02316746
139	0xbd4123e0	-0.047153354
140	0xbcb6cb1b	-0.022313645
141	0x3c034876	0.0080128815
142	0x3d2b735c	0.041858062
143	0xbbaa72e3	-0.005201684
144	0xbca7639e	-0.020433243
145	0x3d3e4a0c	0.046457335
146	0x3d91240b	0.07086953
147	0xbd1d9212	-0.03846938
148	0x3d9af71c	0.075666636
149	0xbc84cedc	-0.01621192
150	0x3d2ab928	0.041680485
151	0xbcde7606	-0.027155887
152	0xbc4df5e7	-0.012570835
153	0x3d9c656a	0.07636531
154	0xbd368eb2	-0.04456968
155	0x3d7a9b01	0.06118298
156	0xbca87f43	-0.020568496
157	0xbd065130	-0.03279227
158	0x3d37f21e	0.044908635
159	0xbc7cee14	-0.015437622
160	0xbd9df7d6	-0.077132866
161	0xbc1bcf1c	-0.009509828
162	0x3d57ddff	0.052701946
163	0xba63d3be	-0.0008690915
164	0xbd07088f	-0.032967146
165	0x3c96bb2b	0.018399796
166	0xbceed39a	-0.029153634
167	0xbcadfb90	-0.021238118
168	0xbbf63fe0	-0.0075149387
169	0x3d69cfed	0.05708306
170	0x3d6c7b19	0.057734583
171	0xbb12e67a	-0.0022415207
172	0x3b8b1770	0.0042447373
173	0x3d9f7355	0.0778567
174	0xbd3a7700	-0.045523643
175	0x3d3ff53e	0.04686474
176	0xbd811a4a	-0.06303842
177	0xbd23e510	-0.040013373
178	0x3d9796d1	0.07401813
179	0xbd25f3e3	-0.04051579
180	0xbbffea02	-0.0078098783
181	0x3d0c4b5e	0.034251563
182	0x3ce06847	0.027393473
183	0x3c55c0ed	0.013046485
184	0x3cf1416c	0.02945014
185	0xbd357102	-0.044297226
186	0xbcdfefa1	-0.027335944
187	0xba7f9040	-0.0009748973
188	0x3b190f1d	0.0023354955
189	0xbcb0944b	-0.021555087
190	0x3c8c51a0	0.017128766
191	0xbcbc4f5f	-0.022987066
192	0x3c5bb262	0.013409229
193	0x3d4ab605	0.049489994
194	0xbc3a8e3b	-0.011386449
195	0x3d342f26	0.043990277
196	0x3c1de064	0.009636018
197	0xbd190c2a	-0.037365116
198	0x3d8980fa	0.067140535
199	0x3d9d80e6	0.07690601
200	0xbd1ddf67	-0.03854313
201	0xbd7c672f	-0.06162184
202	0x3d79a753	0.06095059
203	0xbd5ad94b	-0.053429883
204	0xbdc4ce57	-0.09609669
205	0xbcfbc4c9	-0.030733483
206	0x3cd4af04	0.02596236
207	0x3d1622d5	0.036654312
208	0x3d186a9a	0.03721104
209	0xbd799163	-0.060929667
210	0x3d8a4c08	0.06752783
211	0x3d544c97	0.051830854
212	0xbc8c7f3c	-0.017150514
213	0x3d365a05	0.044519443
214	0xbd2775dc	-0.040883884
215	0x3d114e85	0.035475273
216	0xbb8328cd	-0.0040026666
217	0x3d0f6c90	0.035015643
218	0x3bfdb060	0.007741973
219	0x3c070f2e	0.008243365
220	0xbd95de88	-0.07317835
221	0x3d012e63	0.03153838
222	0xbd5d0789	-0.053962264
223	0xbd5ac18f	-0.053407248
224	0xbceefec1	-0.02917421
225	0x3d37245b	0.044712406
226	0xbd3cf8d7	-0.04613575
227	0xbcc6b5bb	-0.024256578
228	0xbd7a6c28	-0.061138302
229	0x3d5bc72e	0.05365675
230	0x3d7c2ad0	0.061564267
231	0x3c5888ea	0.013216237
232	0x3d9caf3e	0.07650612
233	0x3cd45490	0.025919229
234	0xbc6921c5	-0.014229243
235	0x3d62a82b	0.05533616
236	0x3d95f271	0.07321633
237	0xbd533792	-0.051566668
238	0x3c9d109d	0.01917296
239	0xbcde1feb	-0.027114829
240	0xbd4174c5	-0.0472305
241	0x3d1ce716	0.03830632
242	0x3b9d64d5	0.00480328
243	0x3d801315	0.062536396
244	0xbd2e94e3	-0.04262246
245	0x3d85b6c7	0.06529003
246	0x3d0714ca	0.03297881
247	0xbd217c21	-0.03942502
248	0xbd931be5	-0.07183055
249	0xbd37bc37	-0.04485723
250	0xbcf9cf3a	-0.030494321
251	0xb98a4289	-0.00026370984
252	0x3d516f36	0.05113145
253	0xbdbdf6f5	-0.09275619
254	0x3d842184	0.06451705
255	0x3ccc7c48	0.024961606

fc2.bias f4 [64]
0	0x3c83b9a5	0.016079733
1	0xbc2cb8d3	-0.010542112
2	0x3d212785	0.03934433
3	0x3ca8b4f4	0.020594098
4	0xbd4308af	-0.047615703
5	0xbd92e59f	-0.07172703
6	0x3d79454b	0.0608571
7	0xbd70efd7	-0.05882248
8	0x3c9443b4	0.01809869
9	0xbd7cf1eb	-0.06175415
10	0xbc9cafae	-0.01912674
11	0xbc85d8b4	-0.016338684
12	0x3c2994ab	0.010350387
13	0xbd372ced	-0.04472058
14	0x3d4451cf	0.04792958
15	0xbc32e6bb	-0.010919268
16	0xbd19fcaf	-0.037594493
17	0x3c8ba04e	0.017044213
18	0x3c620cb8	0.013796978
19	0xbd4f8649	-0.050665174
20	0x3d4bcdfe	0.049756996
21	0x3b8a6540	0.0042234957
22	0x3c82359e	0.015894707
23	0xbd5f4cde	-0.054516666
24	0x3907e11c	0.00012958463
25	0xbc4995ef	-0.012303813
26	0xbca53d9d	-0.020170981
27	0x3d29ea6c	0.041483328
28	0xbda7349b	-0.081643306
29	0xbcda5519	-0.026651906
30	0xbcc34e32	-0.023840997
31	0xbd19f4a0	-0.03758681
32	0x3d7fe222	0.062471516
33	0x3d9d5ba0	0.07683492
34	0x3cdc49e1	0.026890697
35	0xbb845000	-0.004037857
36	0x3dc71d0a	0.09722336
37	0xbd439f40	-0.047759295
38	0xbd338e12	-0.04383666
39	0xbd9bb359	-0.07602567
40	0xbd9f7af3	-0.077871226
41	0xbd55cf25	-0.0521995
42	0x3c8fe917	0.0175672
43	0xbdb9b75e	-0.09068178
44	0xbd1648f2	-0.03669066
45	0x3da85105	0.08218578
46	0xbba5f693	-0.0050647943
47	0xbc8d268a	-0.01723029
48	0x3dd08d0d	0.10183153
49	0x3dcba8a6	0.099442765
50	0x3bca3de2	0.006171928
51	0xbc922edb	-0.017844608
52	0x3dc2938b	0.09500798
53	0x3db0f10a	0.086397246
54	0x3da53f17	0.08068674
55	0xbd4a581c	-0.049400434
56	0x3d5b68a0	0.053566575
57	0x3dcf3666	0.101177976
58	0xbda355e6	-0.07975368
59	0xbd674466	-0.056461714
60	0x3cb43adf	0.022000728
61	0x3d6f22c8	0.05838278
62	0xbd9c4d62	-0.07631947
63	0x3cef6d24	0.029226847

fc3.weight f4 [32, 64]
0	0x3d8190b5	0.06326429
1	0xbde324c6	-0.11090998
2	0xbc025741	-0.007955373
3	0x3d8a410c	0.06750688
4	0x3d9ed951	0.077562936
5	0xbde2a05a	-0.11065741
6	0x3ca63ed1	0.020293625
7	0xbd34d898	-0.044151872
8	0x3d1f9ff1	0.03897089
9	0xbdf9ffc2	-0.12206985
10	0x3dcfd356	0.10147731
11	0x3c4eeb7e	0.012629388
12	0x3c09a49f	0.008401065
13	0xbc92f807	-0.017940534
14	0xbc0c815c	-0.008575764
15	0x3de4c544	0.11170438
16	0xbe006941	-0.12540151
17	0x3d7e855c	0.0621389
18	0xbb7f9140	-0.0038996488
19	0x3d98960d	0.07450495
20	0xbd97222e	-0.07379566
21	0x3d25b7ac	0.040458366
22	0x3d589996	0.052880846
23	0xbdb478fb	-0.08812138
24	0x3da39b8b	0.07988652
25	0x3a4be961	0.00077786116
26	0xbca5ade3	-0.020224517
27	0x3de10817	0.10987871
28	0xbde83c87	-0.1133967
29	0xbd3acba6	-0.04560437
30	0xbcc03334	-0.023461916
31	0x3de185a1	0.11011816
32	0xbd9dcb10	-0.07704747
33	0xbdd28738	-0.10279697
34	0x3ddc21fb	0.10748669
35	0xbd81044a	-0.06299646
36	0xbcc5db75	-0.024152497
37	0xbd75fc9f	-0.06005537
38	0xbdf5af58	-0.11996335
39	0x3caf84e8	0.02142568
40	0xbd9ccf8f	-0.07656776
41	0x3c15e7ec	0.009149533
42	0xbda251bd	-0.079257466
43	0x3d990348	0.07471329
44	0x3df11e1c	0.11773321
45	0x3d66c8e7	0.05634394
46	0xbddf94cd	-0.10917053
47	0xbbc36d7e	-0.00596398
48	0x3dad2f4a	0.08456285
49	0xbdf8abe0	-0.121421576
50	0x3d6bc7de	0.057563655
51	0xbe039d60	-0.12853003
52	0xbbf5e2ad	-0.0075038285
53	0xbd8868a9	-0.06660587
54	0xbdf36da5	-0.118861474
55	0x3d7fdf96	0.062469088
56	0xbc09fb51	-0.008421735
57	0xbd197246	-0.037462495
58	0x3d6672d6	0.05626186
59	0xbbc0e8b0	-0.0058871135
60	0x3d148f8c	0.03626971
61	0x3d6d828a	0.05798582
62	0xbda5f62e	-0.08103596
63	0x3daa5e84	0.08318809
64	0xbcc63bc8	-0.024198428
65	0xbdf907ac	-0.121596664
66	0xbd8d0a86	-0.06886773
67	0xbdfcbb2e	-0.12340389
68	0x3d562a10	0.052286208
69	0x3d0a2258	0.03372416
70	0x3d557bc8	0.05212
71	0x3de8f9a4	0.1137574
72	0x3d224a0c	0.039621398
73	0xbc1e1ee0	-0.009650916
74	0xbd7136b8	-0.058890074
75	0x3dd2f966	0.10301475
76	0xbd6a3b68	-0.05718556
77	0x3cacf9b0	0.021115154
78	0xbdd8310c	-0.1055623
79	0xbdc281f8	-0.09497446
80	0xbcac77c0	-0.021053195
81	0xbdf9bfc4	-0.121947795
82	0xbd63c7cc	-0.055610463
83	0xbd50aa94	-0.050943926
84	0xbdd3a552	-0.10334267
85	0xbdbd7750	-0.09251273
86	0xbdb04284	-0.08606437
87	0xbde2adbe	-0.11068295
88	0x3d9a1fe8	0.07525617
89	0xbdc583ce	-0.096442804
90	0xbbd1b440	-0.0063996613
91	0xbd8bb91c	-0.06822416
92	0xbdb20fd6	-0.08694427
93	0xbd893e58	-0.06701344
94	0x3ce0e010	0.027450591
95	0x3d9b7e2c	0.07592425
96	0xbc950520	-0.01819092
97	0xbd8e1372	-0.06937303
98	0xbdfd13ba	-0.12357278
99	0xbdf30b84	-0.11867431
100	0xbd8d7952	-0.06907906
101	0x3cb8a5b8	0.022539958
102	0xbc73a050	-0.014869764
103	0xbd2cda04	-0.042200103
104	0xbcc95d30	-0.024580568
105	0xbd9702ea	-0.07373603
106	0xbd2b9e18	-0.041898817
107	0xbd80a808	-0.062820494
108	0x3d362704	0.044470802
109	0x3cc1c3d0	0.023652941
110	0xbd22d5e4	-0.039754763
111	0x3d92455a	0.07142134
112	0x3c726cc0	0.014796436
113	0x3ca3dc30	0.020002455
114	0xbccf5c18	-0.025312468
115	0x3dec1950	0.115282655
116	0xbccaeda8	-0.024771526
117	0x3c931480	0.017954111
118	0xbdba58aa	-0.090989426
119	0xbbc28b80	-0.00593704
120	0x3df880e2	0.121339574
121	0xbdda1f8e	-0.1065055
122	0xbc822ce8	-0.015890554
123	0x3d1c6634	0.038183406
124	0x3de4e1cc	0.1117588
125	0xbde46932	-0.11152877
126	0xbdad21fc	-0.08453748
127	0xbda5ed56	-0.08101909
128	0xbd581ff9	-0.052764867
129	0xbdaff326	-0.08591299
130	0xbe05b10d	-0.13055821
131	0xbdb630c4	-0.0889602
132	0xbdb7dcdb	-0.08977672
133	0x3cde7e0f	0.027159719
134	0xbdc48adb	-0.09596797
135	0xbcf01bc0	-0.029310107
136	0x3dc3fb52	0.0956942
137	0x3d9e2213	0.07721343
138	0x3b730240	0.0037080199
139	0x3dd0033e	0.101568684
140	0xbd869e0b	-0.06573113
141	0xbdeccbd8	-0.115623176
142	0xbda9942c	-0.08280215
143	0x3cf7ffb8	0.030273303
144	0x3dbe41e0	0.092899084
145	0x3e07b902	0.13254169
146	0x3d8c9a96	0.068654224
147	0xbd3aa668	-0.045568854
148	0x3de6b17b	0.112643205
149	0xbd94e103	-0.0726948
150	0x3dae2e9b	0.08504983
151	0xbdf6dd32	-0.120539084
152	0xbe03c2bf	-0.12867258
153	0xbd9f818c	-0.07788381
154	0xbd7fe9c9	-0.062478814
155	0x3da62b58	0.08113736
156	0xbd99cc4a	-0.07509668
157	0xbe005d24	-0.1253553
158	0x3dc051d6	0.09390609
159	0xbc93d120	-0.018044055
160	0xbdfe5090	-0.1241771
161	0x3dc954d6	0.09830634
162	0xbd8db8a0	-0.0691998
163	0x3d90723c	0.070530385
164	0x3d5e6d49	0.05430344
165	0xbc302c20	-0.010752708
166	0xbcefa4e4	-0.02925343
167	0xbd66d9e0	-0.056360126
168	0xbe134bbd	-0.1438436
169	0x3c73eee0	0.014888495
170	0x3da4e084	0.080506355
171	0x3df6cc38	0.120506704
172	0x3dc046fe	0.09388541
173	0x3daf9366	0.08573036
174	0x3c95e866	0.018299293
175	0x3ae8ae00	0.0017752051
176	0x3dc218bd	0.09477375
177	0x3e065091	0.13116671
178	0xbd510518	-0.05103025
179	0xbcec1b4c	-0.02882161
180	0x3dd4d8a7	0.10392886
181	0xba8c34d7	-0.00106969
182	0xbd13691f	-0.035988923
183	0x3c6ca83d	0.014444408
184	0x3e3d1a8e	0.18467161
185	0xbd0db33a	-0.034594752
186	0xbc24eae0	-0.010065764
187	0x3dfadf47	0.12249618
188	0x3d2d9fe4	0.04238881
189	0x3ba8d256	0.005152027
190	0x3deaa30e	0.114568815
191	0xbb12772b	-0.0022348862
192	0x3c057786	0.008146172
193	0x3d97e719	0.07417125
194	0xbd1d16b2	-0.038351722
195	0x3ce73db0	0.028227657
196	0x3da5cc05	0.08095554
197	0x3d1b5319	0.037921045
198	0x3d03bda5	0.03216328
199	0x3d3b6db0	0.045758903
200	0xbdc24a3b	-0.094868146
201	0x3ce187bf	0.02753055
202	0xbc3e3f34	-0.0116117485
203	0x3d7b533b	0.06135867
204	0x3c65028e	0.01397766
205	0x3936d5bc	0.00017436495
206	0xbd3c889b	-0.046028715
207	0x3de93173	0.11386385
208	0xba40b82f	-0.0007351664
209	0x3ddb2838	0.107010305
210	0xbd98d782	-0.0746298
211	0xbdf1334a	-0.11777361
212	0x3d866e36	0.0656399
213	0xbc7d0fcd	-0.015445662
214	0xbd2e141b	-0.042499643
215	0x3e1bf5ba	0.15230456
216	0xba580e6a	-0.0008241894
217	0xbcc3c795	-0.023898879
218	0xbda0f5d5	-0.07859389
219	0x3dc9afb8	0.09847969
220	0x3bd499eb	0.006488075
221	0xbdcb1f5a	-0.09918089
222	0xbd5daaa4	-0.054117814
223	0x3d34fd44	0.044186845
224	0x3c313950	0.010816887
225	0xbbde924c	-0.0067923423
226	0x3db49618	0.088176906
227	0x3d137870	0.03600353
228	0x3d9b866f	0.075940005
229	0x3d76147b	0.060078125
230	0xbd9dd72a	-0.07707055
231	0x3db453d0	0.088050485
232	0xbdaaa004	-0.08331302
233	0xbdb1b898	-0.086777866
234	0xbd4d0cd8	-0.050061077
235	0x3d1b3b11	0.037898127
236	0xbd026f10	-0.0318442
237	0x3dd669aa	0.104693726
238	0x3c254d63	0.010089251
239	0xbdba575a	-0.09098692
240	0x3dba9421	0.091102846
241	0x3dc16673	0.09443369
242	0x3dfe4198	0.12414855
243	0xbdda20fc	-0.106508225
244	0x3dcc3276	0.09970562
245	0xbd8462aa	-0.06464131
246	0x3ce0d9e7	0.027447654
247	0x3d48f567	0.04906216
248	0xbd888a29	-0.06666977
249	0x3dc3a16d	0.09552274
250	0xbc8cf761	-0.017207803
251	0x3dd92751	0.10603202
252	0xbc6c311e	-0.014416007
253	0x3d0263a3	0.031833302
254	0x3da59b32	0.08086242
255	0x3cbe28fd	0.023212904

fc3.bias f4 [32]
0	0x3d657a17	0.056024637
1	0xbc90fa90	-0.017697603
2	0xbd9edef7	-0.07757371
3	0x3ccc9316	0.02497248
4	0xbdc4ca22	-0.09608866
5	0xbcee0d60	-0.029059112
6	0xbce7c54d	-0.028292323
7	0x3db7b5fa	0.08970256
8	0xbd0a4b14	-0.033763006
9	0x3db91b01	0.09038354
10	0xbc5ac3cb	-0.013352345
11	0xbcc2ff28	-0.023803309
12	0xbcb23133	-0.021751976
13	0x3dd08264	0.1018112
14	0xbd006fb0	-0.031356514
15	0x3dbdb26d	0.09262548
16	0xbb3fe967	-0.0029283406
17	0x3dad38d1	0.084581025
18	0x3e101087	0.14068805
19	0xbd8608c6	-0.06544642
20	0xbdcaa644	-0.09894994
21	0xbd5f58fb	-0.054528218
22	0x3d824f10	0.06362736
23	0x3d241880	0.040062428
24	0x3bbc1da5	0.0057408386
25	0xbdde0426	-0.10840635
26	0xbd0caced	-0.034344602
27	0x3d47479f	0.048652288
28	0x3d30e497	0.04318675
29	0xbd631cbe	-0.055447333
30	0x3c8b2c90	0.016989022
31	0xbb1ef253	-0.0024253323

fc4.weight f4 [24, 32]
0	0x3dce1ae7	0.10063725
1	0xbdf77a4a	-0.12083872
2	0x3e475acb	0.19468229
3	0xbc8fee96	-0.017569821
4	0xbdaaeeca	-0.08346327
5	0x3d09e2b4	0.033663467
6	0x3c4d0424	0.012513194
7	0xbe1672aa	-0.14692178
8	0x3e0b3781	0.13595392
9	0x3e454215	0.1926349
10	0x3cf839e9	0.030301051
11	0xbd617cea	-0.055050768
12	0x3c252134	0.010078717
13	0xbd7b6845	-0.061378736
14	0x3e155f55	0.14587148
15	0xbe0c5ed2	-0.13708046
16	0x3dbeb957	0.093126945
17	0x3d641966	0.055688284
18	0x3dbec6ab	0.09315237
19	0xbdff4ab0	-0.124654174
20	0xbe33d53f	-0.17561816
21	0x3e1b7ba8	0.1518389
22	0xbde86ba3	-0.11348655
23	0xbe31792c	-0.1733138
24	0x3df2b2ad	0.11850486
25	0x3dabe256	0.083927795
26	0xbcf16263	-0.02946586
27	0x3cdacfce	0.026710417
28	0x3d8db74b	0.06919726
29	0x3ce38d8e	0.02777746
30	0xbd11bb67	-0.03557911
31	0x3d81f93c	0.06346366
32	0x3e1c83f1	0.15284707
33	0x3d80ae68	0.06283265
34	0xbe1dd4a4	-0.15413147
35	0x3e19d7ea	0.15023771
36	0x3e06e092	0.13171604
37	0x3d2d94dc	0.04237829
38	0x3e136beb	0.14396636
39	0x3cf2b926	0.029629301
40	0xbdac6168	-0.08417016
41	0xbe06405a	-0.13110486
42	0x3bf6f7de	0.0075368723
43	0x3d39ac94	0.0453306
44	0x3d4ba2fa	0.049715973
45	0x3dd3f698	0.103497684
46	0x3d5c550c	0.053792045
47	0x3daf12c9	0.08548505
48	0x3dfb0bda	0.1225812
49	0x3d98d298	0.074620426
50	0x3da2b9ec	0.07945618
51	0xbd28b1e4	-0.041185275
52	0x3d385eac	0.04501216
53	0xbe1410c6	-0.14459524
54	0x3e1d8e7e	0.15386388
55	0xbde0bf47	-0.10973983
56	0x3d26436c	0.040591642
57	0x3e179c75	0.14805777
58	0x3d80c39f	0.06287312
59	0x3cd0ea83	0.025502449
60	0xbdbb50dc	-0.09146282
61	0xbde91513	-0.11380973
62	0x3e0a9c1e	0.13536116
63	0xbd3253ec	-0.043537065
64	0x3dec5781	0.115401275
65	0xbd9ac2d4	-0.07556692
66	0x3e5c046b	0.2148606
67	0x3e2d7b29	0.16941513
68	0xbdc495c3	-0.09598877
69	0x3e2df59d	0.16988225
70	0x3e1c7638	0.15279472
71	0x3cdb8df1	0.026801081
72	0xbcc566f8	-0.02409695
73	0x3d0bc682	0.03412486
74	0xbe0e6cf1	-0.13908745
75	0xbdfdd5fc	-0.1239433
76	0xbd6fde88	-0.05856183
77	0x3dd4a406	0.103828475
78	0xbcafb163	-0.02144689
79	0xbd2cb310	-0.042162955
80	0x3e17d00a	0.14825454
81	0x3da877c6	0.0822597
82	0x3e1e29fc	0.15445703
83	0xbd437498	-0.047718614
84	0x3d7afd8c	0.061276957
85	0x3d8963ee	0.06708513
86	0xbe0793cd	-0.13239975
87	0xbe0f1267	-0.13971864
88	0xbc9bb717	-0.019008202
89	0xbded2688	-0.11579615
90	0x3de60103	0.11230662
91	0x3ca70e62	0.0203926
92	0xbde2a33e	-0.11066292
93	0x3cc288e9	0.023746924
94	0x3e0a304f	0.13494991
95	0xbdde3f1f	-0.10851883
96	0xbd6e8504	-0.058232322
97	0xbe216315	-0.15760453
98	0xbdae4d42	-0.085108295
99	0x3e0afb1e	0.13572356
100	0x3d80ca6c	0.06288609
101	0xbcaebd38	-0.02133046
102	0x3d1dfa65	0.038568873
103	0xbe06be6f	-0.13158582
104	0xbde0884d	-0.10963497
105	0x3dda9da7	0.10674601
106	0x3d2df7f5	0.0424728
107	0x3d096a1b	0.033548456
108	0x3ba0f89a	0.004912448
109	0x3caaea59	0.020863699
110	0xbd92929b	-0.07156869
111	0xbbe222c4	-0.006901117
112	0xbd87ea20	-0.06636453
113	0xbe179a19	-0.14804877
114	0xbd4137de	-0.04717242
115	0xbd2ec44c	-0.042667672
116	0x3df622f2	0.12018384
117	0xbbaee30b	-0.005337124
118	0x3ccde597	0.025133891
119	0xbe25187f	-0.16122626
120	0x3e59c92e	0.2126815
121	0x3e0e8209	0.13916792
122	0xbddda73a	-0.108229116
123	0xbdb43cc6	-0.08800654
124	0x3d5eee9a	0.054426767
125	0xbb84b1f9	-0.0040495363
126	0x3de93a2c	0.113880485
127	0x3dae17e7	0.08500653
128	0x3cc763a7	0.02433951
129	0xbc6ba950	-0.014383629
130	0x3e071d53	0.1319478
131	0x3d4db12e	0.0502178
132	0xbdd8c943	-0.105852626
133	0xbe1dcea6	-0.15410861
134	0xbc767d94	-0.015044589
135	0xbdd0eeae	-0.102017745
136	0x3e1be227	0.15222989
137	0xbdfb7c7d	-0.12279604
138	0x3e242d7c	0.16032976
139	0xbe0f72ea	-0.1400868
140	0xbe04cf78	-0.12969768
141	0xbb32635b	-0.0027219865
142	0x3e729976	0.23691353
143	0x3d99e8c3	0.07515099
144	0xbdd9f0c9	-0.10641629
145	0x3e131292	0.14362553
146	0x3e4518e7	0.1924778
147	0xbdc1a306	-0.094549224
148	0x3cc38350	0.023866326
149	0x3e40d27f	0.18830298
150	0x3e28dd12	0.16490582
151	0xbdbffb12	-0.0937406
152	0xbd6ff403	-0.058582317
153	0x3e304583	0.17214017
154	0x3cea0315	0.028565923
155	0xbddc7889	-0.10765178
156	0xbe090964	-0.13382488
157	0xbdc65494	-0.09684101
158	0xbd9d06a2	-0.07667281
159	0xbdf7084c	-0.120621294
160	0x3db68854	0.08912721
161	0xbd86a9e8	-0.06575376
162	0x3d4171ec	0.047227785
163	0x3e55ba8c	0.20871943
164	0x3e039de4	0.12853199
165	0xbdbb3fa1	-0.091429956
166	0x3dc4dd3a	0.09612508
167	0x3db9a492	0.090645924
168	0x3dd4160e	0.10355769
169	0xbe0f912f	-0.14020227
170	0xbdef6857	-0.11689823
171	0x3e433dd4	0.19066554
172	0x3e20116a	0.15631643
173	0x3cb6f087	0.02233149
174	0x3dbf3688	0.09336573
175	0x3e01d133	0.1267746
176	0x3de5ba64	0.11217192
177	0xbd9715cf	-0.073772065
178	0x3e41f07f	0.18939398
179	0xbdc88e8f	-0.09792816
180	0x3d83594e	0.06413518
181	0x3e1a792b	0.15085284
182	0xbd982960	-0.07429767
183	0x3e224053	0.1584485
184	0x3e009933	0.12558441
185	0x3dcd03c6	0.10010485
186	0x3d028348	0.03186348
187	0x3df293ff	0.11844634
188	0x3dc3ed22	0.09566714
189	0x3c5309a0	0.012880713
190	0x3de53e3e	0.111935124
191	0x3d4bb107	0.049729373
192	0x3dc508a2	0.09620787
193	0xbe10f31a	-0.14155236
194	0x3dc32ed8	0.09530419
195	0x3df93e17	0.12170046
196	0x3d23ad9c	0.03996049
197	0xbc898528	-0.016787127
198	0x3df680a5	0.12036256
199	0x3dbfba3c	0.09361693
200	0x3c8c5bf0	0.017133683
201	0xbdb8777d	-0.090071656
202	0xbd1ff845	-0.039055128
203	0x3e2f9308	0.17145932
204	0x3d4e1143	0.05030943
205	0x3d0c7ca6	0.03429856
206	0xbda3e893	-0.080033444
207	0xbd0e8c9c	-0.034802064
208	0xbd40cea0	-0.047072053
209	0x3e0e415d	0.13892122
210	0x3e2b7801	0.16744997
211	0xbd3c2c84	-0.04594089
212	0xbe23b8a6	-0.15988407
213	0xbd8ed824	-0.06974819
214	0x3d3bfd39	0.04589579
215	0xbd9f083c	-0.077652425
216	0xbd4c51fb	-0.04988287
217	0xbd60e04e	-0.054901414
218	0xbdb15680	-0.08659077
219	0x3e074db7	0.1321324
220	0xbcaa36ed	-0.020778144
221	0x3df56487	0.11982065
222	0x3d9fd74e	0.07804738
223	0xbe229aac	-0.15879315
224	0xbc6e5abb	-0.014547999
225	0xbc522e20	-0.01282838
226	0xbd9de631	-0.07709921
227	0x3e116626	0.14199123
228	0xbcf86e28	-0.030325964
229	0x3e31107b	0.17291443
230	0x3e2c3d8c	0.16820353
231	0x3e1201cc	0.14258498
232	0xbe1a4133	-0.15063934
233	0xbdceca35	-0.10097162
234	0x3d1d9cb9	0.03847954
235	0x3de99bfe	0.11406706
236	0x3e1e84ea	0.1548039
237	0x3ddfad5d	0.10921738
238	0xbca0bd1c	-0.019621424
239	0xbe026c44	-0.12736613
240	0x3e24d6cf	0.16097568
241	0xbd693287	-0.056932952
242	0x3c93ad97	0.01802711
243	0x3e0b2af9	0.13590612
244	0x3dece04a	0.11566217
245	0xbda8b911	-0.082384236
246	0xbe142e3c	-0.14470762
247	0xbde5e419	-0.11225147
248	0x3bd39b6d	0.006457737
249	0x3e2da135	0.16956027
250	0xbd1e94be	-0.03871607
251	0x3d50e2d2	0.050997563
252	0xbab6d94b	-0.0013950256
253	0xbd17f532	-0.03709907
254	0x3bcc9e35	0.0062444457
255	0x3e01f741	0.12691976

fc4.bias f4 [24]
0	0x3aec8458	0.0018044813
1	0x3aab7731	0.0013081786
2	0x3db5df98	0.08880538
3	0xbb8736d9	-0.0041264114
4	0x3e10a8e9	0.14126934
5	0xbdf987fc	-0.1218414
6	0xbc442daa	-0.011973778
7	0x3dfbfdb3	0.12304249
8	0xbde93f37	-0.113890104
9	0x3b3b53d7	0.0028583908
10	0xbdaece0f	-0.08535396
11	0x3e2df708	0.16988766
12	0xbd674e1c	-0.056470975
13	0xbc54f31b	-0.012997414
14	0x3cab9437	0.020944698
15	0x3bc2584b	0.0059309355
16	0xbdfcafcd	-0.12338219
17	0xbc1b0a9a	-0.009462977
18	0x3d86ef7e	0.06588648
19	0xbdde0bb4	-0.10842076
20	0x3dae86a4	0.085217744
21	0x3e1e9e56	0.15490088
22	0x3e182c93	0.14860754
23	0x3e00601c	0.12536663

exp_avg f4 [128, 240]
0	0x2765d541	3.189574e-15
1	0x2706211b	1.8614182e-15
2	0x2765d541	3.189574e-15
3	0x26b8e7c9	1.283039e-15
4	0x2708add5	1.8968026e-15
5	0x2743379e	2.7091836e-15
6	0x26eaeda2	1.6301422e-15
7	0x26993b52	1.0632586e-15
8	0x260c731d	4.8728265e-16
9	0x25fa2b4c	4.3397426e-16
10	0x2678b107	8.62822e-16
11	0x263632b3	6.3212645e-16
12	0x274ea1ed	2.8676023e-15
13	0x261837f6	5.2811435e-16
14	0x2665874a	7.9633686e-16
15	0x267e914f	8.832088e-16
16	0x2765d541	3.189574e-15
17	0x27592d92	3.0139503e-15
18	0x27549de1	2.9506496e-15
19	0x26b76855	1.2726455e-15
20	0x2765d541	3.189574e-15
21	0x267a007b	8.6736825e-16
22	0x26fb4fe3	1.7438277e-15
23	0x26daa835	1.5172381e-15
24	0x2765d541	3.189574e-15
25	0x26fe5a9d	1.7649351e-15
26	0x2765d541	3.189574e-15
27	0x26b8e7c9	1.283039e-15
28	0x26e7a4df	1.6073533e-15
29	0x2743379e	2.7091836e-15
30	0x270a523c	1.9195927e-15
31	0x2699cfd5	1.0672841e-15
32	0x260d9c1d	4.9130775e-16
33	0x25fa2b4c	4.3397426e-16
34	0x2678b107	8.62822e-16
35	0x26375bbd	6.361521e-16
36	0x274cae81	2.8405286e-15
37	0x261960f8	5.3213956e-16
38	0x2665874a	7.9633686e-16
39	0x267c3f4d	8.751585e-16
40	0x2765d541	3.189574e-15
41	0x27592d92	3.0139503e-15
42	0x2754539c	2.9466235e-15
43	0x26ba2632	1.2916696e-15
44	0x2765d541	3.189574e-15
45	0x267b2984	8.7139383e-16
46	0x26ed6841	1.6473437e-15
47	0x26f6775f	1.7102035e-15
48	0x2765d541	3.189574e-15
49	0x26fe5a9d	1.7649351e-15
50	0x2765d541	3.189574e-15
51	0x26b8e7c9	1.283039e-15
52	0x26e7a4df	1.6073533e-15
53	0x2744e0c7	2.7322316e-15
54	0x270c45a8	1.9466664e-15
55	0x2699cfd5	1.0672841e-15
56	0x260d9c1d	4.9130775e-16
57	0x25fc7d4f	4.3799944e-16
58	0x26720c3f	8.3977213e-16
59	0x262f8dfa	6.0907736e-16
60	0x274cf8c1	2.8445537e-15
61	0x261960f8	5.3213956e-16
62	0x2665874a	7.9633686e-16
63	0x2679ed4b	8.671082e-16
64	0x2765d541	3.189574e-15
65	0x275977ce	3.0179746e-15
66	0x2754539c	2.9466235e-15
67	0x26b8fd36	1.2836198e-15
68	0x2765d541	3.189574e-15
69	0x267b2984	8.7139383e-16
70	0x26edfcc3	1.651369e-15
71	0x26f6775f	1.7102035e-15
72	0x2765d541	3.189574e-15
73	0x26fe5a9d	1.7649351e-15
74	0x2765d541	3.189574e-15
75	0x26b97c42	1.2870634e-15
76	0x26e7a4df	1.6073533e-15
77	0x2744e0c7	2.7322316e-15
78	0x270c45a8	1.9466664e-15
79	0x2699cfd5	1.0672841e-15
80	0x260d9c1d	4.9130775e-16
81	0x25fc7d4f	4.3799944e-16
82	0x26720c3f	8.3977213e-16
83	0x2628e939	5.8602784e-16
84	0x274cf8c1	2.8445537e-15
85	0x261960f8	5.3213956e-16
86	0x2665874a	7.9633686e-16
87	0x2678c44d	8.630832e-16
88	0x2765d541	3.189574e-15
89	0x275977ce	3.0179746e-15
90	0x2754539c	2.9466235e-15
91	0x26b868b2	1.2795943e-15
92	0x2765d541	3.189574e-15
93	0x267b2984	8.7139383e-16
94	0x26f1e3a6	1.6784439e-15
95	0x26f6775f	1.7102035e-15
96	0x2765d541	3.189574e-15
97	0x2706211b	1.8614182e-15
98	0x2765d541	3.189574e-15
99	0x26ab94ad	1.1905807e-15
100	0x26f620fe	1.7078622e-15
101	0x27469e45	2.7563818e-15
102	0x26eed485	1.6572171e-15
103	0x26a84bed	1.1677921e-15
104	0x26453a80	6.8427387e-16
105	0x25fc7d4f	4.3799944e-16
106	0x26563d1a	7.4328973e-16
107	0x2628e939	5.8602784e-16
108	0x27505f72	2.891754e-15
109	0x261a89f6	5.3616455e-16
110	0x2649b80e	6.9985324e-16
111	0x26779b3f	8.590574e-16
112	0x2765d541	3.189574e-15
113	0x275977ce	3.0179746e-15
114	0x2754539c	2.9466235e-15
115	0x26b3ed4d	1.2484941e-15
116	0x2765d541	3.189574e-15
117	0x267a007b	8.6736825e-16
118	0x26ffcb38	1.7749262e-15
119	0x26f6775f	1.7102035e-15
120	0x2765d541	3.189574e-15
121	0x27081484	1.8884913e-15
122	0x2765d541	3.189574e-15
123	0x26ab94ad	1.1905807e-15
124	0x26f620fe	1.7078622e-15
125	0x27469e45	2.7563818e-15
126	0x26eed485	1.6572171e-15
127	0x26a8e078	1.1718184e-15
128	0x2646638a	6.882995e-16
129	0x261a0ddf	5.344828e-16
130	0x26563d1a	7.4328973e-16
131	0x261ff27b	5.549283e-16
132	0x27505f72	2.891754e-15
133	0x261a89f6	5.3616455e-16
134	0x262de8dd	6.033702e-16
135	0x26779b3f	8.590574e-16
136	0x2765d541	3.189574e-15
137	0x275977ce	3.0179746e-15
138	0x2754539c	2.9466235e-15
139	0x26b358d5	1.2444698e-15
140	0x2765d541	3.189574e-15
141	0x267a007b	8.6736825e-16
142	0x26ffcb38	1.7749262e-15
143	0x26f6775f	1.7102035e-15
144	0x2765d541	3.189574e-15
145	0x270120ba	1.7920087e-15
146	0x2765d541	3.189574e-15
147	0x26ab94ad	1.1905807e-15
148	0x26e8395a	1.6113779e-15
149	0x274891b6	2.7834566e-15
150	0x26eed485	1.6572171e-15
151	0x26a8e078	1.1718184e-15
152	0x264e3144	7.1537375e-16
153	0x2612401b	5.0740805e-16
154	0x26563d1a	7.4328973e-16
155	0x261824bd	5.2785383e-16
156	0x275252e2	2.9188285e-15
157	0x2612bc37	5.0909004e-16
158	0x262de8dd	6.033702e-16
159	0x26779b3f	8.590574e-16
160	0x2765d541	3.189574e-15
161	0x275977ce	3.0179746e-15
162	0x2754539c	2.9466235e-15
163	0x26b358d5	1.2444698e-15
164	0x2765d541	3.189574e-15
165	0x2677ae7b	8.5931805e-16
166	0x2715558b	2.0724277e-15
167	0x26e88fd9	1.6137224e-15
168	0x2765d541	3.189574e-15
169	0x27081484	1.8884913e-15
170	0x2765d541	3.189574e-15
171	0x26ab94ad	1.1905807e-15
172	0x26e4527f	1.5843039e-15
173	0x274891b6	2.7834566e-15
174	0x26eed485	1.6572171e-15
175	0x26a84bed	1.1677921e-15
176	0x264e3144	7.1537375e-16
177	0x2616e426	5.2350903e-16
178	0x2655140f	7.3926405e-16
179	0x2616fbc0	5.238289e-16
180	0x275252e2	2.9188285e-15
181	0x2611933a	5.050651e-16
182	0x2635b69f	6.304449e-16
183	0x2676723d	8.5503217e-16
184	0x2765d541	3.189574e-15
185	0x275977ce	3.0179746e-15
186	0x27549de1	2.9506496e-15
187	0x26b2c44e	1.240444e-15
188	0x2765d541	3.189574e-15
189	0x2677ae7b	8.5931805e-16
190	0x27159fca	2.0764526e-15
191	0x26daa835	1.5172381e-15
192	0x2765d541	3.189574e-15
193	0x2706211b	1.8614182e-15
194	0x2765d541	3.189574e-15
195	0x269d1892	1.0900723e-15
196	0x26e3bdfd	1.5802786e-15
197	0x274891b6	2.7834566e-15
198	0x26eed485	1.6572171e-15
199	0x269a6455	1.0713092e-15
200	0x2650834f	7.2342453e-16
201	0x26193626	5.3155923e-16
202	0x26563d1a	7.4328973e-16
203	0x2616fbc0	5.238289e-16
204	0x27544657	2.9459041e-15
205	0x2611933a	5.050651e-16
206	0x2635b69f	6.304449e-16
207	0x26754948	8.5100765e-16
208	0x2765d541	3.189574e-15
209	0x27592d92	3.0139503e-15
210	0x27549de1	2.9506496e-15
211	0x26ce938d	1.4334115e-15
212	0x2765d541	3.189574e-15
213	0x26768576	8.552927e-16
214	0x27159fca	2.0764526e-15
215	0x26daa835	1.5172381e-15
216	0x2765d541	3.189574e-15
217	0x2706211b	1.8614182e-15
218	0x2765d541	3.189574e-15
219	0x2694b658	1.0318987e-15
220	0x26d66ae2	1.4878204e-15
221	0x274891b6	2.7834566e-15
222	0x26dd0604	1.5336586e-15
223	0x26b51ff5	1.256806e-15
224	0x264d5998	7.1245085e-16
225	0x25e8e066	4.0397643e-16
226	0x2632a020	6.1973166e-16
227	0x2681f34e	9.017121e-16
228	0x27582d41	3.0000554e-15
229	0x25d99a80	3.7748193e-16
230	0x2619e768	5.339615e-16
231	0x266c5283	8.199077e-16
232	0x2765d541	3.189574e-15
233	0x2759c20b	3.021999e-15
234	0x27549de1	2.9506496e-15
235	0x26f84a53	1.7228603e-15
236	0x2765d541	3.189574e-15
237	0x26768576	8.552927e-16
238	0x2713ac54	2.0493767e-15
239	0x26ccc09e	1.4207553e-15
240	0x2c3afcac	2.657245e-12
241	0x2c39a233	2.638012e-12
242	0x2bfd7dcc	1.8011647e-12
243	0x2c62ca20	3.2228734e-12
244	0x2c41d191	2.7543282e-12
245	0x2c3de7c2	2.6987167e-12
246	0x2bb8c8fc	1.3129771e-12
247	0x2c02d51d	1.8592413e-12
248	0x2c119d1e	2.0692957e-12
249	0x2c34936b	2.5661372e-12
250	0x2bfb656b	1.7862772e-12
251	0x2c1e76bc	2.2519061e-12
252	0x2c685478	3.3016073e-12
253	0x2c15b029	2.1271962e-12
254	0x2c215044	2.2924032e-12
255	0x2ba7d43d	1.1924972e-12

exp_avg_sq f4 [128, 240]
0	0x2b3cc34f	6.706206e-13
1	0x2a87a3f9	2.4094596e-13
2	0x2b3cc34f	6.706206e-13
3	0x2a0cd46c	1.2508197e-13
4	0x2a9654bd	2.6704152e-13
5	0x2b327a66	6.3408165e-13
6	0x2a38209b	1.6353795e-13
7	0x29e3d392	1.0117527e-13
8	0x2896c208	1.6737493e-14
9	0x2838ded3	1.0262369e-14
10	0x293b9c67	4.1658e-14
11	0x28c76af2	2.2139818e-14
12	0x2b34d79a	6.4248053e-13
13	0x28464417	1.10059726e-14
14	0x2914817e	3.2974918e-14
15	0x2968839b	5.1628498e-14
16	0x2b3cc34f	6.706206e-13
17	0x2b387321	6.5529705e-13
18	0x2b37a115	6.5238207e-13
19	0x29d0df5e	9.2758036e-14
20	0x2b3cc34f	6.706206e-13
21	0x29929cbf	6.5108936e-14
22	0x2a5286d4	1.8698525e-13
23	0x2a60bba0	1.9960292e-13
24	0x2b3cc34f	6.706206e-13
25	0x2a6e6a70	2.1175574e-13
26	0x2b3cc34f	6.706206e-13
27	0x2a0cd46c	1.2508197e-13
28	0x2a4a10ab	1.7946987e-13
29	0x2b327a66	6.3408165e-13
30	0x2a89f649	2.4506983e-13
31	0x29e3f02d	1.0122489e-13
32	0x2896f8cf	1.6761249e-14
33	0x2838ded3	1.0262369e-14
34	0x293b9c67	4.1658e-14
35	0x28c7e782	2.2193839e-14
36	0x2b345a9a	6.407458e-13
37	0x28478ce4	1.107727e-14
38	0x2914817e	3.2974918e-14
39	0x2967da2e	5.1481544e-14
40	0x2b3cc34f	6.706206e-13
41	0x2b387321	6.5529705e-13
42	0x2b379f64	6.523586e-13
43	0x29d48bd5	9.438948e-14
44	0x2b3cc34f	6.706206e-13
45	0x2992c85b	6.5184586e-14
46	0x2a3631cc	1.6182124e-13
47	0x2a925d82	2.5999694e-13
48	0x2b3cc34f	6.706206e-13
49	0x2a6e6a70	2.1175574e-13
50	0x2b3cc34f	6.706206e-13
51	0x2a0cd46c	1.2508197e-13
52	0x2a4a10ab	1.7946987e-13
53	0x2b32c311	6.350901e-13
54	0x2a8b3a73	2.4731917e-13
55	0x29e3f02d	1.0122489e-13
56	0x2896f8cf	1.6761249e-14
57	0x28399c29	1.0303425e-14
58	0x2936e523	4.0610863e-14
59	0x28b3a4f1	1.9944524e-14
60	0x2b3460a5	6.408297e-13
61	0x28478ce4	1.107727e-14
62	0x2914817e	3.2974918e-14
63	0x296744bd	5.1351925e-14
64	0x2b3cc34f	6.706206e-13
65	0x2b3877ed	6.553636e-13
66	0x2b379f64	6.523586e-13
67	0x29d45a09	9.43031e-14
68	0x2b3cc34f	6.706206e-13
69	0x2992c85b	6.5184586e-14
70	0x2a3643dd	1.6188392e-13
71	0x2a925d82	2.5999694e-13
72	0x2b3cc34f	6.706206e-13
73	0x2a6e6a70	2.1175574e-13
74	0x2b3cc34f	6.706206e-13
75	0x2a0cdf00	1.2511867e-13
76	0x2a4a10ab	1.7946987e-13
77	0x2b32c311	6.350901e-13
78	0x2a8b3a73	2.4731917e-13
79	0x29e3f02d	1.0122489e-13
80	0x2896f8cf	1.6761249e-14
81	0x28399c29	1.0303425e-14
82	0x2936e523	4.0610863e-14
83	0x28a11144	1.7882078e-14
84	0x2b3460a5	6.408297e-13
85	0x28478ce4	1.107727e-14
86	0x2914817e	3.2974918e-14
87	0x29670178	5.1293578e-14
88	0x2b3cc34f	6.706206e-13
89	0x2b3877ed	6.553636e-13
90	0x2b379f64	6.523586e-13
91	0x29d444d6	9.4266324e-14
92	0x2b3cc34f	6.706206e-13
93	0x2992c85b	6.5184586e-14
94	0x2a38a719	1.6400457e-13
95	0x2a925d82	2.5999694e-13
96	0x2b3cc34f	6.706206e-13
97	0x2a87a3f9	2.4094596e-13
98	0x2b3cc34f	6.706206e-13
99	0x29ea24dc	1.03980816e-13
100	0x2a68b35e	2.066797e-13
101	0x2b32ec22	6.3566004e-13
102	0x2a3aa8e5	1.6578716e-13
103	0x2a09d43d	1.2241679e-13
104	0x2926264a	3.6892615e-14
105	0x28399c29	1.0303425e-14
106	0x290507b7	2.9538624e-14
107	0x28a11144	1.7882078e-14
108	0x2b3500b7	6.430511e-13
109	0x2848e9a9	1.1152897e-14
110	0x28d76a15	2.39158e-14
111	0x2966c333	5.1239567e-14
112	0x2b3cc34f	6.706206e-13
113	0x2b3877ed	6.553636e-13
114	0x2b379f64	6.523586e-13
115	0x29d049ea	9.2498776e-14
116	0x2b3cc34f	6.706206e-13
117	0x29929cbf	6.5108936e-14
118	0x2a54fc2e	1.8916875e-13
119	0x2a925d82	2.5999694e-13
120	0x2b3cc34f	6.706206e-13
121	0x2a88c318	2.4293826e-13
122	0x2b3cc34f	6.706206e-13
123	0x29ea24dc	1.03980816e-13
124	0x2a68b35e	2.066797e-13
125	0x2b32ec22	6.3566004e-13
126	0x2a3aa8e5	1.6578716e-13
127	0x2a09e510	1.2247516e-13
128	0x292646a4	3.6920675e-14
129	0x289c44fd	1.7349398e-14
130	0x290507b7	2.9538624e-14
131	0x288e98ff	1.5831518e-14
132	0x2b3500b7	6.430511e-13
133	0x2848e9a9	1.1152897e-14
134	0x2897f332	1.6869837e-14
135	0x2966c333	5.1239567e-14
136	0x2b3cc34f	6.706206e-13
137	0x2b3877ed	6.553636e-13
138	0x2b379f64	6.523586e-13
139	0x29d039b4	9.2470655e-14
140	0x2b3cc34f	6.706206e-13
141	0x29929cbf	6.5108936e-14
142	0x2a54fc2e	1.8916875e-13
143	0x2a925d82	2.5999694e-13
144	0x2b3cc34f	6.706206e-13
145	0x2a70a8ac	2.1374802e-13
146	0x2b3cc34f	6.706206e-13
147	0x29ea24dc	1.03980816e-13
148	0x2a4a1a0d	1.7950242e-13
149	0x2b334424	6.368814e-13
150	0x2a3aa8e5	1.6578716e-13
151	0x2a09e510	1.2247516e-13
152	0x29284d4c	3.7370538e-14
153	0x289837ab	1.6899532e-14
154	0x290507b7	2.9538624e-14
155	0x287b9f31	1.3967818e-14
156	0x2b358706	6.44915e-13
157	0x2832ea93	9.93185e-15
158	0x2897f332	1.6869837e-14
159	0x2966c333	5.1239567e-14
160	0x2b3cc34f	6.706206e-13
161	0x2b3877ed	6.553636e-13
162	0x2b379f64	6.523586e-13
163	0x29d039b4	9.2470655e-14
164	0x2b3cc34f	6.706206e-13
165	0x29924d16	6.497075e-14
166	0x2a9bde67	2.7687854e-13
167	0x2a80cc9a	2.2879338e-13
168	0x2b3cc34f	6.706206e-13
169	0x2a88c318	2.4293826e-13
170	0x2b3cc34f	6.706206e-13
171	0x29ea24dc	1.03980816e-13
172	0x2a487006	1.7802434e-13
173	0x2b334424	6.368814e-13
174	0x2a3aa8e5	1.6578716e-13
175	0x2a09d43d	1.2241679e-13
176	0x29284d4c	3.7370538e-14
177	0x289a15f7	1.710696e-14
178	0x2904d368	2.9493254e-14
179	0x287aa618	1.3913804e-14
180	0x2b358706	6.44915e-13
181	0x28318dca	9.856219e-15
182	0x28a5437f	1.8347952e-14
183	0x296689e8	5.1189874e-14
184	0x2b3cc34f	6.706206e-13
185	0x2b3877ed	6.553636e-13
186	0x2b37a115	6.5238207e-13
187	0x29d02c06	9.2446924e-14
188	0x2b3cc34f	6.706206e-13
189	0x29924d16	6.497075e-14
190	0x2a9be946	2.7695397e-13
191	0x2a60bba0	1.9960292e-13
192	0x2b3cc34f	6.706206e-13
193	0x2a87a3f9	2.4094596e-13
194	0x2b3cc34f	6.706206e-13
195	0x29befefb	8.481927e-14
196	0x2a4866a5	1.779918e-13
197	0x2b334424	6.368814e-13
198	0x2a3aa8e5	1.6578716e-13
199	0x29e40f56	1.01278943e-13
200	0x29289d05	3.7439686e-14
201	0x289b40e1	1.7236594e-14
202	0x290507b7	2.9538624e-14
203	0x287aa618	1.3913804e-14
204	0x2b361693	6.4690717e-13
205	0x28318dca	9.856219e-15
206	0x28a5437f	1.8347952e-14
207	0x29665594	5.1144486e-14
208	0x2b3cc34f	6.706206e-13
209	0x2b387321	6.5529705e-13
210	0x2b37a115	6.5238207e-13
211	0x2a156af2	1.3270963e-13
212	0x2b3cc34f	6.706206e-13
213	0x299228ef	6.490803e-14
214	0x2a9be946	2.7695397e-13
215	0x2a60bba0	1.9960292e-13
216	0x2b3cc34f	6.706206e-13
217	0x2a87a3f9	2.4094596e-13
218	0x2b3cc34f	6.706206e-13
219	0x29bb732a	8.324446e-14
220	0x2a2c1aeb	1.5286008e-13
221	0x2b334424	6.368814e-13
222	0x2a1e0fc2	1.4038686e-13
223	0x29ef14d5	1.0617346e-13
224	0x29277197	3.7179973e-14
225	0x28309531	9.802313e-15
226	0x28afc7ca	1.9515548e-14
227	0x292b07bb	3.7976333e-14
228	0x2b375179	6.5127726e-13
229	0x27cc6175	5.6727037e-15
230	0x286fdd22	1.3315116e-14
231	0x29638b77	5.0525092e-14
232	0x2b3cc34f	6.706206e-13
233	0x2b387d14	6.554351e-13
234	0x2b37a115	6.5238207e-13
235	0x2a6a6a27	2.0820204e-13
236	0x2b3cc34f	6.706206e-13
237	0x299228ef	6.490803e-14
238	0x2a9ab7ac	2.7483343e-13
239	0x2a42224d	1.7242562e-13
240	0x311ea8fb	2.308808e-09
241	0x308b57b9	1.0138513e-09
242	0x30c6a101	1.4452156e-09
243	0x30b2b00f	1.3001243e-09
244	0x30dfa408	1.6272006e-09
245	0x30b2eedd	1.3019094e-09
246	0x30007593	4.673321e-10
247	0x3061b5c1	8.211281e-10
248	0x308bfc2d	1.0185254e-09
249	0x30bba72d	1.3653555e-09
250	0x305650a1	7.7967327e-10
251	0x30952dbd	1.0854176e-09
252	0x310c4a69	2.0414979e-09
253	0x30540645	7.713406e-10
254	0x3088d305	9.955278e-10
255	0x302ad0a3	6.214213e-10
