models/RaceModelsOld/classif_pos_coef_3copies0to5_twolayerslr0.0001/model.pt (torch, 418077 bytes, 24 tensors)

fc1.weight f4 [128, 144]
0.17370105 0.38815972 0.027540006 0.10517906 0.082988925 0.07587457 0.10160491 -0.099489555
-0.015545582 0.22692977 -0.058544893 0.082021356 0.19784038 -0.10122438 -0.10999581 0.0938986
0.105726704 0.107338 0.09640974 -0.038481977 0.03866424 0.037700534 -0.1341326 -0.022620637
0.07882615 0.27214336 0.00727902 -0.016769916 -0.124124385 -0.09284759 -0.18510629 -0.09175096
0.0050570723 0.0024024567 -0.051305134 -0.074587904 0.060144432 -0.21833149 0.09472175 -0.07774877
-0.020232622 0.10949253 0.09650295 -0.18689671 0.0125613455 -0.005029631 0.041481413 0.08987877
0.11731413 0.28850478 0.034201007 0.12824976 -0.08529926 -0.04758526 -0.035446618 0.03254548
0.01765187 0.03568899 -0.014763481 -0.06568404 -0.027851442 -0.20030019 0.03159527 0.11414151
0.011314893 -0.022665534 0.012090469 -0.044901192 0.051885422 0.077722035 -0.045724086 0.054332696
0.11687996 0.27508333 0.0026699891 0.12886643 0.018986901 0.08282862 -0.12834495 -0.06515469
-0.08631615 0.055850968 0.12694871 -0.06710148 0.093516976 -0.2136798 -0.031418514 0.061621778
0.119257055 0.11180422 0.06276545 -0.12619035 0.0049362467 0.08704845 -0.05536708 0.03255549
0.05174077 0.35095343 0.0492707 0.13433655 -0.0201248 0.058291275 -0.13552877 -0.11953247
-0.07961309 -0.02319948 0.12506324 0.071527064 0.10623735 -0.16078784 0.011717293 0.22288664
0.041809097 0.061845686 -0.05918404 -0.1907125 0.049298037 0.06797422 -0.037560575 -0.020864991
0.041487865 0.38703027 0.052947544 0.107784115 -0.014861255 -0.034245715 -0.06618318 -0.038930126
-0.07773223 0.103952855 0.102947675 -0.02411147 0.10036852 -0.042643324 0.04871418 0.22252288
0.020293044 0.0127608115 -0.06124665 -0.07840762 0.12549722 -0.06330657 0.014442508 0.018335402
0.13520123 0.052725673 -0.14189595 -0.018161932 0.01755217 0.043320924 -0.37205368 -0.20870143
0.23738895 0.026988773 -0.04683137 0.045440454 -0.014731054 0.20180494 -0.089992665 0.16425969
0.09943842 0.023817081 0.06287856 0.08303451 0.027761633 -0.0337909 -0.1624981 0.07779899
0.0867341 -0.09612048 0.017210897 -0.005263183 0.093112715 0.13272953 -0.016242765 0.09620431
0.14778252 0.07299586 -0.04051601 0.0962101 -0.008637104 -0.100095734 -0.014235886 -0.021698575
-0.06817147 0.031138113 0.13823456 0.01565088 -0.023866618 -0.22488888 -0.30173278 -0.12919724
-0.0035565102 -0.09431717 0.114907645 0.08497886 0.09129116 0.08713783 -0.005077463 0.03633411
0.15202536 0.047774445 -0.027969133 0.12143641 0.0958559 -0.024409583 -0.13395172 -0.02914784
0.05285151 0.049419843 0.0729054 0.116607 0.014669734 -0.109343104 -0.06438302 0.06316494
0.067519896 0.07827801 0.017621318 0.010845442 0.007291215 0.120295115 0.011110452 0.07343697
0.12330942 0.06160745 -0.13899353 0.09774306 0.11096722 -0.011626325 -0.16539215 -0.10710674
-0.08516785 0.0385132 0.02534802 0.100543976 0.057938624 -0.04965269 -0.048017506 -0.059841905
0.015418146 -0.056463327 -0.032207973 -0.03467924 0.121109515 0.11442372 -0.0064194268 0.12042319
0.1429358 0.15304536 -0.044745237 0.083647296 0.07849231 -0.22815691 -0.08510813 0.05125341
00000000: b0de 313e dfbc c63e 949b e13c 1e68 d73d
00000010: 19f6 a93d 2064 9b3d 3c16 d03d 2ec1 cbbd
00000020: e6b2 7ebc 4760 683e c5cc 6fbd d0fa a73d
00000030: ab96 4a3e ba4e cfbd 7c45 e1bd e94d c03d
00000040: 3e87 d83d 06d4 db3d 7872 c53d 479f 1dbd
00000050: 655e 1e3d e06b 1a3d 0e5a 09be ea4e b9bc
00000060: 9b6f a13d 6056 8b3e d884 ee3b 1061 89bc
00000070: ed34 febd e126 bebd 818c 3dbe ede7 bbbd
00000080: ccb5 a53b 8972 1d3b 5525 52bd 8bc1 98bd
00000090: 025a 763d 4a92 5fbe 7afd c13d bf3a 9fbd
000000a0: e2be a5bc 9f3d e03d 57a3 c53d da61 3fbe
000000b0: 1ace 4d3c 9acf a4bb 6ae8 293d 5c12 b83d
000000c0: 6442 f03d e6b6 933e 5b16 0c3d e853 033e
000000d0: 61b1 aebd c3e8 42bd 7930 11bd 694e 053d
000000e0: a89a 903c 9e2e 123d 87e2 71bc 5b85 86bd
000000f0: b528 e4bc 7e1b 4dbe 0b6a 013d 06c3 e93d
00000100: 1a62 393c 12ad b9bc 1a17 463c 50ea 37bd
00000110: cf85 543d bb2c 9f3d 2e49 3bbd f68b 5e3d
00000120: c35e ef3d b9d7 8c3e fcfa 2e3b 90f5 033e
00000130: 6b8a 9b3c 0da2 a93d dc6c 03be d26f 85bd
00000140: 86c6 b0bd fcc3 643d d8fe 013e 806c 89bd
00000150: d485 bf3d e1ce 5abe b3b0 00bd 1e67 7c3d
00000160: 0b3d f43d 9cf9 e43d 2c8b 803d 0b38 01be
00000170: 3dc0 a13b 7546 b23d 97c8 62bd e858 053d
00000180: 21ee 533d 2bb0 b33e 13d0 493d 858f 093e
00000190: c4dc a4bc d5c2 6e3d 0ec8 0abe 71cd f4bd
000001a0: 300c a3bd d60c bebc 9410 003e c87c 923d
000001b0: f892 d93d 91a5 24be e4f9 3f3c 653c 643e
000001c0: 0440 2b3d e751 7d3d f76a 72bd 234a 43be
000001d0: bdec 493d 1136 8b3d 1ed9 19bd 0fed aabc
000001e0: 2eef 293d d528 c63e 86df 583d ebbd dc3d
000001f0: 9f7c 73bc 3c45 0cbd 0c8b 87bd 3275 1fbd
00000200: 1332 9fbd 3ce5 d43d 3bd6 d23d 6b85 c5bc
00000210: 038e cd3d c4aa 2ebd 8588 473d 0add 633e
00000220: 993d a63c b912 513c c4dd 7abd 2d94 a0bd
00000230: 5882 003e e0a6 81bd 45a0 6c3c 2034 963c
00000240: 3172 0a3e e0f6 573d 2c4d 11be 55c8 94bc
00000250: 92c9 8f3c 4871 313d d27d bebe d4b5 55be
00000260: 1716 733e 8f17 dd3c 40d2 3fbd c51f 3a3d
00000270: 855a 71bc f4a5 4e3e 134e b8bd b133 283e
00000280: 5fa6 cb3d 0a1c c33c 79c6 803d ff0d aa3d
00000290: 5d6c e33c 5468 0abd e765 26be 1455 9f3d
000002a0: a6a1 b13d d0da c4bd defd 8c3c c776 acbb
000002b0: e1b1 be3d 40ea 073e 8c0f 85bc c406 c53d
000002c0: 4d54 173e da7e 953d 1ef4 25bd cd09 c53d
000002d0: a482 0dbc fefe ccbd a23d 69bc 36c1 b1bc
000002e0: 7c9d 8bbd 5b15 ff3c 5c8d 0d3e 4636 803c
000002f0: ed83 c3bc 4549 66be b87c 9abe 484c 04be
00000300: 5714 69bb 5c29 c1bd b354 eb3d 6609 ae3d
00000310: dcf6 ba3d 5275 b23d d960 a6bb 13d3 143d
00000320: 89ac 1b3e 23af 433d 861f e5bc a7b3 f83d
00000330: 1950 c43d 9bf6 c7bc a42a 09be 73c7 eebc
00000340: d37a 583d 766c 4a3d 6d4f 953d a7cf ee3d
00000350: 5359 703c 47ef dfbd 3fdb 83bd 9f5c 813d
00000360: df47 8a3d 3950 a03d 955a 903c 15b1 313c
00000370: 25eb ee3b 495d f63d 9d08 363c 1f66 963d
00000380: a689 fc3d 1858 7c3d 5254 0ebe 832d c83d
00000390: c842 e33d 577c 3ebc 8f5c 29be c75a dbbd
000003a0: 7b6c aebd 04c0 1d3d a7a6 cf3c 00ea cd3d
000003b0: 0d51 6d3d 9e60 4bbd 01ae 44bd c91c 75bd
000003c0: 649c 7c3c 1746 67bd 82ec 03bd d20b 0ebd
000003d0: 4408 f83d fc56 ea3d 0e5a d2bb 6fa0 f63d
000003e0: c35d 123e ecb7 1c3e c846 37bd 464f ab3d
000003f0: 94c0 a03d f7a1 69be 2c4d aebd 18ef 513d

fc1.bias f4 [128]
-0.027257105 0.054538064 0.070627905 0.013233177 0.001417281 0.029966582 -0.017240709 0.030831546
0.086645365 0.026069999 -0.018958228 0.008074496 -0.040055856 -0.071198255 0.025264563 0.02864755
0.093846515 0.090130754 0.015503894 -0.08302425 0.09620569 -0.04114393 0.012415896 0.09878884
0.058272246 0.13579395 -0.054083686 0.059676893 -0.048603285 0.05427308 0.14027901 0.07298682
0.024587343 0.0820615 0.06377932 -0.0035379918 0.0614649 -0.007701412 -0.0528932 0.06308536
-0.060976584 -0.068835795 0.092392534 0.02166525 0.124734394 0.04283152 -0.02729985 -0.018052936
-0.023050822 -0.015940428 0.057330567 0.054431383 -0.014291455 -0.033398096 0.07340044 -0.02504574
0.022663694 0.08320445 0.100860566 0.09409245 0.102707915 0.02495585 0.056639694 -0.03868765
0.075803906 0.14398189 0.08100241 0.104214504 -0.019257063 -0.01257577 0.0614763 0.05394479
0.05085497 0.052590553 0.05305114 -0.011737108 0.015112311 0.026718477 0.0039829216 0.071804516
-0.060984712 0.08999609 0.09322907 0.0321038 0.03673803 -0.074050754 0.051620446 -0.06585414
-0.056881867 0.0041886554 -0.004983802 -0.06796067 0.03143617 -0.023084853 -0.046961207 -0.0030672187
-0.080773704 -0.023273332 -0.07881608 0.0463583 0.08206207 -0.05270972 0.024342641 -0.04012353
0.08435525 0.029450543 0.08999348 0.037574448 0.00025010144 -0.026305502 -0.013044517 0.013991432
0.05600191 0.10209206 0.01242629 0.05819634 0.022459224 -0.05686669 -0.06620158 -0.0054214536
-0.015014056 0.13664526 0.06259474 -0.030805599 -0.038679034 0.019524775 0.03624361 0.008923713
00000000: 4b4a dfbc 4e63 5f3d 5da5 903d f8cf 583c
00000010: 0fc4 b93a 7a7c f53c 633c 8dbc 7092 fc3c
00000020: 2073 b13d c090 d53c 494e 9bbc e44a 043c
00000030: 9c11 24bd 64d0 91bd a1f7 ce3c 44ae ea3c
00000040: 9a32 c03d 7996 b83d 0b04 7e3c 9e08 aabd
00000050: 7d07 c53d 8a86 28bd 0b6c 4b3c ce51 ca3d
00000060: e1ae 6e3d 920d 0b3e db86 5dbd c26f 743d
00000070: 3d14 47bd 734d 5e3d 4da5 0f3e 1d7a 953d
00000080: 656b c93c dc0f a83d bb9e 823d a7dd 67bb
00000090: 9ec2 7b3d 205c fcbb 8aa6 58bd e632 813d
000000a0: 95c2 79bd c8f9 8cbd 4c38 bd3d 537b b13c
000000b0: bf74 ff3d 1b70 2f3d efa3 dfbc c0e3 93bc
000000c0: 14d5 bcbc 8095 82bc 75d3 6a3d 71f3 5e3d
000000d0: b526 6abc 71cc 08bd f852 963d b92c cdbc
000000e0: 36a9 b93c 1867 aa3d fc8f ce3d 8bb3 c03d
000000f0: 8758 d23d 3670 cc3c 06ff 673d f176 1ebd
00000100: 143f 9b3d fd6f 133e 97e4 a53d 6a6e d53d
00000110: fdc0 9dbc 9a0a 4ebc 93ce 7b3d 36f5 5c3d
00000120: 4d4d 503d 3169 573d 274c 593d 004d 40bc
00000130: a099 773c b5e0 da3c 2b83 823b 3f0e 933d
00000140: 1bcb 79bd df4f b83d e2ee be3d 467f 033d
00000150: 9e7a 163d eca7 97bd f66f 533d 89de 86bd
00000160: f6fc 68bd fd40 893b 294f a3bb f72e 8bbd
00000170: 37c3 003d 721c bdbc 655a 40bd 6403 49bb
00000180: af6c a5bd b7a7 bebc 536a a1bd 33e2 3d3d
00000190: 2910 a83d 26e6 57bd 386a c73c 9258 24bd
000001a0: 72c2 ac3d 4442 f13c 804e b83d aae7 193d
000001b0: 0c20 8339 a37e d7bc abb8 55bc 523c 653c
000001c0: 4262 653d a415 d13d a397 4b3c 495f 6e3d
000001d0: 68fc b73c 0ced 68bd b294 87bd 73a6 b1bb
000001e0: 84fd 75bc bcec 0b3e ac31 803d 065c fcbc
000001f0: e86d 1ebd 6cf2 9f3c 2e74 143d c434 123c

fc2.weight f4 [64, 128]
0.11763271 0.092407376 -0.10855241 -0.09950787 0.10583472 0.08282425 0.09619727 0.03315039
-0.13459715 -0.008462133 0.13263564 0.017809017 0.0693131 -0.021663189 0.10714664 -0.0880892
-0.14848684 0.02428557 0.0446628 -0.04053002 -0.016899357 -0.00719005 0.0850835 -0.033395313
0.048242375 0.015650941 0.13403945 0.061890997 -0.06774745 -0.22612166 -0.05724159 0.47521198
-0.067979634 -0.04891269 0.1455886 -0.009366934 0.14961037 -0.1315497 0.057153504 -0.058825124
0.3503661 0.24300808 0.18431003 -0.08480101 -0.04014531 0.03465853 0.18559143 0.10921514
-0.01720646 0.16454987 0.047184907 -0.11576129 0.021512572 0.027115367 -0.13863765 0.15878502
0.04775807 -0.109910585 0.1299246 0.057611622 -0.07250937 0.057546765 0.03773314 -0.020101095
0.064520225 -0.0198478 -0.06899622 -0.12857415 0.07319322 -0.025368059 0.080065206 -0.044619635
-0.0032089828 -0.033518206 0.085520945 -0.075865686 0.046405666 0.10002117 0.09195336 -0.038756613
0.12987508 0.12791382 0.106601186 -0.08841146 0.08805384 -0.017884098 0.059359908 -0.050239738
-0.0007258291 0.55641884 0.09550144 -0.13185252 0.10035453 0.12578328 0.08363356 -0.23163837
0.29078707 0.16059421 -0.08942925 0.08638043 0.0704391 -0.074689545 0.08776791 0.090431124
0.117382206 0.0527459 -0.039338864 -0.021210501 -0.023834107 0.23570667 -0.109852634 -0.10896131
-0.04295531 -0.04866582 0.11119038 -0.09894978 0.009370799 -0.22526598 -0.062220383 -0.17555861
0.052426998 -0.13121085 -0.011856211 0.11685472 -0.032880105 -0.079474084 -0.053482756 -0.11882928
-0.020829964 -0.03538958 0.07073118 0.01431238 -0.08619724 -0.08088044 0.058005285 0.027037278
0.04110704 0.07648536 -0.025344439 0.035976294 0.053224415 -0.07498328 -0.101262204 -0.060240004
-0.053590175 -0.049389165 -0.011719052 0.22887483 -0.031987295 -0.16447583 0.06125099 0.0021980002
-0.060120262 0.06876018 0.11723901 0.031396195 -0.055126294 0.064845555 0.04502868 -0.4552868
-0.02882022 -0.08102838 -0.18496934 0.12797411 -0.38672218 0.106684215 -0.03286003 0.119091555
-0.081181034 0.09482479 -0.082925566 -0.14373074 -0.010411564 -0.14093597 -0.06737782 0.0027005165
-0.09303771 -0.0067160833 -0.111432366 0.069795385 0.033678237 0.124319665 0.061531305 0.0037601306
0.09242854 0.03401699 0.14345221 -0.0031649908 0.042886652 0.15811457 0.14961888 0.06649616
0.027045142 -0.024209538 -0.04581651 -0.12904593 0.06425415 0.0067059984 0.089631595 0.035000436
-0.19354445 0.14752117 0.04088178 -0.049926713 -0.009459151 -0.108007655 0.055558614 -0.039121512
-0.09683141 -0.2732356 0.005510267 -0.031195393 0.096452236 -0.02705326 0.2407525 -0.026799615
-2.9683544e-05 -0.49405298 0.15865047 -0.14586335 -0.059911802 0.038664 -0.081057265 0.06389337
-0.14392114 0.06927749 0.25952289 -0.19732982 -0.031815 0.0029332058 -0.038155243 -0.098605394
-0.11228598 -0.039731655 0.103941895 0.14671817 0.06375593 0.0614291 -0.03639384 0.08869104
-0.04511244 -0.11281933 0.023096416 0.04771568 -0.027759898 0.33112064 -0.063929014 0.17192508
0.1394931 0.004083749 -0.12185989 -0.13112976 0.04244981 0.18862656 0.07513988 -0.06555541
00000000: 6be9 f03d 1440 bd3d ba50 debd c8ca cbbd
00000010: e0bf d83d c39f a93d 1303 c53d b4c8 073d
00000020: d6d3 09be c2a4 0abc a3d1 073e 37e4 913c
00000030: 07f4 8d3d 0077 b1bc b36f db3d 1c68 b4bd
00000040: ef0c 18be 88f2 c63c 57f0 363d ce02 26bd
00000050: 8570 8abc 839a ebbb 4240 ae3d 86c9 08bd
00000060: cc99 453d 6736 803c a341 093e 6a81 7d3d
00000070: 2dbf 8abd 708c 67be 2876 6abd fc4e f33e
00000080: e838 8bbd ac58 48bd 2e15 153e c577 19bc
00000090: 7633 193e f7b4 06be cb19 6a3d 9df2 70bd
000000a0: 2f63 b33e 1cd7 783e c5bb 3c3e 27ac adbd
000000b0: 696f 24bd 1af6 0d3d ae0b 3e3e 30ac df3d
000000c0: 90f4 8cbc c37f 283e f644 413d 4114 edbd
000000d0: 223b b03c 0c21 de3c 07f7 0dbe 8a98 223e
000000e0: f79d 433d cd18 e1bd f40a 053e 2afa 6b3d
000000f0: cb7f 94bd 28b6 6b3d 118e 1a3d 0dab a4bc
00000100: 2e23 843d da97 a2bc e44d 8dbd f1a8 03be
00000110: 54e6 953d add0 cfbc 3af9 a33d 14c3 36bd
00000120: cc4d 52bb 634a 09bd 9b25 af3d 785f 9bbd
00000130: de13 3e3d e6d7 cc3d 0b52 bc3d 41bf 1ebd
00000140: f9fd 043e d7fb 023e b951 da3d 1111 b5bd
00000150: 9255 b43d ac81 92bc 6023 733d 2fc8 4dbd
00000160: 9145 3eba 7771 0e3f 4296 c33d 5904 07be
00000170: ad86 cd3d 55cd 003e 1248 ab3d 9c32 6dbe
00000180: 0be2 943e cf72 243e af26 b7bd 39e8 b03d
00000190: 6042 903d d5f6 98bd a9bf b33d f433 b93d
000001a0: 1566 f03d 160c 583d ca21 21bd a5c1 adbc
000001b0: bf3f c3bc 175d 713e 6bfa e0bd 1b27 dfbd
000001c0: e8f1 2fbd d055 47bd c8b7 e33d 2fa6 cabd
000001d0: fb87 193c 20ac 66be cdda 7ebd a3c5 33be
000001e0: b1bd 563d 235c 06be 8e40 42bc 8751 ef3d
000001f0: 4aad 06bd 4fc3 a2bd bc10 5bbd c45c f3bd
00000200: 9aa3 aabc aaf4 10bd 82db 903d 797e 6a3c
00000210: 2e88 b0bd a5a4 a5bd f396 6d3d 487d dd3c
00000220: db5f 283d 5ba4 9c3d 249f cfbc e15b 133d
00000230: d801 5a3d d590 99bd 8f62 cfbd 39be 76bd
00000240: 5f81 5bbd 4b4c 4abd 4401 40bc 2a5e 6a3e
00000250: 1c05 03bd 5a6c 28be 51e2 7a3d 530c 103b
00000260: aa40 76bd 23d2 8c3d 021b f03d 4c99 003d
00000270: 1ccc 61bd bfcd 843d fe6f 383d 5a1b e9be
00000280: 6218 ecbc 35f2 a5bd 9a68 3dbe a50b 033e
00000290: 7300 c6be 417d da3d 3d98 06bd 46e6 f33d
000002a0: 3e42 a6bd 8033 c23d e1d4 a9bd 272e 13be
000002b0: 4495 2abc 8551 10be 62fd 89bd 26fb 303b
000002c0: 8e8a bebd 9712 dcbb a736 e4bd e2f0 8e3d
000002d0: 31f2 093d 4f9b fe3d 4008 7c3d 866c 763b
000002e0: 2d4b bd3d 6655 0b3d 23e5 123e bc6b 4fbb
000002f0: eaa9 2f3d c9e8 213e b135 193e 242f 883d
00000300: c68d dd3c 1553 c6bc 18aa 3bbd 9e24 04be
00000310: ae97 833d febd db3b c590 b73d 9e5c 0f3d
00000320: 8430 46be ca0f 173e a773 273d f47f 4cbd
00000330: 8efa 1abc 1e33 ddbd 6e91 633d e13d 20bd
00000340: 8c4f c6bd 89e5 8bbe 788f b43b 7b8d ffbc
00000350: c088 c53d cc9e ddbc d387 763e de8a dbbc
00000360: ed00 f9b7 83f4 fcbe 4575 223e 345d 15be
00000370: 1466 75bd 245e 1e3d 5a01 a6bd 87da 823d
00000380: 1060 13be 5be1 8d3d 2fe0 843e d410 4abe
00000390: 7250 02bd 073b 403b ac48 1cbd a0f1 c9bd
000003a0: 31f6 e5bd a9bd 22bd 7ddf d43d 4a3d 163e
000003b0: 7892 823d 149d 7b3d b511 15bd a6a3 b53d
000003c0: d2c7 38bd d20d e7bd b234 bd3c 8471 433d
000003d0: ba68 e3bc a588 a93e 37ed 82bd 210d 303e
000003e0: 47d7 0e3e f8d0 853b ae91 f9bd e146 06be
000003f0: dadf 2d3d 5227 413e f0e2 993d ea41 86bd

fc2.bias f4 [64]
-0.050610572 0.06395808 -0.045809012 0.061996814 0.022119973 -0.046053283 -0.0062813163 -0.05187681
0.09926721 0.09638664 0.08738463 -0.028037257 0.07357326 0.11449114 0.09910893 -0.03822125
0.071865335 -0.0230445 0.07907835 -0.011071804 0.12914775 -0.02116113 0.009417879 0.124192394
0.011275512 -0.08415539 0.11324029 0.04142392 -0.07597094 0.012759605 0.022159515 0.08675693
0.123909615 -0.09009286 -0.052520223 0.019495562 -0.03738397 -0.061331116 -0.07148826 -0.040105116
0.051140606 0.07903796 0.007378194 -0.057947747 -0.026776673 -0.025911385 0.111687474 -0.010725178
-0.005965842 0.017209638 -0.059262738 0.077541515 0.014591479 -0.08703514 -0.036639217 -0.07705096
-0.010417661 0.016486144 0.120665126 0.07159009 -0.082674675 0.009174849 -0.02820027 0.042884097
00000000: 084d 4fbd 74fc 823d 3ba2 3bbd 5ff0 7d3d
00000010: f234 b53c 5ea2 3cbd 80d3 cdbb c77c 54bd
00000020: 9b4c cb3d 5c66 c53d b7f6 b23d 64ae e5bc
00000030: 94ad 963d 557a ea3d 9ff9 ca3d e38d 1cbd
00000040: 222e 933d d2c7 bcbc d4f3 a13d 8366 35bc
00000050: 4f3f 043e 1b5a adbc 734d 1a3c 9558 fe3d
00000060: edbc 383c a959 acbd 86ea e73d 21ac 293d
00000070: a796 9bbd aa0d 513c df87 b53c 9ead b13d
00000080: 53c4 fd3d 9b82 b8bd 721f 57bd 28b5 9f3c
00000090: ef1f 19bd 5636 7bbd 7068 92bd 4345 24bd
000000a0: d078 513d a7de a13d c7c4 f13b 9e5a 6dbd
000000b0: c15a dbbc 1d44 d4bc 67bc e43d a8b8 2fbc
000000c0: 1c7d c3bb 3afb 8c3c 7cbd 72bd 16ce 9e3d
000000d0: 1911 6f3c 7b3f b2bd 0113 16bd e5cc 9dbd
000000e0: d6ae 2abc f30d 873c 471f f73d d39d 923d
000000f0: 5751 a9bd 1b52 163c 4104 e7bc 3ca7 2f3d

fc3.weight f4 [32, 64]
0.20160438 -0.096424125 -0.069090344 -0.050472267 0.23088656 0.12118904 -0.042230308 -0.06869675
-0.09619142 0.07261214 -0.16777861 0.15447482 0.085674636 -0.06637405 -0.0040290244 -0.106740646
-0.035958987 -0.2074739 -0.102191806 -0.030164808 0.037206315 -0.06996302 -0.09383018 -0.022546647
0.04690824 0.026395619 0.024701957 -0.08896888 0.13274078 0.12895374 0.064254194 0.027700076
-0.10992526 0.18173893 -0.16283752 0.117311716 -0.035517175 0.24114986 0.09830655 0.047003202
-0.10034043 0.015197569 0.26641318 0.030170772 0.114892185 0.14380519 -0.064454764 -0.006384496
-0.043787926 -0.17437276 0.025010828 0.1387788 -0.116178036 0.036013454 0.15381448 0.06657955
-0.015440186 -0.14045455 0.10615195 -0.16470546 0.16210407 0.049280692 -0.035489548 -0.0481077
0.021756247 -0.18445468 -0.037478548 -0.03554528 -0.14928974 0.035571158 0.05627352 0.09831984
-0.11933414 0.11271245 -0.21192311 -0.14148548 -0.17663822 -0.12719412 0.053980652 0.21704754
-0.076794475 -0.07264969 0.024660788 -0.1067934 0.040352657 0.0013512482 0.20218644 -0.11863434
0.053423725 -0.08406076 0.25765118 -0.1108688 0.2708321 0.17924875 0.06813978 -0.018461667
0.050835267 -0.0054927394 0.010861401 -0.08480893 0.2025822 0.09784018 0.118011534 0.012257097
-0.15928088 -0.024140462 0.024242654 -0.10710701 0.060006604 0.13674372 -0.08844552 0.19369131
-0.046846606 0.27956766 0.064532846 0.0801626 0.11716787 -0.05079089 -0.16231966 0.1955216
0.06988441 0.15040588 0.08844784 0.2524219 0.058584675 -0.08386568 -0.12354561 0.046184283
-0.02838779 0.06592896 0.060164247 0.062727176 -0.12198576 -0.03491573 -0.11550118 -0.03790009
0.03710726 0.055538595 0.056926753 0.050352752 -0.02080806 0.030979693 -0.10045357 -0.011895496
-0.06309194 -0.08058367 -0.05229197 -0.10941095 -0.12068107 0.07602503 0.026693877 -0.017608313
0.043743342 0.026357815 -0.07985047 -0.027576728 0.05077116 0.041770227 -0.12243715 -0.0019060292
-0.11858061 -0.12753455 -0.04641962 -0.0653031 -0.0359112 0.012221698 0.120639026 -0.10770054
-0.014027912 0.04924355 0.0740863 0.024898302 -0.014677005 -0.06253665 -0.09447704 0.09377256
0.05357773 0.08213803 -0.092613265 -0.044923615 -0.086040355 -0.030312216 -0.008259921 -0.053880766
0.04821572 0.040561236 -0.11866741 0.10000055 -0.019367607 0.09027833 -0.07668644 -0.101605
0.2518514 0.11830709 0.19054176 -0.08857331 -0.08369339 -0.107660905 0.1049387 -0.11855622
0.07978711 -0.031511363 -0.2844565 0.1528219 -0.20715769 0.081626065 -0.07880356 -0.20392156
0.07881744 -0.13917515 0.005352462 0.08744511 -0.16099973 0.02529933 0.21465933 -0.08591188
-0.10987078 0.103321925 0.07236467 -0.082325205 0.13398142 0.12810194 0.07298923 0.055995405
-0.1926366 -0.02605458 0.0073454105 0.05465123 0.12005009 -0.047640737 0.12391032 -0.056853905
-0.22015746 0.0088185845 0.19801545 -0.03934224 0.024518058 0.18855035 -0.004335332 -0.13288447
0.01962064 0.3030647 0.20372166 -0.114396244 0.09235532 0.01392442 -0.2530666 0.054582447
0.07926025 -0.0038186288 0.14820483 0.19315763 0.080009736 0.008315708 0.044927377 -0.110834286
00000000: 6171 4e3e 037a c5bd 3d7f 8dbd 02bc 4ebd
00000010: 876d 6c3e f631 f83d b0f9 2cbd e2b0 8cbd
00000020: 0200 c5bd acb5 943d 28ce 2bbe a62e 1e3e
00000030: 2f76 af3d 1eef 87bd e805 84bb d79a dabd
00000040: bb49 13bd 0a74 54be f049 d1bd 301c f7bc
00000050: a665 183d c648 8fbd 0a2a c0bd bfb3 b8bc
00000060: db22 403d a03b d83c c25b ca3c 5135 b6bd
00000070: 33ed 073e 730c 043e b497 833d 45eb e23c
00000080: 7f20 e1bd c519 3a3e e1be 26be 2041 f03d
00000090: 757a 11bd fdef 763e f254 c93d 6e86 403d
000000a0: 497f cdbd 39ff 783c 4f67 883e b228 f73c
000000b0: 984c eb3d ab41 133e dc00 84bd 0935 d1bb
000000c0: f85a 33bd c68e 32be 82e3 cc3c 081c 0e3e
000000d0: c0ee edbd d882 133d 8b81 1d3e dc5a 883d
000000e0: d5f8 7cbc 51d3 0fbe 3266 d93d 8ca8 28be
000000f0: 9cfe 253e 8dda 493d 7d5d 11bd 940c 45bd
00000100: 283a b23c b0e1 3cbe 1b83 19bd ed97 11bd
00000110: 69df 18be 10b3 113d 107f 663d ea5b c93d
00000120: 7565 f4bd c9d5 e63d 5f02 59be 92e1 10be
00000130: a6e0 34be 2d3f 02be d11a 5d3d b641 5e3e
00000140: 6c46 9dbd 5cc9 94bd 6c05 ca3c 80b6 dabd
00000150: d448 253d 5e1c b13a f609 4f3e 90f6 f2bd
00000160: d6d2 5a3d 0c28 acbd dbea 833e 2e0f e3bd
00000170: 81aa 8a3e fc8c 373e de8c 8b3d ec3c 97bc
00000180: a438 503d 70fc b3bb 05f4 313c 4eb0 adbd
00000190: b571 4f3e 6f60 c83d 08b0 f13d fed1 483c
000001a0: 871a 23be 38c2 c5bc 8898 c63c ec5a dbbd
000001b0: 7cc9 753d 8c06 0c3e ed22 b5bd 0457 463e
000001c0: 3ae2 3fbd 7e23 8f3e cc29 843d 4a2c a43d
000001d0: b5f5 ef3d 1c0a 50bd 2037 26be d036 483e
000001e0: 8f1f 8f3d 0004 1a3e 2424 b53d 713d 813e
000001f0: 7cf6 6f3d c5c1 abbd 7b05 fdbd bb2b 3d3d
00000200: 838d e8bc c305 873d c96e 763d 1b77 803d
00000210: acd3 f9bd cc03 0fbd e28b ecbd 203d 1bbd
00000220: c8fd 173d 707c 633d 072c 693d b03e 4e3d
00000230: aa75 aabc 20c9 fd3c 9aba cdbd 54e5 42bc
00000240: 5936 81bd 0d09 a5bd 1b30 56bd d912 e0bd
00000250: a327 f7bd 03b3 9b3d 1ead da3c 4f3f 90bc
00000260: 382c 333d 58ec d73c a588 a3bd 97e8 e1bc
00000270: 6bf5 4f3d 4217 2b3d 54c0 fabd bad3 f9ba
00000280: 64da f2bd 6b98 02be 8022 3ebd a2bd 85bd
00000290: 9f17 13bd 843d 483c 9811 f73d 1a92 dcbd
000002a0: 54d5 65bc 9bb3 493d 8fba 973d 86f7 cb3c
000002b0: d277 70bc 3713 80bd 2e7d c1bd d40b c03d
000002c0: 5274 5b3d fc37 a83d 06ac bdbd d301 38bd
000002d0: ed35 b0bd 5351 f8bc 9f54 07bc 14b2 5cbd
000002e0: d97d 453d 8a23 263d e607 f3bd 17cd cc3d
000002f0: d1a8 9ebc d8e3 b83d c80d 9dbd 4816 d0bd
00000300: abf2 803e fd4a f23d 611d 433e ec65 b5bd
00000310: 7167 abbd 527d dcbd 1aea d63d 9acd f2bd
00000320: 6d67 a33d 0f12 01bd 48a4 91be 587d 1c3e
00000330: 2521 54be 912b a73d c363 a1bd d0d0 50be
00000340: 0a6b a13d ee83 0ebe b563 af3b 6c16 b33d
00000350: 1ddd 24be 8a40 cf3c a8cf 5b3e 91f2 afbd
00000360: ee03 e1bd 729a d33d ee33 943d 1e9a a8bd
00000370: 6d32 093e 282d 033e 617b 953d 705b 653d
00000380: 8742 45be 6a70 d5bc c5b1 f03b f8d9 5f3d
00000390: d2dc f53d ef22 43bd b2c4 fd3d a4df 68bd
000003a0: f570 61be d37b 103c 90c4 4a3e 5425 21bd
000003b0: 18da c83c 5813 413e 670f 8ebb de12 08be
000003c0: 77bb a03c 4c2b 9b3e 699c 503e 9448 eabd
000003d0: c924 bd3d 4023 643c f291 81be d891 5f3d
000003e0: 3353 a23d f641 7abb 02c3 173e 1dcb 453e
000003f0: 25dc a33d 9b3e 083c c505 383d 16fd e2bd

fc3.bias f4 [32]
-0.039251827 0.018628042 0.08874397 -0.049269084 0.059347026 -0.004255185 -0.10700858 -0.07990888
-0.03796737 -0.05090408 0.09542727 -0.038996343 -0.09146434 0.0075786137 -0.053599488 0.077404626
0.14397119 0.051960863 0.03065795 -0.027722446 -0.045984067 -0.11552943 0.10363316 -0.01599693
-0.0288585 -0.059229687 0.041304696 -0.01797483 -0.01699956 -0.027276242 -0.033248447 -0.09383454
00000000: 86c6 20bd d699 983c 66bf b53d 61ce 49bd
00000010: de15 733d 146f 8bbb 5027 dbbd 44a7 a3bd
00000020: ac83 1bbd cc80 50bd 5f6f c33d a1ba 1fbd
00000030: a851 bbbd 0556 f83b 238b 5bbd 5186 9e3d
00000040: 2f6d 133e ead4 543d 6226 fb3c 2f1a e3bc
00000050: ca59 3cbd b29a ecbd 9f3d d43d fe0b 83bc
00000060: a968 ecbc d49a 72bd 1d2f 293d f33f 93bc
00000070: a942 8bbc 6d72 dfbc 862f 08bd 532c c0bd

fc4.weight f4 [24, 32]
-0.040731885 -0.26005748 -0.044972766 -0.090667285 0.17142883 0.1612381 -0.19575837 0.07824474
0.09581684 -0.023273632 -0.031355612 -0.023147417 0.086367264 -0.059539948 -0.2618266 -0.10317363
-0.022044089 0.08454253 -0.16403429 0.13624479 -0.2503862 -0.909746 -0.017352572 0.101906605
-0.17131425 -0.02626352 -0.0064085196 0.20704028 0.13044548 0.020722222 -0.16750622 -0.009049886
-0.43531623 0.03249511 -0.075387955 0.04406748 -0.1844386 -0.05913375 -0.008584237 -0.009919855
-0.27260345 0.07231307 -0.35547048 -0.25834888 -0.31942376 -0.3447291 0.317829 -0.12023467
0.11925338 0.28620008 -0.02912767 -0.1453715 -0.043217283 -0.14925629 0.24783234 0.31662402
-0.03312514 -0.15800726 0.10723479 0.003056011 -0.1553244 0.20454626 0.110294625 -0.0017688386
-0.08461525 0.04517182 -0.14382994 -0.02374411 0.19220805 0.085113235 -0.20703447 -0.019006794
0.10773276 -0.10940521 0.07112803 0.1772343 -0.059110004 -0.34877065 -0.14336859 0.009464535
0.048963808 -0.14056212 -0.29702824 -0.11051173 0.11390073 -0.020592395 -0.6217375 0.03538227
0.17548525 -0.09145577 -0.1044115 -0.035175513 0.04083352 -0.1110457 0.002326334 -0.1787358
-0.18967915 -0.041990444 -0.0511847 0.20073725 -0.17481634 -0.06252042 -0.033692643 -0.044746276
0.12469804 -0.13185665 -0.4122903 0.13652827 0.09497189 -0.26168966 -0.053162586 -0.22537924
0.124960974 -0.0061631775 -0.18525493 -0.20615089 0.06367839 -0.41490856 0.0929279 0.03968947
0.061676618 0.07595046 0.13181746 0.08812751 -0.009339233 -0.10681588 0.2207405 -0.054122113
0.11881916 -0.12830569 0.03674563 0.1205349 -0.32422033 -0.05604535 0.13013478 -0.12533408
-0.13874023 0.056319818 -0.055435676 0.27010214 -0.20675711 -0.07724986 0.1499371 -0.059823506
-0.13811995 -0.12787679 -0.072984785 -0.20121215 0.07825626 0.340514 -0.3208032 -0.3306399
-0.045452055 0.119978055 0.045309946 -0.4563073 0.059713442 0.16800886 0.15842153 -0.005483184
0.13861965 0.18498822 0.116143234 -0.0024739339 0.23322715 -0.15095574 -0.26175013 -0.08987729
-0.20988396 0.023161277 -0.118203945 0.19093744 0.029002825 0.10286165 0.021918066 -0.15074202
0.073547885 -0.009483255 0.058328804 -0.2526897 0.03561537 -0.17092618 -0.24384627 -0.24694814
-0.12742393 0.08638944 -0.09984442 -0.05680019 0.15747973 -0.095992915 0.1327075 0.0029862905
0.24139611 -0.086636044 -0.0065186857 0.08437445 -0.009095594 -0.14847562 0.008613169 0.23290019
-0.19089116 -0.17025594 0.1925237 0.06412006 -0.1742747 0.13106723 0.06492423 -0.24607895
-0.29441068 -0.22275455 -0.15469173 0.113940515 -0.044320125 -0.15730342 0.12683438 0.15241055
0.10834797 0.024079755 0.17020157 -0.029024852 -0.034997184 -0.17488642 0.16148104 0.1575043
0.10579076 0.09897623 -0.08767766 0.07511761 -0.06411492 0.086144134 0.0049186377 -0.19959998
-0.057987604 -0.089107454 -0.054566108 -0.12084429 0.3214829 0.10337228 -0.30175185 -0.19099353
0.077349216 -0.26951128 0.014649539 -0.34794933 0.06697346 0.1175352 -0.2078016 0.10927776
-0.01947314 -0.16380037 0.16317897 0.15746918 0.13957219 0.120467216 0.020530846 -0.08981697
00000000: 7ad6 26bd 4126 85be 5d35 38bd c5af b9bd
00000010: 0a8b 2f3e 9a1b 253e e274 48be c73e a03d
00000020: 9f3b c43d 58a8 bebc be6e 00bd a79f bdbc
00000030: 52e1 b03d 29e0 73bd 230e 86be b24c d3bd
00000040: ce95 b4bc a224 ad3d 9bf8 27be c183 0b3e
00000050: 9f32 80be 1de5 68bf fb26 8ebc 69b4 d03d
00000060: 016d 2fbe 9826 d7bc 8ffe d1bb 5e02 543e
00000070: 8093 053e a6c1 a93c c086 2bbe f945 14bc
00000080: c5e1 debe 9819 053d 0065 9abd 1a80 343d
00000090: 79dd 3cbe 3b36 72bd e6a4 0cbc e386 22bc
000000a0: ae92 8bbe e018 943d 3a00 b6be 4e46 84be
000000b0: 838b a3be 5580 b0be 7cba a23e 983d f6bd
000000c0: 1e3b f43d d188 923e 279d eebc 44dc 14be
000000d0: 9b04 31bd a4d6 18be c3c7 7d3e 8b1c a23e
000000e0: 3aae 07bd a8cc 21be ea9d db3d 5b47 483b
000000f0: 5c0d 1fbe 9374 513e 26e2 e13d 60d8 e7ba
00000100: c34a adbd 1606 393d 2848 13be 0283 c2bc
00000110: 30d2 443e d94f ae3d d800 54be 23b4 9bbc
00000120: fea2 dc3d d70f e0bd 93ab 913d e97c 353e
00000130: 551d 72bd 1192 b2be 37cf 12be 2311 1b3c
00000140: 468e 483d 84ef 0fbe 1614 98be f953 e2bd
00000150: c944 e93d 62b1 a8bc 302a 1fbf 00ed 103d
00000160: 68b2 333e 2a4d bbbd b2d5 d5bd 3314 10bd
00000170: 0d41 273d ee6b e3bd 6875 183b 8406 37be
00000180: 403b 42be 2cfe 2bbd 0ca7 51bd 118e 4d3e
00000190: 0e03 33be b50a 80bd 4c01 0abd df47 37bd
000001a0: b061 ff3d 6e05 07be b717 d3be 11ce 0b3e
000001b0: 9f80 c23d 30fc 85be 03c1 59bd d1c9 66be
000001c0: 8aeb ff3d 7bf4 c9bb 78b3 3dbe 3819 53be
000001d0: d169 823d e56e d4be fc50 be3d 6d91 223d
000001e0: 9fa0 7c3d ea8b 9b3d 28fb 063e 327c b43d
000001f0: 9503 19bc 49c2 dabd cc09 623e 26af 5dbd
00000200: 7657 f33d 9162 03be 9682 163d 00db f63d
00000210: 3500 a6be cf8f 65bd 0d42 053e 9457 00be
00000220: eb11 0ebe 9caf 663d 8510 63bd d44a 8a3e
00000230: 23b8 53be 2d35 9ebd 1c89 193e 7e09 75bd
00000240: 516f 0dbe 22f2 02be 0c79 95bd 8f0a 4ebe
00000250: d144 a03d da57 ae3e 5140 a4be a249 a9be
00000260: ef2b 3abd 0eb7 f53d ec96 393d 1ca1 e9be
00000270: 1596 743d 840a 2c3e 4139 223e 48ac b3bb
00000280: 4ff2 0d3e 8d6d 3d3e 81dc ed3d b921 22bb
00000290: 19d3 6e3e 2494 1abe 1d04 86be 9611 b8bd
000002a0: d2eb 56be b8bc bd3c e914 f2bd 1b85 433e
000002b0: 5597 ed3c 21a9 d23d 848d b33c 1e5c 1abe
000002c0: 46a0 963d a85f 1bbc 2fea 6e3d 8b60 81be
000002d0: 6ce1 113d 4607 2fbe d6b2 79be f9df 7cbe
000002e0: 6b7b 02be f2ec b03d 3b7b ccbd 51a7 68bd
000002f0: 5e42 213e ef97 c4bd 7ae4 073e a4b5 433b
00000300: 8b30 773e 3d6e b1bd b39a d5bb 83cc ac3d
00000310: b005 15bc fe09 18be 401e 0d3c 637d 6e3e
00000320: f978 43be 9357 2ebe ef24 453e 6151 833d
00000330: 1175 32be 7d36 063e fff6 843d 1ffc 7bbe
00000340: ffbc 96be c519 64be 8267 1ebe a559 e93d
00000350: 0589 35bd 2614 21be dfe0 013e 8311 1c3e
00000360: 8ae5 dd3d e842 c53c 5249 2e3e 87c5 edbc
00000370: 3559 0fbd 6d15 33be 495b 253e cf48 213e
00000380: d3a8 d83d 0db4 ca3d 5890 b3bd 43d7 993d
00000390: af4e 83bd 566c b03d 862c a13b f063 4cbe
000003a0: 6984 6dbd f87d b6bd b680 5fbd 367d f7bd
000003b0: 6899 a43e d9b4 d33d 387f 9abe cf93 43be
000003c0: 4469 9e3d 62fd 89be 9f04 703c 6a26 b2be
000003d0: 6229 893d 4cb6 f03d f1c9 54be 05cd df3d
000003e0: 2286 9fbc 49bb 27be 6318 273e 9a3f 213e
000003f0: 03ec 0e3e 84b7 f63d 4e30 a83c f6f1 b7bd

fc4.bias f4 [24]
0.25336206 0.13854562 -0.11345505 0.14734782 0.12974848 0.20328812 -0.033848394 -0.09072627
0.04816907 0.18658571 -0.06349893 -0.17733908 0.14797081 -0.065807685 -0.19362961 0.023247298
0.010537679 0.13839549 -0.15809937 0.04646943 0.04188232 -0.13651812 0.13275619 -0.09466157
00000000: acb8 813e e7de 0d3e 1f5b e8bd 59e2 163e
00000010: c9dc 043e c32a 503e 9da4 0abd b2ce b9bd
00000020: ee4c 453d 5310 3f3e ba0b 82bd 6098 35be
00000030: a985 173e 2ec6 86bd d746 46be 1e71 be3c
00000040: 3ba6 2c3c 8cb7 0d3e cde4 21be bb56 3e3d
00000050: cc8c 2b3d 68cb 0bbe 3df1 073e eddd c1bd

exp_avg f4 [128, 144]
0.000470486 -0.00011424278 0.0012819534 0.0001265509 0.0008037287 0.00069600693 -7.708126e-05 0.0001606197
0.000943847 0.0005760717 0.00072853436 0.00044411572 0.0011205312 0.00013995905 0.00061001605 0.00092831766
0.000930457 0.00056417205 0.000724069 0.0009599961 0.00067198195 0.0009850706 0.0015403484 0.0005827531
0.0012854147 0.0007233398 0.0015547697 0.0008323969 0.0015269209 0.0015481089 -0.00027325813 0.00028530994
0.00058131653 0.0005077604 0.00069462956 0.0011107603 0.0015590938 0.00076000445 0.00075810804 0.0019484726
0.0017302574 0.0009560119 0.0011714394 0.001249724 0.0016967015 0.00094895344 0.0013352582 0.00067022204
0.0014390722 0.000543841 0.0016161519 0.00067689293 0.0015761207 0.0011892493 -0.00040975693 0.00016231442
0.0006465954 0.0006695696 0.0009391649 0.0009675042 0.0015764569 0.000795641 0.00067874586 0.0018630163
0.001444682 0.0010934859 0.0011316377 0.0012159797 0.001612748 0.0010526606 0.0014835256 0.0009584243
0.001553666 0.00038185477 0.0015318524 0.00059555424 0.0015631181 0.0011896018 -0.00023864442 0.00018572234
0.00077139237 0.0007093472 0.000741092 0.0009108724 0.0015753512 0.00089750893 0.0008719175 0.0016676349
0.0013885681 0.00125395 0.0011161931 0.0011456904 0.0015518579 0.0010542346 0.0014242791 0.0010091166
0.0016089412 0.00019274213 0.00162402 0.0005469022 0.0014701608 0.0011404123 -0.0003117843 0.00018758382
0.0008571771 0.0006888462 0.0008032655 0.00095683796 0.0016827213 0.00075053144 0.00091969606 0.0014014727
0.001449598 0.0012536776 0.0012529755 0.0011668955 0.001579481 0.0011438167 0.0014548672 0.0009923348
0.0017088576 0.00011248168 0.0016689505 0.0004713602 0.0014677523 0.0011817957 -0.00016448504 0.00015999179
0.0007567871 0.00071797543 0.00087229605 0.0010502868 0.0015581702 0.00074114033 0.0010224462 0.0011902405
0.0013308045 0.0012984112 0.0011311274 0.0011193963 0.0015250574 0.0012231825 0.0015473336 0.0010177526
0.0012846907 -0.0005617973 0.0015691046 0.00010438902 0.00047957426 0.00021262473 0.00048241887 0.00020562009
0.0007929551 6.757447e-05 0.00061534264 0.0006713602 0.00046381168 -1.4730904e-06 0.00022546614 0.00060941465
0.0011281538 0.0006288452 0.0009634595 0.0008597479 0.0011211799 0.0003522397 0.00089168915 0.00052497024
0.001768504 0.00032324583 0.0018113533 0.00014980367 8.2996106e-05 -0.0001461734 0.00015799196 0.0005563399
0.0012210747 -6.754295e-05 0.0011092228 0.00108626 0.00069706014 0.00065395574 0.0006828487 0.0005184007
0.0018583338 0.0001704104 0.0009702871 0.0011641418 0.0019469433 0.00045215173 0.0015387746 0.0004196486
0.0018325858 0.00035419705 0.0017377164 -7.577904e-05 0.00027290612 8.993046e-05 0.00017448734 0.0006465205
0.0010528311 -0.00016802023 0.0011681223 0.0012547104 0.00055349397 0.00067016785 0.00056476536 0.000625643
0.0016370295 0.00025934653 0.0010804543 0.0011200028 0.0019443923 0.00033199252 0.001419762 0.00037728422
0.0018767796 0.0002454088 0.0017964987 -1.4680409e-05 0.00013311813 0.00032422136 0.00011257407 0.000616367
0.0010076325 -1.5889062e-05 0.0012534307 0.001251857 0.00064504787 0.0006535185 0.00051244855 0.00059895666
0.0016656583 0.00023193141 0.0011040966 0.0011345206 0.0018261488 0.00020014105 0.001334958 0.00034600496
0.0019254498 0.00013301324 0.0017536047 -9.2367525e-05 -1.8785358e-05 0.00034505082 8.882364e-05 0.00061365694
0.0011058603 -4.943108e-05 0.0011985842 0.0012841373 0.00075684115 0.0008118121 0.00039298917 0.0004927783
00000000: 90ab f639 a095 efb8 3807 a83a c0b2 0439
00000010: 52b1 523a 3c74 363a b0a6 a1b8 066c 2839
00000020: 806c 773a 8403 173a 1dfb 3e3a 34d8 e839
00000030: cade 923a f9c1 1239 7ce9 1f3a 585a 733a
00000040: eae9 733a f2e4 133a 73cf 3d3a 3fa8 7b3a
00000050: f227 303a 7c1d 813a 84e5 c93a e6c3 183a
00000060: 5c7b a83a 839e 3d3a 6ac9 cb3a 3635 5a3a
00000070: f722 c83a eae9 ca3a 1644 8fb9 a795 9539
00000080: 7e63 183a 391b 053a cd17 363a ee96 913a
00000090: 825a cc3a 093b 473a c5bb 463a e463 ff3a
000000a0: cec9 e23a df9c 7a3a fc8a 993a c7cd a33a
000000b0: db63 de3a 30c3 783a d503 af3a d7b1 2f3a
000000c0: 409f bc3a 8d90 0e3a 0fd5 d33a 8471 313a
000000d0: d695 ce3a 96e0 9b3a a5d4 d6b9 f232 2a39
000000e0: 4880 293a 0e86 2f3a 4a32 763a 1ca0 7d3a
000000f0: 1ea1 ce3a 9092 503a dded 313a 7430 f43a
00000100: 7c5b bd3a 4c53 8f3a 7653 943a 8261 9f3a
00000110: d862 d33a 6ef9 893a dc72 c23a c43e 7b3a
00000120: 61a4 cb3a ae33 c839 70c8 c83a f81e 1c3a
00000130: 8ae1 cc3a 6aec 9b3a a03c 7ab9 76be 4239
00000140: 4437 4a3a 7cf3 393a d845 423a 9dc7 6e3a
00000150: 047c ce3a ce46 6b3a 6591 643a 8b94 da3a
00000160: 9d00 b63a 945b a43a 3a4d 923a fe2a 963a
00000170: b667 cb3a 3e2e 8a3a e0ae ba3a 5644 843a
00000180: 1ce3 d23a d21a 4a39 12dd d43a fc5d 0f3a
00000190: 69b2 c03a e379 953a fb76 a3b9 26b2 4439
000001a0: 2eb4 603a b093 343a 3c92 523a 4fd4 7a3a
000001b0: c28e dc3a 50bf 443a c217 713a 9fb1 b73a
000001c0: 7000 be3a 7152 a43a e23a a43a 84f2 983a
000001d0: 9606 cf3a 1fec 953a 3eb1 be3a 3b11 823a
000001e0: bffb df3a 24e4 eb38 b0c0 da3a e520 f739
000001f0: 9861 c03a 7ce6 9a3a 9e79 2cb9 78c3 2739
00000200: 1f63 463a 8436 3c3a ccaa 643a c7a9 893a
00000210: 843b cc3a 1649 423a 9a03 863a d801 9c3a
00000220: 646e ae3a 732f aa3a 5642 943a b5b8 923a
00000230: 6fe4 c73a 3253 a03a e6cf ca3a 1c66 853a
00000240: 1163 a83a 9445 13ba 6aaa cd3a 6eeb da38
00000250: 5e6f fb39 04f4 5e39 2aed fc39 b99b 5739
00000260: 51de 4f3a c4b6 8d38 f24e 213a 38fe 2f3a
00000270: c02b f339 00b7 c5b5 1b6b 6c39 20c1 1f3a
00000280: 8fde 933a 16d9 243a ac90 7c3a b460 613a
00000290: 8ef4 923a d0ac b839 3fc0 693a 289e 093a
000002a0: 26cd e73a 5279 a939 ee6a ed3a 9e14 1d39
000002b0: 320e ae38 2046 19b9 a5aa 2539 57d7 113a
000002c0: 780c a03a d8a5 8db8 5763 913a d660 8e3a
000002d0: eaba 363a 3a6e 2b3a 3301 333a 48e5 073a
000002e0: 5693 f33a 32b0 3239 dd5a 7e3a 1e96 983a
000002f0: 9430 ff3a c70e ed39 b5b0 c93a 4804 dc39
00000300: 6033 f03a 86b3 b939 16c4 e33a 90eb 9eb8
00000310: d714 8f39 0c99 bc38 97f6 3639 427b 293a
00000320: 26ff 893a 962e 30b9 ae1b 993a 1875 a43a
00000330: 5a18 113a 34ae 2f3a c30c 143a 3102 243a
00000340: 9891 d63a e7f8 8739 089e 8d3a 0fcd 923a
00000350: fbda fe3a 480f ae39 4f17 ba3a 3bce c539
00000360: 46fe f53a 36aa 8039 7e78 eb3a e04b 76b7
00000370: a095 0b39 41fc a939 be15 ec38 b093 213a
00000380: 8912 843a 8049 85b7 284a a43a 5a15 a43a
00000390: 6e18 293a e250 2b3a d755 063a 4d03 1d3a
000003a0: 3852 da3a 9d32 7339 56b7 903a 32b4 943a
000003b0: 635b ef3a f4dc 5139 c2f9 ae3a 0068 b539
000003c0: 605f fc3a 7879 0b39 36d9 e53a 70b5 c1b8
000003d0: 4095 9db7 f0e7 b439 d446 ba38 d2dd 203a
000003e0: 84f2 903a 3854 4fb8 d019 9d3a 7f50 a83a
000003f0: c066 463a cacf 543a 1d0a ce39 cb2d 013a

exp_avg_sq f4 [128, 144]
0.00017159832 1.2556565e-05 0.00015893203 3.1564035e-05 6.0784307e-05 5.818286e-05 1.619562e-05 2.3831966e-05
6.36437e-05 3.6136462e-05 3.4233628e-05 5.932944e-05 8.451393e-05 1.5264537e-05 2.1789583e-05 4.043395e-05
0.00010491406 8.86903e-05 0.00012339446 5.707168e-05 0.00013540806 3.956883e-05 4.7280784e-05 3.0229723e-05
0.00026736181 2.9552348e-05 0.0002394039 7.376283e-05 0.00012784028 0.000122038145 4.4473898e-05 5.0330287e-05
0.000103582934 6.328002e-05 5.558529e-05 0.00010723501 0.00012953868 4.30025e-05 6.509361e-05 0.00010642777
0.0001700922 0.00014988081 0.00020798545 0.00010147688 0.00019441478 6.8929636e-05 7.7261924e-05 5.372648e-05
0.00026972126 2.9492647e-05 0.00023999884 7.691706e-05 0.00012671732 0.0001171055 4.324022e-05 5.039317e-05
9.9881116e-05 6.779603e-05 5.6628178e-05 0.00010567725 0.00012933649 4.2517255e-05 6.368736e-05 0.00010368293
0.00016773798 0.00015522227 0.0002063406 9.901128e-05 0.00020376059 6.780385e-05 7.68501e-05 5.165658e-05
0.0002675741 2.8596813e-05 0.00023846119 7.834958e-05 0.00012822404 0.00011575238 4.3647702e-05 5.1173152e-05
0.00010043154 6.784385e-05 5.7097448e-05 0.00011386597 0.00012973587 4.2977805e-05 6.024595e-05 0.00010325726
0.0001726442 0.00015537415 0.0002055355 0.000100092606 0.00020229495 6.589897e-05 7.837828e-05 5.5177563e-05
0.00026798787 2.7788608e-05 0.000239937 7.8751764e-05 0.00012890634 0.00011905561 4.3846805e-05 5.1926152e-05
9.96998e-05 6.808918e-05 5.553839e-05 0.0001117916 0.0001315201 4.1871466e-05 6.0160193e-05 0.00010333606
0.00017392122 0.00015240672 0.00020693793 0.000100920864 0.00020228256 6.618423e-05 7.79861e-05 5.499313e-05
0.00026475935 2.969083e-05 0.00023958024 8.05509e-05 0.00013003963 0.00011855705 4.484984e-05 5.0399103e-05
9.7845004e-05 6.896899e-05 5.480494e-05 0.00011166857 0.00013095477 4.2291333e-05 6.1556944e-05 0.00010204407
0.00017397957 0.00015141234 0.00020899212 0.000101200785 0.00020310425 6.53037e-05 7.868802e-05 5.5508754e-05
4.3027914e-05 1.8959166e-05 2.6661906e-05 1.0258848e-05 1.9560719e-05 1.5659296e-05 3.792899e-06 4.7329427e-06
2.598463e-05 1.36456965e-05 6.7242013e-06 2.2998769e-05 2.6745234e-05 2.8568045e-06 1.5250416e-05 1.909657e-05
2.6378804e-05 2.839896e-05 4.423701e-05 1.625487e-05 3.4050816e-05 1.12350735e-05 8.819645e-06 1.257769e-05
7.285124e-05 3.6269492e-05 5.320903e-05 2.037363e-05 2.5573247e-05 3.0379666e-05 1.0250594e-05 1.7497989e-05
4.236696e-05 4.128919e-05 1.3206359e-05 4.464543e-05 3.655042e-05 1.3328564e-05 3.3204702e-05 3.446273e-05
5.0849747e-05 4.4568853e-05 7.351108e-05 2.3016957e-05 6.679494e-05 2.4913581e-05 2.1783988e-05 2.1598682e-05
7.23511e-05 3.7792917e-05 5.349419e-05 1.920645e-05 2.6481837e-05 3.0678963e-05 9.848335e-06 1.805896e-05
4.223685e-05 4.1054824e-05 1.397013e-05 5.0163988e-05 3.5582652e-05 1.314348e-05 3.3427554e-05 3.606031e-05
5.068699e-05 4.423083e-05 7.4824144e-05 2.4648403e-05 6.6215376e-05 2.295588e-05 2.217242e-05 2.0926876e-05
7.134047e-05 3.869486e-05 5.336328e-05 1.9651672e-05 2.77781e-05 3.033251e-05 9.287869e-06 1.629388e-05
4.167064e-05 4.15139e-05 1.4939906e-05 4.8542377e-05 3.7034613e-05 1.2918774e-05 3.428977e-05 3.6625224e-05
5.1953328e-05 4.4127908e-05 7.345532e-05 2.4347992e-05 6.455165e-05 2.4155042e-05 2.2419366e-05 2.15546e-05
7.1017625e-05 4.0669573e-05 5.041437e-05 1.9865698e-05 2.7464392e-05 3.1043066e-05 8.811227e-06 1.5083873e-05
4.0617022e-05 4.29499e-05 1.5121574e-05 5.044473e-05 3.6892274e-05 1.2971915e-05 3.4271892e-05 3.554641e-05
00000000: 13ef 3339 09aa 5237 fea6 2639 a063 0438
00000010: a7f2 7e38 5f09 7438 d4db 8737 c2ea c737
00000020: 7478 8538 3b91 1738 1496 0f38 80d8 7838
00000030: 123d b138 580c 8037 c6c8 b637 a097 2938
00000040: 4f05 dc38 3eff b938 7363 0139 4060 6f38
00000050: 53fc 0d39 b5f6 2538 5b4f 4638 d695 fd37
00000060: b22c 8c39 2fe7 f737 7f08 7b39 1eb1 9a38
00000070: dd0c 0639 bbee ff38 7c89 3a38 bc19 5338
00000080: aa3a d938 34b5 8438 4024 6938 5ce3 e038
00000090: c6d4 0739 955d 3438 de82 8838 f931 df38
000000a0: c75a 3239 5329 1d39 ab16 5a39 fccf d438
000000b0: d2db 4b39 518e 9038 ae07 a238 5e58 6138
000000c0: 6069 8d39 fa66 f737 33a8 7b39 884e a138
000000d0: 6cdf 0439 8996 f538 d55c 3538 415d 5338
000000e0: 4477 d138 b72d 8e38 0b84 6d38 0b9f dd38
000000f0: 809e 0739 8e54 3238 e48f 8538 5970 d938
00000100: d2e2 2f39 29c3 2239 225d 5839 47a4 cf38
00000110: 91a8 5539 ea31 8e38 952a a138 d5a9 5838
00000120: 3049 8c39 30e3 ef37 700b 7a39 9c4f a438
00000130: e173 0639 16c0 f238 5d12 3738 c1a2 5638
00000140: c69e d238 6447 8e38 eb7b 6f38 54cb ee38
00000150: b509 0839 1143 3438 99b0 7c38 d28b d838
00000160: d307 3539 eeeb 2239 0485 5739 cfe8 d138
00000170: 231f 5439 3d33 8a38 055f a438 756e 6738
00000180: b980 8c39 951b e937 9997 7b39 8827 a538
00000190: 082b 0739 7ead f938 26e8 3738 48cb 5938
000001a0: ec15 d138 1acb 8e38 e4f1 6838 a971 ea38
000001b0: a8e8 0939 259f 2f38 8454 7c38 20b6 d838
000001c0: 9f5e 3639 5ecf 1f39 7afd 5839 7aa5 d338
000001d0: d01b 5439 63cc 8a38 788c a338 6ca8 6638
000001e0: 66cf 8a39 9210 f937 d537 7b39 6fed a838
000001f0: 3f5b 0839 d5a1 f838 261d 3c38 a063 5338
00000200: 2332 cd38 72a3 9038 5bde 6538 9b2f ea38
00000210: e750 0939 f961 3138 2218 8138 7e00 d638
00000220: 496e 3639 71c4 1e39 e524 5b39 c23b d438
00000230: 62f8 5439 a8f3 8838 4f05 a538 12d2 6838
00000240: df78 3438 800a 9f37 02a8 df37 6b1d 2c37
00000250: 5316 a437 155c 8337 8289 7e36 abcf 9e36
00000260: 91f9 d937 d2ef 6437 73a0 e136 7bed c037
00000270: f45a e037 87b7 3f36 0adc 7f37 9231 a037
00000280: 0d48 dd37 4d3a ee37 218b 3938 115b 8837
00000290: c9d1 0e38 467e 3c37 16f8 1337 c404 5337
000002a0: b6c7 9838 1220 1838 c32c 5f38 0ae8 aa37
000002b0: 2186 d637 d6d7 fe37 f7f9 2b37 a5c8 9237
000002c0: 2db3 3138 ee2d 2d38 e190 5d37 aa41 3b38
000002d0: b74d 1938 bf9d 5f37 4745 0b38 138c 1038
000002e0: 8047 5538 71ef 3a38 f629 9a38 8a14 c137
000002f0: 4314 8c38 82fd d037 c2bc b637 d12e b537
00000300: 33bb 9738 d683 1e38 f35e 6038 8a1d a137
00000310: 5025 de37 49ad 0038 473a 2537 527d 9737
00000320: 7927 3138 4832 2c38 4061 6a37 2c67 5238
00000330: 953e 1538 d182 5c37 9034 0c38 773f 1738
00000340: be98 5438 7e84 3938 e8ea 9c38 0bc4 ce37
00000350: 1cdd 8a38 6091 c037 e9fe b937 208c af37
00000360: a09c 9538 4a4c 2238 63d2 5f38 a5d9 a437
00000370: 0405 e937 9272 fe37 18d3 1b37 d7ae 8837
00000380: 82c7 2e38 361f 2e38 68a6 7a37 fb99 4b38
00000390: 9d55 1b38 b6bd 5837 5cd2 0f38 099e 1938
000003a0: 76e8 5938 fb15 3938 060c 9a38 ea3e cc37
000003b0: e75f 8738 8fa0 ca37 3911 bc37 27d0 b437
000003c0: 4cef 9438 9f94 2a38 0574 5338 43a5 a637
000003d0: 5563 e637 3d34 0238 efd3 1337 be10 7d37
000003e0: 325c 2a38 1b25 3438 aab2 7d37 9e94 5338
000003f0: c7bc 1a38 f3a1 5937 2abf 0f38 ab17 1538

exp_avg f4 [128]
0.0021477372 0.0016450225 0.0014298254 -0.0048707663 0.00060872396 0.0031569886 -0.0021064768 0.0
-0.0035115064 -0.0013541076 0.0004401838 -0.0008112008 0.0017391725 0.00072816625 0.0011421903 0.0
-0.0020670374 0.0013817803 -0.0015628866 -0.0035036393 -0.0014881665 0.0028657157 -0.0029625297 -0.0035673557
-0.001219219 -0.00073135283 -0.0040834234 -0.00071744807 0.0011414497 -0.003501882 -0.0009916364 0.0043990146
-0.0028239023 0.004602344 0.004486014 -0.0034922436 7.5982345e-05 -0.0031367457 0.0035604232 -0.0028215712
0.004355762 -0.0046853875 -0.0014827251 0.003443744 0.002465047 -0.00064274773 0.0021696992 0.0013897198
0.007981966 -0.0016601668 0.0006903105 -0.0030686231 6e-45 0.001609725 0.0011095529 0.0029839757
-7.314724e-05 -0.0010750828 0.00038461547 -0.0041029174 -0.0025680098 -0.00032095474 0.0015064662 -0.00063371786
0.0016003652 0.0005280074 6e-45 0.0036544618 0.000690129 5.6363002e-05 -0.0015565048 0.0
0.0023955246 -0.0013788345 -0.0018145558 0.0 0.0020542708 0.0008258099 0.00051821955 0.00094944565
-0.0003031097 0.0037092601 0.0005110003 -0.0009576296 0.0017272881 0.0 -0.00055764057 -0.00014511973
-6.255461e-06 0.0121635385 -0.002416893 0.0038855514 0.0008299816 0.001418886 0.0040836623 -0.0047335327
-0.002012235 -0.0009868668 -0.005975739 0.002207691 6e-45 0.00068698724 0.0026033092 0.0011509227
0.001112287 0.0 -0.0010123902 -0.00279638 0.0018239093 -0.0017434608 -0.0049448856 0.00057965715
0.0 0.0029878474 -0.00020258166 0.0019403128 -0.0005240872 -0.005988441 6e-45 -0.006549786
4.6115805e-05 0.0012589642 -0.0034918324 -1.4841644e-05 6e-45 -0.0020517558 0.0013879078 0.0006823223
00000000: 0dc1 0c3b cc9d d73a fb68 bb3a f39a 9fbb
00000010: c692 1f3a 7be5 4e3b d10c 0abb 0000 0000
00000020: 4d21 66bb 507c b1ba 78c8 e639 c4a6 54ba
00000030: f2f4 e33a 69e2 3e3a 8cb5 953a 0000 0000
00000040: 2277 07bb da1c b53a c6d9 ccba 509d 65bb
00000050: 950e c3ba bbce 3b3b 0027 42bb 4cca 69bb
00000060: 33ce 9fba 42b8 3fba 3dce 85bb 2013 3cba
00000070: b29c 953a d57f 65bb ccf9 81ba 9c25 903b
00000080: 3811 39bb 42cf 963b 6aff 923b 20de 64bb
00000090: b658 9f38 dc91 4dbb fd55 693b 1cea 38bb
000000a0: c8ba 8e3b e187 99bb 0058 c2ba 70b0 613b
000000b0: a08c 213b 127e 28ba 8331 0e3b 4227 b63a
000000c0: cbc6 023c f499 d9ba f4f5 343a f41a 49bb
000000d0: 0400 0000 68fd d23a 6b6e 913a ce8e 433b
000000e0: a066 99b8 cbe9 8cba 37a6 c939 c471 86bb
000000f0: 0e4c 28bb d145 a8b9 9e74 c53a 1620 26ba
00000100: 58c3 d13a fa69 0a3a 0400 0000 b27f 6f3b
00000110: c6e9 343a 5067 6c38 a203 ccba 0000 0000
00000120: 3cfe 1c3b 02ba b4ba 64d6 edba 0000 0000
00000130: f2a0 063b 2a7b 583a 20d9 073a 38e4 783a
00000140: b2ea 9eb9 0f17 733b a6f4 053a 6f09 7bba
00000150: 2c66 e23a 0000 0000 a02e 12ba 482b 18b9
00000160: 00e6 d1b6 9449 473c bc64 1ebb bca4 7e3b
00000170: 1f93 593a eaf9 b93a 3ed0 853b c01b 9bbb
00000180: b4df 03bb c159 81ba 22d0 c3bb e9ae 103b
00000190: 0400 0000 ef16 343a 489c 2a3b 8fda 963a
000001a0: 29ca 913a 0000 0000 2eb2 84ba 7943 37bb
000001b0: 3e10 ef3a d684 e4ba b508 a2bb 22f4 173a
000001c0: 0000 0000 c3cf 433b 1a6c 54b9 1852 fe3a
000001d0: e662 09ba af3a c4bb 0400 0000 969f d6bb
000001e0: 786c 4138 d403 a53a 3ad7 64bb 6000 79b7
000001f0: 0400 0000 c076 06bb 75ea b53a e0dd 323a
