models/RaceModels/reg_pos_coef_3copies_0to10_twolayers_mse/model.pt (torch, 368879 bytes, 18 tensors)

fc1.weight f4 [128, 144]
0	0x3d573bef	0.05254739
1	0xbc32d6c4	-0.010915462
2	0xbdac4dc8	-0.08413273
3	0xbcd8310a	-0.026390571
4	0xbd415638	-0.047201365
5	0xbd0640b5	-0.032776553
6	0x3cc22e14	0.023703612
7	0xbd09d588	-0.033650905
8	0xbda727ad	-0.081618644
9	0xbd8e5cb5	-0.06951276
10	0xbd62bb30	-0.055354297
11	0x3d96bc87	0.073601775
12	0x3d5689f5	0.05237766
13	0x3d90a5e1	0.07062889
14	0xbd9a3133	-0.07528915
15	0x3b9ae180	0.0047265887
16	0xbd05bd32	-0.032651134
17	0xbd2967ab	-0.04135863
18	0x3cc016e2	0.023448411
19	0xbcd8a6df	-0.026446758
20	0x3d1509d4	0.036386326
21	0xbd004b76	-0.031321965
22	0xbd98e979	-0.074664064
23	0xbd93ed25	-0.07222966
24	0xbd804b35	-0.062643446
25	0x3d4b1e5c	0.0495895
26	0x3cd13712	0.025538955
27	0xbc33a3cd	-0.010964346
28	0xbb94ae63	-0.00453739
29	0x3d9fa5a9	0.07795269
30	0xbca8c0c2	-0.020599727
31	0x3cb85cf3	0.02250526
32	0xbcf11152	-0.029427204
33	0x3d1e8bc0	0.038707495
34	0x3c9c40a6	0.019073796
35	0x3c9ca6c3	0.019122487
36	0xbd8ae754	-0.067824036
37	0xbcdcf275	-0.026971081
38	0xbd059f33	-0.032622527
39	0x3d4635c8	0.048391134
40	0x3d4cd4c4	0.050007597
41	0x3d35cab7	0.044382777
42	0x3d733c7d	0.059383858
43	0xbd9b4372	-0.075812235
44	0xbd48f8c5	-0.04906537
45	0xbd3035e3	-0.04302014
46	0xbda5aa57	-0.0808913
47	0xbc13b7da	-0.009016002
48	0xbd6246e7	-0.0552434
49	0x3d56b900	0.052422523
50	0xbd8b6504	-0.068063766
51	0xbd9852a5	-0.07437638
52	0xbd999b2a	-0.07500298
53	0xbc1800bf	-0.009277522
54	0x3d90eb9d	0.0707619
55	0xbd27029b	-0.04077397
56	0xbd91c347	-0.07117324
57	0x3d6cafbf	0.057784792
58	0xbd9e3571	-0.07725037
59	0x3c9e3df5	0.019316653
60	0x3d75a9fe	0.05997657
61	0xbd0ea611	-0.034826342
62	0x3d0794c2	0.03310085
63	0x3c460739	0.012086683
64	0xbda71563	-0.08158376
65	0xbd8ea4fb	-0.06965061
66	0x3d931150	0.071810365
67	0xbd720666	-0.059088133
68	0xbd520c3f	-0.05128121
69	0xbd299ba4	-0.041408196
70	0x3cd69efb	0.026198855
71	0x3d4bc9b2	0.0497529
72	0xbd6efb82	-0.058345325
73	0x3d13c6d8	0.036078304
74	0x3d0f56cf	0.034994897
75	0x3c30c1b7	0.010788373
76	0xbd3fdf19	-0.046843622
77	0x3ce747ba	0.028232444
78	0xbcbf742f	-0.02337083
79	0x3d6175ab	0.055043858
80	0x3d65ecac	0.05613391
81	0x3d329646	0.043600343
82	0xbd2baa17	-0.041910257
83	0xbc9f93f3	-0.019479727
84	0x3d6f0ba2	0.058360703
85	0x3d3d68af	0.046242412
86	0xbc24b0d7	-0.0100519275
87	0xbda1176e	-0.07865797
88	0xbcabb878	-0.020961985
89	0xbd017ef7	-0.031615224
90	0x3d917a69	0.07103426
91	0xbd923422	-0.0713885
92	0x3d22411a	0.039612867
93	0x3d426bc2	0.047466047
94	0x3d739a83	0.059473526
95	0xbd96b22f	-0.073582046
96	0xbda16a4e	-0.07881604
97	0xbd0de18a	-0.03463892
98	0x3d04d7e2	0.032432444
99	0x3d8efc73	0.069817446
100	0xbd01e36c	-0.031711027
101	0xbd9e3d9c	-0.07726595
102	0x3d7cd384	0.061725155
103	0x3d4bd951	0.049767796
104	0xbcdfb261	-0.027306737
105	0x3cfd3b77	0.030912144
106	0xbd14ea23	-0.036356103
107	0xbd1b2b88	-0.03788331
108	0xbc04a1b1	-0.008095191
109	0xbd039110	-0.032120764
110	0xbd406aa9	-0.04697672
111	0xbda8b2ae	-0.082372054
112	0x3c9c698d	0.0190933
113	0xbd7f5bc6	-0.06234338
114	0xbd731e99	-0.059355352
115	0x3d68c780	0.056830883
116	0x3cb94a38	0.022618398
117	0x3d5d01c5	0.053956766
118	0x3a3418cc	0.000687015
119	0x3d90cf03	0.07070734
120	0x3da5566e	0.08073126
121	0xbd42b7e9	-0.04753867
122	0xbcc283a3	-0.02374441
123	0x3d8101e9	0.062991925
124	0x3cd903fd	0.02649116
125	0xbd1de1d7	-0.038545456
126	0xbd8acf96	-0.06777875
127	0x3d8fdd6d	0.070246555
128	0xbcb83842	-0.022487763
129	0x3d89e8be	0.06733845
130	0xbd43350f	-0.047658022
131	0x3d2813bf	0.041034456
132	0x3d5f64ef	0.054539617
133	0xbd27e001	-0.04098511
134	0xbcdfa943	-0.02730239
135	0xbd93c43e	-0.072151646
136	0x3c9240a5	0.01785309
137	0xbd33c09b	-0.043884855
138	0xbd310ed9	-0.04322705
139	0xbc3dbf70	-0.011581287
140	0x3d65a329	0.056063805
141	0xbcff89bd	-0.031193608
142	0xbc3e3a75	-0.011610617
143	0x3d639ec6	0.05557134
144	0xbc0efac0	-0.008726776
145	0xbd69ba94	-0.0570627
146	0xbd782fd5	-0.06059249
147	0x39976448	0.0002887568
148	0x3bee5dea	0.007274379
149	0x3b11d234	0.0022250535
150	0x3d10a876	0.035316907
151	0xbd56b438	-0.052417964
152	0x3a262910	0.0006338516
153	0x3d19aee0	0.03752029
154	0xbb9e0028	-0.004821796
155	0xbb56d636	-0.0032781488
156	0x3da80a0e	0.08205043
157	0xbc60cac9	-0.013720223
158	0x3dac074b	0.083998285
159	0xbd3420a7	-0.043976452
160	0x3bd7d439	0.006586578
161	0xbd12f071	-0.035873834
162	0xbbdfd843	-0.0068312003
163	0xbd8db00a	-0.069183424
164	0x3d9156eb	0.070966564
165	0xbdbd861b	-0.09254094
166	0xbe159905	-0.14609154
167	0x3cdebeac	0.027190529
168	0x3ddc334f	0.10751974
169	0x3dc89229	0.09793503
170	0x3dd895fd	0.10575483
171	0xbd650b0f	-0.05591875
172	0xbd319d19	-0.04336271
173	0x3d9d276b	0.07673534
174	0xbd01a72e	-0.031653576
175	0x3ce58fa6	0.028022598
176	0x3d5f0714	0.05445011
177	0x3d49d8a1	0.04927886
178	0x3e019364	0.12653881
179	0xbd1d9ca8	-0.038479477
180	0x3d39fb4d	0.045405675
181	0x3d42ca95	0.04755648
182	0x3b1db543	0.002406434
183	0xbd2e020b	-0.042482417
184	0xbd81acf2	-0.06331815
185	0x3c4f66bb	0.01265877
186	0xbc57aac8	-0.013163276
187	0x3cc9208b	0.02455165
188	0xbc68a440	-0.0141993165
189	0x3cf595d0	0.029978663
190	0x3dd0dca6	0.10198335
191	0x3d086b4b	0.033305448
192	0x3cd830e2	0.026390497
193	0x3d22af6b	0.039718073
194	0xbbf0c0be	-0.0073471954
195	0x3d7ed94f	0.06221896
196	0x3c5a7de0	0.013335675
197	0xbce775d3	-0.028254425
198	0x3da1cd18	0.07900447
199	0x3dbcfc52	0.09227814
200	0x3d5082ed	0.05090611
201	0x3c4f12a6	0.0126387235
202	0x3dc161e6	0.09442501
203	0xbbb7a2d0	-0.0056041256
204	0xbd3527f8	-0.04422757
205	0x3d3f8dbb	0.046766024
206	0x3d8aa8d7	0.06770485
207	0x3d96d914	0.07365623
208	0xbdc54eef	-0.09634196
209	0xbd44251b	-0.04788695
210	0xbd738a5d	-0.059458125
211	0xbd062f73	-0.032760095
212	0x3ca23b34	0.01980362
213	0xbd8f427b	-0.06995102
214	0x3d990318	0.07471293
215	0xbc7be447	-0.01537425
216	0x3daac1a6	0.08337717
217	0xbca2af14	-0.019858874
218	0xbd0d3c80	-0.034481525
219	0x3c4a5d0e	0.0123512875
220	0x3b91ffdb	0.004455549
221	0x3d0be95e	0.034158103
222	0x3c1d3d28	0.0095971
223	0x3c8ab77a	0.016933192
224	0x3db36a92	0.08760561
225	0x3dae90e9	0.08523733
226	0x3d2da4b1	0.04239339
227	0x3b459485	0.003014834
228	0x3d87c2ae	0.06628929
229	0x3ca1c865	0.019748876
230	0x3da384f5	0.07984344
231	0x3d88dc9a	0.066827014
232	0x3d2395a6	0.039937638
233	0x3d9ea5c9	0.07746465
234	0x3d159470	0.036518514
235	0xbc521e3b	-0.01282459
236	0x3d030378	0.03198573
237	0xbd9d6f46	-0.07687239
238	0x3d61ce23	0.055128228
239	0x3d2f0007	0.042724635
240	0x3c580b26	0.013186252
241	0xbca66a69	-0.020314412
242	0xbcc773e8	-0.02434726
243	0xbda9d35c	-0.08292267
244	0xbd9ba9ad	-0.076007225
245	0x3d3c1cd8	0.045925945
246	0xbd817be9	-0.06322462
247	0xbc574cc9	-0.013140866
248	0x3d17bf1f	0.0370475
249	0x3d7a8c97	0.061169233
250	0xbd814c7e	-0.06313418
251	0x3d02d0fb	0.03193758
252	0xbcb8bf4a	-0.022552151
253	0x3d9ab946	0.07554869
254	0x3da8d243	0.08243229
255	0x3d42e46c	0.04758112

fc1.bias f4 [128]
0	0xbdad3c5d	-0.08458779
1	0x3d059737	0.032614913
2	0x3d117b3b	0.035517912
3	0x3d950458	0.07276219
4	0xbc4b8fd1	-0.012424425
5	0x3d9879ca	0.074451044
6	0xbcbe78f0	-0.023251027
7	0xbaac1149	-0.001312771
8	0x3d183c40	0.037166834
9	0xbd69cc81	-0.057079796
10	0xbd4ed775	-0.050498445
11	0xbd27179e	-0.040794007
12	0xbd85ade1	-0.065273054
13	0x3c5941f0	0.01326035
14	0x3d8ff0c8	0.07028347
15	0x3cefc915	0.029270688
16	0x3daed29b	0.085362636
17	0x3d6cc3f0	0.057804048
18	0xbd398ab6	-0.0452983
19	0x3d0a59bd	0.033776987
20	0xbd202855	-0.039100964
21	0xbd7b6193	-0.06137235
22	0xbd178d94	-0.037000254
23	0x3c4cfab7	0.012510947
24	0xbd23ffc9	-0.040038858
25	0x3d978b19	0.07399578
26	0xbd4cd6a5	-0.05000939
27	0xbc9e0181	-0.019287826
28	0x3c89a535	0.01680241
29	0x3d016a17	0.031595316
30	0x3c18bb79	0.009322041
31	0xbbb3edb2	-0.005490982
32	0xbb751beb	-0.0037400674
33	0x3d7a0ca6	0.06104722
34	0xbc92a0d5	-0.017898956
35	0x3d16e70c	0.036841437
36	0xbc464d8a	-0.012103448
37	0x3d8cf3c7	0.06882434
38	0x3d6fe8c0	0.058571577
39	0xbc6fb379	-0.014630192
40	0x3da311ff	0.07962417
41	0x3d6e8eb2	0.058241554
42	0xbd851b14	-0.06499305
43	0x3d32a58f	0.04361492
44	0x3c130c82	0.00897515
45	0x3dc36e52	0.09542526
46	0x3cda0387	0.02661301
47	0xbd9e5ae3	-0.07732179
48	0xbca1dbdc	-0.019758157
49	0x3db91088	0.09036356
50	0x3dd207d0	0.10255396
51	0x3d08c211	0.0333882
52	0xbd2358fa	-0.039879777
53	0x3dc2fd64	0.09520987
54	0x3bf7c900	0.007561803
55	0x3d96d4b1	0.073647864
56	0xbcd13e40	-0.025542378
57	0x3d2409d7	0.040048447
58	0xbd6931d0	-0.05693227
59	0x3c89b9cf	0.016812233
60	0xbd9481d9	-0.07251329
61	0x3d61a25e	0.055086486
62	0x3db0d621	0.08634592
63	0xbd841421	-0.06449152
64	0xbbd11824	-0.0063810516
65	0xbcb52ba3	-0.022115534
66	0x3daf7d30	0.085687995
67	0x3d769457	0.06020006
68	0x3ddac21a	0.10681553
69	0x3afa12cb	0.0019079087
70	0x3d006df3	0.031354856
71	0xbd2d557b	-0.04231785
72	0x3d407c58	0.046993583
73	0x3d3b3f5c	0.04571472
74	0xbd5917bb	-0.053001147
75	0x3da51e4b	0.080624186
76	0x3d59e6e4	0.05319871
77	0xbcefc59c	-0.029269032
78	0xbcf285e6	-0.029604863
79	0x3d9d45a3	0.07679298
80	0xbd581ae5	-0.052760024
81	0x3dbca295	0.092106976
82	0xbcc3394f	-0.023831038
83	0x3dd13121	0.10214449
84	0xbd846b90	-0.064658284
85	0x3db23ff2	0.08703603
86	0x3b1afdff	0.0023649929
87	0xbbf7e5c8	-0.007565234
88	0x3b8f2b2e	0.004369161
89	0xbd847b76	-0.06468861
90	0x3d3b5086	0.04573109
91	0x3dc17e7f	0.09447955
92	0xbc1128d1	-0.008859829
93	0x3d9a25ae	0.07526718
94	0x3db8ecf2	0.09029569
95	0x3dad3abb	0.084584676
96	0xbd953d4b	-0.07287081
97	0xbd776d7f	-0.060407158
98	0xbd58594e	-0.052819543
99	0x3dbe6006	0.09295659
100	0x3ccc6487	0.024950279
101	0x3d3c6f96	0.046004854
102	0xbd513998	-0.051080316
103	0xbd800c1e	-0.06252311
104	0xbc227326	-0.009915149
105	0xbcb1efcc	-0.02172079
106	0x39585dd5	0.0002063432
107	0x3b1ee5af	0.0024245789
108	0x3dbd1918	0.09233302
109	0x3ddec320	0.10877061
110	0xbd8b6fd2	-0.068084374
111	0x3d31d4fb	0.043416005
112	0xbd8f1d21	-0.06987978
113	0xbc9e11fe	-0.019295689
114	0xbce34867	-0.027744485
115	0x3c1cf5d7	0.009580097
116	0xbc91613c	-0.01774656
117	0x3dd3602a	0.10321076
118	0x3d64693d	0.055764426
119	0x3d9688c2	0.07350303
120	0xbd7a6d21	-0.06113923
121	0xbda23ae1	-0.079213865
122	0xbc95d940	-0.01829207
123	0xbd59dddd	-0.0531901
124	0xbcd5b843	-0.02608884
125	0xbcd78e61	-0.026313009
126	0x3d89fc7b	0.0673761
127	0x3ca2bf78	0.01986669

fc2.weight f4 [64, 128]
0	0x3c830e6a	0.015998084
1	0x3cfec34b	0.031098982
2	0x3dd84482	0.10559942
3	0x3d35831b	0.044314485
4	0xbd19a395	-0.03750952
5	0x3d435adf	0.047694083
6	0xbc1bcfa5	-0.0095099555
7	0x3d5616e5	0.052267928
8	0x3beeec4a	0.0072913514
9	0x3da3629d	0.07977793
10	0xbd927264	-0.071507245
11	0x3d5c9da6	0.053861283
12	0xbd58da06	-0.0529423
13	0xbd87fabe	-0.06639622
14	0xbc60392e	-0.013685508
15	0xbca186dd	-0.019717628
16	0x3d26a69e	0.040686242
17	0xbd8f9e48	-0.07012612
18	0xbc77e385	-0.0151299285
19	0xbcf59ba2	-0.029981438
20	0x3dacd40a	0.08438881
21	0xbb95cd66	-0.0045716045
22	0x3d8c4dac	0.06850752
23	0xbd856aff	-0.065145485
24	0x3c45f5eb	0.012082557
25	0x3b4955e4	0.003072136
26	0xbd17caec	-0.037058756
27	0xbd603aac	-0.054743454
28	0x3b29455f	0.0025828702
29	0xbd2b896a	-0.041879095
30	0xbd03eaff	-0.03220653
31	0xbdcb0218	-0.09912509
32	0xbd00d2ae	-0.03145092
33	0x3d1af765	0.03783359
34	0x3daedfde	0.08538793
35	0x3d1be52a	0.038060345
36	0x3dbd2477	0.09235471
37	0x3dac5269	0.08414156
38	0xbc856957	-0.016285582
39	0x3d5ec99e	0.054391496
40	0xbcffb73b	-0.0312153
41	0x3da45855	0.080246605
42	0xbd2ca1e2	-0.04214657
43	0x3d14a3de	0.03628909
44	0xbda92068	-0.08258134
45	0x3cc7b21f	0.024376927
46	0xbd3dc3ee	-0.04632943
47	0xbc792fb0	-0.0152091235
48	0xbd882e78	-0.06649488
49	0xbc8ef6b2	-0.017451618
50	0x3a1bfd25	0.0005950502
51	0x3db12c58	0.08651036
52	0x3c8549aa	0.016270477
53	0x3dcef61b	0.10105535
54	0x3c6f8176	0.014618268
55	0x3d9d4df3	0.07680883
56	0x3da2b633	0.07944908
57	0xbd2c99fb	-0.042139035
58	0xbc8a0fd2	-0.016853247
59	0xbc9d4974	-0.019200064
60	0xbd2b3b9d	-0.0418049
61	0x39a81c00	0.0003206432
62	0x3d7c8196	0.06164702
63	0x3dad372e	0.0845779
64	0x3d1042cc	0.035219952
65	0xbcbeaf2f	-0.023276893
66	0x3deb6501	0.11493874
67	0x3d10b449	0.035328183
68	0xbd12dbfb	-0.03585432
69	0x3db129b2	0.08650531
70	0x3c949dcf	0.018141655
71	0xbd930cd0	-0.07180178
72	0xbccd7d33	-0.025084114
73	0xbda1372d	-0.07871852
74	0x3d74cec6	0.059767507
75	0x3dac5749	0.08415086
76	0xbca386d7	-0.019961758
77	0xbd8397ed	-0.06425462
78	0x3d94d561	0.07267261
79	0xbdc75d4f	-0.09734594
80	0xbd8cc3d9	-0.068732925
81	0x3bbfddf5	0.0058553168
82	0x3ce68717	0.028140588
83	0x3d441eda	0.047880985
84	0xbd957d8e	-0.07299338
85	0xbd546979	-0.0518584
86	0x3d873a0d	0.06602869
87	0x3d81b611	0.063335545
88	0xbd01e536	-0.031712733
89	0x3d829a83	0.06377127
90	0x3d459c48	0.048244745
91	0x3d8483c3	0.06470444
92	0xbd128951	-0.035775486
93	0x3d9eec5d	0.077599265
94	0x3c1e7883	0.009672287
95	0x3d99d245	0.07510809
96	0x3d76db0f	0.060267504
97	0xba660bc4	-0.0008775557
98	0xbe0d1c5a	-0.13780347
99	0x3ca4f95e	0.020138439
100	0xbdae9848	-0.08525139
101	0x3ac10b81	0.001472816
102	0x3cf87cb8	0.030332908
103	0x3da711af	0.0815767
104	0x3df90a73	0.12160196
105	0x3d0b11dd	0.033952583
106	0xbb4e1294	-0.003144418
107	0xbc21e81f	-0.009882002
108	0xbd6d7434	-0.057972148
109	0x3ddf0569	0.10889704
110	0x3c0a3ef0	0.008437857
111	0x3d26bf2d	0.040709663
112	0xbccc68e4	-0.02495236
113	0xbda8b462	-0.0823753
114	0xbdcff506	-0.101541564
115	0x3bcf5ca0	0.0063281804
116	0xbd9adf48	-0.07562119
117	0x3c1351ab	0.008991639
118	0xbdde427e	-0.10852526
119	0x3d74933f	0.059710737
120	0xbdcfbc2c	-0.10143313
121	0xbda127e1	-0.078689344
122	0x3c623e0e	0.01380874
123	0xbcf400e8	-0.029785588
124	0x3bfa3b0a	0.0076364325
125	0xbd700bb7	-0.058604922
126	0xbc4ebcdd	-0.012618271
127	0x3c1ca220	0.009560138
128	0x3b16a1d6	0.0022984645
129	0xbdc8c956	-0.09804027
130	0x3d80e931	0.06294478
131	0xbd476453	-0.04867966
132	0xbda5252c	-0.080637306
133	0xbd2c02f9	-0.041995022
134	0x3bfe7e16	0.0077664955
135	0x3d3e3775	0.046439607
136	0x3cc79356	0.024362247
137	0xbb978ceb	-0.004624953
138	0x3d4531e8	0.048143297
139	0x3d21ad7a	0.03947208
140	0x3d9fe0d3	0.07806554
141	0x3d0065fb	0.031347256
142	0xbd85dccd	-0.06536255
143	0x3d572f7c	0.05253552
144	0xbc0784a0	-0.008271366
145	0x3d05140e	0.03248983
146	0x3daa09d2	0.08302654
147	0x3d1b141c	0.037860975
148	0xbd308264	-0.0430931
149	0xbd43b907	-0.047783878
150	0xbd6f1d09	-0.0583773
151	0x3ce8f0b2	0.028435085
152	0x3c8775d0	0.01653567
153	0x3c4f8b5a	0.012667501
154	0xbce09631	-0.027415367
155	0xbcd9ebd4	-0.02660171
156	0x3ce660eb	0.028122386
157	0xbba0d32f	-0.0049079875
158	0xbdaf6768	-0.08564645
159	0x3d9167d9	0.070998855
160	0x3e0d5373	0.13801365
161	0x3da0ce34	0.0785183
162	0x3d432c02	0.04764939
163	0x3dade25c	0.0849044
164	0xbd2eb817	-0.04265603
165	0x3d72076a	0.0590891
166	0xbc2d6b18	-0.010584615
167	0xbc565c8e	-0.01308359
168	0xbd3558f5	-0.04427429
169	0x3c0d7ec2	0.008636178
170	0x3d8c36fd	0.06846426
171	0x3d293c98	0.041317552
172	0x3d438602	0.04773522
173	0xbd18c386	-0.03729584
174	0xbdbb9c4d	-0.091606714
175	0xbd80fd2f	-0.06298291
176	0xbd98eb92	-0.074668065
177	0x3cf2ad8a	0.029623765
178	0xbc48fe03	-0.012267592
179	0x3db657e0	0.089034796
180	0x3d79b804	0.060966507
181	0x3d888102	0.06665231
182	0x3d266c08	0.04063037
183	0xbdc7f221	-0.09762979
184	0xbd4ee63e	-0.050512545
185	0xbd3d537f	-0.046222206
186	0x3d047c94	0.03234537
187	0x3c437784	0.01193035
188	0x3db0b0bd	0.0862746
189	0xbcdcf912	-0.026974235
190	0x3c256094	0.010093827
191	0xbc7266e8	-0.014795043
192	0x3da31be5	0.07964305
193	0x3d458dd3	0.048230957
194	0xbd3ada26	-0.0456182
195	0xbdd1036d	-0.102057315
196	0x3dd64bac	0.10463652
197	0x3d229663	0.0396942
198	0x3ca683da	0.020326544
199	0xbce7cfe8	-0.02829738
200	0x3d8c70eb	0.06857475
201	0xb864fc16	-5.459421e-05
202	0x3d981c68	0.07427293
203	0x3d0552bd	0.03254961
204	0xbd9af790	-0.0756675
205	0xbb7577ff	-0.0037455556
206	0x3cfc90f1	0.030830832
207	0x3c8e5b3f	0.017377494
208	0x3d3178d2	0.043328114
209	0x3d0455ae	0.032308273
210	0xbdbf87c8	-0.0935207
211	0x3c54785f	0.012968152
212	0xbd019db5	-0.03164454
213	0x3cbe35fc	0.023219101
214	0xbcaa868c	-0.02081611
215	0x3b7745ba	0.003773077
216	0x3db0ad8f	0.08626854
217	0xbe15abc0	-0.14616299
218	0xbd895446	-0.06705527
219	0x3d3d1f15	0.04617222
220	0xbdb43d3b	-0.08800741
221	0xbc44f26f	-0.012020691
222	0x3c1d4c26	0.009600675
223	0xbd750c86	-0.059826396
224	0xbce2d9c6	-0.027691733
225	0x3d9ed4a7	0.07755404
226	0x3e32d3e5	0.17463644
227	0x3dae9711	0.085249074
228	0xbc15798a	-0.009123215
229	0xbd9c3e63	-0.07629087
230	0x3cabe317	0.020982308
231	0xbdad7fca	-0.084716395
232	0xbd61fbd8	-0.055171818
233	0x3c13ad68	0.009013511
234	0x3dc46874	0.09590235
235	0x3cb2fdc8	0.021849528
236	0x3d63f868	0.05565682
237	0x3d5d2b04	0.0539961
238	0xbdb57f10	-0.08862126
239	0xbd2480cc	-0.040161893
240	0x3cf522de	0.029923853
241	0x3d661fa9	0.056182537
242	0xbc248c67	-0.01004324
243	0x3c84833c	0.016175859
244	0xbd89d9ec	-0.067310184
245	0x3db68213	0.089115284
246	0x3db152f3	0.086583994
247	0xbd73d7b4	-0.059531882
248	0x3d70f6ca	0.058829106
249	0xbd667985	-0.056268234
250	0xbd84831a	-0.06470318
251	0x3d8368d6	0.0641648
252	0xbb56d0fd	-0.0032778375
253	0xbdd86ed8	-0.10568017
254	0x3cc1d7a5	0.023662398
255	0xbc2f4695	-0.01069798

fc2.bias f4 [64]
0	0x3dcae8b9	0.099076696
1	0x3c66574f	0.014058902
2	0x3d3822ba	0.044954993
3	0xbd74e92f	-0.059792694
4	0x3bfdbcb5	0.007743443
5	0x371c1658	9.303527e-06
6	0x3d9f0370	0.077643275
7	0xbd37a0a8	-0.044830948
8	0x3dae32d8	0.085057914
9	0xbd0fe8f7	-0.035134282
10	0x3ccce9be	0.0250138
11	0xbd9678b0	-0.07347238
12	0x3c85e2d8	0.01634352
13	0x3da0bbad	0.07848296
14	0x3c3a033b	0.011353309
15	0x3cbffa6e	0.023434844
16	0xbda589a6	-0.08082895
17	0xbc4275de	-0.011868922
18	0x3dba6efe	0.09103201
19	0xbd9a49e6	-0.07533626
20	0xbcf78962	-0.030216876
21	0x3ca92213	0.02064613
22	0xbc1d9dc8	-0.0096201375
23	0x3d318e3f	0.043348547
24	0xbd6fa623	-0.05850805
25	0x3db6686d	0.089066364
26	0x3d3302ce	0.043703847
27	0x3d54c410	0.051944792
28	0xbd828aad	-0.063741066
29	0xbd7cb2bb	-0.06169389
30	0x3d2bec1f	0.04197323
31	0x3d9f9fba	0.07794137
32	0x3d0a7d7c	0.033811077
33	0x3d89dea5	0.06731919
34	0xbd181553	-0.03712971
35	0x3ab34d4b	0.0013679651
36	0x3db624e8	0.08893758
37	0x3cb50925	0.022099087
38	0x3d67af86	0.056563877
39	0x3c0a4296	0.008438727
40	0xbd71003f	-0.058838125
41	0xbcaf46d3	-0.021396076
42	0xbd1a4828	-0.03766647
43	0xbcd74870	-0.026279658
44	0x3ce24195	0.027619163
45	0x3b53beb8	0.0032309722
46	0xbd5c35e3	-0.053762328
47	0xbc6eddb8	-0.014579229
48	0xbccfcf01	-0.025367262
49	0x3d4b487b	0.04962967
50	0x3dab2d0b	0.08358201
51	0xbc0f4033	-0.008743334
52	0xbb1ce8b2	-0.0023942408
53	0x3ccab2c1	0.02474344
54	0x3db1da97	0.08684271
55	0x3d3b67a0	0.04575312
56	0x3c189d0a	0.009314785
57	0x3c909763	0.017650312
58	0x3dd54d41	0.10415126
59	0x3d3078f5	0.043084104
60	0x3d0dd458	0.034626335
61	0x3d8acaf2	0.0677699
62	0x3d720765	0.059089083
63	0x3d3936e0	0.04521835

fc3.weight f4 [24, 64]
0	0x3dcd6fc4	0.10031083
1	0x3be59900	0.0070067644
2	0x3d3d0fac	0.046157524
3	0x3c2856f0	0.010274634
4	0xbe18c960	-0.14920568
5	0xbe238e89	-0.15972342
6	0xbc1a5f56	-0.009422144
7	0x3da80523	0.08204105
8	0x3d1d594f	0.03841525
9	0xbdae2a9d	-0.085042216
10	0x3e43aa4b	0.1910793
11	0x3c74bb30	0.014937207
12	0x3ddd0ef3	0.10793867
13	0xbda43c3c	-0.08019301
14	0xbd145f86	-0.03622391
15	0xbcd0fa96	-0.025510114
16	0xbbb68041	-0.0055694883
17	0x3daed309	0.085363455
18	0xbe1b1c3c	-0.1514749
19	0x3dafc2c1	0.08582068
20	0xbdca09ae	-0.098651275
21	0xbda6c2a0	-0.081425905
22	0x3d5f3f31	0.054503623
23	0x3e009fdc	0.12560982
24	0xbc9e5c2e	-0.019331064
25	0xbd8b9794	-0.068160206
26	0xba3cea0e	-0.0007206508
27	0xbd36c234	-0.0446188
28	0x3e047f9d	0.12939306
29	0xbbbb33fa	-0.005712983
30	0xbd8c2657	-0.0684325
31	0xbd5ab374	-0.053393796
32	0x3e0816ee	0.13289997
33	0xbdce2f93	-0.10067668
34	0x3c76d906	0.015066391
35	0xbdcae1c2	-0.09906341
36	0x3dff8cad	0.12478004
37	0x3da0edf6	0.078578874
38	0x3b12ccdc	0.0022399938
39	0xbe02ff71	-0.12792756
40	0x3e1f41b9	0.15552415
41	0x3d4e512e	0.050370388
42	0xbdbc523c	-0.091953725
43	0xbdb16511	-0.08661855
44	0x3d6873b1	0.056750957
45	0x3d65c28e	0.056093745
46	0x3d643f98	0.05572471
47	0x3da5188c	0.080613226
48	0x3b2a812a	0.002601693
49	0xbcb987bd	-0.022647733
50	0xbd1d05cd	-0.03833561
51	0x3c99fa27	0.01879604
52	0xbe247e6f	-0.16063856
53	0xbd94f0fc	-0.072725266
54	0xbda57725	-0.08079366
55	0x3b1be5b1	0.002378803
56	0xbdaf48a7	-0.08558779
57	0x3dab4352	0.0836245
58	0x3e0df0ea	0.13861433
59	0xbaf66d76	-0.0018800932
60	0x3e49336b	0.1964852
61	0x3d90af6e	0.070647106
62	0x3d7a13e2	0.061054118
63	0x3de1762c	0.110088676
64	0x3e0a9068	0.13531649
65	0x3ccadc37	0.02476321
66	0x3cf020ad	0.029312456
67	0x3ce3dcf1	0.027815314
68	0x3c9d5d73	0.0192096
69	0x3de5e8e3	0.1122606
70	0xbdecd0a5	-0.11563233
71	0x3d915252	0.070957795
72	0x3d8f6d89	0.07003314
73	0xbdf3cf4f	-0.11904775
74	0xbcbbe531	-0.022936435
75	0x3df45c3a	0.11931653
76	0xbd2bd7f5	-0.041954
77	0x3d1a57c0	0.03768134
78	0x3dbce65a	0.092236236
79	0x3df194e0	0.11795974
80	0x3de1ab6a	0.11019023
81	0x3e006793	0.1253951
82	0x3d2f729e	0.042833917
83	0x3b63fc66	0.0034787892
84	0x3da468f8	0.08027834
85	0x3e129d09	0.14317717
86	0x3d12c5f7	0.035833325
87	0x3d527bdf	0.051387664
88	0x3d933940	0.07188654
89	0xbc8ea47d	-0.017412418
90	0xbe3c8923	-0.18411689
91	0xbdb57095	-0.08859364
92	0xbdd3b4c0	-0.1033721
93	0x3e533908	0.20627224
94	0xbcf6eb03	-0.03014136
95	0xbc1cc827	-0.009569204
96	0xbdfea7dc	-0.124343604
97	0xbcb3ccc9	-0.021948235
98	0x3e01dd3a	0.12682047
99	0x3cbb1648	0.022837773
100	0xbbfbcf2a	-0.007684608
101	0xbdce1ec6	-0.10064463
102	0xbdef8056	-0.116944
103	0xbd298e28	-0.041395336
104	0x3d4ca5dc	0.049962863
105	0x3db9e08a	0.090760306
106	0x3da65537	0.08121722
107	0xbda41e64	-0.08013609
108	0xbcc1e24c	-0.023667477
109	0xbdd73f9c	-0.105101794
110	0xbddcc077	-0.10778897
111	0xbc763740	-0.015027821
112	0xbd840627	-0.06446486
113	0x3e2cfd3a	0.16893473
114	0x3e09518c	0.13410014
115	0x3dd8beec	0.105832905
116	0xbd9fd9c6	-0.07805209
117	0xbd469f31	-0.04849166
118	0x3e04bc2a	0.12962404
119	0xbbceef9c	-0.0063151848
120	0x3df021bf	0.117251866
121	0x3db3e663	0.08784177
122	0xbc62ca33	-0.013842153
123	0xbd8a1876	-0.06742947
124	0xbd962de0	-0.07332969
125	0xbddb8749	-0.10719163
126	0xbdd25959	-0.10270948
127	0xbdad1b83	-0.08452513
128	0x3c85c7d7	0.016330643
129	0x3dc86deb	0.0978659
130	0x3e4f5b20	0.20249605
131	0x3d12e95e	0.035867088
132	0x3c99a0ae	0.018753376
133	0x3d2f9dc3	0.042875063
134	0x3dc0e473	0.09418573
135	0xbcb6cfb8	-0.022315845
136	0xbdefce84	-0.117093116
137	0x3e009ec0	0.12560558
138	0xbdc912e7	-0.098180585
139	0x3d9d7480	0.07688236
140	0xbc9191f2	-0.017769787
141	0x3c12bf01	0.008956672
142	0x3e0d59e4	0.13803822
143	0x3de880e0	0.11352706
144	0x3c2418dd	0.0100156935
145	0xbde281c7	-0.11059909
146	0xbda1abee	-0.07894121
147	0xbc917052	-0.017753754
148	0xbc21efa0	-0.009883791
149	0xbb5d153c	-0.003373458
150	0xbd1b0db5	-0.03785487
151	0xbcd88bd3	-0.02643386
152	0x3e04e738	0.12978828
153	0x3da0deff	0.07855033
154	0xbd770c58	-0.060314506
155	0x3d280a39	0.041025374
156	0x3c2d4045	0.010574405
157	0x3e036894	0.12832862
158	0xbd142134	-0.036164477
159	0xbdbbaa2d	-0.09163318
160	0xbc7354ed	-0.014851791
161	0x3de683a5	0.11255578
162	0x3dd75fb8	0.10516304
163	0xbd43afe2	-0.047775157
164	0x3beba0e3	0.00719081
165	0x3e27c9b0	0.16385531
166	0xbde8b3bb	-0.11362406
167	0xbd9eaf64	-0.07748297
168	0x3c95edee	0.01830193
169	0xbdfdbe49	-0.1238981
170	0x3d06da05	0.032922763
171	0xbdc955b3	-0.09830799
172	0xbde87327	-0.113500886
173	0x3e02738f	0.12739395
174	0xbd371096	-0.044693552
175	0xbd6e1e8c	-0.0581346
176	0xbd02059f	-0.031743642
177	0x3bffeeb1	0.0078104367
178	0x3da78f2c	0.08181605
179	0xbdbb3365	-0.09140662
180	0x3c08aa21	0.008341343
181	0x3e5217f5	0.20516951
182	0x3e11cffc	0.14239496
183	0x3ddf618a	0.10907276
184	0xbcfb85a2	-0.03070337
185	0x3c900f38	0.017585382
186	0xbc1f7b08	-0.009733923
187	0xbd8e7fc4	-0.06957963
188	0x3e1e275f	0.15444706
189	0x3c9e69f3	0.01933763
190	0xbd22dc5b	-0.03976093
191	0x3da4d5a0	0.08048558
192	0x3de3416c	0.110964626
193	0xbd7139d0	-0.058893025
194	0x3c29385b	0.010328378
195	0x3e050a5f	0.12992238
196	0x3bbf4ba9	0.005837877
197	0x3dc4b36a	0.09604533
198	0x3d73875c	0.05945526
199	0x3d3c56d3	0.04598124
200	0xbbcba31e	-0.0062145134
201	0xbdf78243	-0.12085392
202	0xbdeab6cf	-0.11460649
203	0x3d8880a6	0.06665163
204	0x3dcc0e2e	0.09963642
205	0xbd1aa192	-0.03775174
206	0x3e0236d2	0.12716225
207	0x3d490fe0	0.049087405
208	0x3d9eb385	0.077490844
209	0x3dcd52f4	0.10025588
210	0x3d85d016	0.0653383
211	0xbdd6de0b	-0.1049157
212	0x3d9f2930	0.07771528
213	0x3e52f059	0.20599498
214	0x3d4f42bf	0.050600763
215	0xbdb680ca	-0.08911283
216	0x3dab5308	0.08365446
217	0x3dc6f556	0.09714763
218	0xbb39be43	-0.0028342165
219	0xbdd078f9	-0.10179324
220	0x3e036a69	0.12833561
221	0x3cf268be	0.02959096
222	0xbda65b41	-0.08122874
223	0x3e24dd56	0.16100058
224	0x3cfd2141	0.030899646
225	0xbc8b9c1f	-0.017042218
226	0xbc19bcc9	-0.009383389
227	0xbde4e011	-0.1117555
228	0x3cb1e4ba	0.02171551
229	0x3dd3f6ac	0.10349783
230	0xbda6195e	-0.08110307
231	0x3e34ef4c	0.1766941
232	0x3ce2f71a	0.027705718
233	0x3cd458a8	0.02592118
234	0x3e164a82	0.1467686
235	0x3d76faaf	0.060297664
236	0x3d502cbc	0.050823912
237	0x3d0026b4	0.03128691
238	0xbd0115be	-0.031514876
239	0x3b987c00	0.004653454
240	0xbc1235cc	-0.008923959
241	0x3c97dd5a	0.018538166
242	0x3d5ae668	0.05344239
243	0x3d1adf88	0.037810832
244	0x3e114515	0.14186509
245	0xbd7a7d86	-0.061154865
246	0x3c5c1b51	0.013434247
247	0xbdbe2eac	-0.09286246
248	0xbd4d9972	-0.050195165
249	0xbde23f2b	-0.110472046
250	0x3bb76481	0.005596698
251	0x3d840ad2	0.06447376
252	0x3def0161	0.11670185
253	0xbd22964a	-0.039694108
254	0x3dac2fb4	0.08407536
255	0x3d3a57ee	0.045494013

fc3.bias f4 [24]
0	0xbd7f2891	-0.062294547
1	0x3d7a4d67	0.061108973
2	0xbce33bc0	-0.027738452
3	0xbdb3b4a3	-0.08774688
4	0x3dde1366	0.10843544
5	0xbd947669	-0.072491474
6	0xbd8274a3	-0.06369903
7	0xbdcd65cc	-0.10029182
8	0xbb108102	-0.002204955
9	0xbdb9fb85	-0.09081177
10	0x3d93a4b0	0.07209146
11	0x3e0cdbc8	0.13755715
12	0xbdb6bb2d	-0.0892242
13	0x3da1e0b6	0.07904188
14	0x3de48393	0.11157908
15	0x3d1d506e	0.03840678
16	0x3ddeb566	0.10874443
17	0x3c3f4f97	0.011676691
18	0x3d4580a5	0.048218388
19	0x3d8b6168	0.06805688
20	0x3e01856e	0.12648556
21	0x3d75aa4c	0.05997686
22	0x3d0e652f	0.034764465
23	0xbd298718	-0.0413886

exp_avg f4 [128, 144]
0	0x00000004	6e-45
1	0x00000004	6e-45
2	0x00000004	6e-45
3	0x00000004	6e-45
4	0x00000004	6e-45
5	0x00000004	6e-45
6	0x00000004	6e-45
7	0x00000004	6e-45
8	0x00000004	6e-45
9	0x00000004	6e-45
10	0x00000004	6e-45
11	0x00000004	6e-45
12	0x00000004	6e-45
13	0x00000004	6e-45
14	0x00000004	6e-45
15	0x00000004	6e-45
16	0x00000004	6e-45
17	0x00000004	6e-45
18	0x00000004	6e-45
19	0x00000004	6e-45
20	0x00000004	6e-45
21	0x00000004	6e-45
22	0x00000004	6e-45
23	0x00000004	6e-45
24	0x00000004	6e-45
25	0x00000004	6e-45
26	0x00000004	6e-45
27	0x00000004	6e-45
28	0x00000004	6e-45
29	0x00000004	6e-45
30	0x00000004	6e-45
31	0x00000004	6e-45
32	0x00000004	6e-45
33	0x00000004	6e-45
34	0x00000004	6e-45
35	0x00000004	6e-45
36	0x00000004	6e-45
37	0x00000004	6e-45
38	0x00000004	6e-45
39	0x00000004	6e-45
40	0x00000004	6e-45
41	0x00000004	6e-45
42	0x00000004	6e-45
43	0x00000004	6e-45
44	0x00000004	6e-45
45	0x00000004	6e-45
46	0x00000004	6e-45
47	0x00000004	6e-45
48	0x00000004	6e-45
49	0x00000004	6e-45
50	0x00000004	6e-45
51	0x00000004	6e-45
52	0x00000004	6e-45
53	0x00000004	6e-45
54	0x00000004	6e-45
55	0x00000004	6e-45
56	0x00000004	6e-45
57	0x00000004	6e-45
58	0x00000004	6e-45
59	0x00000004	6e-45
60	0x00000004	6e-45
61	0x00000004	6e-45
62	0x00000004	6e-45
63	0x00000004	6e-45
64	0x00000004	6e-45
65	0x00000004	6e-45
66	0x00000004	6e-45
67	0x00000004	6e-45
68	0x00000004	6e-45
69	0x00000004	6e-45
70	0x00000004	6e-45
71	0x00000004	6e-45
72	0x00000004	6e-45
73	0x00000004	6e-45
74	0x00000004	6e-45
75	0x00000004	6e-45
76	0x00000004	6e-45
77	0x00000004	6e-45
78	0x00000004	6e-45
79	0x00000004	6e-45
80	0x00000004	6e-45
81	0x00000004	6e-45
82	0x00000004	6e-45
83	0x00000004	6e-45
84	0x00000004	6e-45
85	0x00000004	6e-45
86	0x00000004	6e-45
87	0x00000004	6e-45
88	0x00000004	6e-45
89	0x00000004	6e-45
90	0x00000004	6e-45
91	0x00000004	6e-45
92	0x00000004	6e-45
93	0x00000004	6e-45
94	0x00000004	6e-45
95	0x00000004	6e-45
96	0x00000004	6e-45
97	0x00000004	6e-45
98	0x00000004	6e-45
99	0x00000004	6e-45
100	0x00000004	6e-45
101	0x00000004	6e-45
102	0x00000004	6e-45
103	0x00000004	6e-45
104	0x00000004	6e-45
105	0x00000004	6e-45
106	0x00000004	6e-45
107	0x00000004	6e-45
108	0x00000004	6e-45
109	0x00000004	6e-45
110	0x00000004	6e-45
111	0x00000004	6e-45
112	0x00000004	6e-45
113	0x00000004	6e-45
114	0x00000004	6e-45
115	0x00000004	6e-45
116	0x00000004	6e-45
117	0x00000004	6e-45
118	0x00000004	6e-45
119	0x00000004	6e-45
120	0x00000004	6e-45
121	0x00000004	6e-45
122	0x00000004	6e-45
123	0x00000004	6e-45
124	0x00000004	6e-45
125	0x00000004	6e-45
126	0x00000004	6e-45
127	0x00000004	6e-45
128	0x00000004	6e-45
129	0x00000004	6e-45
130	0x00000004	6e-45
131	0x00000004	6e-45
132	0x00000004	6e-45
133	0x00000004	6e-45
134	0x00000004	6e-45
135	0x00000004	6e-45
136	0x00000004	6e-45
137	0x00000004	6e-45
138	0x00000004	6e-45
139	0x00000004	6e-45
140	0x00000004	6e-45
141	0x00000004	6e-45
142	0x00000004	6e-45
143	0x00000004	6e-45
144	0x3896bdb4	7.187892e-05
145	0x37e7aea6	2.7618673e-05
146	0x38a0724e	7.6506854e-05
147	0x386e375f	5.679519e-05
148	0x387d1efa	6.034875e-05
149	0x38694f44	5.562535e-05
150	0x37c57f46	2.3543496e-05
151	0x38158e0e	3.5656667e-05
152	0x386f306c	5.7027137e-05
153	0x384ee5b9	4.9328173e-05
154	0x382f3cb6	4.1779793e-05
155	0x388fefa8	6.863411e-05
156	0x385f315c	5.3213313e-05
157	0x37e6efb4	2.7529757e-05
158	0x37fa05e0	2.9805058e-05
159	0x3830e068	4.2170665e-05
160	0x388d9608	6.7513494e-05
161	0x382f240d	4.1756826e-05
162	0x389b4232	7.403306e-05
163	0x3851f8ad	5.006108e-05
164	0x3883a7ba	6.277808e-05
165	0x38374a05	4.3699536e-05
166	0x383907d6	4.4114735e-05
167	0x38717de6	5.757613e-05
168	0x38f42791	0.000116421965
169	0x38836d6d	6.266949e-05
170	0x38eea197	0.00011378823
171	0x38afe615	8.3875064e-05
172	0x3897579e	7.216561e-05
173	0x38df4a6a	0.00010647329
174	0x380b5f8c	3.3229167e-05
175	0x3837cb30	4.3819833e-05
176	0x38a986dc	8.0836675e-05
177	0x389cbc96	7.4737865e-05
178	0x38777d57	5.900612e-05
179	0x38b14c19	8.454192e-05
180	0x38964d84	7.166996e-05
181	0x38ac5f6f	8.219375e-05
182	0x38397f3e	4.422594e-05
183	0x38c29c46	9.279749e-05
184	0x38d16cb4	9.986144e-05
185	0x389cc056	7.474485e-05
186	0x38d666d3	0.00010223468
187	0x3893414c	7.021669e-05
188	0x38b4762e	8.6050815e-05
189	0x37e010eb	2.6710759e-05
190	0x37cc6c10	2.4369016e-05
191	0x387ff8ba	6.1028382e-05
192	0x38e4e672	0.00010914811
193	0x3883939a	6.27406e-05
194	0x38f3d07a	0.00011625975
195	0x38a91ff7	8.064502e-05
196	0x38a5a15b	7.897868e-05
197	0x38db0080	0.00010442827
198	0x380c2ee5	3.3422275e-05
199	0x384c9734	4.877821e-05
200	0x38acdc0e	8.2425875e-05
201	0x389b26bd	7.3981915e-05
202	0x38886038	6.5029075e-05
203	0x38bce124	9.006474e-05
204	0x389404d4	7.058089e-05
205	0x38a0982c	7.657739e-05
206	0x38276cdc	3.9917286e-05
207	0x38a67779	7.93775e-05
208	0x38dd9f0a	0.000105677245
209	0x3898911e	7.274955e-05
210	0x38df97b7	0.00010661728
211	0x389a3fbf	7.355166e-05
212	0x38afb6a6	8.378671e-05
213	0x38117aff	3.4685243e-05
214	0x37e490de	2.7247177e-05
215	0x38840aeb	6.296284e-05
216	0x38eba5e6	0.00011236574
217	0x3887f23e	6.482423e-05
218	0x38f5b5eb	0.00011716395
219	0x38a9306b	8.0675665e-05
220	0x38ac0d6f	8.204101e-05
221	0x38eadc44	0.00011199017
222	0x37f4aae4	2.9166644e-05
223	0x38426140	4.6343775e-05
224	0x389cadf0	7.471058e-05
225	0x38969e31	7.182023e-05
226	0x389c3d4c	7.450077e-05
227	0x38a9750d	8.0803504e-05
228	0x389edea1	7.575495e-05
229	0x389f5331	7.5972064e-05
230	0x37ebdba9	2.811647e-05
231	0x38a12f08	7.6858385e-05
232	0x38cf7ab0	9.8933815e-05
233	0x389c8e82	7.465204e-05
234	0x38e11a98	0.000107337895
235	0x388a3904	6.590973e-05
236	0x38a8632f	8.029339e-05
237	0x380f1443	3.4112727e-05
238	0x37d1c931	2.5008429e-05
239	0x38782c07	5.916881e-05
240	0x38e8f9f1	0.00011109177
241	0x3884e316	6.3365485e-05
242	0x38fb36ff	0.000119788565
243	0x38ae0e4a	8.299628e-05
244	0x38ab4abf	8.167838e-05
245	0x38e7d6d6	0.00011054955
246	0x3801c7a0	3.0941912e-05
247	0x3843bdc8	4.666837e-05
248	0x38a1e250	7.719232e-05
249	0x389146f3	6.927354e-05
250	0x38938c18	7.035601e-05
251	0x38b5a4dd	8.661461e-05
252	0x38978218	7.224473e-05
253	0x3888d4f0	6.524648e-05
254	0x380ea4da	3.400897e-05
255	0x38a5e9f2	7.911389e-05

exp_avg_sq f4 [128, 144]
0	0x29bb3201	8.3131425e-14
1	0x29977699	6.7263205e-14
2	0x291c01ab	3.4640405e-14
3	0x29beb35f	8.468811e-14
4	0x2a0f40c9	1.2723428e-13
5	0x29a909c2	7.5068004e-14
6	0x2939e598	4.1277393e-14
7	0x29576a70	4.783191e-14
8	0x28d3d126	2.351641e-14
9	0x2a184ea5	1.3527597e-13
10	0x28785b1a	1.378652e-14
11	0x2983ce7d	5.8533887e-14
12	0x2a5122ae	1.8574961e-13
13	0x28e80fbc	2.5763998e-14
14	0x293432ab	4.0011976e-14
15	0x28fb0511	2.7868795e-14
16	0x295c7985	4.8955214e-14
17	0x2a5e0511	1.9719319e-13
18	0x2a82ae5f	2.3213633e-13
19	0x2906ac28	2.99033e-14
20	0x29f816c4	1.10173616e-13
21	0x292646f9	3.6920963e-14
22	0x296c3900	5.2451966e-14
23	0x291eacc8	3.523291e-14
24	0x2a134986	1.3081731e-13
25	0x2a337366	1.593843e-13
26	0x29fe6db4	1.12988964e-13
27	0x2a7e85bd	2.2606132e-13
28	0x2a816c23	2.2990038e-13
29	0x2a284b09	1.494743e-13
30	0x2a3688e7	1.6212345e-13
31	0x2a3c022d	1.6698509e-13
32	0x29c0023b	8.5269e-14
33	0x2ab94b0e	3.291468e-13
34	0x2904e151	2.950532e-14
35	0x29fe6991	1.1298179e-13
36	0x2adb12a6	3.8915155e-13
37	0x29b1b756	7.892183e-14
38	0x29eadc50	1.04299056e-13
39	0x2929f0ad	3.773429e-14
40	0x29e9fbde	1.03909706e-13
41	0x2add416e	3.9302887e-13
42	0x2b068594	4.779174e-13
43	0x29d68e9b	9.528247e-14
44	0x2a587041	1.92236e-13
45	0x2a13354c	1.3074714e-13
46	0x29dcf6ed	9.8127974e-14
47	0x29d2c68a	9.3603144e-14
48	0x2a129916	1.3020517e-13
49	0x2a3e94b2	1.6926979e-13
50	0x2a00ac4d	1.1428463e-13
51	0x2a7c9b48	2.243597e-13
52	0x2a817e12	2.3002482e-13
53	0x2a28e951	1.5002345e-13
54	0x2a39bc18	1.6496559e-13
55	0x2a3eceef	1.6947184e-13
56	0x29bae9f6	8.300645e-14
57	0x2abdcf78	3.3717105e-13
58	0x28fc3e7e	2.8004722e-14
59	0x2a0226a3	1.1559724e-13
60	0x2adb985b	3.9007933e-13
61	0x29b969db	8.2340134e-14
62	0x29ee392e	1.0579242e-13
63	0x2926e543	3.7058257e-14
64	0x29ef504b	1.0627661e-13
65	0x2adcc567	3.9216826e-13
66	0x2b03be4f	4.6804655e-13
67	0x29d4bc9f	9.447412e-14
68	0x2a5e85e0	1.9764008e-13
69	0x2a0f6fbe	1.273972e-13
70	0x29e0c6a1	9.982055e-14
71	0x29d1c99a	9.316437e-14
72	0x2a140cd3	1.314949e-13
73	0x2a3ccbb1	1.6768424e-13
74	0x2a09f1de	1.2251959e-13
75	0x2a7bb80d	2.2357134e-13
76	0x2a7f2477	2.2661201e-13
77	0x2a275468	1.4861864e-13
78	0x2a39516b	1.6459548e-13
79	0x2a3d6597	1.6821818e-13
80	0x29c20278	8.615759e-14
81	0x2abef05d	3.3917565e-13
82	0x28f0305d	2.6666327e-14
83	0x2a04a5aa	1.1781431e-13
84	0x2adebf48	3.956785e-13
85	0x29bfc660	8.5165165e-14
86	0x29e89d6e	1.03301794e-13
87	0x2919036d	3.3975796e-14
88	0x29fcbabe	1.1223443e-13
89	0x2adacab0	3.8865222e-13
90	0x2b026d11	4.633664e-13
91	0x29d4e362	9.454136e-14
92	0x2a74fd22	2.1759377e-13
93	0x2a0946cf	1.2192611e-13
94	0x29d807c0	9.5936713e-14
95	0x29e83d23	1.0313475e-13
96	0x2a1173a7	1.2918712e-13
97	0x2a3870bc	1.6381596e-13
98	0x2a068a67	1.1949609e-13
99	0x2a8499f9	2.355475e-13
100	0x2a7e8b71	2.260811e-13
101	0x2a2445b2	1.4590307e-13
102	0x2a36763f	1.6205872e-13
103	0x2a39e658	1.6511217e-13
104	0x29d4ac79	9.4446105e-14
105	0x2abebf7c	3.388365e-13
106	0x28ee2760	2.6440384e-14
107	0x2a04d641	1.179829e-13
108	0x2adc9771	3.9184934e-13
109	0x29c097c2	8.5528386e-14
110	0x29e5ccca	1.0205168e-13
111	0x2919f0a0	3.4181533e-14
112	0x2a006e31	1.1406914e-13
113	0x2ad714c9	3.8206095e-13
114	0x2b00da92	4.577806e-13
115	0x29c190c4	8.5960346e-14
116	0x2a7202de	2.1494913e-13
117	0x2a11aa65	1.2937705e-13
118	0x29d64474	9.515384e-14
119	0x2a0f862f	1.2747506e-13
120	0x2a164ed2	1.3350023e-13
121	0x2a345dcb	1.6019753e-13
122	0x2a02d1cf	1.1619111e-13
123	0x2a84acb3	2.3567744e-13
124	0x2a8064f9	2.2807431e-13
125	0x2a1df926	1.4030842e-13
126	0x2a31f4e2	1.5805719e-13
127	0x2a3f9092	1.7014366e-13
128	0x29de0b60	9.860754e-14
129	0x2abecebb	3.3894228e-13
130	0x290002e3	2.8424213e-14
131	0x2a02d636	1.1620639e-13
132	0x2adc1c03	3.9099288e-13
133	0x29c2ac2f	8.6452e-14
134	0x29e25a6e	1.0052103e-13
135	0x290d9900	3.1440996e-14
136	0x2a10c88a	1.2859345e-13
137	0x2ad44c37	3.771165e-13
138	0x2afe711b	4.5197946e-13
139	0x29c28edd	8.6401135e-14
140	0x2a73b8e9	2.1646889e-13
141	0x2a186b0b	1.353745e-13
142	0x29d13466	9.290554e-14
143	0x2a09a70f	1.2226004e-13
144	0x343fcc12	1.7862502e-07
145	0x330f9c17	3.3436745e-08
146	0x341a8685	1.4391306e-07
147	0x335f8248	5.2039724e-08
148	0x339f20b8	7.409966e-08
149	0x33ab0ace	7.9647734e-08
150	0x32a0150c	1.8636023e-08
151	0x32c8e3d1	2.3386663e-08
152	0x33f19086	1.1248726e-07
153	0x337c43e7	5.873508e-08
154	0x331d104a	3.6569226e-08
155	0x33dbbbf5	1.02321714e-07
156	0x339d7190	7.331539e-08
157	0x32bd2e7a	2.2023631e-08
158	0x32ef9393	2.7890371e-08
159	0x3327b978	3.90514e-08
160	0x33d53caa	9.92962e-08
161	0x33d42093	9.8779445e-08
162	0x343982b3	1.7277016e-07
163	0x3346b6a7	4.626659e-08
164	0x33af2529	8.155832e-08
165	0x3312159a	3.401292e-08
166	0x330ef894	3.3288032e-08
167	0x33121fc4	3.4022165e-08
168	0x34a9605f	3.1548822e-07
169	0x33986c94	7.097802e-08
170	0x346ce570	2.2062682e-07
171	0x340c903c	1.3090988e-07
172	0x342059cd	1.493383e-07
173	0x342d00ca	1.6112168e-07
174	0x335b2d0a	5.1030874e-08
175	0x33805cce	5.9773456e-08
176	0x3443dbd3	1.8240762e-07
177	0x33ebbb79	1.0977141e-07
178	0x339317f7	6.84958e-08
179	0x3449453f	1.8744775e-07
180	0x3420cd9a	1.4975959e-07
181	0x33c4105f	9.129939e-08
182	0x339657a8	7.000864e-08
183	0x34034f50	1.222918e-07
184	0x3461b228	2.1019571e-07
185	0x34661832	2.1429221e-07
186	0x34a28543	3.0271812e-07
187	0x33c2121a	9.0371216e-08
188	0x3430a332	1.6450647e-07
189	0x3396fa2e	7.030427e-08
190	0x33a753ca	7.7917846e-08
191	0x3376130c	5.729366e-08
192	0x34a8e5bf	3.14596e-07
193	0x33972b2d	7.039339e-08
194	0x346ecb53	2.2239446e-07
195	0x340bb8a3	1.3012554e-07
196	0x3427ee27	1.5639726e-07
197	0x342ee31a	1.6287632e-07
198	0x3363800a	5.2969007e-08
199	0x33838dfb	6.125989e-08
200	0x343a0f6f	1.7328215e-07
201	0x33ec3c92	1.1000624e-07
202	0x339190de	6.77844e-08
203	0x344bad27	1.8968841e-07
204	0x342503bc	1.5368181e-07
205	0x33c3e79f	9.122527e-08
206	0x339ad18b	7.2092995e-08
207	0x340994e1	1.2813281e-07
208	0x345fb96d	2.0835951e-07
209	0x3464d2b3	2.1310807e-07
210	0x34a434f0	3.0585898e-07
211	0x33cb5f34	9.4702415e-08
212	0x342ed369	1.6281923e-07
213	0x33924c83	6.812572e-08
214	0x339dfa2d	7.356389e-08
215	0x33881fed	6.338801e-08
216	0x34a76251	3.117771e-07
217	0x3390c822	6.7419265e-08
218	0x3474b0aa	2.2788541e-07
219	0x34094084	1.278259e-07
220	0x34238eaa	1.5232459e-07
221	0x343852dc	1.716648e-07
222	0x336c9076	5.507942e-08
223	0x3382ab9e	6.084814e-08
224	0x3439f8d8	1.7319996e-07
225	0x33ea33ab	1.09058725e-07
226	0x33940ff8	6.894692e-08
227	0x34503bd5	1.9393276e-07
228	0x3423e978	1.5265493e-07
229	0x33c0e983	8.983172e-08
230	0x339e69a8	7.376667e-08
231	0x3409d60f	1.2836993e-07
232	0x34601579	2.0869437e-07
233	0x34667b35	2.1465242e-07
234	0x34a25cb7	3.024231e-07
235	0x33d1e6d9	9.774312e-08
236	0x342ed0b6	1.6280941e-07
237	0x33968b34	7.01024e-08
238	0x33a963a9	7.887804e-08
239	0x3391717d	6.772732e-08
240	0x34a6a63c	3.104086e-07
241	0x339145ee	6.764809e-08
242	0x347eb805	2.372254e-07
243	0x340cc56d	1.3110339e-07
244	0x3426d34d	1.5536826e-07
245	0x3439e125	1.7311375e-07
246	0x337030d5	5.5923767e-08
247	0x33796d14	5.8074036e-08
248	0x34393e66	1.7252168e-07
249	0x33eb70d5	1.0963564e-07
250	0x33950423	6.939106e-08
251	0x3451592d	1.9497084e-07
252	0x3421e4e6	1.5077566e-07
253	0x33bd7c0e	8.823564e-08
254	0x33a0b4c8	7.4834645e-08
255	0x34052162	1.2398735e-07

exp_avg f4 [128]
0	0x00000004	6e-45
1	0x3926f180	0.0001592096
2	0x38092eea	3.2707037e-05
3	0x389ad9cc	7.38386e-05
4	0x3854f21c	5.077022e-05
5	0x390bf8e9	0.00013348799
6	0x392ba7a8	0.00016370288
7	0xb8ac75bc	-8.223529e-05
8	0x37598940	1.2966164e-05
9	0x39224f2c	0.00015479018
10	0x379ce79f	1.8704506e-05
11	0x00000000	0.0
12	0xb9002dc4	-0.0001222408
13	0x389d4c7d	7.5005904e-05
14	0x38895922	6.549271e-05
15	0xb8e3d4ee	-0.00010863865
16	0x38f0d53b	0.00011483809
17	0xb83bcd29	-4.4775345e-05
18	0x39316530	0.0001691773
19	0x3940e50d	0.00018395875
20	0xb953fcec	-0.00020216749
21	0x388a482a	6.5937944e-05
22	0x37401cc4	1.1450789e-05
23	0x38c2e252	9.292796e-05
24	0x38d5c968	0.00010194146
25	0xb8035458	-3.1311385e-05
26	0x38f0d8b8	0.00011484459
27	0xb90f5ec4	-0.00013672846
28	0x369a2d20	4.594811e-06
29	0x388e2d8b	6.779571e-05
30	0x39a07756	0.0003060649
31	0x380b136e	3.3158278e-05
32	0xb7b31d0b	-2.1351987e-05
33	0xb8288921	-4.0182033e-05
34	0x390d30ed	0.00013465034
35	0xb91ca30e	-0.00014938062
36	0x388099df	6.132176e-05
37	0xb82d2aaa	-4.128615e-05
38	0x390cb258	0.00013417879
39	0x395ae39a	0.00020874888
40	0x38b830c2	8.7828856e-05
41	0x38803305	6.113019e-05
42	0xb948dcc3	-0.00019155726
43	0x389cde6c	7.480089e-05
44	0x00000004	6e-45
45	0xb82455f2	-3.918069e-05
46	0x38ae843e	8.3215986e-05
47	0x00000000	0.0
48	0x00000000	0.0
49	0x38e17430	0.00010750478
50	0x38319533	4.233904e-05
51	0x3873dd20	5.8141653e-05
52	0x38843eca	6.305946e-05
53	0xb8a03cab	-7.640695e-05
54	0x3989d17a	0.00026286748
55	0x38a53174	7.8770245e-05
56	0x00000000	0.0
57	0xb8e05b34	-0.0001069814
58	0x388c21d0	6.682018e-05
59	0x38ee3016	0.00011357681
60	0x3827e1e2	4.0026272e-05
61	0x00000000	0.0
62	0x389f9523	7.60949e-05
63	0x382992fb	4.0429626e-05
64	0xb7b1c7a8	-2.1193016e-05
65	0xb962c8b7	-0.00021627812
66	0x391fe7e0	0.00015249802
67	0xb6f26098	-7.223407e-06
68	0x39bb9e81	0.00035785514
69	0x38ac0328	8.202187e-05
70	0xb8c0c99c	-9.192826e-05
71	0x00000004	6e-45
72	0xb79bd921	-1.8578548e-05
73	0xb73f35c4	-1.1397005e-05
74	0x38b825ba	8.780831e-05
75	0x00000004	6e-45
76	0x394da079	0.00019610104
77	0x00000004	6e-45
78	0x37aafec0	2.0384206e-05
79	0x35bc9080	1.4049147e-06
80	0x37a358e4	1.9472507e-05
81	0x3905b4eb	0.00012751266
82	0x389c50d3	7.453714e-05
83	0xb7812198	-1.5393642e-05
84	0x38679b1a	5.521914e-05
85	0x38dc0ea0	0.000104931416
86	0x38c7a55a	9.5198586e-05
87	0xb8877159	-6.458414e-05
88	0xb91b035b	-0.00014783202
89	0xb8a008c3	-7.6310265e-05
90	0xb7bbdc24	-2.2394648e-05
91	0x3928d883	0.00016102385
92	0x38c4833e	9.370454e-05
93	0x38f91dd2	0.000118788
94	0xb917bb10	-0.00014470168
95	0x388c5af4	6.6926616e-05
96	0xb8784d5c	-5.9199854e-05
97	0x00000004	6e-45
98	0xb7ee77a0	-2.8427516e-05
99	0xb7e1dbec	-2.69245e-05
100	0xb8c23722	-9.26091e-05
101	0x392a1537	0.00016220367
102	0x00000004	6e-45
103	0x3862c2de	5.4064083e-05
104	0x38f44252	0.0001164718
105	0xb8afb1ec	-8.377791e-05
106	0x3938cf38	0.00017624802
107	0xb7ef8680	-2.8553652e-05
108	0x3934ab30	0.0001722991
109	0x38a797e6	7.991474e-05
110	0x00000004	6e-45
111	0x39295986	0.00016150446
112	0x388ca427	6.706296e-05
113	0x37cd3da2	2.4466604e-05
114	0xb6ec50a8	-7.0427377e-06
115	0x391cb909	0.0001494625
116	0x00000000	0.0
117	0xb8a9f280	-8.103717e-05
118	0x378eb66f	1.7012671e-05
119	0x397af168	0.00023931789
120	0xb8d34bfc	-0.00010075417
121	0x00000004	6e-45
122	0x39496f66	0.00019210353
123	0x00000004	6e-45
124	0x38f67bf0	0.00011753279
125	0x3902325f	0.00012416531
126	0xb9ad3211	-0.00033034434
127	0x385241e4	5.0129267e-05

exp_avg_sq f4 [128]
0	0x2b16335b	5.3361975e-13
1	0x34f3475f	4.5314206e-07
2	0x351910ca	5.7021373e-07
3	0x349910db	2.8510735e-07
4	0x34ce99d0	3.8482403e-07
5	0x34f1bfeb	4.5029387e-07
6	0x35111c04	5.405748e-07
7	0x35962f18	1.1189577e-06
8	0x34e92e23	4.34332e-07
9	0x34cbd2cf	3.796508e-07
10	0x3497fdbc	2.8310558e-07
11	0x00000000	0.0
12	0x34bb9f32	3.4947294e-07
13	0x348cb250	2.6206772e-07
14	0x34a9a515	3.1598816e-07
15	0x34bc77a5	3.5104782e-07
16	0x34b4cd40	3.3676952e-07
17	0x345ef021	2.076272e-07
18	0x350164b0	4.8202764e-07
19	0x34f07113	4.4785756e-07
20	0x3518aa0c	5.6871863e-07
21	0x3428e75e	1.573039e-07
22	0x343c8bf9	1.7559786e-07
23	0x34ab5b8b	3.1917838e-07
24	0x34573f79	2.0046527e-07
25	0x34fe1c23	4.733166e-07
26	0x3496b49a	2.8071082e-07
27	0x34c29dcb	3.6250125e-07
28	0x34c608a6	3.6886667e-07
29	0x34a9a2aa	3.1597057e-07
30	0x356c92b5	8.813034e-07
31	0x34fa10b2	4.6578276e-07
32	0x34fb8d98	4.6855416e-07
33	0x343150e8	1.6513843e-07
34	0x34dd0f36	4.1175525e-07
35	0x34c10c2d	3.595791e-07
36	0x349956cb	2.856162e-07
37	0x3478e2e9	2.3179349e-07
38	0x349854b9	2.837385e-07
39	0x35092c57	5.1101e-07
40	0x34ec0898	4.3964678e-07
41	0x34a75d4e	3.1174062e-07
42	0x34dcf0c2	4.1153368e-07
43	0x34f6bab3	4.5956912e-07
44	0x28c3f894	2.1757153e-14
45	0x34d1aa59	3.9053228e-07
46	0x342b58d6	1.5957934e-07
47	0x00000000	0.0
48	0x00000000	0.0
49	0x34a993e3	3.1586305e-07
50	0x34c87e97	3.734501e-07
51	0x351efd2e	5.922801e-07
52	0x350e071d	5.2909473e-07
53	0x352b83c5	6.3894214e-07
54	0x350af266	5.176174e-07
55	0x34d3958e	3.9410628e-07
56	0x00000000	0.0
57	0x35239398	6.093701e-07
58	0x345cb656	2.055543e-07
59	0x34ad8326	3.2319184e-07
60	0x34441ba2	1.8263975e-07
61	0x00000000	0.0
62	0x3487a45f	2.5265305e-07
63	0x33e217a8	1.0528248e-07
64	0x34e24eb4	4.2153044e-07
65	0x3551f923	7.822111e-07
66	0x3530f64d	6.5923524e-07
67	0x33fc6fcd	1.1755001e-07
68	0x358f0304	1.0655208e-06
69	0x3467134a	2.1520569e-07
70	0x34b3b872	3.347555e-07
71	0x2a05aab6	1.1872e-13
72	0x3471cd80	2.2519635e-07
73	0x34f210fa	4.5088365e-07
74	0x35382c64	6.860994e-07
75	0x261ceae7	5.4441724e-16
76	0x35929e86	1.0923984e-06
77	0x2b9b09d6	1.1016142e-12
78	0x35146dc1	5.529401e-07
79	0x34c79605	3.7175792e-07
80	0x349b958d	2.8979812e-07
81	0x350d9b39	5.275247e-07
82	0x343470b8	1.6804813e-07
83	0x34a00e77	2.9812847e-07
84	0x34e163c3	4.1982102e-07
85	0x343875e2	1.7179221e-07
86	0x34d4dad0	3.9647284e-07
87	0x3431e526	1.6567773e-07
88	0x345b7fbc	2.0442434e-07
89	0x354b3167	7.5695283e-07
90	0x34bedf47	3.5552713e-07
91	0x35292db8	6.3023936e-07
92	0x348b085c	2.589685e-07
93	0x351403b6	5.5139697e-07
94	0x34813c80	2.4072142e-07
95	0x3488b9be	2.546712e-07
96	0x34e09187	4.1829136e-07
97	0x28017a45	7.1874515e-15
98	0x34d62bc1	3.989244e-07
99	0x3550d665	7.7798023e-07
100	0x34e42779	4.249703e-07
101	0x34ac108f	3.2049545e-07
102	0x29408933	4.2751565e-14
103	0x34a5edeb	3.0906753e-07
104	0x3556b8bc	7.9990036e-07
105	0x34f0d672	4.4859513e-07
106	0x355a6726	8.136143e-07
107	0x34e54adc	4.270904e-07
108	0x34d849b1	4.0286753e-07
109	0x35752fe7	9.133932e-07
110	0x2db90d2d	2.1037916e-11
111	0x3545f51a	7.374489e-07
112	0x348b754a	2.5976107e-07
113	0x34b40468	3.353082e-07
114	0x34ed6293	4.4216412e-07
115	0x349c8107	2.9151144e-07
116	0x00000000	0.0
117	0x34d3e5d0	3.9469023e-07
118	0x34d1dbfa	3.9089338e-07
119	0x350ac931	5.170178e-07
120	0x35701c0a	8.944777e-07
121	0x280becf3	7.76743e-15
122	0x351a6974	5.7522925e-07
123	0x278c7a8b	3.8990667e-15
124	0x35139476	5.4977806e-07
125	0x35096ac7	5.119186e-07
126	0x358a0cf2	1.0285569e-06
127	0x34eb7873	4.38598e-07
