models/RaceModels/binary_pos_3copies0to10_threelayersdropout0.5lr0.0001/model.pt (torch, 618077 bytes, 24 tensors)

fc1.weight f4 [128, 240]
00000000: dc26 4ebd e0fe 6dbd da78 62bd 3660 443d
00000010: 90a7 743c 10fb d03c 7485 eebc 10ce 56bc
00000020: a2e0 5c3d 80ae 183b 7c74 d23c dc88 293d
00000030: 4469 2fbd dc5b ad3c f2d1 2bbd 7cb3 123d
00000040: edc6 29bd 5447 e73c 18c3 66bc 52fb 27bd
00000050: 2abb 84bc 047b 07bd a009 e4bc b2b2 23bd
00000060: 5ad6 06bd a1c5 823d 32b2 363d 4cbb aa3c
00000070: a8f3 9f3c f07e 3ebd b8e6 993c 60a2 1abc
00000080: 76ee 81bd 9a21 7d3d 46a2 35bd 2857 80bd
00000090: 80f3 e7ba 244c 223d f266 393d 92b2 5dbd
000000a0: c78d 54bd e02c c63c 84c4 b23c 9e15 e5bc
000000b0: 3921 7bbd 91a0 51bd 35c3 81bd dec4 1cbd
000000c0: c848 e1bb 0223 013d ecf4 ecbc 1436 663d
000000d0: 6444 e2bc c6d2 4a3d dc18 24bd 785d 753c
000000e0: 163c 543d dc92 723d 1869 3abc 5aa5 c9bc
000000f0: a929 63bd 4e82 d3bc 6077 1d3c 4ac6 2a3d
00000100: 60a2 d4bc 348d 133d 3e4b 9cbc 1047 f43b
00000110: 8049 363d f0a4 51bd 52fc 5abd b090 a03c
00000120: f283 2dbd c839 cbbc 9cae 0e3d 3c34 3a3d
00000130: 0050 24b9 82f3 e9bc f0c4 4cbb b050 473d
00000140: 6ece 21bd 0050 abb9 008a 4c39 88e4 83bd
00000150: 2c64 de3c 48e0 093d 90cc d83b 50fa 703c
00000160: b2f2 20bd ae67 663d 80bc 1abb 9e00 3cbd
00000170: 3037 8abc 302d ec3b fab3 443d a2aa 0cbd
00000180: 9ea4 0c3d dafd 023d 8745 10bd cea9 223d
00000190: acdd b73c 7046 76bd d839 99bb f244 043d
000001a0: 008d ac3a 1046 053d 44b5 b8bc 8079 113b
000001b0: 1073 6f3d 08e3 4f3c be2b 6d3d 188d 95bb
000001c0: 54b0 62bc 6ab9 6dbd 0076 613c 181d a23c
000001d0: 046a cabc 1e6c cfbc 133a 41bd 007d 703a
000001e0: 0034 cbba 1c5c d03c 0ee9 47bd 6868 84bb
000001f0: fe67 103d ba3b bdbc e033 a8bc 44d9 df3c
00000200: 488d 26bc 6a85 263d 8ee3 80bd c011 a33b
00000210: cc45 2b3d 0693 dabc 4822 77bd b86f 63bd
00000220: 1008 923b 78d0 493c 4484 fc3c 1c03 0fbd
00000230: e2e3 1fbd 54b1 7abd 7810 4abd 7d27 5fbd
00000240: 887a cdbb 68b9 a23c a87e cbbb 20aa 55bd
00000250: e016 2e3d c239 aabc 4695 80bd 0059 41bb
00000260: 348d 35bd 0007 9c39 f8e2 fcbc 968b adbc
00000270: de2b fbbc 7470 493d b07b d13b 18f9 0e3d
00000280: 9cbd 543d 38a8 453c d825 adbc 10e6 5abb
00000290: 28b6 373c 5ebb 0b3d 10b4 bc3b 1c74 09bd
000002a0: 606e 22bd 648f 78bd 02c3 353d 407b 97ba
000002b0: 4067 4abd 70ee 5bbc 2948 05bd d1a0 42bd
000002c0: 300b 2fbb 4c1d 713d c416 eebc 67eb 66bd
000002d0: 74ab fb3c 5072 033c 8cae 343d 40dd 2cbd
000002e0: 3ae4 b4bc 08d0 04bd ae4f 413d e896 e43c
000002f0: 712a 84bd ab7b 833d 0e66 d8bc 7056 be3c
00000300: 3c84 923c 00a4 683d 8ce6 f1bc 80aa b93a
00000310: b0d8 e43b 08e7 09bd 8405 cfbc 788c e53c
00000320: acea 393d 90f7 6bbc 48b5 563d b061 80bc
00000330: d837 0e3d ac91 1cbd 2c77 17bc 0ad7 1dbd
00000340: 4ec7 d6bc 0a65 323d 00ad 0cbd f8cf 643c
00000350: f0ba e73b d4fb b53c b030 ca3c 74c8 c83c
00000360: f45f 8e3c d404 0dbd b4d8 c03c 98f4 79bc
00000370: 766a efbc 61fe 82bd 5050 483c 2a82 65bd
00000380: 6e5d cabc 2919 63bd 7a26 523d 164d 533d
00000390: 52b5 55bd c076 5d3b a5ee 2abd e0c7 dd3c
000003a0: 9cb4 33bd 68e5 a6bb 183b 27bd dc0a 3dbc
000003b0: e459 03bc 9849 84bc aad0 ffbc 7c98 2b3d
000003c0: bb3e b8bc c2e5 033e 96df a73a 90bd a53d
000003d0: b50c fc3c 0e4f 6a3d 461d 963c 1b31 79bd
000003e0: df73 1a3c 1f87 c4bc 02d3 5ebc 196b 763d
000003f0: 8aaf b73c 0de1 88bd 9ed4 143b 1986 883d
-0.050330028 -0.058104396 -0.055291034 0.047943316 0.014932528 0.02551034 -0.02911637 -0.013110653
0.053925164 0.002329737 0.02569031 0.041390285 -0.042825 0.021161966 -0.041948266 0.0358157
-0.041449476 0.028232254 -0.0140846 -0.041011162 -0.016202528 -0.0330763 -0.02783662 -0.03996534
-0.032919265 0.06385351 0.044603534 0.020841263 0.019525364 -0.046507776 0.018786773 -0.009438127
-0.06344311 0.061799623 -0.04434421 -0.06266624 -0.001769647 0.039623395 0.045264192 -0.054125376
-0.051893022 0.02419132 0.021822222 -0.02796441 -0.06131098 -0.05117852 -0.06336061 -0.038273685
-0.0068751313 0.031527527 -0.028925382 0.056203917 -0.027620502 0.049517415 -0.04006277 0.014975898
0.051815115 0.059222087 -0.011377595 -0.024614979 -0.055459652 -0.02581897 0.009610981 0.04169301
-0.025956333 0.036023334 -0.019078847 0.0074547604 0.04450369 -0.051182687 -0.053463288 0.019600242
-0.04236216 -0.024807826 0.03483449 0.04545997 -0.00015670061 -0.028558496 -0.0031245314 0.048660934
-0.039503507 -0.00032675266 0.00019506365 -0.06440073 0.027147375 0.033661157 0.0066161826 0.014708117
-0.039293952 0.05625122 -0.002361089 -0.045899026 -0.016872019 0.007207535 0.0480232 -0.034342416
0.03433668 0.031980373 -0.035222556 0.03971272 0.022444569 -0.06012577 -0.004676085 0.032292314
0.001316458 0.03253752 -0.022547372 0.0022197664 0.05845934 0.012688406 0.057903044 -0.004563939
-0.013835985 -0.058038153 0.013761044 0.019789264 -0.024708755 -0.025320109 -0.047174525 0.00091739
-0.0015503168 0.025434546 -0.048806243 -0.0040407665 0.035255425 -0.023099769 -0.020532548 0.02732528
-0.01016552 0.040654577 -0.062934026 0.004976481 0.04181461 -0.026681434 -0.060335428 -0.055526465
0.0044565275 0.012317769 0.030824788 -0.034915075 -0.039035685 -0.06120427 -0.049332112 -0.05448102
-0.0062707104 0.0198638 -0.006210167 -0.052164197 0.042502284 -0.020779494 -0.06278472 -0.002950251
-0.044324115 0.00029759854 -0.030869946 -0.021184724 -0.030660566 0.04917951 0.0063929185 0.034905523
0.051938638 0.012064032 -0.02113621 -0.0033401288 0.011212863 0.034114234 0.00575877 -0.033557996
-0.039656043 -0.060683623 0.044375427 -0.0011557117 -0.049414873 -0.013423547 -0.03253952 -0.047516648
-0.002670955 0.05886583 -0.02906359 -0.05637684 0.030721404 0.00802286 0.044111773 -0.042203188
-0.022081483 -0.032424957 0.04719513 0.027903989 -0.064534076 0.06420072 -0.026415851 0.023234576
0.01788532 0.056797028 -0.029528879 0.0014165193 0.006983839 -0.033667594 -0.025271185 0.028021082
0.045389816 -0.014402285 0.052418977 -0.015671581 0.034721226 -0.03822486 -0.009244721 -0.038535155
-0.026218083 0.04355339 -0.034344673 0.013965599 0.0070718452 0.022214808 0.02468142 0.024509646
0.017379738 -0.034428433 0.023540832 -0.01525607 -0.02922557 -0.06396175 0.012226179 -0.056032337
-0.024702754 -0.055443916 0.051306225 0.051587187 -0.052174874 0.0033792704 -0.041731495 0.027072847
-0.043873414 -0.0050932653 -0.04082784 -0.011538234 -0.008017037 -0.016148373 -0.031227428 0.041893467
-0.02249085 0.12880614 0.0012807723 0.08092797 0.030767778 0.0572043 0.018324506 -0.060837846
0.00942704 -0.023990212 -0.013600113 0.06016073 0.02242257 -0.0668355 0.0022709738 0.06666202

fc1.bias f4 [128]
00000000: eb83 71bd 1401 42bc 3c5c 713c c705 533b
00000010: 132e d63c 1e79 6cbd 9f7c 813d 3e96 ce3c
00000020: ac54 d4bc 2b28 953c 9446 59bd 1216 063c
00000030: e73a 11bd 9e12 a6bc aacf 9fbc fc5f cd3c
00000040: 1261 913d 0a22 75bc 16f2 943c d884 3c3c
00000050: d316 6cbc ec7b 1e3d ace4 bb3c 76b5 0bbd
00000060: aceb 82bc f2b3 713d 3c7f 1e3c 6c3b e4bc
00000070: 3ee7 41bd 353a 7cbd 7d64 3a3d 7c79 363b
00000080: 008f 4e3d be17 9dbc 16a9 7d3b f3ba 05bd
00000090: bd93 06bd 2b96 4b3a af20 263d 546f 0cbd
000000a0: 945b bd3c a181 54bc b9c2 6dbc 5fb4 cf3b
000000b0: c3b7 64bc 660a 0cbb c17e 4ebd 85f5 4bbd
000000c0: 3535 573d 8203 263a d3e4 abba ec72 3bbb
000000d0: 4d79 9dbd 594e 70bd abf2 763d 32ea 31bd
000000e0: f779 2bbd 7d64 f8bc d13c 403d 3e5a b0bd
000000f0: 3b00 46bd ee64 a6bb ab03 8f3d cfc6 5bbc
00000100: 274c 50bc 7a5c 6a3d 54d1 8cbc e755 b03c
00000110: 41d8 83bb 42c2 813d b125 143c a509 1dbd
00000120: 0414 ecbc 8308 9e3c 9001 523c ac13 373d
00000130: a0e8 a8bc 5921 943b 0fe5 0fbd 2f50 393d
00000140: 7ec6 a5bc f8df 1f3d 0a8a 553c aa91 513d
00000150: 2c61 55bd 0c36 c0bd dc62 81bb e851 8c3c
00000160: 1ae9 62bc 3dee 493d efb1 6b3d 7abf 56bc
00000170: 4992 adbd f02c 4cbd fced 983d 8f85 27bc
00000180: c813 383d e817 423d 52e5 80bd e098 7cbc
00000190: 6636 49bd ab52 873c cdb6 2cbd 6273 78bc
000001a0: 9415 dabc 9b0f 873d 1b9b 323d fbd0 803d
000001b0: f214 6cbc 1eff 013d 69d4 4ebd 7ad6 3dbd
000001c0: 811e 4b3d c875 14bc 5db8 8f3c 2b13 64bd
000001d0: a830 e73a a799 efbc 037c 5d3c 9d27 37bd
000001e0: b501 14bd 8ec5 973c 1f02 6dbd ce8e 413d
000001f0: e14e 503d 4c36 2abd 1204 0c3d c0ac fd3c
-0.058963697 -0.011841077 0.014731463 0.0032199488 0.026145017 -0.057732694 0.06322598 0.025218125
-0.025919281 0.01820763 -0.053045824 0.008183973 -0.035456564 -0.02027255 -0.019508202 0.025070183
0.07098593 -0.014961729 0.018181842 0.011506282 -0.014409739 0.0386924 0.022936188 -0.0341086
-0.015981518 0.0590095 0.00967389 -0.027860366 -0.04733967 -0.061578948 0.04550599 0.0027843406
0.050429344 -0.01917636 0.003870552 -0.03264899 -0.032855738 0.0007766212 0.040558513 -0.03428586
0.023114957 -0.012970359 -0.0145117575 0.0063386406 -0.013959828 -0.0021368503 -0.05041385 -0.049794693
0.052540977 0.000633292 -0.001311446 -0.0028602434 -0.07689152 -0.05866847 0.06029002 -0.043436237
-0.04186436 -0.030321354 0.046933 -0.08610962 -0.048340064 -0.0050779497 0.069831215 -0.013414099
-0.012713469 0.0572171 -0.01718966 0.021525336 -0.004023582 0.0633588 0.009042189 -0.038339276
-0.028818138 0.019291168 0.012817755 0.044696495 -0.020618737 0.004520577 -0.035130557 0.045242485
-0.02023625 0.039031953 0.013033399 0.051164307 -0.052094623 -0.093853086 -0.0039485525 0.0171289
-0.013849521 0.049299467 0.057542738 -0.013107175 -0.08475167 -0.049847543 0.07467267 -0.010224714
0.04494074 0.04738608 -0.062937394 -0.015417308 -0.049124144 0.016518911 -0.04216652 -0.015164228
-0.026621617 0.065947734 0.04360495 0.0628986 -0.014409291 0.03173744 -0.05049554 -0.04634712
0.049589638 -0.009061284 0.017543966 -0.055682342 0.0017638402 -0.029248072 0.013518336 -0.044715513
-0.03613444 0.018526819 -0.05786335 0.04725533 0.050856475 -0.041555688 0.03418357 0.030966163

fc2.weight f4 [64, 128]
00000000: 72f6 193d 1266 1fbe c9ea 8d3d 9842 db3d
00000010: 2916 323e 9945 6dbd 47b1 6dbe b214 cfbe
00000020: ee2f 4abe 9a40 c6bd 3759 a1bc 4f5f dbbd
00000030: 96b1 423e 648b 603d a237 f83d bf68 6b3d
00000040: 144e 72be ff5e 3bbd bd98 11be 2379 bfbd
00000050: dda2 b13d 8920 c6be e087 77be 4390 23be
00000060: a3df 6cbe 5d75 7bbe af52 153e c0cc 083b
00000070: e528 163e d817 35bd e6d8 2cbd bc20 2cbd
00000080: 5166 853d e3dd 0a3e a225 373d 23b4 aabc
00000090: 96ce 61bd a8a3 37bd af2c 92bd f9c8 83be
000000a0: 1e72 d73d ea39 c83d 8a96 073d 13d8 e7bd
000000b0: 7a24 3dbd 8144 a6bc 5922 01bd 58e2 6dbd
000000c0: ef31 a73d 713d a8be 7590 033d 7023 1a3c
000000d0: e124 d13d 7a5f 8abd 3422 f1bd b477 b93c
000000e0: e08e 43bc e25a 153c d076 9cbc 4dc2 1b3e
000000f0: ed69 b03d 1eed 023d bd1c 653d 073e 7a3d
00000100: 88dd ad3d 3afb 143e 360e 4b3d f85f f13c
00000110: bd0b 763c aeb5 8cbe fb2a cb3b f9e7 44be
00000120: 5cde 0e3e 7ff8 89be 7a8d 74be fb80 24be
00000130: 8574 d83d 5441 b5bd 1e3a 783d 92ca 0fbd
00000140: 0bb2 68bd 8f7c f23c 6aa6 273d 4651 573d
00000150: 45e3 a13d 5d5c d03d 9838 033d bd52 9f3c
00000160: 15bc 66be c73b 9a3d 642e 56bd 4bd9 d63d
00000170: d2a9 96bd 40d8 f13d 8b8c a9bd 7f62 843d
00000180: f070 d23d 3644 2f3e 96bb aebd 6e5b 513d
00000190: 3fa7 77be b224 3e3e 81b7 09bd 1825 82be
000001a0: a136 5abd c53f 4abe a3f0 033e 32a7 86be
000001b0: b106 eebc 9834 babe ec6c a8be 5e45 b13d
000001c0: dfff b63d b6c8 8c3d 1fc8 9ebe 42e7 d43c
000001d0: 72a2 c93d d43c 37be 99dc b1bd d31e 81bd
000001e0: c503 9e3d 551f 103e 83c9 533d be42 0cbe
000001f0: 0a50 763d 12a9 233d 329b 9dbd 685f adbe
00000200: d780 9f3d 78f9 0f3e f0cd 1bbe 9033 e9bd
00000210: 3aa4 af3d f018 7ebd 5fbc 8c3d 8ff9 8d3e
00000220: a073 893e f6a7 94bd 7b1d d43e ef8f 0cbd
00000230: 6360 b4bd 91db 333d 45b4 37bd 777e 0e3e
00000240: d550 7a3e 5d32 6c3d 35c2 883e aea7 d03d
00000250: b1c0 3cbd e16d a63d e6db 923c 4ea3 053d
00000260: af5f 9e3d 672d 483e 89ed 5dbe e84c 40bd
00000270: 26b1 033d 528c 5e3d 33e6 b23d 1dd5 613e
00000280: 8e80 4b3d 7669 a5bd eaa2 523e c94e 143d
00000290: 790f 0b3e c7cb bc3d 3bc7 cf3d 2a37 8e3a
000002a0: bf8c 52bd 566f 20bb cc4f 103e 18d8 73be
000002b0: f4a4 4e3d 2638 b23e c08b a8bb 4888 88bd
000002c0: cb25 2e3c 903f 9b3e b280 ae3d a8ec ac3c
000002d0: 7bfe 42be 325a 94bd 790d 993d 5374 a0bd
000002e0: 5a89 27be b650 733d 705c c1bc ea9c 0ebd
000002f0: b51e 593d 849d 0c3e ae28 483d b9ad 0cbe
00000300: 276a c3bc 4516 92bd 1d6c 19be 2a76 1c3c
00000310: f40d d13d ed22 913e cd1e 063e d1e3 353e
00000320: f012 41be cf2a de3d 4118 79bd 2777 853d
00000330: 6b95 e93d f96d 17bd 362f 2b3d 902d 413e
00000340: db1f aabd 54ac 36bc db0b a93d 1d48 9bbd
00000350: c8f5 06be 83c3 9bbd e53a 6e3d 5bee 2dbe
00000360: 9ca9 993e b9e2 933d 9f58 cbbc 38a0 a1bd
00000370: a618 9cbd 894a 8cbd f312 803e 7ab2 bbbd
00000380: e77d dbbb 1ae9 96bd 0955 9dbc 6873 953c
00000390: 642a 803e c491 80be 80e1 873b 7110 bdbd
000003a0: 0fa2 b23d 3fce f23c be92 293c 4c9f 3f3e
000003b0: de17 a5bd 5dca b63e 1a16 213e ea05 e7bc
000003c0: b6c9 cb3c a6f6 7fbd bf29 c33c 5512 52bd
000003d0: c109 0bbc 3990 683e 3648 da3d 432e 303d
000003e0: 0fd7 6a3c 2875 233e 944f 883c 0156 173e
000003f0: e4ad 9c3b c151 9dbd 3671 b93e a906 283d
0.037588544 -0.1556628 0.06929547 0.10706061 0.17391266 -0.0579277 -0.23212157 -0.40445477
-0.19744846 -0.096802905 -0.019695861 -0.10711538 0.19013056 0.054820433 0.12119986 0.05747294
-0.23662597 -0.045744892 -0.14218421 -0.09349277 0.08673642 -0.38696697 -0.24172926 -0.15973
-0.23132186 -0.2455649 0.14582323 0.0020873994 0.14664038 -0.044212192 -0.042199038 -0.042023405
0.06513656 0.13561206 0.044713624 -0.020837849 -0.055128656 -0.04483381 -0.07137429 -0.25739267
0.10519813 0.09776671 0.03310255 -0.1132051 -0.046177365 -0.020296337 -0.031526897 -0.058077186
0.08163821 -0.32859376 0.032120187 0.009407863 0.10212112 -0.06756492 -0.11774102 0.022640087
-0.0119359195 0.009115906 -0.019099623 0.15210839 0.08613954 0.031964414 0.05593561 0.06109431
0.08489519 0.1454896 0.0495741 0.029464707 0.015017447 -0.2748236 0.006200192 -0.19229116
0.13952011 -0.269474 -0.23882094 -0.16064827 0.10569099 -0.08850351 0.0606023 -0.035105295
-0.05681042 0.02960041 0.04093019 0.052567743 0.07904676 0.10173867 0.032036394 0.019448632
-0.22532685 0.07530933 -0.052290335 0.10490664 -0.073566094 0.118088245 -0.082787596 0.06464099
0.10275447 0.17115864 -0.08531873 0.051112585 -0.24184893 0.18568686 -0.03362227 -0.25418925
-0.053274754 -0.19750889 0.12884764 -0.26299435 -0.029055925 -0.3636825 -0.328956 0.08655809
0.08935522 0.0687422 -0.31012055 0.025989179 0.09845437 -0.17894298 -0.08684654 -0.063047074
0.07715563 0.14074452 0.05170585 -0.13697335 0.060134925 0.03995616 -0.07695617 -0.33861852
0.07788246 0.14060009 -0.15215278 -0.11386788 0.085762456 -0.0620355 0.068718664 0.2772946
0.26846027 -0.072585985 0.41428742 -0.034316953 -0.08807447 0.043910567 -0.044849653 0.1391543
0.24444897 0.057665218 0.26710668 0.10188232 -0.046082202 0.081264265 0.017927121 0.032626443
0.07733094 0.1954857 -0.21672644 -0.046948344 0.032151364 0.05433304 0.08735313 0.22053953
0.049683146 -0.08076756 0.2056996 0.036207948 0.13580121 0.09218555 0.10145422 0.001085018
-0.051403757 -0.0024480424 0.1409294 -0.23812902 0.05045028 0.34808463 -0.0051436126 -0.066666186
0.010629128 0.30321932 0.085206404 0.02110894 -0.19042389 -0.07243766 0.07473273 -0.07834687
-0.16360989 0.059403144 -0.023603648 -0.034817614 0.0530078 0.13731962 0.04886692 -0.13738145
-0.023854328 -0.07133154 -0.14982648 0.009549657 0.102077395 0.2834696 0.13097687 0.17762686
-0.1885488 0.10848009 -0.060814146 0.06516867 0.11405452 -0.036970112 0.04179307 0.18865037
-0.08306857 -0.011149485 0.082542144 -0.07582114 -0.13179696 -0.0760565 0.058161635 -0.16985457
0.30012214 0.07220978 -0.024822531 -0.078918874 -0.07621889 -0.06850154 0.25014457 -0.09164901
-0.0066983583 -0.07368679 -0.019205587 0.018243507 0.2503234 -0.2511121 0.0041467547 -0.092316516
0.087223165 0.029639361 0.0103499275 0.1871311 -0.08061193 0.35701266 0.15731087 -0.028201062
0.024876457 -0.06249108 0.023823617 -0.051287014 -0.008486212 0.22711267 0.106583044 0.04301287
0.0143335005 0.1596266 0.016639508 0.14778902 0.0047814716 -0.07681609 0.36219186 0.041021977

fc2.bias f4 [64]
00000000: 92f2 a1bb a775 b33c 344a 813d d8a6 4a3d
00000010: b8e4 073d 8496 2d3b ee9e 323c 5739 a13c
00000020: 0178 b6bc c1df eb3c c9ae d1ba 8e54 253d
00000030: 3493 413d bd1f cc3c c04a 8b3c fab9 833d
00000040: 36c8 773d 1f25 123d 7615 96bb ed8e 923d
00000050: 5e94 483d 5e44 353c a7aa 8f3d 38c9 333d
00000060: 1bf5 3e3d aa4f b73d b6c9 103d 5250 013d
00000070: dd9e 933d 6812 6a3d cca4 d4bc df67 b53c
00000080: 828e 073c 3012 ef3d 9494 2c3d e54f ae3d
00000090: 97a5 313d 1ff9 b83c 9158 c83d cfa0 533d
000000a0: 1781 9b3d a875 d43c 3952 ad3c 8a0e f83b
000000b0: e73c e5bc a38c 183d 0560 c23d e7cf 2d3d
000000c0: 8217 0c3d 9a00 993d cbe8 e63c 26a8 473d
000000d0: 7eff 9f3d 6492 1f3d 7eac 7c3d 6705 833c
000000e0: 4ca8 b53c 3c56 a4bc a0c6 3e3d 9776 813d
000000f0: 4e78 633b 8e31 bd3c 9971 8b3d 3f6b 193d
-0.0049422467 0.021906687 0.06312981 0.04947552 0.033177108 0.002648742 0.01090215 0.019680662
-0.02227402 0.028793218 -0.0015997525 0.04036384 0.047259524 0.024917478 0.017003417 0.064319566
0.06049367 0.035679933 -0.004580195 0.07156167 0.04896962 0.011063663 0.07014971 0.04389307
0.04662047 0.089507416 0.035348617 0.03157074 0.07208035 0.05714646 -0.025957488 0.022144256
0.008273723 0.11673391 0.042133883 0.085113324 0.04337081 0.022579728 0.09782518 0.05166703
0.07592981 0.02593501 0.02115737 0.0075700926 -0.027983142 0.037243497 0.094909705 0.0424346
0.034202106 0.07470818 0.028187176 0.048744343 0.07812403 0.03895797 0.06168794 0.015993787
0.022174977 -0.020060651 0.046576142 0.06321447 0.0034709158 0.023094919 0.068087764 0.037455793

fc3.weight f4 [32, 64]
00000000: 1c18 f6bd 549d 7b3e 852f 0a3f a12a 37bd
00000010: 5bff e53c 3d15 ab3e 91fd ebbd 3601 f3bb
00000020: fcd1 aebe 84c7 003f d543 d43d 4b58 78bb
00000030: d517 423c f3e1 4d3e e49b 063e 0957 3a3e
00000040: c67d 233c 8f64 92be 0b25 283d 17a9 353e
00000050: c377 473e d25a cc3e 52b1 93bc edd5 973e
00000060: c434 97bd ae2f 70bd ce4b 523e 5a54 9b3e
00000070: 1ce8 3dbe d09e 42bd 721f b6bd 9820 ca3b
00000080: 49a2 a7bd 2510 4e3e ab8b 13be 0956 2dbd
00000090: cc59 a03e 035c 71be c3c0 2a3d bb60 3a3c
000000a0: f6fe cc3d f8e0 6b3e 0a16 be3b 5ffd 93bc
000000b0: 013d 183d e662 27bd 2630 ebbb 6a34 973d
000000c0: 58c9 aabe 7b08 5c3c 34fb f33e 8301 0d3f
000000d0: 29c2 67bd e11c c6bb b430 e8bd ffa7 a2bc
000000e0: 3bfb c9bc d1f8 a03e fd79 c63d 5872 95bd
000000f0: 9550 b03b 633e 123e 07f9 e83d c775 373d
00000100: a034 203e 6624 193e a001 153a 0bf7 7ebe
00000110: c8bc 17be 65cb b03e a5e7 bfbc 0632 35bd
00000120: 1aca d13d 7261 663d e818 3c3b ec72 87bd
00000130: 0e4c febc 171b 723d 5050 823e 5f42 efbd
00000140: ead3 95be 0fe7 b53d 205c aebb a649 f83d
00000150: a651 3d3e 36fa 1e3d 3234 34be 5fdd 40be
00000160: 94b6 4c3d bdec 77bd 5300 d13e aed6 543e
00000170: 018c 753d 1f34 3bbd a669 ae3e 295e 203e
00000180: 4fad 013e 8154 fcbd 6685 143d b935 f6bc
00000190: abdd aa3d c4c5 2f3e 72db 643d 79b4 37bc
000001a0: f59b 203e 3381 c8bd ceaf ebbd 0c52 803e
000001b0: 633b 373e cf8a 6cbe 7635 1ebe 8109 003f
000001c0: 5cc2 383d 37f9 0fbc 3fc0 88bd cfba 21bd
000001d0: a63d 15be 89e8 2a3d 9f74 2c3e 9f24 593e
000001e0: 7db8 e63e 762a 093d 7e64 91bd c4f7 7a3e
000001f0: 3da2 dbbd e659 473e a6dc c13e 1e14 a6be
00000200: 70ac d23d 01c6 143c 2633 40bd b5be e83c
00000210: f35c f4bc a077 ffbd 1cf3 68bd 670d da3e
00000220: 5715 1e3e 853a 60bb 69fb 99bd 7dc8 8c3e
00000230: 9404 173d 5249 ae3d 1317 acbe e7a9 e63b
00000240: dea7 ffbc e64a 2b3e b639 f8bd 3e76 3b3d
00000250: 9920 12bd f8be 85bb a429 3e3e 0e4b 83bd
00000260: 8bba 413d 601f 013f 23cc 36bd a3c7 f0bc
00000270: db27 153f 376c 20be c3bf 34bb 3db3 a4bd
00000280: ae5c efbd 3ed5 2b3d 1967 443d 0892 24bd
00000290: 0f49 8dbc 0078 8a3e 3ef2 073f b361 6f3d
000002a0: a5a7 5fbb 2192 6cbe 2c29 083f c3bd a7bd
000002b0: e320 623c f354 483e 0a42 ed3c b9bf 593d
000002c0: 0d69 423e 3c03 003f 2508 94bd 11ff e2bd
000002d0: 2dd5 1e3d a910 e33e 288c 0bbc 037d a1be
000002e0: f7d2 4cbb f391 94be 04cd ae3c 45d4 d73e
000002f0: 9726 783d 6158 76be 2409 5cbd 2b00 a03d
00000300: 5959 d0bd deca 7b3e 34b0 b8bd eb92 843e
00000310: 53eb bc3e ed17 d0bc adc8 183e e1b6 0c3e
00000320: 2eb7 3a3e bd87 2cbe 3625 173f 5ed3 e6bc
00000330: c067 f1bc 39a8 a9be 396f 0abe 2aa8 593e
00000340: a979 083f 6581 d73c 21e5 be3e fcf4 3e3e
00000350: 1ff9 26bd 4b2f 18be 92c6 353e 9a02 3e3d
00000360: 9dc4 aa3d 96c7 963d de52 52be 889a 30be
00000370: 88d6 573d 59a8 8a3e d4c1 94bd 4cde 833e
00000380: 076b 1dbd e040 ae3d 000a 403e 7592 db3d
00000390: 1c64 53be 7938 6e3d e94a 00bc cdb0 b43b
000003a0: c066 96be e424 b53d 3740 453b 02ae 07be
000003b0: 3611 413e e061 db3e 9f20 963e fe87 0bbd
000003c0: 0c16 3e3e 2696 7cbd 9bb5 e73b d9e8 7abd
000003d0: 5c1e 043e f269 4ebd 483e 333e 6037 953d
000003e0: d229 ddbd b746 d73d 456e adbd dd07 a1bd
000003f0: 9c18 5b3e 04b6 53bc 69ed 323d 2a3a 493d
-0.12016317 0.24571735 0.5397876 -0.04471839 0.028075865 0.3341464 -0.11522973 -0.007415916
-0.3414458 0.50304437 0.103645004 -0.0037894424 0.011846502 0.20105724 0.13145405 0.18197264
0.009978717 -0.28592345 0.041050952 0.17740284 0.19479279 0.3991304 -0.018028889 0.296554
-0.07383111 -0.05863922 0.2053673 0.30337793 -0.18545574 -0.047514737 -0.088927165 0.0061684363
-0.0818525 0.20123346 -0.14408748 -0.042318378 0.3131851 -0.23570256 0.04168774 0.011375601
0.100095674 0.23035038 0.005800967 -0.018065153 0.037167553 -0.0408658 -0.0071773706 0.07383044
-0.33356738 0.013429756 0.4765259 0.5508043 -0.05658165 -0.006045923 -0.113374144 -0.019855497
-0.024655929 0.31439832 0.09691236 -0.072972 0.0053807 0.14281611 0.11375623 0.044790056
0.15645075 0.14955291 0.0005684141 -0.24898927 -0.14818108 0.34530178 -0.023425886 -0.04423716
0.10243626 0.056245275 0.0028701369 -0.066137165 -0.031042125 0.059107866 0.254519 -0.11682581
-0.2926324 0.088819616 -0.0053210407 0.12123422 0.18488178 0.03881284 -0.17598036 -0.18834446
0.049978808 -0.060528506 0.4082056 0.20785019 0.05994797 -0.045704003 0.34064978 0.15660919
0.12663768 -0.12320805 0.03626003 -0.030054914 0.08343061 0.17165285 0.05587334 -0.011212462
0.15684493 -0.09790268 -0.115081415 0.25062597 0.17893748 -0.23099826 -0.15450081 0.500145
0.04510723 -0.008787445 -0.06677293 -0.039484795 -0.14574298 0.04172567 0.16841362 0.21205376
0.45062628 0.03348776 -0.070992455 0.24508578 -0.10724304 0.19467887 0.37863654 -0.32437223
0.10286796 0.009080411 -0.04692378 0.028411249 -0.029829478 -0.124739885 -0.056872472 0.4258835
0.15437828 -0.0034214568 -0.07518656 0.2749671 0.0368696 0.085100785 -0.33611354 0.007039297
-0.031207975 0.1672779 -0.121203825 0.04576706 -0.03567562 -0.004081603 0.18570572 -0.064108
0.047297042 0.504385 -0.044628274 -0.02939207 0.5826394 -0.1566628 -0.002758012 -0.080419995
-0.11687599 0.04195141 0.047949884 -0.04017833 -0.017246751 0.27044678 0.5310401 0.058442783
-0.0034127024 -0.23102619 0.53187823 -0.08190491 0.013801786 0.19563656 0.028962154 0.053161357
0.18985386 0.50004935 -0.07228116 -0.11083806 0.03877752 0.44348648 -0.008517303 -0.3154069
-0.0031253675 -0.290176 0.021337993 0.42154136 0.060583677 -0.24057151 -0.053719655 0.07812532
-0.10173292 0.24589106 -0.09017983 0.2589334 0.36898288 -0.025402034 0.14920302 0.13741638
0.1823394 -0.16848655 0.59041154 -0.02817696 -0.029468417 -0.33136156 -0.1351899 0.21255556
0.5331064 0.026306817 0.37284186 0.18648142 -0.040764924 -0.14861791 0.1775153 0.0463892
0.08338282 0.07362287 -0.20539424 -0.17246449 0.052694827 0.27081564 -0.07263532 0.25755537
-0.038432147 0.08508468 0.18753815 0.10721294 -0.20643657 0.058159325 -0.00783036 0.0055142404
-0.29375267 0.08844927 0.003009809 -0.13249972 0.18854222 0.4284811 0.29321763 -0.03406524
0.18563098 -0.06166663 0.0070712096 -0.061257217 0.12902206 -0.050394006 0.17504227 0.072859526
-0.10798992 0.10511535 -0.08468298 -0.07862828 0.21396106 -0.012921814 0.043683443 0.049127735

fc3.bias f4 [32]
00000000: c933 ac3d c4b0 ab3c 2279 953e e975 d5bb
00000010: d8fe 283e e1d3 0d3e 8534 393e 8c2b 913c
00000020: a80c 4c3e 4a3c 873d 2be6 d73d 2b50 f03c
00000030: 93fd 3dbc cb9b c93d 0d69 33bd 3088 553e
00000040: f15a 283e 3150 103e ec87 913e 9384 503e
00000050: c747 a23e 97a3 2e3e 01be 8e3e cc0e c63d
00000060: abda ad3c 7235 453e 3702 7a3e 7a56 803d
00000070: bb32 083d a0ee 593e 4e0a 3c3e 264f 6f3e
0.08408315 0.020958312 0.2919398 -0.0065143 0.16503465 0.13850357 0.18086441 0.01772096
0.19926703 0.06603296 0.10541948 0.029335102 -0.011596101 0.09844168 -0.043801356 0.20852733
0.16440941 0.1409309 0.28424013 0.20363073 0.31695387 0.17054592 0.27879336 0.09670791
0.021222433 0.19258669 0.24414907 0.06266494 0.033251505 0.21282434 0.18363306 0.23370036

fc4.weight f4 [24, 32]
00000000: 5b5c 8dbf 25dd 6abe 3e54 a33d 60a0 1ebd
00000010: 855f 01bf 983f 33bf 9583 d93d 61ac 873d
00000020: 0201 a9be 3b78 2dbe 8932 c73d 47b2 87bf
00000030: 8a86 abbe ef50 37bd 7d00 45bf fc4a 24bf
00000040: d3f7 70be 197b f7be 6a43 09bf d408 ecbe
00000050: 3131 14bf 4656 b33d 9ebd 79be 48ff 3e3d
00000060: 87a6 33bf 0541 50bf ae95 d93d 2aaa d7bd
00000070: 242e 2fbf 71cb bcbe c061 4c3d 5504 153e
00000080: eabc 4a3d 8bdf 2b3e 9014 88bf 835f 1a3e
00000090: 39b6 2e3e 97e5 af3d 5c98 44bf f07d fb3d
000000a0: 0955 083e 2fca 713e ebad 05bf be4a 353e
000000b0: 11a1 423e 4f86 c53d bb76 9e3d 9383 cf3c
000000c0: 5da6 553e c2aa ee3d 2d8e 92be a6e4 593d
000000d0: 923d e4be e2a0 9ebf 9fbb c73c dd3c 2a3e
000000e0: c81b 113e f484 3fbe 6712 21bf 3ed1 cb3d
000000f0: fac5 a53d 171b 263e 6b73 bf3d 722a 71bf
00000100: ad49 e7be bb8a 9cbe 41e7 993d ad9d 783d
00000110: 5302 a7bd 7072 44bf 798d d93d 15a0 bbbc
00000120: cf26 0cbf bd03 b6be 7e01 163e 5d96 d7be
00000130: f892 3cbe 21a0 113e e951 25bd 6c66 54be
00000140: f3a0 c6be fa35 10bf 1d81 40bd 18e7 e0be
00000150: 0939 dabd 8166 8c3d dbb6 2bbf ccd3 6cbe
00000160: d759 e4bc 3eb5 0cbd 0b5e 073e 4d5b a4be
00000170: c6fe 1bbf dd3c 2bbf cd33 283d 88df 053e
00000180: b614 4ebe a8ab 78be a9cd 33be 5bfd 313e
00000190: 5877 393e dc11 053e e793 97bd 9ccf cbbd
000001a0: 829b 213e 58b0 1b3e 6654 2bbe aca6 d3be
000001b0: e765 b0be ea20 2c3e 07fd 6ebe a3dc 0ebe
000001c0: 7593 423e 9ed9 093d 72da 4fbf 89c7 a9be
000001d0: 613c cfbc ca2c 9cbe 7b74 cd3c cf92 eabd
000001e0: fee7 9a3d 73be fabe 4c59 76be 1c12 af3d
000001f0: 5c5a f2be 7df0 043e 3e82 c43d 228e 63be
00000200: b75d ecbd f6c7 10be 54c0 a8be a92e 353e
00000210: 3851 463e fa0c 233e caa6 70bf ebb9 3fbf
00000220: 896c 393e e160 2fbf 4043 14bf 195a 2dbe
00000230: 85dc 5abf ba3a 81bd 649f 073d 3b43 363e
00000240: 2560 e4be bbf0 9cbe 09ce 683e 2b15 fd3d
00000250: 5b31 d53d 2117 99bc 6834 f5bd ff1f febe
00000260: 22fb a9be 0f08 633e 526e 15bf 51ee 153e
00000270: 0a43 22bd bba9 2d3e 31d3 fabe 3c1d 3dbf
00000280: 7820 8fbe a211 13bf a9f5 61be 0600 223d
00000290: 24df 243d 8526 383d 4da1 0fbf 31f0 65be
000002a0: e5d4 913d d2cd cdbe 49ea ccbe 9674 e7be
000002b0: 0bf3 f7be 7059 ffbb a610 cdbe af88 9e3d
000002c0: 6c14 5bbf 4410 a7be 50cb 223e 8d9c 8a3d
000002d0: a29e acbc a27d b6bd aba7 483e 81b2 343c
000002e0: 1c9a fabe 28bc ccbd 4ee5 0cbf 712d c13d
000002f0: 74b4 08bd dfcd 9c3d 1cec 41bf c9a6 94be
00000300: f78a 793d 805a 593e a868 5ebd cc73 57be
00000310: 0131 acbd 61ab a6be b6ab e0bd 7754 f93d
00000320: 4146 f5bd 593a e7bc d8b1 d5bc 3443 2e3e
00000330: cfdc 4b3e 71d4 01be 74ec 3c3d 3bfd 6f3d
00000340: 63a4 2e3d c18b b7bd 04ef 303e b464 753c
00000350: c431 b3bc 8ed6 20bd cf21 11be 37b5 3b3e
00000360: 33b5 a23d bfce e13d d534 cd3d b991 05be
00000370: 3508 943d 175e 42ba 815f 01ba 7577 b53c
00000380: 58cd b3bc 2ecf 8cbe df34 acbc f430 183e
00000390: b98f e33d 3bf4 ad3d b9c5 deba 18e1 5cbd
000003a0: 9d5d c43d e9d0 f7bc f926 2c3d 28db 54be
000003b0: d768 67be 49e8 083e f57d 013d 9ee2 4d3d
000003c0: d804 0a3c df7a 253d 5304 38be 5208 a1be
000003d0: 5846 b83d d2d7 3fbd abae 243d 929b a5bd
000003e0: 6042 f83b cc36 fbbc f756 6fbc 8955 2d3d
000003f0: 9c07 85bd fa2b 903d b8c6 b8ba e53b 1c3b
-1.104381 -0.22935922 0.07975052 -0.038727164 -0.50536376 -0.7001891 0.106208004 0.066246755
-0.3300858 -0.16940396 0.09726436 -1.0601281 -0.33501083 -0.04475492 -0.7695387 -0.6417692
-0.23532037 -0.48336104 -0.5361849 -0.46100485 -0.5788756 0.0875669 -0.2438874 0.046630174
-0.70175976 -0.8134921 0.10624252 -0.10530503 -0.6842978 -0.36873963 0.04989791 0.14552434
0.04949657 0.16784494 -1.0631275 0.15075497 0.170617 0.08588713 -0.7679498 0.1227988
0.13313688 0.23612283 -0.522185 0.17704293 0.19006754 0.09644758 0.0773749 0.025331294
0.20864244 0.11653663 -0.28624097 0.05319657 -0.44578224 -1.2392848 0.024381457 0.1662478
0.14170754 -0.18703061 -0.62918705 0.09952019 0.08094402 0.16221271 0.09348186 -0.9420539
-0.45173398 -0.30574593 0.07514811 0.060697246 -0.0815474 -0.7673712 0.10622687 -0.022903481
-0.5474672 -0.35549727 0.14649007 -0.42106906 -0.18415439 0.1422124 -0.04036132 -0.20742196
-0.3879467 -0.5633236 -0.046998132 -0.4392631 -0.1065541 0.068554886 -0.6707589 -0.23127669
-0.02787487 -0.034352534 0.13219468 -0.32100907 -0.6093563 -0.66889745 0.041065026 0.13073552
-0.20125088 -0.24284232 -0.17558922 0.17381804 0.18111932 0.12995094 -0.07401257 -0.09951708
0.15781978 0.15203989 -0.16731414 -0.41338098 -0.34452745 0.1680943 -0.2333871 -0.13951354
0.19001563 0.0336548 -0.81192696 -0.33160046 -0.025297346 -0.3050292 0.025079956 -0.11453783
0.0756378 -0.48973426 -0.24057502 0.08548376 -0.47334564 0.12982364 0.09595154 -0.22222188
-0.11541312 -0.14138779 -0.32959235 0.1769358 0.1936692 0.15922919 -0.940045 -0.74893063
0.18107809 -0.685072 -0.57915115 -0.16928901 -0.85492736 -0.06310029 0.03311099 0.17799084
-0.44604602 -0.30652413 0.22734846 0.12357553 0.104098044 -0.018687787 -0.11972886 -0.49633786
-0.33199412 0.22171043 -0.5837146 0.14641692 -0.039614715 0.16959278 -0.4898925 -0.73872733
-0.2795446 -0.5744878 -0.22066368 0.039550804 0.040251866 0.04495861 -0.561055 -0.22454907
0.071206845 -0.4019609 -0.40022495 -0.45206136 -0.48427615 -0.007792644 -0.40051764 0.07740914
-0.85578036 -0.32629597 0.1589787 0.06768141 -0.021071736 -0.08910681 0.1959521 0.011028887
-0.489457 -0.099968255 -0.5503739 0.094324954 -0.03337522 0.07656454 -0.757509 -0.29033497
0.060923543 0.2122593 -0.054299027 -0.21040267 -0.08407784 -0.32552627 -0.10970251 0.121743135
-0.119762905 -0.028226065 -0.02608578 0.17017823 0.1990845 -0.12678696 0.046123937 0.05859111
0.04263724 -0.08962203 0.17278677 0.014977623 -0.021874316 -0.039267115 -0.14173053 0.18330847
0.07944717 0.11025762 0.100198425 -0.1304387 0.07228128 -0.0007414533 -0.00049351907 0.022151688
-0.021948501 -0.27501816 -0.021021305 0.14862424 0.11111397 0.08493849 -0.0016996182 -0.053925604
0.09588168 -0.030250983 0.042029355 -0.20786726 -0.22598587 0.1336986 0.031614263 0.050264947
0.008424006 0.040400382 -0.179704 -0.3145166 0.08997792 -0.04683668 0.04020564 -0.08086313
0.007576272 -0.030665778 -0.014608136 0.0423179 -0.06495592 0.07039638 -0.0014097309 0.002383941

fc4.bias f4 [24]
00000000: 5004 05be 5e22 07bd 45cd 703e 5c4e dc3e
00000010: e528 523d 0b90 f33d 9eb5 babc 0217 203d
00000020: b2b5 4e3e 157b 2abe dde3 db3c d0e1 8fbd
00000030: 2f4f 223d d643 4fbe 854b a03d 0300 c53d
00000040: 9167 b63d f38e 62be 0b19 6b3c d8b2 7dbe
00000050: 6de9 23be 1759 ebbd cbb5 98be cb47 21bd
-0.12989926 -0.03299176 0.23515804 0.43028533 0.05130853 0.118927084 -0.02279168 0.039084442
0.20186499 -0.16648515 0.026842052 -0.07025492 0.039626297 -0.20240721 0.07826904 0.09619143
0.089064725 -0.22124843 0.014349232 -0.24775255 -0.16007014 -0.11491602 -0.29826197 -0.039375108

exp_avg f4 [128, 240]
00000000: 0000 0000 0000 0000 0000 0000 0000 0000
00000010: 0000 0000 0000 0000 0000 0000 0000 0000
00000020: 0000 0000 0000 0000 0000 0000 0000 0000
00000030: 0000 0000 0000 0000 0000 0000 0000 0000
00000040: 0000 0000 0000 0000 0000 0000 0000 0000
00000050: 0000 0000 0000 0000 0000 0000 0000 0000
00000060: 0000 0000 0000 0000 0000 0000 0000 0000
00000070: 0000 0000 0000 0000 0000 0000 0000 0000
00000080: 0000 0000 0000 0000 0000 0000 0000 0000
00000090: 0000 0000 0000 0000 0000 0000 0000 0000
000000a0: 0000 0000 0000 0000 0000 0000 0000 0000
000000b0: 0000 0000 0000 0000 0000 0000 0000 0000
000000c0: 0000 0000 0000 0000 0000 0000 0000 0000
000000d0: 0000 0000 0000 0000 0000 0000 0000 0000
000000e0: 0000 0000 0000 0000 0000 0000 0000 0000
000000f0: 0000 0000 0000 0000 0000 0000 0000 0000
00000100: 0000 0000 0000 0000 0000 0000 0000 0000
00000110: 0000 0000 0000 0000 0000 0000 0000 0000
00000120: 0000 0000 0000 0000 0000 0000 0000 0000
00000130: 0000 0000 0000 0000 0000 0000 0000 0000
00000140: 0000 0000 0000 0000 0000 0000 0000 0000
00000150: 0000 0000 0000 0000 0000 0000 0000 0000
00000160: 0000 0000 0000 0000 0000 0000 0000 0000
00000170: 0000 0000 0000 0000 0000 0000 0000 0000
00000180: 0000 0000 0000 0000 0000 0000 0000 0000
00000190: 0000 0000 0000 0000 0000 0000 0000 0000
000001a0: 0000 0000 0000 0000 0000 0000 0000 0000
000001b0: 0000 0000 0000 0000 0000 0000 0000 0000
000001c0: 0000 0000 0000 0000 0000 0000 0000 0000
000001d0: 0000 0000 0000 0000 0000 0000 0000 0000
000001e0: 0000 0000 0000 0000 0000 0000 0000 0000
000001f0: 0000 0000 0000 0000 0000 0000 0000 0000
00000200: 0000 0000 0000 0000 0000 0000 0000 0000
00000210: 0000 0000 0000 0000 0000 0000 0000 0000
00000220: 0000 0000 0000 0000 0000 0000 0000 0000
00000230: 0000 0000 0000 0000 0000 0000 0000 0000
00000240: 0000 0000 0000 0000 0000 0000 0000 0000
00000250: 0000 0000 0000 0000 0000 0000 0000 0000
00000260: 0000 0000 0000 0000 0000 0000 0000 0000
00000270: 0000 0000 0000 0000 0000 0000 0000 0000
00000280: 0000 0000 0000 0000 0000 0000 0000 0000
00000290: 0000 0000 0000 0000 0000 0000 0000 0000
000002a0: 0000 0000 0000 0000 0000 0000 0000 0000
000002b0: 0000 0000 0000 0000 0000 0000 0000 0000
000002c0: 0000 0000 0000 0000 0000 0000 0000 0000
000002d0: 0000 0000 0000 0000 0000 0000 0000 0000
000002e0: 0000 0000 0000 0000 0000 0000 0000 0000
000002f0: 0000 0000 0000 0000 0000 0000 0000 0000
00000300: 0000 0000 0000 0000 0000 0000 0000 0000
00000310: 0000 0000 0000 0000 0000 0000 0000 0000
00000320: 0000 0000 0000 0000 0000 0000 0000 0000
00000330: 0000 0000 0000 0000 0000 0000 0000 0000
00000340: 0000 0000 0000 0000 0000 0000 0000 0000
00000350: 0000 0000 0000 0000 0000 0000 0000 0000
00000360: 0000 0000 0000 0000 0000 0000 0000 0000
00000370: 0000 0000 0000 0000 0000 0000 0000 0000
00000380: 0000 0000 0000 0000 0000 0000 0000 0000
00000390: 0000 0000 0000 0000 0000 0000 0000 0000
000003a0: 0000 0000 0000 0000 0000 0000 0000 0000
000003b0: 0000 0000 0000 0000 0000 0000 0000 0000
000003c0: b630 65bc 98ae f9bb c6cb 58bc d602 ffbb
000003d0: be92 01bc 5316 b5bb 3cfc fabb 4933 92bb
000003e0: a89e 11bc b559 f8bb d6e1 d0bb 0a8a 25bc
000003f0: 3e82 3bbc 0a7f f7bb 1666 e2bb 6d00 1ebc
0.0 0.0 0.0 0.0 0.0 0.0 0.0 0.0
0.0 0.0 0.0 0.0 0.0 0.0 0.0 0.0
0.0 0.0 0.0 0.0 0.0 0.0 0.0 0.0
0.0 0.0 0.0 0.0 0.0 0.0 0.0 0.0
0.0 0.0 0.0 0.0 0.0 0.0 0.0 0.0
0.0 0.0 0.0 0.0 0.0 0.0 0.0 0.0
0.0 0.0 0.0 0.0 0.0 0.0 0.0 0.0
0.0 0.0 0.0 0.0 0.0 0.0 0.0 0.0
0.0 0.0 0.0 0.0 0.0 0.0 0.0 0.0
0.0 0.0 0.0 0.0 0.0 0.0 0.0 0.0
0.0 0.0 0.0 0.0 0.0 0.0 0.0 0.0
0.0 0.0 0.0 0.0 0.0 0.0 0.0 0.0
0.0 0.0 0.0 0.0 0.0 0.0 0.0 0.0
0.0 0.0 0.0 0.0 0.0 0.0 0.0 0.0
0.0 0.0 0.0 0.0 0.0 0.0 0.0 0.0
0.0 0.0 0.0 0.0 0.0 0.0 0.0 0.0
0.0 0.0 0.0 0.0 0.0 0.0 0.0 0.0
0.0 0.0 0.0 0.0 0.0 0.0 0.0 0.0
0.0 0.0 0.0 0.0 0.0 0.0 0.0 0.0
0.0 0.0 0.0 0.0 0.0 0.0 0.0 0.0
0.0 0.0 0.0 0.0 0.0 0.0 0.0 0.0
0.0 0.0 0.0 0.0 0.0 0.0 0.0 0.0
0.0 0.0 0.0 0.0 0.0 0.0 0.0 0.0
0.0 0.0 0.0 0.0 0.0 0.0 0.0 0.0
0.0 0.0 0.0 0.0 0.0 0.0 0.0 0.0
0.0 0.0 0.0 0.0 0.0 0.0 0.0 0.0
0.0 0.0 0.0 0.0 0.0 0.0 0.0 0.0
0.0 0.0 0.0 0.0 0.0 0.0 0.0 0.0
0.0 0.0 0.0 0.0 0.0 0.0 0.0 0.0
0.0 0.0 0.0 0.0 0.0 0.0 0.0 0.0
-0.013988664 -0.00761969 -0.013232177 -0.0077823205 -0.007908521 -0.005526343 -0.007659463 -0.00446168
-0.008887924 -0.0075790533 -0.006374578 -0.010103712 -0.011444626 -0.007552986 -0.0069091422 -0.009643656

exp_avg_sq f4 [128, 240]
00000000: 0000 0000 0000 0000 0000 0000 0000 0000
00000010: 0000 0000 0000 0000 0000 0000 0000 0000
00000020: 0000 0000 0000 0000 0000 0000 0000 0000
00000030: 0000 0000 0000 0000 0000 0000 0000 0000
00000040: 0000 0000 0000 0000 0000 0000 0000 0000
00000050: 0000 0000 0000 0000 0000 0000 0000 0000
00000060: 0000 0000 0000 0000 0000 0000 0000 0000
00000070: 0000 0000 0000 0000 0000 0000 0000 0000
00000080: 0000 0000 0000 0000 0000 0000 0000 0000
00000090: 0000 0000 0000 0000 0000 0000 0000 0000
000000a0: 0000 0000 0000 0000 0000 0000 0000 0000
000000b0: 0000 0000 0000 0000 0000 0000 0000 0000
000000c0: 0000 0000 0000 0000 0000 0000 0000 0000
000000d0: 0000 0000 0000 0000 0000 0000 0000 0000
000000e0: 0000 0000 0000 0000 0000 0000 0000 0000
000000f0: 0000 0000 0000 0000 0000 0000 0000 0000
00000100: 0000 0000 0000 0000 0000 0000 0000 0000
00000110: 0000 0000 0000 0000 0000 0000 0000 0000
00000120: 0000 0000 0000 0000 0000 0000 0000 0000
00000130: 0000 0000 0000 0000 0000 0000 0000 0000
00000140: 0000 0000 0000 0000 0000 0000 0000 0000
00000150: 0000 0000 0000 0000 0000 0000 0000 0000
00000160: 0000 0000 0000 0000 0000 0000 0000 0000
00000170: 0000 0000 0000 0000 0000 0000 0000 0000
00000180: 0000 0000 0000 0000 0000 0000 0000 0000
00000190: 0000 0000 0000 0000 0000 0000 0000 0000
000001a0: 0000 0000 0000 0000 0000 0000 0000 0000
000001b0: 0000 0000 0000 0000 0000 0000 0000 0000
000001c0: 0000 0000 0000 0000 0000 0000 0000 0000
000001d0: 0000 0000 0000 0000 0000 0000 0000 0000
000001e0: 0000 0000 0000 0000 0000 0000 0000 0000
000001f0: 0000 0000 0000 0000 0000 0000 0000 0000
00000200: 0000 0000 0000 0000 0000 0000 0000 0000
00000210: 0000 0000 0000 0000 0000 0000 0000 0000
00000220: 0000 0000 0000 0000 0000 0000 0000 0000
00000230: 0000 0000 0000 0000 0000 0000 0000 0000
00000240: 0000 0000 0000 0000 0000 0000 0000 0000
00000250: 0000 0000 0000 0000 0000 0000 0000 0000
00000260: 0000 0000 0000 0000 0000 0000 0000 0000
00000270: 0000 0000 0000 0000 0000 0000 0000 0000
00000280: 0000 0000 0000 0000 0000 0000 0000 0000
00000290: 0000 0000 0000 0000 0000 0000 0000 0000
000002a0: 0000 0000 0000 0000 0000 0000 0000 0000
000002b0: 0000 0000 0000 0000 0000 0000 0000 0000
000002c0: 0000 0000 0000 0000 0000 0000 0000 0000
000002d0: 0000 0000 0000 0000 0000 0000 0000 0000
000002e0: 0000 0000 0000 0000 0000 0000 0000 0000
000002f0: 0000 0000 0000 0000 0000 0000 0000 0000
00000300: 0000 0000 0000 0000 0000 0000 0000 0000
00000310: 0000 0000 0000 0000 0000 0000 0000 0000
00000320: 0000 0000 0000 0000 0000 0000 0000 0000
00000330: 0000 0000 0000 0000 0000 0000 0000 0000
00000340: 0000 0000 0000 0000 0000 0000 0000 0000
00000350: 0000 0000 0000 0000 0000 0000 0000 0000
00000360: 0000 0000 0000 0000 0000 0000 0000 0000
00000370: 0000 0000 0000 0000 0000 0000 0000 0000
00000380: 0000 0000 0000 0000 0000 0000 0000 0000
00000390: 0000 0000 0000 0000 0000 0000 0000 0000
000003a0: 0000 0000 0000 0000 0000 0000 0000 0000
000003b0: 0000 0000 0000 0000 0000 0000 0000 0000
000003c0: 3fd1 173b 26fc 993a 7db3 c63a a105 853a
000003d0: 1bc4 0d3b 429b b53a 38f9 4e3a f846 133a
000003e0: 3c2f ca3a d363 953a 1a33 473a 5535 cf3a
000003f0: f67c 1f3b bb53 413a c068 813a dfd1 a73a
0.0 0.0 0.0 0.0 0.0 0.0 0.0 0.0
0.0 0.0 0.0 0.0 0.0 0.0 0.0 0.0
0.0 0.0 0.0 0.0 0.0 0.0 0.0 0.0
0.0 0.0 0.0 0.0 0.0 0.0 0.0 0.0
0.0 0.0 0.0 0.0 0.0 0.0 0.0 0.0
0.0 0.0 0.0 0.0 0.0 0.0 0.0 0.0
0.0 0.0 0.0 0.0 0.0 0.0 0.0 0.0
0.0 0.0 0.0 0.0 0.0 0.0 0.0 0.0
0.0 0.0 0.0 0.0 0.0 0.0 0.0 0.0
0.0 0.0 0.0 0.0 0.0 0.0 0.0 0.0
0.0 0.0 0.0 0.0 0.0 0.0 0.0 0.0
0.0 0.0 0.0 0.0 0.0 0.0 0.0 0.0
0.0 0.0 0.0 0.0 0.0 0.0 0.0 0.0
0.0 0.0 0.0 0.0 0.0 0.0 0.0 0.0
0.0 0.0 0.0 0.0 0.0 0.0 0.0 0.0
0.0 0.0 0.0 0.0 0.0 0.0 0.0 0.0
0.0 0.0 0.0 0.0 0.0 0.0 0.0 0.0
0.0 0.0 0.0 0.0 0.0 0.0 0.0 0.0
0.0 0.0 0.0 0.0 0.0 0.0 0.0 0.0
0.0 0.0 0.0 0.0 0.0 0.0 0.0 0.0
0.0 0.0 0.0 0.0 0.0 0.0 0.0 0.0
0.0 0.0 0.0 0.0 0.0 0.0 0.0 0.0
0.0 0.0 0.0 0.0 0.0 0.0 0.0 0.0
0.0 0.0 0.0 0.0 0.0 0.0 0.0 0.0
0.0 0.0 0.0 0.0 0.0 0.0 0.0 0.0
0.0 0.0 0.0 0.0 0.0 0.0 0.0 0.0
0.0 0.0 0.0 0.0 0.0 0.0 0.0 0.0
0.0 0.0 0.0 0.0 0.0 0.0 0.0 0.0
0.0 0.0 0.0 0.0 0.0 0.0 0.0 0.0
0.0 0.0 0.0 0.0 0.0 0.0 0.0 0.0
0.0023165492 0.001174812 0.0015159693 0.0010148772 0.002163178 0.0013855475 0.0007895413 0.000561818
0.0015425454 0.0011397548 0.0007598862 0.0015808741 0.0024335957 0.00073748425 0.0009873137 0.0012803635

exp_avg f4 [128]
00000000: 0000 0000 9dab 8dbc f062 28ba f2d9 e3bb
00000010: 5a8c 13bb 0000 0000 1fd1 70bd 4857 e13c
00000020: e36d 66bc aef8 123b 2f4f 27ba 2c2e 66bb
00000030: 958f 04bc 268a 48bb 4409 4a3c 348e 803b
00000040: 9c54 0b3e 648f 9cbc 649b 08bc f1ec c9bb
00000050: 0000 0000 2f09 c7bb edce 813b 8678 983c
00000060: 15ec ad3c 8588 52bc 6a6c 67bb 0000 0000
00000070: 64cf e43b 0000 0000 0000 0000 0fbc 243b
00000080: 0000 0000 2148 06bc 9492 5bbc 0000 0000
00000090: 92a0 b43d efc8 b5bb 7f51 90bb 4085 2cbc
000000a0: 664f 86bb cac4 12bc a018 febb 996b 753c
000000b0: eb86 afbb 308e ac3a 0000 0000 0000 0000
000000c0: 0000 0000 003b efba 38ca b23a 89d3 d9bb
000000d0: 5dbb 83ba 0000 0000 6090 60b9 f4d0 eb3b
000000e0: 4c45 8d3a 0000 0000 71da d73b 3df2 9f3c
000000f0: 43e0 ebba a655 7bbd ead2 2cbc 732a 5b3b
00000100: 1814 85bc 58e3 3cba 0fdf d93c d94f 903b
00000110: 8cd9 db3d a6ef 1ebc 0a3c 293b d36c 77bc
00000120: 2082 d739 ffbd 433c 8bf5 013c 970d e4bb
00000130: 8897 813a 5fe4 3f3b 0000 0000 2f3c 19bb
00000140: 0000 0000 b4be f1bb 0000 0000 0000 0000
00000150: f364 dabb f7e7 43bc 0000 0000 d09b 17bb
00000160: 3588 713c 0000 0000 0000 0000 582f f6bb
00000170: 1531 fc3c 203d 4f3c c525 36bc e0e5 d33b
00000180: f0d1 3a3a 2407 6bbb 0000 0000 0000 0000
00000190: 36d0 d139 a547 69bb 0000 0000 6a62 f73c
000001a0: ac91 86b9 f037 dbb9 2b59 10bc 9a86 2fbc
000001b0: 0000 0000 ca1e d2bc 4783 86bc 5ff4 2e3b
000001c0: 02fb 2abc 1803 e23b 494c b4bb 0000 0000
000001d0: 78e0 ae39 6a26 ccbc 3dda ffbb 0dd5 533b
000001e0: 9c4a 7cbb 2382 a8ba 5ec3 b53b d1fe cbba
000001f0: 2905 053c 0000 0000 381d c13a c0c8 a9bb
0.0 -0.017293746 -0.0006423434 -0.0069534713 -0.0022514076 0.0 -0.058793183 0.02750744
-0.014064285 0.0022426057 -0.00063823437 -0.0035122735 -0.008090873 -0.003059992 0.012331311 0.003923202
0.13606495 -0.019111343 -0.008337829 -0.006162279 0.0 -0.006074093 0.003961435 0.018612158
0.021230737 -0.012849932 -0.0035312423 0.0 0.0069827307 0.0 0.0 0.0025136506
0.0 -0.008195908 -0.013401646 0.0 0.08819689 -0.005547635 -0.0044042463 -0.010529816
-0.0040988205 -0.008958051 -0.0077544004 0.014979267 -0.0053566596 0.0013164934 0.0 0.0
0.0 -0.0018251836 0.0013640588 -0.0066475314 -0.0010050345 0.0 -0.00021416089 0.00719654
0.0010778098 0.0 0.0065873195 0.019524688 -0.0017995912 -0.061360978 -0.010548333 0.003344205
-0.016244933 -0.0007205508 0.02659562 0.00440405 0.10734853 -0.009700691 0.002582314 -0.015101629
0.00041104946 0.011947154 0.007932077 -0.006959628 0.0009887079 0.0029280407 0.0 -0.002338182
0.0 -0.00737747 0.0 0.0 -0.006664866 -0.01195716 0.0 -0.0023133643
0.014741947 0.0 0.0 -0.007512968 0.030785123 0.012648851 -0.011117403 0.006466612
0.000712662 -0.003586241 0.0 0.0 0.00040018716 -0.0035595682 0.0 0.030198295
-0.00025667006 -0.00041812612 -0.008810322 -0.010713244 0.0 -0.025649447 -0.01642002 0.002669595
-0.0104358215 0.0068973415 -0.005502258 0.0 0.00033355108 -0.024920661 -0.0078079985 0.0032323033
-0.003849662 -0.0012856167 0.005546971 -0.0015563612 0.008118906 0.0 0.0014733439 -0.005181402

exp_avg_sq f4 [128]
00000000: 0000 0000 802c 753b 36b9 df3a e6dc 053b
00000010: 19b9 3b3b 0000 0000 3ab4 c93b 74d6 b13b
00000020: 5c5d 6a3b 8e8a 2b3b a742 a93b d94c fa3a
00000030: 89fc b13a c1fd f83a 7531 2d3b 8d58 213b
00000040: 7c08 4e3c ed1e 153b 825c a73b 0562 233b
00000050: 0000 0000 21df cf3a d592 fe3a be75 e93a
00000060: 5202 f93a ab88 403b 959a 103b 0000 0000
00000070: 1e27 e23a 0000 0000 0000 0000 c10b dc3a
00000080: 0000 0000 8724 853a 65d3 4a3b 0000 0000
00000090: 3bfc f43b b3e9 eb3a 79b9 5d3b a5a7 fe3a
000000a0: d513 7b3a 634f 063b b388 9f3b ece3 133b
000000b0: 98f8 b63a 3efa dc3b 0000 0000 0000 0000
000000c0: 0000 0000 dba3 283b cea2 ee3a 89c6 063b
000000d0: 7955 d73a 0000 0000 66ee 5c3b d597 0f3b
000000e0: 582c 2b3b 0000 0000 b320 803b 3e1c 093b
000000f0: 7051 343b 0cdb d23a 14f6 a73a cdec 4b3b
00000100: ee3a 2e3b d3a3 a53a 4563 043b 48e5 b53a
00000110: 6b85 1a3c 7041 123c 3a79 8c3b 2aa8 af3b
00000120: 3ec0 0b3b 0b29 a53b e52c 063b c90d ae3a
00000130: bf9b 3f3b 0166 333b 0000 0000 d62d b63a
00000140: 0000 0000 36b9 d23a 0000 0000 0000 0000
00000150: 0abd 2a3b 21a2 bb3a 0000 0000 4c97 0a3b
00000160: d3b5 d23b 0000 0000 0000 0000 b176 1d3b
00000170: e13c 413b 34de d53a ce05 d43a 9463 db3a
00000180: 3857 3e3b a0e4 b23a 0000 0000 0000 0000
00000190: c34e e43b 051c f63a 0000 0000 b1ae 1f3b
000001a0: 9bf2 093b 0732 b33a c189 3a3b 0adb da3b
000001b0: 0000 0000 f648 063c 5d25 b73b 0123 293b
000001c0: 3265 4c3b d0e3 2c3b 2e01 703b 0000 0000
000001d0: 268f 0b3b 3b6b e93b 24ce 073b 80be 543b
000001e0: 4ae1 bf3a 800e 4b3b 99c8 103b 9d2f 903b
000001f0: c5c8 1b3b 0000 0000 b128 483b 7309 073b
0.0 0.0037410557 0.0017068747 0.0020425855 0.0028644262 0.0 0.006155518 0.005427176
0.0035761213 0.0026175114 0.0051654163 0.0019096389 0.001357929 0.0018996523 0.0026427184 0.002461943
0.012575265 0.002275403 0.0051074633 0.002493025 0.0 0.0015859344 0.0019422421 0.0017811579
0.0018997884 0.0029378335 0.0022064794 0.0 0.001725409 0.0 0.0 0.0016788171
0.0 0.0010157981 0.0030948755 0.0 0.0074763573 0.0017998725 0.0033832474 0.0019428624
0.00095778453 0.0020494096 0.0048685907 0.0022566272 0.0013959585 0.0067436984 0.0 0.0
0.0 0.002573243 0.0018206479 0.0020565114 0.0016428671 0.0 0.0033711432 0.0021910567
0.002611896 0.0 0.003910148 0.0020921375 0.002751436 0.001608701 0.0012814426 0.0031116486
0.0026585418 0.0012637324 0.002020077 0.0013877535 0.009431223 0.008926734 0.0042869123 0.005360623
0.0021324302 0.005040293 0.0020473537 0.0013279255 0.002923712 0.0027374031 0.0 0.0013899158
0.0 0.0016076926 0.0 0.0 0.0026052617 0.0014315286 0.0 0.002114731
0.0064303665 0.0 0.0 0.0024027044 0.002948575 0.0016316832 0.0016176046 0.0016738051
0.0029043686 0.0013648458 0.0 0.0 0.006967397 0.0018776661 0.0 0.0024365599
0.0021049145 0.0013671526 0.0028463455 0.0066789435 0.0 0.008196106 0.005589171 0.0025808217
0.0031188247 0.0026380904 0.0036621797 0.0 0.002129504 0.0071233786 0.0020722235 0.003246218
0.0014639285 0.0030983984 0.0022092222 0.004400207 0.002377079 0.0 0.0030541832 0.0020604997
