models/RaceModels/classif_pos_coef_3copies0to10_threelayersdropout0.5lr0.0001/model.pt (torch, 445277 bytes, 24 tensors)

fc1.weight f4 [128, 144]
0	0x3d6ecc08	0.058300048
1	0x3d8f5c8a	0.07000072
2	0x3d480fd8	0.048843235
3	0x3d94e8cc	0.07270965
4	0x3d95dd83	0.07317641
5	0x3cbc0adc	0.022954397
6	0x3db0ee13	0.08639159
7	0xbe01b3c4	-0.12666231
8	0xbd68b017	-0.056808557
9	0x3d5af1f3	0.053453397
10	0x3ddb098f	0.106951825
11	0xbe995d8f	-0.29954192
12	0x3d9a76d3	0.07542195
13	0xbdf3f708	-0.11912352
14	0xbdd6084f	-0.104508035
15	0xbe867475	-0.26260725
16	0x3da9ec37	0.082970075
17	0x3e2490af	0.16070817
18	0xbd4863a0	-0.048923135
19	0xbe07bf16	-0.13256487
20	0xbcf13c53	-0.02944771
21	0xbd00b89f	-0.03142607
22	0xbcdcdcd0	-0.02696076
23	0xbd4d941b	-0.050190073
24	0x39d4fd33	0.0004062444
25	0xbd8471d4	-0.064670235
26	0x3d04425d	0.03228985
27	0xbc9ade07	-0.018904699
28	0x3cb3129f	0.021859465
29	0xbcca81bb	-0.024720063
30	0x3c6359b4	0.013876367
31	0x3c3f4554	0.011674244
32	0x3d4f9e35	0.050687987
33	0x3ce5957a	0.028025378
34	0x3cc97652	0.024592552
35	0xbc62e965	-0.013849591
36	0xbd671245	-0.056413908
37	0xbc85f9d7	-0.016354484
38	0x3d4641bd	0.048402537
39	0xbe533ccd	-0.20628662
40	0xbc15746e	-0.009121997
41	0xbd585366	-0.05281391
42	0xbc48e0bb	-0.012260611
43	0xbdb9148b	-0.090371214
44	0xbc8f0955	-0.017460505
45	0xbd233e59	-0.03985438
46	0xbd85c6cf	-0.0653206
47	0x3b1c485f	0.0023846847
48	0x3db896f2	0.090131655
49	0xbca5427f	-0.02017331
50	0xbd50a376	-0.05093714
51	0xbd372624	-0.044714108
52	0x3d8a6e9e	0.0675938
53	0x3b8f0b54	0.004365364
54	0xbc974194	-0.018463887
55	0x3c71a88e	0.014749659
56	0x3d9b14f8	0.07572359
57	0xbc0738e7	-0.008253313
58	0x3d8d18b1	0.06889475
59	0xbcfc7744	-0.030818589
60	0xbcb18d82	-0.021673921
61	0x3d39d10d	0.045365382
62	0x3cb8a842	0.02254117
63	0xbc0d2d69	-0.008616784
64	0xbd25c689	-0.04047254
65	0x3c5bd815	0.013418217
66	0xbcdf649b	-0.027269652
67	0xbc88292a	-0.016621191
68	0x3b325a32	0.0027214405
69	0x3d8ebdf5	0.06969825
70	0x3c33f3c7	0.010983414
71	0x3cd32846	0.02577604
72	0xbb02ceb8	-0.001995964
73	0x3dff8710	0.12476933
74	0xbd694d0e	-0.05695825
75	0xbdd15ba1	-0.10222555
76	0xbc42bea8	-0.011886276
77	0x3d426fba	0.047469832
78	0xbd1ab80d	-0.03777318
79	0xbc4591ed	-0.012058717
80	0x3d7c6321	0.061617974
81	0xbd189f0d	-0.037261058
82	0x3cb3926d	0.021920407
83	0xbce0903e	-0.02741253
84	0x3a5765ec	0.00082167867
85	0xbda1a16f	-0.07892119
86	0x3d45cf6e	0.048293523
87	0xbdd954f0	-0.10611904
88	0x3d0bd657	0.034139957
89	0xbd4dc3d8	-0.0502356
90	0x3c0f1855	0.008733829
91	0x3ccb75d8	0.024836466
92	0xbc07707b	-0.0082665635
93	0x3db16d1c	0.08663389
94	0x3b836c1e	0.0040106913
95	0x3d885a1e	0.066578135
96	0xbc96135e	-0.018319782
97	0x3dd3d7cb	0.103438936
98	0x3c9219a0	0.017834485
99	0xbcb9b9ae	-0.022671547
100	0xbc250ab2	-0.010073351
101	0x3d91d134	0.071199805
102	0x3d882259	0.06647176
103	0xbc2b007d	-0.010437128
104	0x3ab740ce	0.0013981105
105	0x3c5950ae	0.013263864
106	0x3d83f2a4	0.064427644
107	0x3ce327df	0.027728973
108	0x3bcc6824	0.0062380005
109	0xbc26b813	-0.010175723
110	0xbd3d76e9	-0.04625598
111	0xbc7c1ab6	-0.015387228
112	0x3d39117e	0.045182697
113	0x3d87d3c1	0.06632186
114	0xbd73a848	-0.059486657
115	0xbd423dfa	-0.047422387
116	0xbd966bf3	-0.073448084
117	0x3dba04bb	0.090829335
118	0xbcf93522	-0.030420844
119	0xbcefc246	-0.029267441
120	0x3cc49521	0.023996891
121	0x3cfb20da	0.030655313
122	0x3d07b9e6	0.03313627
123	0x3c05ddba	0.0081705395
124	0xbd6376dc	-0.055533275
125	0xbd7c86c7	-0.06165197
126	0xbcc7b8c7	-0.0243801
127	0x3c99b26d	0.018761838
128	0xbd8a80e4	-0.06762865
129	0xbdbb04ef	-0.091318004
130	0xbc227e76	-0.009917846
131	0xbc806120	-0.015671313
132	0x3cb41769	0.02198382
133	0xbceaad9a	-0.028647233
134	0xbcad3a61	-0.021146001
135	0xbd9677d8	-0.07347077
136	0x3d45aac0	0.048258543
137	0x3d4b7a00	0.049676895
138	0x3d641a64	0.05568923
139	0xba4e8360	-0.0007877853
140	0xbded84ce	-0.11597596
141	0x3dfc971a	0.12333508
142	0xbbd6c489	-0.0065541905
143	0xbc27b3bb	-0.010235722
144	0x3dab2489	0.08356578
145	0x3da3b392	0.07993235
146	0x3cf076b6	0.02935348
147	0x3d22427c	0.039614186
148	0x3e4d130b	0.20026796
149	0x3cf7f186	0.030266535
150	0xbd1ef567	-0.038808253
151	0x3da7bf10	0.08190739
152	0x3d5fe7f6	0.054664575
153	0xbb96d75a	-0.0046033086
154	0xbe836ee7	-0.2567055
155	0xbd6467d2	-0.055763073
156	0x3d42a855	0.047523815
157	0xbead25ce	-0.33817905
158	0xbe3bf9a9	-0.18356957
159	0xbdd68eb8	-0.1047644
160	0xbc6e0b4a	-0.014529059
161	0x3d47f1e8	0.048814684
162	0x3d201a78	0.039087743
163	0x3e403ac2	0.18772414
164	0xbd2d6e08	-0.042341262
165	0xbd3ab503	-0.045582782
166	0xbcbb3f17	-0.022857232
167	0xbd449bd0	-0.048000157
168	0x3c9b7276	0.018975478
169	0xbc385e81	-0.011253
170	0x3b0fa87e	0.0021920498
171	0x3d03aa4b	0.032144826
172	0xbd15be47	-0.036558416
173	0xbcac5e06	-0.021040928
174	0x3d14ee3f	0.03636002
175	0x3c6f3767	0.014600611
176	0xbd074bf4	-0.03303142
177	0xbceb4944	-0.02872146
178	0xbd7f3d94	-0.062314585
179	0xbd1b9f2b	-0.03799359
180	0xbdbce470	-0.092232585
181	0xbf3a0a0a	-0.7267157
182	0xbda84ca0	-0.0821774
183	0xbd3a7e36	-0.04553052
184	0x3b7e3519	0.0038788973
185	0x3d0305ab	0.031987827
186	0xbcc2c2f6	-0.023774605
187	0xbcb39501	-0.021921637
188	0xbca010d7	-0.01953928
189	0x3d28c8bd	0.041207064
190	0xbda95c02	-0.08269502
191	0x3d0c31de	0.034227245
192	0x3d183565	0.037160296
193	0xbd1adeae	-0.03781002
194	0x3b95cb38	0.0045713447
195	0xbd28f29e	-0.041247003
196	0xbcf8bffb	-0.03036498
197	0xbd305fa3	-0.043059956
198	0x3d8373ae	0.064185485
199	0xbd530f1a	-0.051528074
200	0xbc82d11c	-0.015968852
201	0x3d4b0717	0.04956731
202	0xbd5f5299	-0.05452213
203	0x3dc59643	0.09647801
204	0xbb384044	-0.0028114477
205	0xbf357c15	-0.7089246
206	0x3dc35c02	0.095390335
207	0x3d187297	0.037218656
208	0x3d8eebcc	0.069785684
209	0xbcc35099	-0.023842143
210	0xbdb0d9ba	-0.08635278
211	0xbd7f3c68	-0.062313467
212	0x3ca0ad0a	0.019613761
213	0x3da9e661	0.082958944
214	0xbcff1b49	-0.03114094
215	0x3cbee5c3	0.023302918
216	0x3cada219	0.021195458
217	0x3d7463f3	0.05966563
218	0xbd4f4302	-0.050601013
219	0x3c79e448	0.01525218
220	0xbd824d40	-0.063623905
221	0xbc1e7368	-0.00967107
222	0x3c56d81f	0.013113051
223	0x3aa3f266	0.0012508153
224	0xbd260239	-0.040529463
225	0x3da80292	0.08203615
226	0xbd0ccaee	-0.034373216
227	0x3ca26f12	0.019828353
228	0xbc2fc1db	-0.010727371
229	0xbf2c0aa4	-0.67203736
230	0xbd93938d	-0.072058775
231	0x3d3db92c	0.04631917
232	0x3d9d074d	0.07667408
233	0xbd9f4fdf	-0.07778906
234	0xbd899196	-0.067172214
235	0x3d9984d8	0.07496041
236	0x3d6f49bf	0.05841994
237	0xbd34a0de	-0.044098727
238	0xbd4f9966	-0.0506834
239	0xbd3fcaa3	-0.04682411
240	0x3dda4164	0.106570035
241	0xbc320dc3	-0.010867539
242	0x3cffb259	0.031212972
243	0xbc6b6782	-0.01436794
244	0x3d96989d	0.073533274
245	0x3d484145	0.04889037
246	0xbdc744c2	-0.097299114
247	0x3d4775c0	0.04869628
248	0x3d36e065	0.044647593
249	0x3de832a7	0.11337786
250	0xbc24598b	-0.010031114
251	0x3dd2fcae	0.10302101
252	0x3d70007e	0.05859422
253	0xbf518e55	-0.81857806
254	0x3caad254	0.020852245
255	0x3db2477d	0.087050416

fc1.bias f4 [128]
0	0x3cad45fd	0.021151537
1	0xbd556507	-0.0520983
2	0xbd74c23d	-0.059755553
3	0xbd793fc6	-0.060851835
4	0x3cc90d3e	0.024542447
5	0xbd7522d5	-0.05984767
6	0x3c3ce39b	0.011528875
7	0xbc950aa7	-0.018193556
8	0x3c8f6ad4	0.017506994
9	0x3dbe5966	0.09294395
10	0xbd3d2fdd	-0.046188224
11	0xbd38868a	-0.04505018
12	0x3da3574e	0.079756364
13	0xbb6e23a8	-0.003633717
14	0xbd151e69	-0.036405955
15	0x3d390397	0.04516944
16	0xbbc04275	-0.0058672973
17	0xbd0bfb30	-0.034175098
18	0x3dacf48d	0.08445082
19	0xbd0f2ff0	-0.034957826
20	0x3da0e38b	0.078559004
21	0x3be3450f	0.0069357227
22	0x3d4395a1	0.04775012
23	0x3c57ca0a	0.013170728
24	0xbcd1e524	-0.025621958
25	0x3d859ef1	0.06524456
26	0x3d173154	0.036912277
27	0x3cb703a9	0.022340612
28	0xbd3fb769	-0.046805773
29	0xbd81cc4c	-0.06337795
30	0xb9edb24c	-0.00045337004
31	0xbd4c6371	-0.049899522
32	0x3d83bdfd	0.06432722
33	0x3d4cb1a1	0.049974088
34	0xbd74464a	-0.059637345
35	0x3d861bb4	0.06548253
36	0xbd91744d	-0.07102261
37	0xbc0e42d9	-0.00868293
38	0xbd82993c	-0.063768834
39	0x3dac3888	0.0840922
40	0xbd98a744	-0.074537784
41	0xbd26c47e	-0.040714733
42	0xbd6ec1ba	-0.05829022
43	0xbcf1223e	-0.029435273
44	0x3d917804	0.07102969
45	0xbc9c1523	-0.019053048
46	0x3ce24ec8	0.027625456
47	0x3c16e2dc	0.009209361
48	0xbd5ac308	-0.053408653
49	0x3c0b1d79	0.008490914
50	0xbd430325	-0.04761042
51	0xbc97bc66	-0.018522453
52	0x3bc75141	0.0060826843
53	0x3d47a4f9	0.048741315
54	0xbd816056	-0.06317203
55	0xbae849fd	-0.0017722246
56	0x3b074e92	0.0020646197
57	0x3cd8e1fe	0.026474949
58	0x3d48dbfc	0.04903792
59	0x3c1d8fef	0.009616836
60	0x3d265033	0.040603828
61	0xbb92ab1d	-0.0044759647
62	0xbd82c807	-0.063858084
63	0xbd30c938	-0.043160647
64	0xbd8d5448	-0.06900841
65	0xbd424b4b	-0.047435086
66	0x3d8933ec	0.066993564
67	0x3da75b4e	0.08171712
68	0xbd4d719d	-0.05015718
69	0xbcda2ed4	-0.026633658
70	0xbd3632d0	-0.044482052
71	0x3d84b735	0.064802565
72	0x3cf783b3	0.030214166
73	0x3cad995f	0.021191297
74	0xbdc6796b	-0.096911274
75	0xbd4a462d	-0.04938333
76	0xbd5613cb	-0.05226497
77	0x3da48d4f	0.08034765
78	0xbcf2c7ce	-0.02963629
79	0xbd0259c1	-0.031823877
80	0x3d6d66f5	0.057959516
81	0xbd76db50	-0.060267746
82	0x3ccb7e1b	0.024840405
83	0xbd4de809	-0.050270114
84	0x3cced577	0.025248272
85	0x3c8973fa	0.016778935
86	0xbda290ef	-0.079378
87	0x3cb6f935	0.022335628
88	0xbd2ad270	-0.041704595
89	0xbd451397	-0.048114385
90	0x3cf5f96f	0.030026166
91	0xbd4079bf	-0.046991106
92	0xbcff8d91	-0.031195434
93	0xbd5d30f0	-0.05400175
94	0xbdab3846	-0.08360343
95	0xbd8e312b	-0.06942972
96	0x3cef92a3	0.029244727
97	0x3d62274e	0.055213265
98	0xbd83fd5e	-0.0644481
99	0x3d9bffd1	0.076171525
100	0x3d7f449e	0.062321298
101	0x3d29385a	0.041313507
102	0x3c168ea8	0.009189285
103	0x3ca05999	0.019573973
104	0x3d66ba89	0.056330238
105	0xbd4136ad	-0.047171284
106	0xbd96eb6a	-0.073691204
107	0xbd9cf840	-0.076645374
108	0x3d438812	0.04773719
109	0x3d8f1834	0.06987038
110	0x3da622eb	0.08112129
111	0x3b24bb6a	0.0025136122
112	0x3d775950	0.06038791
113	0xbb9bfb0c	-0.0047601517
114	0x3bb95128	0.0056554265
115	0xbd9ac965	-0.07557944
116	0x3d449799	0.047996137
117	0x3c53b678	0.012921922
118	0x3d5471ba	0.05186627
119	0xbd11314c	-0.035447404
120	0xbd513573	-0.051076364
121	0xbcf46ceb	-0.029837092
122	0x3d399d5e	0.045316093
123	0x3b9821a4	0.004642682
124	0x3c8c1118	0.017097995
125	0x3d9e739b	0.07736894
126	0x3d3cb008	0.046066314
127	0x3c92a297	0.017899795

fc2.weight f4 [64, 128]
0	0x3c9adae5	0.018903205
1	0xbe222f8e	-0.15838453
2	0xbe3db314	-0.18525344
3	0x3b6d1da0	0.0036180988
4	0xbd6ac812	-0.05731971
5	0xbe4a557b	-0.1975917
6	0xbe2d2ff6	-0.16912827
7	0xbe14f264	-0.1454559
8	0x3cc50430	0.024049848
9	0xbd5b6d8c	-0.05357127
10	0x3dd56b58	0.10420865
11	0xbd6f984b	-0.058494847
12	0xbde7f6ca	-0.11326368
13	0x3d4dd406	0.05025103
14	0x3ca1cd08	0.019751087
15	0xbcea42f9	-0.028596388
16	0x3e01f8dd	0.1269259
17	0xbbedcc1e	-0.0072569987
18	0xbd4b156b	-0.049580973
19	0xbb7df25e	-0.0038749198
20	0xbe82c927	-0.25544092
21	0xbd11ff95	-0.035644133
22	0x3dc91f5d	0.09820435
23	0x3cb458cb	0.022014996
24	0x3c264172	0.010147439
25	0x3e019026	0.12652645
26	0x3cb61c6a	0.022230346
27	0x3dc29e4c	0.09502849
28	0x3d87a7fc	0.06623837
29	0x3d590666	0.052984618
30	0xbd8c50c9	-0.06851346
31	0xbe061050	-0.1309216
32	0x3de9972f	0.11405789
33	0x3c8c6d50	0.017141968
34	0xbd2befb6	-0.041976653
35	0xbb583d0f	-0.0032995378
36	0xbe0661d0	-0.1312325
37	0x3e05d97b	0.13071243
38	0x3dc18848	0.09449822
39	0x3e5219e1	0.20517685
40	0xbe2052c2	-0.1565657
41	0xbe3cd3f4	-0.18440229
42	0x3eb029a1	0.3440676
43	0xbdfcbe9d	-0.12341044
44	0xbd058804	-0.032600418
45	0xbc708ba0	-0.014681727
46	0xbe18742c	-0.14888066
47	0xbdf54578	-0.11976141
48	0x3d0dd198	0.034623712
49	0x3e116382	0.14198115
50	0x3ca027ed	0.019550288
51	0xbe1a8b23	-0.15092139
52	0xb9697000	-0.00022262335
53	0xbd038726	-0.03211131
54	0x3ddd6de0	0.108119726
55	0x3e2ba112	0.16760662
56	0xbe122600	-0.14272308
57	0xbd139195	-0.03602751
58	0xbe708084	-0.23486525
59	0x3d8ced23	0.06881168
60	0x3cfb2b1f	0.03066021
61	0x3e4f667f	0.20253943
62	0xbe0daa6a	-0.13834539
63	0xbe5a7829	-0.213349
64	0x3c947b68	0.018125251
65	0xbd552e20	-0.05204594
66	0xbdf0b0aa	-0.11752446
67	0x3db7e479	0.089791246
68	0x3d734226	0.059389256
69	0x3b3d7a8d	0.0028912157
70	0xbdd219e6	-0.10258846
71	0xbdca3ea0	-0.09875226
72	0xbe07c892	-0.13260105
73	0xbdf6215f	-0.12018084
74	0x3d67dc52	0.0566066
75	0xbcbe6a23	-0.02324397
76	0x3cfeee61	0.031119527
77	0xbca48f6b	-0.020087918
78	0x3db349cf	0.08754312
79	0x3dc4bb97	0.096060924
80	0x3dbedc6c	0.09319386
81	0x38f8c1a0	0.00011861627
82	0xbdebdd4f	-0.11516821
83	0x3e9dd8e9	0.30829552
84	0x3d61687a	0.055031277
85	0xbe74a49a	-0.23890916
86	0xbd7a47f2	-0.06110377
87	0x3e17f2f9	0.1483878
88	0x3d078918	0.033089727
89	0x3d50d78e	0.05098682
90	0xbdff2863	-0.12458875
91	0x394349bd	0.00018624119
92	0x3d2ab065	0.04167213
93	0x3e4eecd4	0.2020753
94	0x3da2bb51	0.07945884
95	0x3ebbf063	0.36706838
96	0x3d3ada41	0.0456183
97	0x3e29c0a0	0.16577387
98	0xbd081ca9	-0.033230457
99	0xbd832d3d	-0.06405113
100	0x3e0a53d5	0.13508542
101	0xbd12356e	-0.035695486
102	0xbe77e417	-0.24208103
103	0x3d312820	0.043251157
104	0xbd3ef639	-0.046621535
105	0x3d3d4126	0.04620471
106	0x3e00c776	0.12576088
107	0x3dbb9270	0.0915879
108	0xbd92ce4b	-0.071682535
109	0x3db85c24	0.090019494
110	0xbdce0637	-0.10059779
111	0x3cc5ea37	0.024159534
112	0x3d6043c6	0.054752134
113	0xbca13c02	-0.019681934
114	0x3ea8ad34	0.32944643
115	0xbe193864	-0.14962918
116	0xbdbceed9	-0.09225244
117	0xbe6a1130	-0.22858119
118	0xbdf6ba9d	-0.120473124
119	0xbec76c60	-0.3894987
120	0xbb346546	-0.0027526184
121	0x3c6c528f	0.01442398
122	0xb97d8758	-0.0002417838
123	0xbdd4b13c	-0.10385367
124	0xbda99e62	-0.08282162
125	0xbdc6afd2	-0.09701504
126	0xbdc8aacb	-0.09798201
127	0xbd5816c1	-0.052756075
128	0xbd5d9114	-0.054093435
129	0x3e696eca	0.22796169
130	0x3dde396f	0.10850798
131	0x3c9d33a4	0.019189663
132	0xbdcee4d5	-0.1010224
133	0x3e18ebc8	0.14933693
134	0x3dd71c40	0.10503435
135	0x3e7df211	0.24799372
136	0x3de7af24	0.11312702
137	0x3e168ba7	0.1470171
138	0xbc4e8bfd	-0.012606618
139	0x3e816e00	0.25279236
140	0x3d83aaac	0.064290375
141	0xbd9a6ed4	-0.0754067
142	0x3d1338f5	0.03594299
143	0xbc77ad70	-0.015117034
144	0x3d98e2ab	0.074651085
145	0x39c59800	0.00037688017
146	0x3d6dea06	0.05808451
147	0x3d8d4d9a	0.06899567
148	0x3e7fa706	0.24966058
149	0x3d3e73f5	0.046497304
150	0x3cf25ff7	0.029586775
151	0xbe54b5cd	-0.20772476
152	0x3dea3e02	0.11437608
153	0xbe4314ac	-0.19050854
154	0xbda0f08b	-0.0785838
155	0xbcea90be	-0.028633472
156	0x3e7bc9ae	0.24588653
157	0xbe8d6fcf	-0.27624366
158	0x3e98a468	0.29812932
159	0x3e98c732	0.29839474
160	0xbd613a4d	-0.05498724
161	0x3cda5762	0.026652995
162	0x3dc73208	0.097263396
163	0xbd533e4c	-0.051573083
164	0xbd4fad51	-0.050702397
165	0xbc1f4586	-0.0097211655
166	0xbcc0e640	-0.023547292
167	0xbe0fd0a0	-0.14044428
168	0x3dc05769	0.09391672
169	0x3e19e1c8	0.15027535
170	0x3cc15875	0.02360175
171	0xbdb9ba75	-0.09068767
172	0x3dda7b22	0.10668017
173	0x3dba32c8	0.09091717
174	0x3de85740	0.113447666
175	0xbd3ca225	-0.04605307
176	0xbc881004	-0.0166092
177	0xbe43a374	-0.19105321
178	0x3d8704ea	0.06592734
179	0xbe7bf823	-0.24606375
180	0x3d47d3ac	0.04878585
181	0x3d1c431c	0.038149938
182	0xbe961b6d	-0.293178
183	0xbd3ce5af	-0.04611748
184	0x3e0e650a	0.13905731
185	0xbcf28039	-0.029602157
186	0x3db8e2c1	0.09027625
187	0xbde8024a	-0.113285616
188	0xbe138f93	-0.14410238
189	0xbe8baf31	-0.27282098
190	0xbe0e1e44	-0.13878733
191	0x3e8db0fb	0.27674088
192	0x3d827cdd	0.06371472
193	0x3d8cf657	0.06882923
194	0xbbd04926	-0.006356376
195	0xbe518019	-0.20459022
196	0x3d634667	0.055487063
197	0xbe204db9	-0.15654649
198	0xbd270525	-0.04077639
199	0x3e11a250	0.14222074
200	0x3e1e8a87	0.15482531
201	0x3e318b78	0.1733836
202	0x3daa1524	0.083048135
203	0x3de39cd0	0.11113894
204	0xbc5e6b92	-0.013575451
205	0xbda7d775	-0.08195392
206	0x3d8c3e2c	0.06847796
207	0xbcbc745a	-0.0230047
208	0x3c9569cc	0.018238924
209	0x3d95db6d	0.07317243
210	0x3dc811b5	0.09769002
211	0xbe109325	-0.14118631
212	0xbddcd4d2	-0.1078278
213	0x3b0fdc92	0.0021951539
214	0x3dd084ee	0.10181604
215	0xbd8bc016	-0.06823747
216	0xbe1fd84d	-0.15609856
217	0x3d08c6af	0.033392604
218	0x3db1bbc7	0.08678394
219	0x3d18fd00	0.037350655
220	0x3d7b71e5	0.061387915
221	0xbd3088b4	-0.04309912
222	0x3aa60af2	0.0012668057
223	0xbdf66f9d	-0.12033007
224	0xbd694f3a	-0.056960322
225	0xbd0ec746	-0.03485801
226	0x3db707f0	0.08937061
227	0xbd699e70	-0.057035863
228	0xbcc1e200	-0.023667336
229	0xbcff0c9b	-0.03113394
230	0x3ea0f290	0.3143506
231	0xbe4deffd	-0.2011108
232	0xbc828abe	-0.015935298
233	0xbe13f892	-0.14450291
234	0x3d25ebec	0.040508196
235	0xbd930cd4	-0.07180181
236	0x3d323826	0.04351058
237	0x3c87601e	0.016525324
238	0xbcdf879b	-0.027286341
239	0x3dd0340b	0.101661764
240	0x3df16f9c	0.11788866
241	0x3e382b58	0.17985284
242	0xbdacd2a8	-0.08438617
243	0x3cf59cc2	0.029981975
244	0x3eb3787c	0.3505286
245	0x3ddc40a5	0.107545175
246	0x3e7b0646	0.24514112
247	0x3de29b04	0.11064723
248	0x3da687f8	0.08131403
249	0x3d590403	0.05298234
250	0x3d840f05	0.06448177
251	0xbdc4c64f	-0.09608137
252	0x3e22b24a	0.15888324
253	0x3c762f5b	0.015025939
254	0xbd6a1d3c	-0.057156786
255	0x3d716578	0.05893466

fc2.bias f4 [64]
0	0x3dd18bca	0.10231741
1	0x3dad974f	0.084761254
2	0x3b866418	0.0041012876
3	0x3d7c1ff5	0.061553914
4	0x3c765384	0.01503456
5	0x3d051980	0.03249502
6	0x3d1fb489	0.03899053
7	0x3d839fe3	0.0642698
8	0x3e004312	0.12525585
9	0xbc02b6f5	-0.007978191
10	0x3dd7fbeb	0.105460964
11	0x3e13b2d3	0.14423685
12	0x3e0037e1	0.12521316
13	0x3d359125	0.044327874
14	0x3dfb038b	0.12256535
15	0x3cf8e7ee	0.03038403
16	0x3dded6f1	0.108808406
17	0x3cff69f2	0.031178448
18	0x3d9fe4d2	0.07807316
19	0x3ce062df	0.027390895
20	0x3d9d2d0c	0.07674608
21	0x3d98fb43	0.07469799
22	0x3d8a40b9	0.06750626
23	0x3cd22198	0.025650784
24	0x3d97698a	0.07393177
25	0x3d788433	0.06067295
26	0x3dc89195	0.097933926
27	0x3daf82e3	0.085698865
28	0x3d296f1c	0.041365728
29	0x3d6c0018	0.057617277
30	0x3d6f6fd0	0.058456242
31	0x3d6e9b78	0.058253735
32	0x3d094029	0.033508454
33	0x3d9912e7	0.074743085
34	0x3d26a6ab	0.04068629
35	0xbcf95ca0	-0.030439675
36	0xbcc75043	-0.024330264
37	0xbb851783	-0.0040616407
38	0x3d40fac9	0.047114167
39	0x3cd13293	0.025536811
40	0x3d4a9cdb	0.049465995
41	0x3d36a263	0.044588458
42	0x3dc15fbb	0.09442087
43	0x3d8e672b	0.069532715
44	0x3cdb0950	0.026737839
45	0x3b7629ac	0.003756146
46	0x3d62c382	0.055362232
47	0x3d78dcc7	0.060757425
48	0x3dacf5e5	0.08445338
49	0x3dbc0ea0	0.09182477
50	0x3dab2e61	0.083584554
51	0x3d975b74	0.0739049
52	0xbd0a9d2a	-0.03384129
53	0x3d1b0806	0.03784945
54	0x3dadfae2	0.08495118
55	0x3d387736	0.045035563
56	0x3dcca7c8	0.09992939
57	0x3d233aa7	0.039850857
58	0x3dd8329f	0.1055653
59	0x3da5b39e	0.080909
60	0x3cb95b8e	0.022626664
61	0x3e1ad2c8	0.15119469
62	0x3d2b3a72	0.041803785
63	0x3d9bafa8	0.07601863

fc3.weight f4 [32, 64]
0	0x3d0d0b0e	0.03443437
1	0xbd8fdc87	-0.07024484
2	0xbd570d1b	-0.052502733
3	0x3e53f80e	0.20700094
4	0xbeacd7f0	-0.33758497
5	0xbc96d197	-0.018410487
6	0xbe944f66	-0.28966826
7	0xbea88860	-0.32916546
8	0xbe6515c1	-0.2237158
9	0x3eb6ba4b	0.35689005
10	0xbe7f8d8d	-0.24956341
11	0x3d28f3e7	0.04124823
12	0xb9e9909f	-0.00044548974
13	0xbd54d9db	-0.051965576
14	0x3db0e2cd	0.08637009
15	0x3aadc92c	0.0013258806
16	0xbe5faba6	-0.21842822
17	0xbdf5d336	-0.12003176
18	0xb9f5f7a1	-0.0004691454
19	0x3cde66a5	0.027148554
20	0x3bf58696	0.0074928505
21	0x3dbd98af	0.09257638
22	0xbc45b18a	-0.012066254
23	0x3d3fed42	0.046857126
24	0x3e2affe6	0.1669918
25	0x3e5b8081	0.21435739
26	0x3eb49e69	0.35277107
27	0x3e336b1c	0.17521328
28	0xbd976d35	-0.073938765
29	0xbe79cd5b	-0.24394743
30	0x3e6a3568	0.22871935
31	0x3d2c34f9	0.042042706
32	0x3e5697c5	0.20956333
33	0x3e2e4e55	0.17022069
34	0x3c699234	0.014256049
35	0xbd889ea1	-0.06670881
36	0x3d5ad6bd	0.053427447
37	0xbe06d86e	-0.13168499
38	0x3e33dda9	0.17565025
39	0xbdb9c731	-0.09071196
40	0x3e5c6a7e	0.21524999
41	0x3ef9997c	0.48749912
42	0xbe06be66	-0.13158569
43	0xbe1d32af	-0.15351366
44	0xbdfabc85	-0.122429885
45	0x3c5ed7bc	0.01360124
46	0x3e972051	0.29516843
47	0xbe2b7365	-0.16743238
48	0x3c8016de	0.015635904
49	0x3dacc582	0.08436109
50	0xbca18584	-0.019716986
51	0x3eaed6d1	0.34148267
52	0xbe2813ed	-0.16413851
53	0x3e4bd841	0.19906713
54	0x3dec4ee6	0.11538486
55	0x3c628350	0.013825253
56	0xbb4932ef	-0.0030700525
57	0x3da4ef2f	0.08053433
58	0x3c25d31c	0.010121133
59	0xbd1fbd19	-0.038998697
60	0x3eb92a2c	0.36164987
61	0x3e41d2b3	0.18928032
62	0xbe4dd87e	-0.20102116
63	0xbded8ce4	-0.115991384
64	0xbc79f704	-0.015256647
65	0xbd1f1377	-0.038836922
66	0xbd51270f	-0.05106264
67	0xbcc9f185	-0.024651298
68	0xbdc4a608	-0.096019804
69	0xbd1b1801	-0.03786469
70	0x3d33c9ce	0.043893628
71	0x3d6cbd8a	0.057797946
72	0xbd89e9bf	-0.06734037
73	0x3e3f1c3f	0.18663119
74	0x3ad5c2a3	0.0016308617
75	0x3e02132d	0.12702627
76	0x3e247407	0.16059886
77	0xbdfcb205	-0.12338642
78	0x3e83e4da	0.25760537
79	0x3d1b0c4e	0.03785353
80	0x3c4991f8	0.012302868
81	0xbe84588c	-0.25848806
82	0x3dcadc6b	0.09905323
83	0xbd5b793e	-0.053582422
84	0x3cc38dd0	0.023871332
85	0x3d2ab392	0.041675158
86	0x3bc16569	0.0059019816
87	0x3e0e010b	0.13867585
88	0xbcf6dd4b	-0.030134818
89	0x3e4158e0	0.1888156
90	0x3edb557a	0.4283865
91	0x3e3ea276	0.18616661
92	0xbe631373	-0.22175388
93	0xbcf45557	-0.02982585
94	0x3df67078	0.120331705
95	0xbd569605	-0.052389164
96	0x3db68e71	0.08913887
97	0x3e3da3ce	0.18519518
98	0xbe11a9ca	-0.14224926
99	0xbe1c9882	-0.15292552
100	0xbe0605d7	-0.13088165
101	0xbe692564	-0.2276817
102	0x3d6abb00	0.057307243
103	0x3c6f6a46	0.01461274
104	0x3db7086f	0.089371555
105	0x3e869ea9	0.26292923
106	0xbd61e69e	-0.055151574
107	0x3dfe1d95	0.12407986
108	0x3dc34f58	0.09536618
109	0x3c470a3b	0.012148435
110	0x3eca5536	0.39518136
111	0xbeab90c9	-0.335089
112	0x3e135d6b	0.14391105
113	0x3d3137b3	0.04326601
114	0xbca30fe0	-0.01990503
115	0x3e0dd250	0.13849759
116	0xbe08333b	-0.13300793
117	0x3cbd0a28	0.023076132
118	0x3da0862b	0.078380905
119	0x3e2163b6	0.15760693
120	0xbdd3e943	-0.103472255
121	0x3e2d85e3	0.16945605
122	0xbd808b7f	-0.06276607
123	0x3df5128c	0.11966428
124	0x3ee46ce3	0.44614324
125	0x3e8da84b	0.2766746
126	0xbca54dfe	-0.020178791
127	0xbd7b5421	-0.06135953
128	0xbd8fccc0	-0.07021475
129	0x3d95eebd	0.07320926
130	0xbaed6fc4	-0.0018114974
131	0xbeb22761	-0.3479567
132	0x3e8d77b1	0.2763038
133	0xbe384cbb	-0.1799802
134	0x3ead451a	0.33841783
135	0x3ea10907	0.314522
136	0x3e36cac3	0.17850785
137	0xbe5bedb4	-0.21477395
138	0x3e320062	0.17382959
139	0x3a81b62c	0.000989621
140	0x3e846764	0.2586013
141	0x3cf4008a	0.029785413
142	0x3e7ffdcb	0.24999158
143	0x3d821038	0.0635075
144	0x3eb68494	0.35648024
145	0xbdcd5fd1	-0.10028041
146	0xbcf7437e	-0.03018355
147	0x3b385972	0.0028129485
148	0xbe9f8fbe	-0.31164354
149	0x3d1a3a45	0.037653226
150	0x3ee79c41	0.452364
151	0x3d3f8516	0.04675778
152	0xbc3d7828	-0.011564292
153	0xbdc7b2d6	-0.09750907
154	0xbe0a2f00	-0.13494492
155	0x3d077d33	0.033078384
156	0x3d6a87f4	0.05725856
157	0x3ec2ec49	0.38070896
158	0x3c887417	0.016656918
159	0x3d129b7b	0.03579281
160	0xbe59d0d7	-0.21271072
161	0x3cc12fbc	0.023582332
162	0x3d78c4f9	0.060734723
163	0xbe31471e	-0.17312285
164	0xbd472d3d	-0.048627127
165	0x3bebdd23	0.0071979924
166	0xbd7df763	-0.062003504
167	0x3ea7bc9f	0.32761094
168	0xbe503184	-0.20331389
169	0xbe22d3f1	-0.15901162
170	0x3eabff93	0.33593425
171	0x3ec932e7	0.39296648
172	0x3e080d3d	0.132863
173	0x3ccc61ac	0.024948917
174	0x3c413742	0.01179296
175	0xbd99cb8f	-0.07509529
176	0x3c50b459	0.012738311
177	0xbd8eb3e6	-0.06967907
178	0xbd944fab	-0.07241758
179	0xbda31b52	-0.07964195
180	0x3d09a62d	0.033605743
181	0xbd1ad847	-0.037803914
182	0xbd6020a4	-0.05471863
183	0x3eae33eb	0.34023985
184	0xbe0cc2f8	-0.1374625
185	0x3d947755	0.07249323
186	0xbe29eb9f	-0.16593789
187	0x3e19494b	0.14969365
188	0xbd3ac38a	-0.045596637
189	0x3df07705	0.11741451
190	0x3ed620a4	0.41821778
191	0x3ec0dffc	0.37670887
192	0x3d66af34	0.05631943
193	0x3e486a15	0.19571717
194	0x3dcca571	0.09992493
195	0x3c9e3c00	0.01931572
196	0xbb1a8004	-0.0023574838
197	0x3d73be4c	0.059507653
198	0x3ce28fa9	0.027656393
199	0xbd8ec6b2	-0.06971492
200	0x3ee37b20	0.44429874
201	0xbe23fb2f	-0.16013788
202	0x3d4ceb78	0.050029248
203	0x3c758513	0.014985341
204	0x3d611280	0.054949284
205	0x3dbad987	0.09123521
206	0x3e0134aa	0.12617746
207	0xbd6dd22e	-0.05806177
208	0x3e95ebf4	0.2928158
209	0x3e54ef23	0.20794348
210	0xbe97028c	-0.2949413
211	0x3da28894	0.079362065
212	0x3d789abd	0.060694445
213	0x3d308e90	0.04310471
214	0x3d1cd465	0.038288493
215	0xbe926ff3	-0.28601035
216	0xbe59e2a3	-0.21277861
217	0xbeb4dc8a	-0.35324508
218	0xbe95cc98	-0.29257655
219	0xbeb50d2f	-0.3536162
220	0x3e8ead90	0.27866793
221	0x3e480a9b	0.19535296
222	0xbdf11fef	-0.11773669
223	0x3e8268ed	0.25470677
224	0xbe79a0b3	-0.24377708
225	0xbe7a891e	-0.24466369
226	0x3dfb6c8b	0.12276562
227	0x3d54dcfb	0.051968556
228	0x3dd0c8a2	0.10194518
229	0x3e252939	0.16129006
230	0xbdce7e59	-0.10082693
231	0xbd8bb340	-0.068212986
232	0x3a68dc26	0.00088829023
233	0xbe3b3b9a	-0.18284455
234	0xbcbf764c	-0.023371838
235	0x3c390fc6	0.011295265
236	0x3c4425fa	0.011971945
237	0xbd77a119	-0.06045637
238	0xbe97e95c	-0.29670227
239	0x3ec8574c	0.39129102
240	0xbdcf38a6	-0.10118227
241	0xbddbe3bb	-0.107367955
242	0x3ba584c0	0.0050512254
243	0xbd5acad7	-0.0534161
244	0xbdde4889	-0.10853679
245	0x3c92c704	0.017917164
246	0xbd871495	-0.065957226
247	0x3e066e00	0.13127899
248	0x3deb50ad	0.11489997
249	0xbe30cb5e	-0.17265078
250	0x3cf89f52	0.030349407
251	0x3c239e2f	0.009986444
252	0xbed6c920	-0.4195032
253	0xbe3aae42	-0.18230537
254	0x3d318c44	0.04334666
255	0xbd488233	-0.048952293

fc3.bias f4 [32]
0	0x3d8a2810	0.067459226
1	0x3ddffd94	0.10937038
2	0x3eaa38dc	0.33246505
3	0x3e9a28b4	0.3010918
4	0x3df964eb	0.12177452
5	0x3e9b465c	0.30327117
6	0x3e0feea8	0.14055884
7	0x3c9f1d16	0.019423049
8	0x3c6c6636	0.014428666
9	0x3dc05d10	0.0939275
10	0xbc25db4f	-0.010123088
11	0x3d992e69	0.07479555
12	0xbd2ea489	-0.04263738
13	0x3dee9a84	0.11650565
14	0x3eac3005	0.33630386
15	0x3e01e1f5	0.12683852
16	0xbd139703	-0.036032688
17	0x3e5ff058	0.21869028
18	0xbd100e30	-0.03516978
19	0x3d9f0132	0.077639
20	0x3e669018	0.22515905
21	0x3ddaa39b	0.106757365
22	0xbda8c9f5	-0.08241645
23	0x3daecafb	0.08534809
24	0x3cb467db	0.022022178
25	0x3eabfb8b	0.3359035
26	0xbd532773	-0.051551294
27	0x3e260d4c	0.1621601
28	0x3df4421e	0.11926673
29	0x3e05d105	0.13068016
30	0x3e7538fa	0.23947516
31	0x3a7231b3	0.0009238973

fc4.weight f4 [24, 32]
0	0xbd00f232	-0.031480975
1	0xbebb13ab	-0.36538443
2	0xbf59cc99	-0.85077816
3	0x3dd2a83f	0.10285997
4	0xbf352fcd	-0.70776063
5	0xbe29a92b	-0.16568439
6	0xbe76d6b4	-0.2410534
7	0xbf27d98b	-0.6556632
8	0xbf3a8569	-0.7285982
9	0xbd896c4e	-0.067101106
10	0xbdfcc87e	-0.12342928
11	0x3e0f3882	0.139864
12	0xbe889025	-0.26672474
13	0x3dfc8ee8	0.12331945
14	0x3e279c4d	0.16368218
15	0xbe8d596b	-0.27607283
16	0xbe701da4	-0.23448807
17	0xbf4ae6ad	-0.79258233
18	0x3b8f0402	0.0043644914
19	0xbf183e1e	-0.59469783
20	0xbf3b21ef	-0.73098654
21	0xbf5992da	-0.849897
22	0xbf2aa0bb	-0.66651505
23	0x3d07e225	0.033174653
24	0x3e21b4ac	0.15791577
25	0xbee6aa5c	-0.4505185
26	0xbe2970ab	-0.16546886
27	0x3dc3de67	0.09563904
28	0xbe8dc75b	-0.2769116
29	0x3e2203a9	0.15821709
30	0xbea401e1	-0.32032683
31	0x3df2fedd	0.118650176
32	0x3e49edc5	0.19719608
33	0x3defe9d9	0.11714525
34	0x3d3a60c0	0.045502424
35	0xbe167ea7	-0.14696752
36	0xbae06e68	-0.0017122747
37	0x3dd3aac2	0.10335304
38	0x3e0ac373	0.1355112
39	0x3e3c3414	0.18379241
40	0x3e0c7692	0.13717106
41	0x3e222d79	0.15837659
42	0x3e2eb009	0.1705934
43	0xbf1caa2f	-0.6119718
44	0xbeaf1233	-0.34193572
45	0xbf6f2422	-0.9341451
46	0x3ce2c9d7	0.027684135
47	0x3e1e3f26	0.15453777
48	0xbbb8d69d	-0.0056408183
49	0x3cb19135	0.021675685
50	0x3dd03794	0.10166851
51	0x3e3f0ce5	0.18657263
52	0x3e13dc57	0.14439522
53	0x3e315135	0.17316134
54	0x3e29f7e1	0.16598465
55	0xbf07095b	-0.5274865
56	0xbed21258	-0.4102962
57	0xbf083127	-0.532
58	0x3df7d7c5	0.12101702
59	0xbf735aed	-0.95060617
60	0x3e2e29be	0.17008111
61	0xbe8a0f9b	-0.2696503
62	0xbf34617b	-0.70461243
63	0xbdcdd487	-0.10050302
64	0x3d6f99b0	0.058496177
65	0x3dc61063	0.09671094
66	0xbe8bbcb0	-0.27292395
67	0xbe8bd1dd	-0.2730855
68	0xbe22b60a	-0.15889755
69	0xbed0f97e	-0.40815347
70	0xbdf7285b	-0.12068244
71	0xbf533bd5	-0.8251317
72	0x3d8197a4	0.06327751
73	0xbf2f0085	-0.6836017
74	0xbdd4f149	-0.10397584
75	0x3e21842d	0.15773077
76	0x3d90f43c	0.07077834
77	0x3ddcb2d5	0.10776297
78	0xbddde65a	-0.10834952
79	0xbe46d64f	-0.1941769
80	0x3e1fbe45	0.15599926
81	0xbe6fa09c	-0.23401111
82	0x3d4e44b8	0.050358504
83	0xbebb7bb9	-0.3661783
84	0xbdf4bae6	-0.119497105
85	0xbf7d7ece	-0.99021614
86	0xbdbdf2b2	-0.09274806
87	0x3e164989	0.14676489
88	0x3e1a5707	0.15072261
89	0xbde11651	-0.10990585
90	0xbe139068	-0.14410555
91	0x3de44dad	0.11147628
92	0xbf3d4f07	-0.7394871
93	0x3e2fa42a	0.17152467
94	0x3de5b21d	0.11215613
95	0x3dcd02c2	0.10010292
96	0x3e57a372	0.21058443
97	0x3e60748e	0.21919462
98	0xbe1c1ff6	-0.15246567
99	0xbf0f4d0a	-0.5597693
100	0x3d0747d9	0.033027504
101	0x3d1f4380	0.038882732
102	0x3e3efbe6	0.18650779
103	0xbdafaaf1	-0.08577526
104	0x3e57504f	0.21026729
105	0x38d975d7	0.00010369316
106	0xbe8bb144	-0.2728368
107	0x3c9f4b5e	0.019445118
108	0xbf157bdf	-0.5839214
109	0xbed558ed	-0.41669407
110	0xbe0dec87	-0.1385976
111	0x3d06bc3b	0.032894354
112	0xbdce94d8	-0.100869834
113	0x3d899592	0.067179814
114	0x3db7ff8c	0.089842886
115	0x3d6e1a02	0.05813027
116	0x3e634f04	0.22198111
117	0xbe2d9af1	-0.16953637
118	0xbe4c0e9f	-0.19927453
119	0x3dbb247c	0.09137818
120	0xbe5db40c	-0.21650714
121	0xbeeb4098	-0.4594772
122	0xbe644287	-0.22291003
123	0xbf09625a	-0.536657
124	0x3db4102d	0.08792148
125	0x3e444dfc	0.19170374
126	0x3c804828	0.015659407
127	0xbe5f9d2c	-0.218373
128	0xbee158fb	-0.440132
129	0xbca514f9	-0.020151602
130	0x3e38ebcc	0.180587
131	0x3e8817af	0.2658057
132	0xbd3f9822	-0.046775945
133	0x3e2bdfe0	0.1678462
134	0xbce4a8c6	-0.027912509
135	0xbea2e814	-0.31817687
136	0xbe86bf33	-0.26317748
137	0xbd9ace7c	-0.07558915
138	0xbefa127b	-0.48842224
139	0xbf268310	-0.65043736
140	0xbe724e8d	-0.23662777
141	0xbedcc8f2	-0.4312206
142	0x3e7cebbd	0.24699302
143	0xbc92882e	-0.017887201
144	0xbf1502e6	-0.5820755
145	0x3e491fc3	0.19641022
146	0xbf083764	-0.5320952
147	0xbd2d3d71	-0.042294923
148	0x3e8943c1	0.26809505
149	0x3e30c709	0.17263426
150	0xbe60785c	-0.21920913
151	0xbf2e988a	-0.68201506
152	0xbf553849	-0.8328901
153	0x3e268aa0	0.16263819
154	0xbf3421fc	-0.70364356
155	0xbd72d153	-0.05928166
156	0x3e173054	0.1476453
157	0xbf2dacb5	-0.67841655
158	0xbeab18d1	-0.3341737
159	0xbf29d2e1	-0.663374
160	0xbe5ae615	-0.21376832
161	0x3d0e0701	0.03467465
162	0x3d970054	0.073731095
163	0xbbc5a675	-0.006031806
164	0xbd1303c9	-0.03589228
165	0x3d58ee78	0.052961797
166	0xbd64c363	-0.055850398
167	0xbe47293a	-0.1944932
168	0x3dbd7b8b	0.092520796
169	0xbe717f1c	-0.23583645
170	0xbeb2bba0	-0.34908772
171	0xbe146b3b	-0.1449403
172	0xbe90562f	-0.28190753
173	0xbed390ea	-0.41321498
174	0xbdd21d29	-0.10259468
175	0xbdf624f8	-0.1201877
176	0xbd9799bb	-0.07402369
177	0x3d20639b	0.03915749
178	0xbe4b6ebf	-0.19866465
179	0xbe071b71	-0.13194062
180	0x3e2dee82	0.16985515
181	0xbd423ef0	-0.047423303
182	0xbe0beb52	-0.13663986
183	0xbe4469bd	-0.19180961
184	0xbe2ab4c1	-0.16670515
185	0xbd0cfe80	-0.034422398
186	0xbed4fd1c	-0.41599357
187	0xbe4825f6	-0.19545731
188	0xbc625f6f	-0.013816698
189	0xbe8cfb18	-0.2753532
190	0x3c6cb4fd	0.014447448
191	0xbe52c153	-0.2058156
192	0xbe415d8c	-0.18883342
193	0xbd59ffff	-0.053222653
194	0x3db6362f	0.088970535
195	0x3dd3ab14	0.10335365
196	0x3d90a496	0.07062642
197	0xbc4eac49	-0.012614318
198	0xbe758fe6	-0.23980674
199	0x3d67fff0	0.056640565
200	0xbd36a6c0	-0.04459262
201	0x3d81c2aa	0.06335957
202	0x3dd874e8	0.10569173
203	0x3bbb79ac	0.0057212915
204	0x3dd7547f	0.10514163
205	0x3c312c47	0.010813779
206	0x3cb42b57	0.021993322
207	0xbc3ca789	-0.011514553
208	0x3dda7150	0.10666144
209	0x3c844068	0.016143993
210	0xbde0847a	-0.10962768
211	0x3de7f4f2	0.113260165
212	0xbd6f5bad	-0.05843704
213	0x3cee941b	0.029123357
214	0x3e207dff	0.15673064
215	0xbddaa290	-0.106755376
216	0x3cebc5a6	0.02878077
217	0x3d79bd0a	0.060971297
218	0x3cebb560	0.02877301
219	0x3da94ce6	0.0826662
220	0x3d724ffa	0.059158303
221	0xbe042bd6	-0.12907347
222	0x3c807290	0.015679628
223	0x3c7caaa3	0.015421542
224	0x3db21d1a	0.08696957
225	0x3ddda00e	0.10821544
226	0x3d0d77a6	0.034537934
227	0xbdbfa111	-0.09356893
228	0x3d6aa930	0.057290256
229	0x3cbdc0f3	0.023163294
230	0x3dd0a28a	0.10187252
231	0xbdda18e1	-0.106492765
232	0x3e139d29	0.1441542
233	0xbd3cc066	-0.046081923
234	0xbdeaebfa	-0.1147079
235	0x3d7d8c7c	0.061901554
236	0xbd9735a1	-0.07383276
237	0xbd6dfeca	-0.058104314
238	0xbc5a0207	-0.013306147
239	0x3bbea3d5	0.00581787
240	0xbd1dc1cc	-0.038514897
241	0x3d62f99f	0.05541384
242	0x3cfb4ae0	0.030675352
243	0xbbf1012b	-0.0073548756
244	0x3e13983f	0.14413546
245	0xbe00d8b5	-0.12582667
246	0x3bcd0d81	0.0062577133
247	0x3ba6aa7f	0.0050862427
248	0x3ccdba8a	0.025113363
249	0xbc847817	-0.016170545
250	0xbdf0a9ab	-0.117511116
251	0xbca5e63b	-0.020251384
252	0x3d3645ce	0.044500165
253	0x3cca8782	0.024722818
254	0x3dba4762	0.090956464
255	0xbafdf8a8	-0.0019376474

fc4.bias f4 [24]
0	0x3d1fe40e	0.03903585
1	0x3e56e666	0.20986328
2	0x3b2c1f1c	0.002626366
3	0x3e8ce4cc	0.27518308
4	0x3e697c12	0.22801235
5	0xbdfc5d0a	-0.12322433
6	0x3e118ad2	0.14213112
7	0x3da5f3e8	0.08103162
8	0xbe01515b	-0.12628691
9	0xbe619526	-0.22029552
10	0x3e4da990	0.20084214
11	0xbe002b5f	-0.12516545
12	0xbdf0beb6	-0.11755125
13	0xbec733c5	-0.38906685
14	0x3cfa7236	0.030572038
15	0xbedb4ab8	-0.42830443
16	0x3e86b079	0.26306513
17	0x3d517ade	0.051142566
18	0xbda1ee5f	-0.07906794
19	0x3e422844	0.18960673
20	0x3dfdbbcf	0.12389337
21	0x3e6b6921	0.22989322
22	0xbe0aaedc	-0.13543266
23	0x3cf11b94	0.029432096

exp_avg f4 [128, 144]
0	0x3b8d396a	0.004309823
1	0xba9b0536	-0.0011827115
2	0x3a09c278	0.00052551134
3	0xba7d3bec	-0.0009660113
4	0xbae2c1a6	-0.0017300143
5	0xbb044627	-0.0020183416
6	0xbb2635c7	-0.0025361644
7	0x3a26d211	0.00063637
8	0x3b50abfe	0.0031840797
9	0x3a915476	0.0011087793
10	0x39e36bec	0.00043377222
11	0x3b21a742	0.0024666344
12	0xbb4f8e10	-0.003167037
13	0x39b1ca94	0.00033911003
14	0xba845343	-0.0010095615
15	0x39f9404c	0.00047540886
16	0x3b207a40	0.002448693
17	0x3ae518ec	0.0017478741
18	0xbad16230	-0.0015974697
19	0x3acb801a	0.0015525848
20	0x3af08e94	0.0018353038
21	0xb91cea18	-0.00014964526
22	0x3b277154	0.0025549727
23	0x3a2aefec	0.00065207365
24	0x3b849f18	0.0040472858
25	0xbb6c9412	-0.0036099
26	0x3b2fb55e	0.0026810984
27	0x3ac8a18b	0.0015306933
28	0xbb10c41c	-0.0022089547
29	0xba5ccca8	-0.000842283
30	0xbb12d964	-0.0022407407
31	0x3b6bfdff	0.0036009548
32	0xbb27e6e3	-0.0025619797
33	0xbad254f0	-0.0016047042
34	0x3b50c67a	0.0031856583
35	0x3b23f829	0.002501974
36	0xbb84c6c2	-0.004052014
37	0x3b57434c	0.0032846509
38	0x3ad417b0	0.0016181376
39	0xbad8c270	-0.0016537439
40	0x39fd7950	0.00048346305
41	0x3ad83d64	0.0016497788
42	0xbb60baa5	-0.0034290936
43	0x3b06d0c4	0.0020571211
44	0x3ba2976f	0.0049619
45	0x3acd87ea	0.0015680764
46	0xbb1a95a0	-0.0023587719
47	0xba7c4ab8	-0.0009624171
48	0x3b86025e	0.0040896377
49	0xbb9bd0c9	-0.0047551137
50	0x3b4fb4ee	0.0031693536
51	0x3ada88eb	0.0016672885
52	0xba8fb824	-0.0010964912
53	0xba6fda30	-0.0009149639
54	0xbb36a126	-0.0027867048
55	0x3b8c6524	0.004284518
56	0xbb189d01	-0.002328694
57	0xba86c9c4	-0.001028352
58	0x3b45b026	0.0030164807
59	0x3b364631	0.0027812833
60	0xbb75e523	-0.003752061
61	0x3b60d24d	0.0034305037
62	0x3a8823a0	0.0010386594
63	0xbaeea2d4	-0.0018206486
64	0x3a542aa8	0.00080935145
65	0x3afa500c	0.0019097342
66	0xbb71fd16	-0.0036924533
67	0x3a912dfe	0.0011076329
68	0x3b9cdc5f	0.0047870125
69	0x3adc5a6e	0.0016811618
70	0xbb1b48a8	-0.002369443
71	0xba83e71d	-0.0010063384
72	0x3b8603b2	0.004089796
73	0xbbacc123	-0.005272047
74	0x3b73a042	0.0037174379
75	0x3af0c5b7	0.001836947
76	0xba9bf6dc	-0.0011899131
77	0xbaae69a8	-0.0013306635
78	0xbb3d4b23	-0.0028883896
79	0x3b8af902	0.00424111
80	0xba18a108	-0.00058223354
81	0xba8386e8	-0.0010034712
82	0x3b32403a	0.0027198927
83	0x3b27d389	0.0025608263
84	0xbb8040a1	-0.0039139544
85	0x3b646223	0.0034848533
86	0x3a5d9e18	0.0008454039
87	0xbaf526ac	-0.0018703542
88	0x3a563068	0.0008170665
89	0x3b04120e	0.0020152363
90	0xbb756c26	-0.0037448495
91	0x3aa69318	0.0012708632
92	0x3b9edd59	0.004848164
93	0x3b03d09b	0.0020113352
94	0xbb072763	-0.0020622842
95	0xba8a3ed3	-0.0010547288
96	0x3b7fddbc	0.0039042076
97	0xbbab5808	-0.005229
98	0x3b728c22	0.0037009795
99	0x3aeefd6b	0.0018233483
100	0xbabf8df8	-0.0014614454
101	0xbaa31c24	-0.00124443
102	0xbb3955e9	-0.0028279966
103	0x3b8f70e2	0.0043774704
104	0xb93c2e00	-0.00017946213
105	0xba878614	-0.0010339641
106	0x3b3d4a5a	0.0028883428
107	0x3b194cb7	0.0023391673
108	0xbb80f8e6	-0.003935921
109	0x3b4c41c7	0.0031167136
110	0x3a5ca178	0.00084163947
111	0xbac7a68a	-0.0015232128
112	0x3a2276a8	0.0006197491
113	0x3affe390	0.0019522775
114	0xbb787c0b	-0.0037915732
115	0x3aaa50fc	0.0012994106
116	0x3b9d8eb9	0.0048082736
117	0x3b05e617	0.0020431334
118	0xbb0fb59c	-0.0021928316
119	0xba8160bd	-0.0009870749
120	0x3b822874	0.0039721075
121	0xbba9c24a	-0.0051806318
122	0x3b78b086	0.0037947013
123	0x3b0b119e	0.0021220217
124	0xbae2ca90	-0.00173028
125	0xba90ac30	-0.0011037644
126	0xbb371b88	-0.0027939994
127	0x3b8cd712	0.0042980993
128	0x3a24c738	0.00062857894
129	0xba9c91a8	-0.0011945264
130	0x3b178eb8	0.0023125838
131	0x3b142fed	0.0022611574
132	0xbb706b19	-0.003668493
133	0x3b49bd08	0.0030782837
134	0x3a576968	0.0008217306
135	0xbacf68ce	-0.0015824081
136	0x3a063788	0.0005119969
137	0x3afe0f64	0.0019383249
138	0xbb80e974	-0.00393408
139	0x3adceff2	0.0016856177
140	0x3b9d04e9	0.004791845
141	0x3ae6d1b6	0.0017610106
142	0xbb36fa50	-0.0027920194
143	0xba37cd42	-0.0007011482
144	0x3d248b4c	0.040171906
145	0x3c8470c7	0.016167058
146	0x3d2af2e8	0.04173556
147	0x3c76b48d	0.015057695
148	0x3cae11f8	0.021248803
149	0x3d0f50bc	0.034989104
150	0x3c912ba0	0.017720997
151	0x3b0c2740	0.00213857
152	0x3c18d71a	0.009328628
153	0x3c874b44	0.016515382
154	0x3c333e84	0.010940198
155	0x3c2ef144	0.010677639
156	0x3d13ad23	0.036053788
157	0x3bee969c	0.0072811376
158	0x3c04da85	0.00810874
159	0x3ba8c536	0.0051504625
160	0x3d1f8f0c	0.03895478
161	0x3cc0f470	0.023554057
162	0x3cfdf8a3	0.031002348
163	0x3b6b320a	0.003588798
164	0x3d3cd2bc	0.04609941
165	0x3c9cf185	0.019158134
166	0x3c66e430	0.01409249
167	0x3c2f46cf	0.010698034
168	0x3d35ecd1	0.0444153
169	0x3d01f7ec	0.031730577
170	0x3d3a6358	0.045504898
171	0x3c3eaa39	0.011637264
172	0x3d04f9f3	0.032464933
173	0x3d0624e1	0.032750014
174	0x3c8300f4	0.015991665
175	0x3c3a5c42	0.011374535
176	0x3cee12d8	0.02906172
177	0x3cfb5c24	0.030683585
178	0x3c6dea05	0.014521127
179	0x3c105673	0.008809674
180	0x3d24e8c1	0.040261034
181	0x39bad1fa	0.0003563313
182	0x3c77fc0b	0.015135775
183	0x3c4a8920	0.012361795
184	0x3d2f2573	0.042760324
185	0x3ccb3822	0.02480704
186	0x3d18074e	0.03711634
187	0x3bd845e1	0.006600127
188	0x3d56a3be	0.05240225
189	0x3cbe9bfd	0.02326774
190	0x3d0b3c4a	0.033993043
191	0x3c24185d	0.010015574
192	0x3d359617	0.04433259
193	0x3d02444b	0.03180341
194	0x3d3ae26c	0.04562609
195	0x3c36db84	0.011160735
196	0x3d04f01e	0.032455556
197	0x3d01f1e4	0.031724826
198	0x3c952b93	0.018209254
199	0x3c2e7410	0.010647789
200	0x3cea16bd	0.028575296
201	0x3cfb975e	0.030711826
202	0x3c68cd28	0.014209069
203	0x3c39324e	0.0113034975
204	0x3d26f1a8	0.040757805
205	0x39d6714c	0.00040901673
206	0x3c677b51	0.014128522
207	0x3c56e062	0.0131150205
208	0x3d2d017f	0.042237755
209	0x3cc649fb	0.024205199
210	0x3d1e0cec	0.038586542
211	0x3be4f74a	0.006987487
212	0x3d54aa6d	0.051920343
213	0x3cc173c1	0.023614766
214	0x3d055f7a	0.032561757
215	0x3c0fc7fd	0.008775708
216	0x3d344fa4	0.044021264
217	0x3d018737	0.03162309
218	0x3d37ddb4	0.044889167
219	0x3c2854c7	0.010274119
220	0x3d050d74	0.032483533
221	0x3d08adfc	0.03336905
222	0x3c91aea0	0.017783463
223	0x3c2c26ac	0.010507267
224	0x3cdb1371	0.026742669
225	0x3cfa13b7	0.030526979
226	0x3c63442c	0.013871234
227	0x3c363750	0.011121586
228	0x3d2f066f	0.042730745
229	0x3a11d30c	0.00055627595
230	0x3cb1862e	0.021670427
231	0x3c4d010c	0.012512457
232	0x3d2c8a41	0.042124037
233	0x3cc1e0f2	0.023666833
234	0x3d1e81c8	0.038697988
235	0x3baa1c84	0.0051913876
236	0x3d54a5ea	0.05191604
237	0x3cc1322c	0.023583494
238	0x3cf8c000	0.03036499
239	0x3c0615e7	0.008183933
240	0x3d380659	0.04492793
241	0x3d019bc4	0.03164269
242	0x3d3b1f3f	0.045684095
243	0x3c22d36f	0.009938105
244	0x3d04b6ea	0.032401003
245	0x3d0a2dfe	0.033735268
246	0x3ca0f6fa	0.019649018
247	0x3c318ca4	0.010836754
248	0x3cdafcb8	0.026731834
249	0x3cfd05ec	0.030886613
250	0x3c46f576	0.012143483
251	0x3c298507	0.010346658
252	0x3d2ea491	0.04263741
253	0x3a1bd68d	0.00059447513
254	0x3ca949e1	0.020665111
255	0x3c456957	0.012049041

exp_avg_sq f4 [128, 144]
0	0x3a046a62	0.00050512527
1	0x391c1cc8	0.00014888041
2	0x39db9d2d	0.0004188804
3	0x3910b8cf	0.00013801757
4	0x39a7b284	0.00031985727
5	0x397fd317	0.00024397332
6	0x38ac8b1c	8.22751e-05
7	0x38e9b6d3	0.000111443595
8	0x391b997a	0.00014839126
9	0x39640c91	0.00021748456
10	0x3906acc2	0.00012843593
11	0x390759a0	0.00012907991
12	0x39e46b43	0.00043567465
13	0x38320ac8	4.2448548e-05
14	0x39035b43	0.00012527131
15	0x384c5cda	4.8723865e-05
16	0x39e34f75	0.00043356014
17	0x3a133a0d	0.0005616255
18	0x3a132db3	0.00056144147
19	0x38f34ddd	0.00011601646
20	0x39d60774	0.00040822814
21	0x391fe94a	0.00015250329
22	0x3911482a	0.00013855161
23	0x38ec73a7	0.00011274899
24	0x3a75c37a	0.00093751366
25	0x39d4a3f4	0.00040557946
26	0x3a42e042	0.000743393
27	0x398e4a2c	0.00027139613
28	0x3a1bbd37	0.0005940976
29	0x39e98d8f	0.00044546693
30	0x3959468a	0.0002072101
31	0x39940058	0.00028229016
32	0x39ba5de0	0.00035546627
33	0x39d14698	0.00039916183
34	0x39a42547	0.0003130829
35	0x3998dfac	0.00029158348
36	0x3a5550f1	0.00081373664
37	0x395a6530	0.00020827795
38	0x39ac41ae	0.00032855332
39	0x391281fc	0.00013972068
40	0x3a551085	0.0008127767
41	0x3a79102f	0.0009501008
42	0x3a84c260	0.0010128729
43	0x395f0941	0.00021270385
44	0x3a3e0093	0.00072480104
45	0x39c3c239	0.00037338005
46	0x39b04dad	0.0003362721
47	0x39922ca9	0.00027880564
48	0x3a75013d	0.0009346193
49	0x39e16aa5	0.000429948
50	0x3a43a6a6	0.0007463492
51	0x39901cdc	0.00027487322
52	0x3a1b5bae	0.0005926442
53	0x39ecedfd	0.00045190743
54	0x395781ce	0.00020552354
55	0x399644c4	0.00028661464
56	0x39c39189	0.0003730173
57	0x39ceecb2	0.00039467734
58	0x39a4488b	0.00031334566
59	0x399bf233	0.00029744356
60	0x3a5591dc	0.000814704
61	0x395cd707	0.00021060939
62	0x39ad1ee6	0.00033020152
63	0x391afd74	0.00014781003
64	0x3a537ed7	0.0008067912
65	0x3a7ddb08	0.0009683822
66	0x3a876b21	0.001033161
67	0x396229c1	0.00021568594
68	0x3a3e0517	0.0007248683
69	0x39c173c9	0.00036898095
70	0x39af8b3f	0.00033482347
71	0x3992ddce	0.00028012547
72	0x3a748afe	0.0009328573
73	0x39df8657	0.00042633965
74	0x3a45074f	0.00075160427
75	0x398dfcdd	0.00027082014
76	0x3a1c5ad5	0.0005964463
77	0x39f78014	0.00047206937
78	0x395be6e3	0.0002097148
79	0x39912e19	0.000276909
80	0x39cd3fdd	0.0003914823
81	0x39cf5ae7	0.00039549844
82	0x39a2d33c	0.0003105643
83	0x399ddb90	0.0003010896
84	0x3a5c411f	0.0008402038
85	0x395f0f94	0.0002127274
86	0x39ac08cf	0.0003281296
87	0x391af264	0.00014776882
88	0x3a50f160	0.0007970538
89	0x3a7e92c9	0.0009711204
90	0x3a8792a0	0.001034338
91	0x395f9842	0.00021323658
92	0x3a40cfb5	0.00073551695
93	0x39c15a78	0.00036879233
94	0x39ad99a3	0.000331116
95	0x39906f80	0.00027548894
96	0x3a756968	0.0009361715
97	0x39df2f19	0.00042568965
98	0x3a4654fb	0.00075657637
99	0x398e5ba4	0.00027152628
100	0x3a1bad44	0.00059385994
101	0x39f6203a	0.00046944787
102	0x395b490e	0.00020912683
103	0x399677ef	0.00028699587
104	0x39d05eae	0.00039743393
105	0x39cb98b6	0.00038832956
106	0x39a4d5e1	0.0003143987
107	0x399c66c7	0.00029831214
108	0x3a5cd61f	0.00084242405
109	0x395b659d	0.00020923321
110	0x39ac40f6	0.00032854796
111	0x391ab9fe	0.00014755872
112	0x3a50697c	0.0007950289
113	0x3a7e5685	0.00097022235
114	0x3a89d74a	0.0010516432
115	0x395e2f33	0.00021189153
116	0x3a40f861	0.000736123
117	0x39c764ef	0.0003803144
118	0x39ab23a4	0.00032642216
119	0x398ef0c9	0.0002726375
120	0x3a74609f	0.0009322259
121	0x39e3084b	0.00043302993
122	0x3a46d61b	0.0007585005
123	0x3991462a	0.00027708831
124	0x3a1c4102	0.00059606147
125	0x39f5f1b0	0.00046910113
126	0x395b82d7	0.00020934209
127	0x399807ed	0.00028997604
128	0x39ce1341	0.00039305727
129	0x39caa088	0.00038648047
130	0x39a4d971	0.00031442524
131	0x399cf739	0.00029938834
132	0x3a5c84f3	0.0008412145
133	0x395ad058	0.00020867714
134	0x39ab631e	0.0003268951
135	0x391b93a2	0.0001483695
136	0x3a4feaea	0.0007931428
137	0x3a7e2f3a	0.00096963684
138	0x3a8acd8d	0.0010589823
139	0x396634ff	0.00021954252
140	0x3a413fdb	0.0007371881
141	0x39c63711	0.0003780653
142	0x39ab9da1	0.00032733104
143	0x398cd6bd	0.00026862873
144	0x3b660731	0.0035099501
145	0x3a6b1240	0.0008967258
146	0x3b2e0989	0.0026555976
147	0x3a3e8516	0.0007267756
148	0x3af1b8b5	0.0018441888
149	0x3ad48d1a	0.0016216368
150	0x39f33984	0.00046391424
151	0x39a0dbdf	0.00030681395
152	0x3ae9ec66	0.0017846941
153	0x3a580ecf	0.0008241953
154	0x3a01b78d	0.00049483107
155	0x3ae7466d	0.001764489
156	0x3b0c2cb1	0.0021388943
157	0x39029ff2	0.0001245735
158	0x3a315e37	0.0006766053
159	0x3a83c837	0.0010054176
160	0x3b216bc4	0.0024630884
161	0x3b2774e4	0.002555185
162	0x3b77c812	0.003780846
163	0x3ab12731	0.0013515708
164	0x3b1a2e12	0.0023525995
165	0x3a3571bf	0.00069215515
166	0x3a77b282	0.0009448902
167	0x3a3a3138	0.0007102671
168	0x3bade4c1	0.0053068106
169	0x3afe9a80	0.0019424707
170	0x3b897b69	0.00419562
171	0x3abb4db3	0.0014290124
172	0x3b3a8b12	0.002846424
173	0x3b19ad64	0.0023449296
174	0x3a89002b	0.001045232
175	0x3aaaae03	0.001302183
176	0x3b634fbf	0.0034684984
177	0x3ae10be1	0.0017169678
178	0x3a3fbda7	0.0007314332
179	0x3b4c833b	0.003120615
180	0x3b41a74b	0.0029549177
181	0x373501c2	1.078885e-05
182	0x3ab579a9	0.0013845462
183	0x3b1217cd	0.0022292018
184	0x3b70375f	0.0036654097
185	0x3b6843d3	0.0035440817
186	0x3bb7f601	0.0056140427
187	0x3b2e81f2	0.0026627746
188	0x3b6577c9	0.0035014024
189	0x3ac28119	0.00148395
190	0x3b10cc20	0.0022094324
191	0x3aa186e8	0.001232353
192	0x3baef4ec	0.0053392556
193	0x3b030f9f	0.0019998325
194	0x3b87ec74	0.0041480605
195	0x3ab508ed	0.0013811864
196	0x3b3863a7	0.002813557
197	0x3b1780e6	0.00231176
198	0x3a895065	0.001047623
199	0x3aae1816	0.0013282325
200	0x3b6235a7	0.0034516843
201	0x3ada73b6	0.0016666565
202	0x3a69f7de	0.000892518
203	0x3b4f0eb0	0.0031594448
204	0x3b42d2e2	0.0029727747
205	0x371f23b3	9.48545e-06
206	0x3ab3d4c2	0.0013720023
207	0x3b14283d	0.0022606992
208	0x3b6f5a10	0.0036522187
209	0x3b66bbe0	0.0035207197
210	0x3bb98daa	0.0056626396
211	0x3b3194d1	0.0027096758
212	0x3b69b9ef	0.0035663804
213	0x3ac8123d	0.0015264224
214	0x3b0cea2d	0.0021501884
215	0x3aa291bd	0.0012403053
216	0x3baeefe8	0.0053386576
217	0x3b0130c9	0.0019712916
218	0x3b8a8ea7	0.0042284313
219	0x3ab440d3	0.0013752229
220	0x3b36320a	0.0027800822
221	0x3b1c8c75	0.002388743
222	0x3a900774	0.0010988549
223	0x3aace92a	0.0013192047
224	0x3b611cb8	0.0034349393
225	0x3ade156f	0.0016943644
226	0x3a6ad2c6	0.00089577993
227	0x3b4f260f	0.0031608378
228	0x3b4ae456	0.0030958853
229	0x3715d1e4	8.929961e-06
230	0x3abc828a	0.0014382165
231	0x3b0eb73f	0.0021776704
232	0x3b6ac701	0.0035824182
233	0x3b660971	0.0035100842
234	0x3bb990bc	0.0056630056
235	0x3b324dc6	0.0027207
236	0x3b69cf3b	0.0035676498
237	0x3acce9a1	0.0015633592
238	0x3b09e475	0.0021040712
239	0x3aa0876d	0.0012247391
240	0x3baf132a	0.0053428607
241	0x3b0379c4	0.0020061592
242	0x3b8aa212	0.004230746
243	0x3ab381ea	0.0013695334
244	0x3b3009d5	0.002686133
245	0x3b1d0f99	0.0023965596
246	0x3a93816c	0.0011253781
247	0x3aad835d	0.0013238002
248	0x3b60c06e	0.0034294385
249	0x3ae17891	0.0017202069
250	0x3a64039a	0.00086980464
251	0x3b4dae4c	0.0031384407
252	0x3b4bed1e	0.0031116675
253	0x37158014	8.910913e-06
254	0x3ab7a097	0.0014009651
255	0x3b0922f1	0.0020925368
