models/RaceModelsOld/reg_pos_3copies_0to10_onelayers_mse/model.pt (torch, 505135 bytes, 18 tensors)

fc1.weight f4 [128, 240]
-0.039660044 -0.055175763 0.040213324 0.00067453086 0.028314903 -0.063319206 -0.05236171 -0.06210452
0.040762596 0.029378459 0.0017150566 -0.040234216 -0.016076602 -0.05968885 0.019931965 0.025808752
0.053937025 -0.054893952 0.033052966 0.020840235 0.015004925 -0.058453485 0.013623223 0.011912167
-0.05609409 -0.053204767 0.047684 0.051108606 0.016115882 -0.04073457 0.026275858 -0.04495742
-0.03524988 0.062997006 -0.053780388 -0.041711688 -0.04506649 -0.061888754 0.033344954 0.008355238
0.03611725 0.044382222 -0.056542598 0.038694263 -0.042656124 -0.047903888 0.05190964 -0.030300088
-0.025740791 -0.03229974 0.033122696 0.036343582 0.011262536 0.055243254 -0.0011203662 0.060145944
-0.037699122 0.041695 -0.05314652 -0.031256337 0.042497292 -0.03555064 0.040155023 0.063254215
0.046560436 0.0064252317 -0.00800664 0.042332374 -0.032768928 -0.016181339 0.048720896 -0.0013133064
-0.05888375 0.01700706 0.0019182563 0.038540088 -0.041042104 -0.018596373 -0.04362484 0.03863313
-0.040052462 0.02935893 -0.008625228 -0.03533437 -0.03968549 -0.039686706 0.03539802 -0.036012
-0.0038934574 -0.032124195 0.03653159 -0.044354595 0.0012007281 -0.023675825 -0.021388263 0.04549817
0.057956696 0.04486025 -0.056621086 0.0114430785 -0.03337148 -0.0067283213 0.027582072 0.048401244
0.04235971 -0.031970795 -0.010564089 0.018173844 0.045048125 0.061567716 -0.016491152 -0.010541655
-0.060908683 0.04990489 -0.010206711 -0.06186246 0.046358123 0.038413487 -0.0049142577 0.0619551
0.0019521043 0.020851433 0.06403013 0.020504907 -0.011199281 -0.052938186 -0.061799515 -0.036772832
-0.062132884 -0.03664727 -0.007102024 -0.013246056 -0.006835174 0.016151018 0.042700574 -0.06145539
0.014588088 -0.02843998 -0.0055917352 0.033551596 -0.025892843 0.017360933 -0.063781925 0.033494174
-0.062882625 -0.059463892 0.044115193 0.01915934 -0.010366105 0.009786144 -0.05282307 0.036127515
-0.015220679 0.0002815053 -0.026770797 0.03617598 -0.017615281 0.049423262 0.05738212 -0.02420824
-0.05558144 0.017691948 0.017761804 0.03749255 0.01216504 0.061917044 -0.014656771 0.04224287
-0.048450343 -0.027309801 0.020113215 -0.045864332 -0.049911134 -0.006849125 -0.051553 -0.026870329
-0.020089053 -0.032756288 0.0055829585 -0.06360127 -0.0017883182 0.013090469 0.0033290163 0.03935548
0.03500227 -0.019584633 -0.013037369 -0.022747818 -0.0024477318 -0.04362867 -0.00999558 -0.045931503
-0.02047246 -0.043808915 -0.05732898 -0.059169166 -0.020633731 0.056729175 0.037086777 -0.0033859387
0.035320148 0.061613105 -0.02819835 -0.061639432 0.006450936 -0.008480009 -0.0073733255 0.051054373
0.048961334 -0.021869704 -0.032727316 -0.05908647 0.018492654 -0.018348984 0.032278426 0.029825479
0.024070218 0.03929138 -0.01780643 0.060644038 -0.0512866 0.050790764 0.036441445 0.051942766
0.06268918 0.055598304 -0.029491246 0.050008 -0.055692 0.031186245 -0.023140706 -0.027805354
-0.026898678 0.010286905 0.005354114 -0.027989317 -0.047283553 -0.016163677 -0.020561382 -0.054608922
-0.005905959 0.05134726 0.025611268 -0.11800445 -0.016845183 0.023968136 0.048852026 -0.074521214
0.021827731 0.023932647 -0.029226169 0.084330276 0.17187881 -0.10370591 0.013019479 0.068974756
00000000: 9272 22bd fbff 61bd bab6 243d 00d3 303a
00000010: a8f4 e73c 80ad 81bd 3c79 56bd 4f61 7ebd
00000020: aef6 263d 18ab f03c c0cb e03a a2cc 24bd
00000030: 14b3 83bc 4c7c 74bd 5c48 a33c e06c d33c
00000040: 12ed 5c3d 7bd8 60bd 8c62 073d 24b9 aa3c
00000050: 38d7 753c ec6c 6fbd f033 5f3c 402b 433c
00000060: ebc2 65bd 3eed 59bd 4c50 433d 4257 513d
00000070: 7405 843c 4bd9 26bd 7840 d73c 4625 38bd
00000080: 2e62 10bd 9304 813d d348 5cbd e0d9 2abd
00000090: a497 38bd 107f 7dbd b894 083d 68e4 083c
000000a0: aeef 133d 22ca 353d 3699 67bd e07d 1e3d
000000b0: 30b8 2ebd de36 44bd 349f 543d e437 f8bc
000000c0: 5ade d2bc bb4c 04bd aaab 073d 02dd 143d
000000d0: 8086 383c c046 623d 40d9 92ba 985b 763d
000000e0: 656a 1abd 60c8 2a3d 2ab0 59bd a506 00bd
000000f0: a411 2e3d 8c9d 11bd 9879 243d 6d8b 813d
00000100: 28b6 3e3d c08a d23b 482e 03bc b664 2d3d
00000110: b638 06bd ba8e 84bc 908f 473d 4023 acba
00000120: 1630 71bd 6452 8b3c 006e fb3a 36dc 1d3d
00000130: c41b 28bd 6c57 98bc f6af 32bd c63d 1e3d
00000140: 0d0e 24bd 2482 f03c d450 0dbc c6ba 10bd
00000150: 418d 22bd 878e 22bd 84fd 103d 5281 13bd
00000160: 6029 7fbb a994 03bd 26a2 153d 2aad 35bd
00000170: c061 9d3a cef3 c1bc 7036 afbc 4a5c 3a3d
00000180: 0064 6d3d 62bf 373d 83eb 67bd c07b 3b3c
00000190: 88b0 08bd 4079 dcbb ccf3 e13c 6240 463d
000001a0: 6081 2d3d cff3 02bd 0015 2dbc 50e1 943c
000001b0: 6284 383d 6e2e 7c3d 7418 87bc e8b6 2cbc
000001c0: 627b 79bd 1269 4c3d 0c3a 27bc 7e63 7dbd
000001d0: 04e2 3d3d 7657 1d3d c807 a1bb a2c4 7d3d
000001e0: c0dd ff3a a0d0 aa3c 3b22 833d e8f9 a73c
000001f0: 307d 37bc b6d5 58bd 7d21 7dbd 1c9f 16bd
00000200: 0d7f 7ebd 731b 16bd 18b8 e8bb fc05 59bc
00000210: 98f9 dfbb 244f 843c cce6 2e3d a6b8 7bbd
00000220: e002 6f3c f6fa e8bc e03a b7bb 666d 093d
00000230: 3a1d d4bc 8438 8e3c 19a0 82bd 3031 093d
00000240: 9bc8 80bd 6990 73bd 22b2 343d 0cf4 9c3c
00000250: 98d6 29bc 1056 203c 015d 58bd 72fa 133d
00000260: 2860 79bc 0097 9339 6e4e dbbc 442d 143d
00000270: ec4d 90bc 0c70 4a3d 8409 6b3d 5c50 c6bc
00000280: 5da9 63bd b4ee 903c 3481 913c ca91 193d
00000290: e04f 473c ba9c 7d3d f422 70bc dc06 2d3d
000002a0: de73 46bd ceb8 dfbc 78c4 a43c 3ddc 3bbd
000002b0: 9e6f 4cbd a06e e0bb 3d29 53bd 2a1f dcbc
000002c0: cc91 a4bc 752b 06bd 40f1 b63b 6241 82bd
000002d0: 0066 eaba 6879 563c a02b 5a3b 3633 213d
000002e0: 8a5e 0f3d f46f a0bc b09a 55bc a259 babc
000002f0: 206a 20bb fab3 32bd 80c4 23bc ac22 3cbd
00000300: dcb5 a7bc fa70 33bd cbd1 6abd 5e5b 72bd
00000310: 1208 a9bc da5c 683d 4ee8 173d a0e6 5dbb
00000320: dcab 103d 065e 7c3d 3a00 e7bc a179 7cbd
00000330: 6062 d33b bcef 0abc f09b f1bb 641e 513d
00000340: ae8b 483d 1828 b3bc 140d 06bd a804 72bd
00000350: e87d 973c 9c50 96bc 6236 043d 9054 f43c
00000360: e82e c53c 00f0 203d cade 91bc e265 783d
00000370: e611 52bd fa09 503d a043 153d f0c1 543d
00000380: 2f63 803d 0cbb 633d a097 f1bc 30d5 4c3d
00000390: 4b1d 64bd 4c7a ff3c 9491 bdbc 0ec8 e3bc
000003a0: 9e5a dcbc 688a 283c 9071 af3b da49 e5bc
000003b0: 66ac 41bd b069 84bc 5870 a8bc 9bad 5fbd
000003c0: c686 c1bb 8151 523d b9ce d13c 51ac f1bd
000003d0: e9fe 89bc d358 c43c 1019 483d 949e 98bd
000003e0: 12d0 b23c 660e c43c b86b efbc 5ab5 ac3d
000003f0: 0001 303e c463 d4bd a74f 553c a342 8d3d

fc1.bias f4 [128]
-0.033992246 0.055223204 -0.006549738 -0.04600167 -0.053863186 -0.00176116 -0.020298418 -0.046884567
-0.053004157 0.029697899 -0.0048540374 0.022397531 -0.0024193265 0.038046204 -0.017373955 -0.07356215
-0.018777013 -0.009224138 -0.042261563 -0.047922865 0.063302994 0.004940505 -0.0588379 -0.027818304
-0.011771432 -0.020930246 0.018552173 0.04668546 -0.007836413 0.008405304 0.022861358 -0.013917537
0.037549384 0.030018246 -0.03828545 0.04355955 0.0708035 0.010852491 -0.019626698 0.0043167965
0.034679394 -0.071043685 -0.05280795 0.015195042 0.037252955 -0.054088295 0.005349001 -0.027685031
0.04331526 -0.005569326 -0.046588168 0.06073063 0.009926619 -0.07062234 0.040799554 -0.02853377
-0.048977736 -0.062334053 0.03694477 0.014879162 -0.0031774768 0.09452098 -0.005721638 0.039035283
0.020973766 -0.024255577 -0.016172549 0.013932669 -0.027690139 0.029063826 -0.022499397 0.069414906
-0.0046521085 -0.030535465 0.043386307 0.042046368 -0.023349132 0.050168727 0.049679216 0.00075533264
-0.05476873 -0.028533654 -0.07028993 -0.07022679 -0.020288 0.07176367 0.051949576 0.0060560815
-0.01060018 -0.052282687 0.056641806 0.041367978 0.008442944 -0.060489047 0.04877253 0.030359099
0.026877234 0.053847328 0.029561043 -0.03888362 -0.068160094 -0.03788014 -0.0043240897 -0.05851728
-0.0017267457 0.026223874 -0.015654074 0.014306118 0.031226411 0.06739985 0.038428105 -0.005309634
-0.019926619 0.00781829 0.054043565 0.04980464 0.029329218 0.061696183 0.009026974 0.017408833
0.022872647 -0.0053090164 -0.0382811 0.06726356 0.034870517 0.052390207 -0.010621534 -0.013537381
00000000: 743b 0bbd ba31 623d 2f9f d6bb 3f6c 3cbd
00000010: a59f 5cbd b9d6 e6ba de48 a6bc 080a 40bd
00000020: e31a 59bd 0249 f33c 9e0e 9fbb 077b b73c
00000030: 908d 1ebb 56d6 1b3d d353 8ebc c1a7 96bd
00000040: 40d2 99bc d720 17bc 761a 2dbd c44a 44bd
00000050: 00a5 813d f6e3 a13b 0300 71bd 36e3 e3bc
00000060: f7dc 40bc e875 abbc bafa 973c 4139 3f3d
00000070: 4c64 00bc 66b6 093c be47 bb3c 6206 64bc
00000080: 62cd 193d d3e8 f53c 34d1 1cbd 806b 323d
00000090: 6d01 913d a5ce 313c 2bc8 a0bc ea73 8d3b
000000a0: fb0b 0e3d 5a7f 91bd 264d 58bd a0f4 783c
000000b0: 8e96 183d b08b 5dbd ac46 af3b b8cb e2bc
000000c0: 586b 313d e57e b6bb 3cd3 3ebd aec0 783d
000000d0: 42a3 223c 72a2 90bd 6f1d 273d a7bf e9bc
000000e0: e19c 48bd fe51 7fbd 6653 173d bbc7 733c
000000f0: 373d 50bb 3794 c13d 947c bbbb 76e3 1f3d
00000100: 2dd1 ab3c a2b3 c6bc 4b7c 84bc d945 643c
00000110: 6ed6 e2bc 4317 ee3c a850 b8bc 6729 8e3d
00000120: b770 98bb 8325 fabc d7b5 313d d038 2c3d
00000130: ae46 bfbc b97d 4d3d 6f7c 4b3d 8401 463a
00000140: 2d55 60bd 69bf e9bc 2bf4 8fbd 10d3 8fbd
00000150: 0533 a6bc d5f8 923d 14c9 543d 1872 c63b
00000160: 61ac 2dbc 5f26 56bd 3d01 683d 7871 293d
00000170: 4654 0a3c 5dc3 77bd b4c5 473d a5b3 f83c
00000180: a52d dc3c 048f 5c3d 002a f23c 6e44 1fbd
00000190: 8597 8bbd 3528 1bbd 18b1 8dbb d1af 6fbd
000001a0: f953 e2ba 73d3 d63c f93c 80bc 3564 6a3c
000001b0: 88ce ff3c ef08 8a3d ca66 1d3d 70fc adbb
000001c0: 263d a3bc 4918 003c c95c 5d3d f3ff 4b3d
000001d0: d443 f03c 23b5 7c3d e0e5 133c f89c 8e3c
000001e0: 6b5f bb3c 42f7 adbb a5cc 1cbd 7ac1 893d
000001f0: 63d4 0e3d 1d97 563d f105 2ebc e4cb 5dbc

fc2.weight f4 [64, 128]
0.03640364 -0.051725652 -0.069829054 -0.07350836 0.05852011 -0.023043336 -0.035177894 0.07354134
-0.058071062 0.049078945 -0.08081975 -0.0944079 -0.08683119 0.040582534 -0.13837118 -0.011622994
0.024282895 0.021110771 -0.03619933 -0.09758445 0.040374603 -0.11752356 0.06806132 0.011085448
-0.00029127861 0.018586919 -0.015650392 0.07776665 0.018015664 0.030342178 -0.0035702 0.053782403
-0.013438541 -0.042994156 -0.0012378867 0.053427003 -0.10248903 0.030718416 -0.016436247 -0.058082465
-0.07510334 0.005296142 -0.042210035 -0.012694566 -0.10148115 0.008318753 -0.0014760925 0.04617451
0.056564696 0.021443624 -0.08125249 -0.04135185 0.012941431 -0.05097859 0.059084017 -0.03549102
0.06824287 -0.0013777298 -0.022209171 0.0026495159 -0.07875815 0.016302492 0.038782693 -0.0065672183
0.034812994 0.028837185 0.04708629 0.04908829 -0.007665827 0.014987154 0.040788036 -0.032476064
-0.13846189 -0.013907362 -0.033915192 -0.10734053 -0.034008835 -0.027814405 0.032244302 -0.054487336
0.018950654 0.043468814 -0.09436739 -0.0056859474 -0.054683696 0.00050723564 -0.055496603 -0.009556693
-0.028053572 0.047820218 -0.0012737921 -0.08790763 0.04996035 -0.057485044 -0.03267834 0.051276688
-0.085498385 -0.02597369 -0.051785685 0.031014254 -0.0379329 -0.08634 -0.065518096 -0.05098309
-0.108051345 -0.037513547 0.04224127 0.0071195033 0.07698928 -0.0025112391 0.035866052 -0.051397834
0.062260292 0.04705075 0.0028009692 -0.028855998 -0.051796764 0.035749596 0.07288893 -0.11664812
0.066371314 -0.13500546 -0.015125323 -0.12802519 -0.04518623 0.07532949 -0.020956678 0.042967178
-0.07841263 0.011921407 0.07592382 0.07512047 -0.0620347 0.037142843 0.013351693 -0.045877095
-0.027151208 0.0046915533 0.06840016 0.015226906 -0.041731786 0.0006575281 0.0042936616 -0.005317108
-0.05341169 -0.0078568915 0.04345452 0.07079461 0.03376922 0.07932353 -0.021298407 0.07305686
0.11226357 0.0669459 0.124576695 0.017002586 0.082337566 -0.008259711 -0.100596346 -0.040108576
-0.06186907 -0.06300236 0.07509357 -0.048855904 0.004301085 0.04013782 -0.06242172 -0.12038184
-0.07444323 -0.019680735 0.022372149 -0.072559126 0.075246625 0.081498414 0.03195687 0.025796473
0.05004918 0.106799446 0.082479805 -0.038052347 -0.0691148 0.02608118 -0.05727391 -0.20554681
0.08327424 -0.08271194 0.061095838 0.06698546 0.075583264 0.10869705 -0.07113896 0.053530827
-0.061493002 -0.0015527909 0.058426995 -0.07002357 -0.037760768 -0.070922196 0.05844678 0.019413356
0.0094760815 0.04332865 0.02994043 0.06688778 0.03753227 0.03608715 0.016219862 -0.078290634
-0.070374 -0.03756961 0.034591377 0.07392043 -0.017454123 0.05036214 -0.01713874 -0.026100677
0.041261304 -0.03119672 0.06955556 -0.039184272 0.093004726 -0.0048136786 -0.10718947 0.16679153
0.0777332 0.08765551 -0.060850166 0.004484193 0.06540494 -0.07812075 0.018677989 -0.044155996
0.01962864 0.06845513 -0.07435191 -0.11992466 -0.026857968 0.08147696 -0.0035620546 -0.03615802
0.02078901 -0.032604665 -0.057373676 0.050583415 0.07639492 0.035661492 0.05332998 0.0019179471
-0.023090102 -0.13524555 0.008444648 0.019391932 0.044364996 0.05973537 -0.0596588 0.054244235
00000000: fc1b 153d 47de 53bd 8902 8fbd 8d8b 96bd
00000010: c8b2 6f3d 61c5 bcbc b216 10bd d89c 963d
00000020: ecdb 6dbd 0107 493d d384 a5bd ee58 c1bd
00000030: 8dd4 b1bd df39 263d 2db1 0dbe 5f6e 3ebc
00000040: ecec c63c 7ff0 ac3c c045 14bd 5bda c7bd
00000050: d75f 253d 31b0 f0bd bc63 8b3d bd9f 353c
00000060: c1b6 98b9 9843 983c 4035 80bc 1f44 9f3d
00000070: 9695 933c 2990 f83c 04fa 69bb f04a 5c3d
00000080: 542d 5cbc a41a 30bd 9640 a2ba 46d6 5a3d
00000090: c5e5 d1bd 30a5 fb3c 4fa5 86bc e1e7 6dbd
000000a0: c8cf 99bd 428b ad3b 6ee4 2cbd defc 4fbc
000000b0: 59d5 cfbd 614b 083c 7279 c1ba 7c21 3d3d
000000c0: 62b0 673d 8aaa af3c b567 a6bd 8f60 29bd
000000d0: 4c08 543c edce 50bd 1502 723d 085f 11bd
000000e0: ebc2 8b3d f194 b4ba 02f0 b5bc 80a3 2d3b
000000f0: f44b a1bd ce8c 853c 9ada 1e3d d231 d7bb
00000100: 1298 0e3d f63b ec3c 8edd 403d ce10 493d
00000110: 9e31 fbbb ae8c 753c 5b11 273d 9f05 05bd
00000120: f4c8 0dbe b4db 63bc a8ea 0abd 5ad5 dbbd
00000130: d94c 0bbd 09db e3bc 9a12 043d 1d2e 5fbd
00000140: 673e 9b3c 5b0c 323d b143 c1bd 2f51 babb
00000150: 03fc 5fbd 02f8 043a 6850 63bd ad93 1cbc
00000160: 9bd0 e5bc 22df 433d 5ff5 a6ba ea08 b4bd
00000170: 39a3 4c3d 7075 6bbd b9d9 05bd 8107 523d
00000180: c719 afbd c7c6 d4bc 3a1d 54bd 9b11 fe3c
00000190: 875f 1bbd 07d3 b0bd 5a2e 86bd a5d3 50bd
000001a0: 064a ddbd cea7 19bd 2f05 2d3d b94a e93b
000001b0: 8eac 9d3d 9a93 24bb 48e8 123d 8986 52bd
000001c0: a604 7f3d 4ab8 403d 7790 373b 6a63 ecbc
000001d0: d828 54bd 2b6e 123d cb46 953d 36e5 eebd
000001e0: afed 873d df3e 0abe 34d0 77bc 0919 03be
000001f0: 3215 39bd 5946 9a3d 57ad abbc 5afe 2f3d
00000200: cd96 a0bd 0152 433c f37d 9b3d c3d8 993d
00000210: 1918 7ebd 1823 183d 0fc1 5a3c 9fe9 3bbd
00000220: 366c debc 9abb 993b 6215 8c3d 467a 793c
00000230: f3ee 2abd f75d 2c3a d8b1 8c3b 223b aebb
00000240: 37c6 5abd 31ba 00bc 5efd 313d c4fc 903d
00000250: 9851 0a3d 6074 a23d ff79 aebc d69e 953d
00000260: 71ea e53d ef1a 893d 1122 ff3d 0249 8b3c
00000270: 99a0 a83d bd53 07bc 7505 cebd e448 24bd
00000280: 6c6a 7dbd 6207 81bd a8ca 993d 211d 48bd
00000290: 1ef0 8c3b 8e67 243d ebad 7fbd c18a f6bd
000002a0: b175 98bd 7e39 a1bc cc45 b73c e199 94bd
000002b0: e71a 9a3d a4e8 a63d 35e5 023d 2053 d33c
000002c0: 5e00 4d3d abb9 da3d 2ceb a83d c7dc 1bbd
000002d0: 0f8c 8dbd 33a8 d53c 0c98 6abd dd7a 52be
000002e0: af8b aa3d e164 a9bd a13f 7a3d ac2f 893d
000002f0: 66cb 9a3d 8f9c de3d 4eb1 91bd 2443 5b3d
00000300: 16e0 7bbd 0487 cbba 2551 6f3d 8468 8fbd
00000310: 09ab 1abd a83f 91bd e465 6f3d c208 9f3c
00000320: 9141 1b3c 6279 313d a245 f53c 76fc 883d
00000330: 70bb 193d 1fd0 133d 84df 843c d756 a0bd
00000340: 3e20 90bd 97e2 19bd b0af 0d3d 9863 973d
00000350: f3fb 8ebc 8848 4e3d 8b66 8cbc 16d1 d5bc
00000360: 9d01 293d 4490 ffbc 2573 8e3d b07f 20bd
00000370: 4379 be3d 10bc 9dbb 2786 dbbd 66cb 2a3e
00000380: 9532 9f3d bb84 b33d 063e 79bd 23f0 923b
00000390: 06f3 853d c6fd 9fbd 9502 993c ebdc 34bd
000003a0: 3ecc a03c 3432 8c3d d045 98bd 0f9b f5bd
000003b0: 3e05 dcbc 64dd a63d 5c71 69bb 6f1a 14bd
000003c0: b74d aa3c 788c 05bd a900 6bbd 8e30 4f3d
000003d0: f174 9c3d c911 123d 8970 5a3d a063 fb3a
000003e0: 7427 bdbc cf7d 0abe 6c5b 0a3c d4db 9e3c
000003f0: 12b8 353d 13ad 743d c95c 74bd 342f 5e3d

fc2.bias f4 [64]
-0.040389184 0.13857275 -0.017195882 0.02102406 -0.0061618257 0.03847753 -0.05902977 0.008718814
-0.035343472 -0.09035423 0.12662406 0.0989008 0.02098168 0.056080878 0.059327345 -0.037370462
0.031661507 -0.043875616 0.13486394 0.091992214 0.018562632 -0.052099355 0.121188834 0.14789632
-0.097802736 0.096827835 -0.017281115 -0.09559275 -0.06583328 0.17669658 -0.059895165 0.009279071
0.09255835 -0.07091107 -0.039442692 0.09851492 -0.011297361 0.09182836 0.17330025 -0.026714375
0.031891223 -0.089195184 0.12507588 0.007135154 0.012423605 -0.01973261 0.098328546 -0.0047330097
-0.028717048 0.11090545 0.012689411 0.08506384 0.022950754 0.013848508 0.10933798 0.10848935
-0.07824719 -0.05304179 0.057891935 -0.0869321 -0.08679302 0.06871835 0.11424905 -0.06549559
00000000: 216f 25bd 04e6 0d3e 61de 8cbc a63a ac3c
00000010: 24e9 c9bb 9d9a 1d3d 33c9 71bd 5bd9 0e3c
00000020: 51c4 10bd a30b b9bd bda9 013e 818c ca3d
00000030: c6e1 ab3c 10b5 653d 3b01 733d c511 19bd
00000040: 7faf 013d ebb6 33bd c619 0a3e 6a66 bc3d
00000050: a910 983c 2266 55bd da31 f83d 2272 173e
00000060: cd4c c8bd ac4d c63d 2091 8dbc 22c6 c3bd
00000070: 99d3 86bd f3ef 343e a254 75bd 3f07 183c
00000080: 3b8f bd3d d339 91bd a98e 21bd 31c2 c93d
00000090: 9118 39bc 8210 bc3d 9f75 313e 1bd8 dabc
000000a0: 5fa0 023d f7ab b6bd e413 003e 03ce e93b
000000b0: 608c 4b3c 48a6 a1bc 7a60 c93d 5d17 9bbb
000000c0: 0440 ebbc 6622 e33d 3fe7 4f3c f335 ae3d
000000d0: 3803 bc3c dae4 623c 97ec df3d aa2f de3d
000000e0: 1040 a0bd 5942 59bd 1820 6d3d 7509 b2bd
000000f0: 8ac0 b1bd 35bc 8c3d 68fb e93d 8d22 86bd

fc3.weight f4 [24, 64]
-0.0042473325 -0.068099745 -0.04186203 -0.003399868 -0.09957265 0.17501763 0.055899497 -0.022793686
0.014801434 -0.014197063 0.03431084 0.15905313 0.031063044 -0.033439454 0.09859613 -0.03561355
-0.064695925 -0.09307166 0.07723993 -0.012841998 0.26887512 0.06823088 -0.045702193 -0.13047412
0.005102117 0.014535094 0.15223712 -0.11857693 -0.019067425 0.06947967 -0.09684068 0.11086283
-0.015024392 -0.071125016 -0.057850383 0.03998119 0.0197697 0.0947915 0.034265358 -0.044420928
-0.10529832 0.034119785 0.016945053 0.002040357 -0.017222881 -0.11191817 0.20986909 0.021222733
0.09745264 0.0067844023 0.043881364 -0.03022402 0.0030372636 -0.0019619302 0.14106457 0.005477545
-0.021916743 0.05353566 0.0007379658 0.085071206 0.10784977 0.090137735 0.045022476 0.0015299936
0.08275693 0.07885064 0.089423254 -0.032667134 0.029246362 0.16746373 -0.005143125 0.09615726
-0.11566069 0.060794257 0.000590243 0.056576915 0.06077431 -0.01385887 -0.14351493 0.013968959
-0.04428503 0.019802138 -0.03538966 0.0204366 -0.14864522 0.22864237 -0.03235189 0.21209091
0.09961195 0.11711462 -0.12984933 0.12093049 -0.046392612 0.058464583 0.077130936 -0.08578785
-0.03021408 0.0004455159 -0.10776418 0.13462502 0.0015235713 -0.04210226 -0.027850151 -0.060420804
-0.15005772 -0.02655269 -0.03600576 0.035182226 -0.015890852 0.043924954 0.15272884 0.05474962
-0.23612101 0.12141408 0.044679776 -0.0009679115 0.0075720977 -0.007297431 -0.13609007 -0.09259649
0.017046195 0.024237715 0.07206838 0.11749232 0.014808247 -0.103988566 0.25133708 -0.042439528
-0.08572937 0.09235445 -0.1358543 0.110876136 0.03945255 -0.15473163 -0.09446925 0.114683576
-0.0042933584 0.0028244338 0.025035964 0.09781681 0.023738869 -0.0035792852 0.021629423 -0.10133779
-0.07174256 -0.057969578 0.09207791 0.11437179 0.08170903 -0.059106197 -0.010538262 0.057842858
-0.034357354 -0.087455295 0.105685696 -0.012611268 0.015204572 -0.11520145 0.0499108 -0.30802017
0.10702465 -0.017633814 -0.004678357 0.11449473 0.007558275 0.16169477 -0.088752404 0.04832258
-0.09716049 0.051001728 0.15481581 -0.02520406 0.045698956 -0.11425287 0.02179254 -0.07137539
-0.075981535 -0.011721742 0.13811322 0.07780523 -0.11147617 0.19141111 0.16702834 -0.047390353
-0.007378958 -0.07289832 0.010060293 0.08289456 0.09613773 -0.101446696 0.18297984 -0.037409388
0.06905119 0.12250377 -0.0011834749 0.028763311 0.07543361 -0.06460871 -0.025607783 -0.07217094
0.21588561 -0.071818344 0.047449313 0.16031554 -0.052982934 0.0013422221 -0.0654467 0.074546665
-0.14231902 0.07144057 0.031747617 -0.03642676 0.107717074 0.2579039 -0.2143108 -0.032328755
0.04619157 0.18315087 -0.09964983 0.023200903 -0.04129954 0.17331196 -0.009976495 -0.24349457
-0.027892709 0.035059948 0.10381967 0.17855957 -0.05461865 0.01911285 0.13978778 -0.021871593
0.03834481 -0.14017114 0.15464553 -0.0057935757 0.1030889 0.0066610174 -0.018422853 -0.11157376
-0.22426286 -0.0379334 0.10704033 -0.07833435 0.01970669 0.04695464 -0.12496602 0.05769761
-0.06305146 -0.109472975 0.0021781176 0.09675728 0.05218665 0.054712236 0.07140636 -0.0995495
00000000: 352d 8bbb e177 8bbd 8577 2bbd 52d0 5ebb
00000010: bfec cbbd d237 333e dff6 643d d3b9 babc
00000020: b781 723c cc9a 68bc 8689 0c3d d3de 223e
00000030: ed77 fe3c cff7 08bd c5ec c93d 84df 11bd
00000040: 4c7f 84bd 5b9c bebd f82f 9e3d 3e67 52bc
00000050: 00aa 893e a2bc 8b3d 3932 3bbd 029b 05be
00000060: a92f a73b 9a24 6e3c 0ce4 1b3e 76d8 f2bd
00000070: 4a33 9cbc 5b4b 8e3d 6854 c6bd 0d0c e33d
00000080: de28 76bc fea9 91bd 86f4 6cbd 51c3 233d
00000090: 11f4 a13c 0c22 c23d d559 0c3d b8f2 35bd
000000a0: a5a6 d7bd 30c1 0b3d 5ad0 8a3c 83b7 053b
000000b0: 0017 8dbc 5a35 e5bd ece7 563e 4cdb ad3c
000000c0: 4095 c73d b14f de3b f2bc 333d 5d98 f7bc
000000d0: d40c 473b ba93 00bb 3b73 103e fa7c b33b
000000e0: be8a b3bc 3548 5b3d 0c74 413a d039 ae3d
000000f0: 57e0 dc3d 229a b83d 7d69 383d 118a c83a
00000100: 777c a93d 727c a13d 8a23 b73d f9cd 05bd
00000110: 1196 ef3c 9d7b 2b3e a987 a8bb 19ee c43d
00000120: 83df ecbd 6603 793d 8aba 1a3a 32bd 673d
00000130: 7cee 783d 5010 63bc 94f5 12be 10de 643c
00000140: 3864 35bd 1838 a23c c0f4 10bd a86a a73c
00000150: 7436 18be 3a21 6a3e 6a83 04bd 5c2e 593e
00000160: 5a01 cc3d cad9 ef3d 39f7 04be 68aa f73d
00000170: 2e06 3ebd 8f78 6f3d d3f6 9d3d 8ab1 afbd
00000180: 8583 f7bc 2294 e939 77b3 dcbd 24db 093e
00000190: 92b2 c73a 6b73 2cbd 0026 e4bc ce7b 77bd
000001a0: bba8 19be 0785 d9bc c77a 13bd 3d1b 103d
000001b0: 882d 82bc a7ea 333d f364 1c3e 2341 603d
000001c0: b5c9 71be f2a7 f83d 2402 373d 71bb 7dba
000001d0: 5c1f f83b 4a1f efbb 325b 0bbe 3ba3 bdbd
000001e0: 76a4 8b3c 2c8e c63c 9698 933d d09f f03d
000001f0: 4a9e 723c f5f7 d4bd 41af 803e 12d5 2dbd
00000200: e192 afbd 5424 bd3d 641d 0bbe 0713 e33d
00000210: ff98 213d f871 1ebe 1879 c1bd 39df ea3d
00000220: 4daf 8cbb 231a 393b 3918 cd3c 2e54 c83d
00000230: 0478 c23c 7192 6abb 3030 b13c 308a cfbd
00000240: c3ed 92bd 8271 6dbd 5893 bc3d c23b ea3d
00000250: 1057 a73d 5719 72bd ada8 2cbc a2ec 6c3d
00000260: 4cba 0cbd c31b b3bd be71 d83d 7e9f 4ebc
00000270: 991c 793c bdee ebbd 446f 4c3d d2b4 9dbe
00000280: bd2f db3d ca74 90bc e74c 99bb 377c ea3d
00000290: 68ab f73b 5093 253e d2c3 b5bd e6ed 453d
000002a0: 14fc c6bd 30e7 503d 0988 1e3e bf78 cebc
000002b0: d42e 3b3d 69fd e9bd 4586 b23c 432d 92bd
000002c0: 359c 9bbd 8d0c 40bc 8d6d 0d3e 5958 9f3d
000002d0: 9e4d e4bd 4601 443e 7a09 2b3e 631c 42bd
000002e0: 30cb f1bb b74b 95bd edd3 243c a0c4 a93d
000002f0: dce3 c43d 49c3 cfbd 115f 3b3e 963a 19bd
00000300: b66a 8d3d 42e3 fa3d d41e 9bba 09a1 eb3c
00000310: f07c 9a3d 9251 84bd 6ac7 d1bc 5cce 93bd
00000320: 1e11 5d3e 7f15 93bd 365a 423d c229 243e
00000330: a204 59bd 80ed af3a eb08 86bd ecab 983d
00000340: 14bc 11be 6f4f 923d ca09 023d 3a34 15bd
00000350: c59a dc3d fb0b 843e 4a74 5bbe 286b 04bd
00000360: 5f33 3d3d e78b 3b3e 3615 ccbd d20f be3c
00000370: b529 29bd b178 313e 7474 23bc a456 79be
00000380: 407f e4bc 059b 0f3d 689f d43d 52d8 363e
00000390: ceb7 5fbd 8d92 9c3c 8724 0f3e 0e2c b3bc
000003a0: 730f 1d3d 0689 0fbe 665b 1e3e 09d8 bdbb
000003b0: 4620 d33d aa44 da3b 86eb 96bc c980 e4bd
000003c0: 2aa5 65be 0e60 1bbd f637 db3d c26d a0bd
000003d0: ed6f a13c 8253 403d 2fee ffbd 5454 6c3d
000003e0: 2021 81bd 5e33 e0bd c0be 0e3b ae28 c63d
000003f0: abc1 553d f019 603d 7f3d 923d 9ce0 cbbd

fc3.bias f4 [24]
0.15023832 0.054346498 0.051789764 0.10023504 0.015443292 0.028642626 0.078830525 0.115837134
0.12811303 0.123481765 0.07508849 0.21258166 0.23699476 0.1232159 0.15295942 0.027594762
0.0773068 0.05186146 0.2451601 0.080086306 0.14890933 0.12158641 0.04285454 0.13079503
00000000: 13d8 193e 6f9a 5e3d 8121 543d 0748 cd3d
00000010: dd05 7d3c f1a3 ea3c e671 a13d 053c ed3d
00000020: 1030 033e 02e4 fc3d ffc7 993d 02af 593e
00000030: c1ae 723e 9e58 fc3d 65a1 1c3e 690e e23c
00000040: 0753 9e3d af6c 543d 400b 7b3e 4a04 a43d
00000050: b07b 183e 4c02 f93d 3e88 2f3d 22ef 053e

exp_avg f4 [128, 240]
0.0 0.0 0.0 0.0 0.0 0.0 0.0 0.0
0.0 0.0 0.0 0.0 0.0 0.0 0.0 0.0
0.0 0.0 0.0 0.0 0.0 0.0 0.0 0.0
0.0 0.0 0.0 0.0 0.0 0.0 0.0 0.0
0.0 0.0 0.0 0.0 0.0 0.0 0.0 0.0
0.0 0.0 0.0 0.0 0.0 0.0 0.0 0.0
0.0 0.0 0.0 0.0 0.0 0.0 0.0 0.0
0.0 0.0 0.0 0.0 0.0 0.0 0.0 0.0
0.0 0.0 0.0 0.0 0.0 0.0 0.0 0.0
0.0 0.0 0.0 0.0 0.0 0.0 0.0 0.0
0.0 0.0 0.0 0.0 0.0 0.0 0.0 0.0
0.0 0.0 0.0 0.0 0.0 0.0 0.0 0.0
0.0 0.0 0.0 0.0 0.0 0.0 0.0 0.0
0.0 0.0 0.0 0.0 0.0 0.0 0.0 0.0
0.0 0.0 0.0 0.0 0.0 0.0 0.0 0.0
0.0 0.0 0.0 0.0 0.0 0.0 0.0 0.0
0.0 0.0 0.0 0.0 0.0 0.0 0.0 0.0
0.0 0.0 0.0 0.0 0.0 0.0 0.0 0.0
0.0 0.0 0.0 0.0 0.0 0.0 0.0 0.0
0.0 0.0 0.0 0.0 0.0 0.0 0.0 0.0
0.0 0.0 0.0 0.0 0.0 0.0 0.0 0.0
0.0 0.0 0.0 0.0 0.0 0.0 0.0 0.0
0.0 0.0 0.0 0.0 0.0 0.0 0.0 0.0
0.0 0.0 0.0 0.0 0.0 0.0 0.0 0.0
0.0 0.0 0.0 0.0 0.0 0.0 0.0 0.0
0.0 0.0 0.0 0.0 0.0 0.0 0.0 0.0
0.0 0.0 0.0 0.0 0.0 0.0 0.0 0.0
0.0 0.0 0.0 0.0 0.0 0.0 0.0 0.0
0.0 0.0 0.0 0.0 0.0 0.0 0.0 0.0
0.0 0.0 0.0 0.0 0.0 0.0 0.0 0.0
-3.6294015e-05 -2.2664133e-05 -5.689512e-05 -3.0782237e-05 -0.00010297871 -6.755801e-05 -1.9318875e-05 -1.3661149e-05
-6.683384e-06 -5.1594863e-05 -4.7564547e-05 -1.221691e-05 -0.000112909576 -3.2699165e-05 -8.796869e-06 -3.2210824e-05
00000000: 0000 0000 0000 0000 0000 0000 0000 0000
00000010: 0000 0000 0000 0000 0000 0000 0000 0000
00000020: 0000 0000 0000 0000 0000 0000 0000 0000
00000030: 0000 0000 0000 0000 0000 0000 0000 0000
00000040: 0000 0000 0000 0000 0000 0000 0000 0000
00000050: 0000 0000 0000 0000 0000 0000 0000 0000
00000060: 0000 0000 0000 0000 0000 0000 0000 0000
00000070: 0000 0000 0000 0000 0000 0000 0000 0000
00000080: 0000 0000 0000 0000 0000 0000 0000 0000
00000090: 0000 0000 0000 0000 0000 0000 0000 0000
000000a0: 0000 0000 0000 0000 0000 0000 0000 0000
000000b0: 0000 0000 0000 0000 0000 0000 0000 0000
000000c0: 0000 0000 0000 0000 0000 0000 0000 0000
000000d0: 0000 0000 0000 0000 0000 0000 0000 0000
000000e0: 0000 0000 0000 0000 0000 0000 0000 0000
000000f0: 0000 0000 0000 0000 0000 0000 0000 0000
00000100: 0000 0000 0000 0000 0000 0000 0000 0000
00000110: 0000 0000 0000 0000 0000 0000 0000 0000
00000120: 0000 0000 0000 0000 0000 0000 0000 0000
00000130: 0000 0000 0000 0000 0000 0000 0000 0000
00000140: 0000 0000 0000 0000 0000 0000 0000 0000
00000150: 0000 0000 0000 0000 0000 0000 0000 0000
00000160: 0000 0000 0000 0000 0000 0000 0000 0000
00000170: 0000 0000 0000 0000 0000 0000 0000 0000
00000180: 0000 0000 0000 0000 0000 0000 0000 0000
00000190: 0000 0000 0000 0000 0000 0000 0000 0000
000001a0: 0000 0000 0000 0000 0000 0000 0000 0000
000001b0: 0000 0000 0000 0000 0000 0000 0000 0000
000001c0: 0000 0000 0000 0000 0000 0000 0000 0000
000001d0: 0000 0000 0000 0000 0000 0000 0000 0000
000001e0: 0000 0000 0000 0000 0000 0000 0000 0000
000001f0: 0000 0000 0000 0000 0000 0000 0000 0000
00000200: 0000 0000 0000 0000 0000 0000 0000 0000
00000210: 0000 0000 0000 0000 0000 0000 0000 0000
00000220: 0000 0000 0000 0000 0000 0000 0000 0000
00000230: 0000 0000 0000 0000 0000 0000 0000 0000
00000240: 0000 0000 0000 0000 0000 0000 0000 0000
00000250: 0000 0000 0000 0000 0000 0000 0000 0000
00000260: 0000 0000 0000 0000 0000 0000 0000 0000
00000270: 0000 0000 0000 0000 0000 0000 0000 0000
00000280: 0000 0000 0000 0000 0000 0000 0000 0000
00000290: 0000 0000 0000 0000 0000 0000 0000 0000
000002a0: 0000 0000 0000 0000 0000 0000 0000 0000
000002b0: 0000 0000 0000 0000 0000 0000 0000 0000
000002c0: 0000 0000 0000 0000 0000 0000 0000 0000
000002d0: 0000 0000 0000 0000 0000 0000 0000 0000
000002e0: 0000 0000 0000 0000 0000 0000 0000 0000
000002f0: 0000 0000 0000 0000 0000 0000 0000 0000
00000300: 0000 0000 0000 0000 0000 0000 0000 0000
00000310: 0000 0000 0000 0000 0000 0000 0000 0000
00000320: 0000 0000 0000 0000 0000 0000 0000 0000
00000330: 0000 0000 0000 0000 0000 0000 0000 0000
00000340: 0000 0000 0000 0000 0000 0000 0000 0000
00000350: 0000 0000 0000 0000 0000 0000 0000 0000
00000360: 0000 0000 0000 0000 0000 0000 0000 0000
00000370: 0000 0000 0000 0000 0000 0000 0000 0000
00000380: 0000 0000 0000 0000 0000 0000 0000 0000
00000390: 0000 0000 0000 0000 0000 0000 0000 0000
000003a0: 0000 0000 0000 0000 0000 0000 0000 0000
000003b0: 0000 0000 0000 0000 0000 0000 0000 0000
000003c0: 673a 18b8 db1e beb7 aca2 6eb8 2d1c 01b8
000003d0: 46f6 d7b8 eead 8db8 f80e a2b7 3032 65b7
000003e0: d541 e0b6 9067 58b8 0b80 47b8 3bf7 4cb7
000003f0: dec9 ecb8 7626 09b8 4496 13b7 1c1a 07b8

exp_avg_sq f4 [128, 240]
0.0 0.0 0.0 0.0 0.0 0.0 0.0 0.0
0.0 0.0 0.0 0.0 0.0 0.0 0.0 0.0
0.0 0.0 0.0 0.0 0.0 0.0 0.0 0.0
0.0 0.0 0.0 0.0 0.0 0.0 0.0 0.0
0.0 0.0 0.0 0.0 0.0 0.0 0.0 0.0
0.0 0.0 0.0 0.0 0.0 0.0 0.0 0.0
0.0 0.0 0.0 0.0 0.0 0.0 0.0 0.0
0.0 0.0 0.0 0.0 0.0 0.0 0.0 0.0
0.0 0.0 0.0 0.0 0.0 0.0 0.0 0.0
0.0 0.0 0.0 0.0 0.0 0.0 0.0 0.0
0.0 0.0 0.0 0.0 0.0 0.0 0.0 0.0
0.0 0.0 0.0 0.0 0.0 0.0 0.0 0.0
0.0 0.0 0.0 0.0 0.0 0.0 0.0 0.0
0.0 0.0 0.0 0.0 0.0 0.0 0.0 0.0
0.0 0.0 0.0 0.0 0.0 0.0 0.0 0.0
0.0 0.0 0.0 0.0 0.0 0.0 0.0 0.0
0.0 0.0 0.0 0.0 0.0 0.0 0.0 0.0
0.0 0.0 0.0 0.0 0.0 0.0 0.0 0.0
0.0 0.0 0.0 0.0 0.0 0.0 0.0 0.0
0.0 0.0 0.0 0.0 0.0 0.0 0.0 0.0
0.0 0.0 0.0 0.0 0.0 0.0 0.0 0.0
0.0 0.0 0.0 0.0 0.0 0.0 0.0 0.0
0.0 0.0 0.0 0.0 0.0 0.0 0.0 0.0
0.0 0.0 0.0 0.0 0.0 0.0 0.0 0.0
0.0 0.0 0.0 0.0 0.0 0.0 0.0 0.0
0.0 0.0 0.0 0.0 0.0 0.0 0.0 0.0
0.0 0.0 0.0 0.0 0.0 0.0 0.0 0.0
0.0 0.0 0.0 0.0 0.0 0.0 0.0 0.0
0.0 0.0 0.0 0.0 0.0 0.0 0.0 0.0
0.0 0.0 0.0 0.0 0.0 0.0 0.0 0.0
3.2880286e-07 6.97652e-08 2.2666202e-07 1.1544993e-07 1.9827678e-07 1.5886604e-07 6.648199e-08 7.584711e-08
2.4075186e-07 1.3686679e-07 9.2562715e-08 2.444046e-07 1.9003684e-07 6.397176e-08 7.574821e-08 1.4755909e-07
00000000: 0000 0000 0000 0000 0000 0000 0000 0000
00000010: 0000 0000 0000 0000 0000 0000 0000 0000
00000020: 0000 0000 0000 0000 0000 0000 0000 0000
00000030: 0000 0000 0000 0000 0000 0000 0000 0000
00000040: 0000 0000 0000 0000 0000 0000 0000 0000
00000050: 0000 0000 0000 0000 0000 0000 0000 0000
00000060: 0000 0000 0000 0000 0000 0000 0000 0000
00000070: 0000 0000 0000 0000 0000 0000 0000 0000
00000080: 0000 0000 0000 0000 0000 0000 0000 0000
00000090: 0000 0000 0000 0000 0000 0000 0000 0000
000000a0: 0000 0000 0000 0000 0000 0000 0000 0000
000000b0: 0000 0000 0000 0000 0000 0000 0000 0000
000000c0: 0000 0000 0000 0000 0000 0000 0000 0000
000000d0: 0000 0000 0000 0000 0000 0000 0000 0000
000000e0: 0000 0000 0000 0000 0000 0000 0000 0000
000000f0: 0000 0000 0000 0000 0000 0000 0000 0000
00000100: 0000 0000 0000 0000 0000 0000 0000 0000
00000110: 0000 0000 0000 0000 0000 0000 0000 0000
00000120: 0000 0000 0000 0000 0000 0000 0000 0000
00000130: 0000 0000 0000 0000 0000 0000 0000 0000
00000140: 0000 0000 0000 0000 0000 0000 0000 0000
00000150: 0000 0000 0000 0000 0000 0000 0000 0000
00000160: 0000 0000 0000 0000 0000 0000 0000 0000
00000170: 0000 0000 0000 0000 0000 0000 0000 0000
00000180: 0000 0000 0000 0000 0000 0000 0000 0000
00000190: 0000 0000 0000 0000 0000 0000 0000 0000
000001a0: 0000 0000 0000 0000 0000 0000 0000 0000
000001b0: 0000 0000 0000 0000 0000 0000 0000 0000
000001c0: 0000 0000 0000 0000 0000 0000 0000 0000
000001d0: 0000 0000 0000 0000 0000 0000 0000 0000
000001e0: 0000 0000 0000 0000 0000 0000 0000 0000
000001f0: 0000 0000 0000 0000 0000 0000 0000 0000
00000200: 0000 0000 0000 0000 0000 0000 0000 0000
00000210: 0000 0000 0000 0000 0000 0000 0000 0000
00000220: 0000 0000 0000 0000 0000 0000 0000 0000
00000230: 0000 0000 0000 0000 0000 0000 0000 0000
00000240: 0000 0000 0000 0000 0000 0000 0000 0000
00000250: 0000 0000 0000 0000 0000 0000 0000 0000
00000260: 0000 0000 0000 0000 0000 0000 0000 0000
00000270: 0000 0000 0000 0000 0000 0000 0000 0000
00000280: 0000 0000 0000 0000 0000 0000 0000 0000
00000290: 0000 0000 0000 0000 0000 0000 0000 0000
000002a0: 0000 0000 0000 0000 0000 0000 0000 0000
000002b0: 0000 0000 0000 0000 0000 0000 0000 0000
000002c0: 0000 0000 0000 0000 0000 0000 0000 0000
000002d0: 0000 0000 0000 0000 0000 0000 0000 0000
000002e0: 0000 0000 0000 0000 0000 0000 0000 0000
000002f0: 0000 0000 0000 0000 0000 0000 0000 0000
00000300: 0000 0000 0000 0000 0000 0000 0000 0000
00000310: 0000 0000 0000 0000 0000 0000 0000 0000
00000320: 0000 0000 0000 0000 0000 0000 0000 0000
00000330: 0000 0000 0000 0000 0000 0000 0000 0000
00000340: 0000 0000 0000 0000 0000 0000 0000 0000
00000350: 0000 0000 0000 0000 0000 0000 0000 0000
00000360: 0000 0000 0000 0000 0000 0000 0000 0000
00000370: 0000 0000 0000 0000 0000 0000 0000 0000
00000380: 0000 0000 0000 0000 0000 0000 0000 0000
00000390: 0000 0000 0000 0000 0000 0000 0000 0000
000003a0: 0000 0000 0000 0000 0000 0000 0000 0000
000003b0: 0000 0000 0000 0000 0000 0000 0000 0000
000003c0: 5286 b034 d3d1 9533 6260 7334 45ed f733
000003d0: e8e5 5434 c494 2a34 dcc4 8e33 64e1 a233
000003e0: af40 8134 a8f5 1234 e4c6 c633 b636 8334
000003f0: ee0c 4c34 d960 8933 05ab a233 bc70 1e34

exp_avg f4 [128]
0.0 -8.710323e-05 6e-45 4.263461e-05 6e-45 0.00023758163 -0.00010131455 6e-45
6e-45 6e-45 0.00027784257 0.00010908963 0.00012317816 6e-45 7.2702125e-05 6e-45
0.0 6e-45 6e-45 0.00012196686 -8.2064136e-05 0.00028338283 6e-45 6e-45
3.614709e-05 4.0610343e-05 -1.1382428e-05 6e-45 6e-45 6e-45 0.00019698613 9.985831e-05
0.00059882615 6e-45 6e-45 6e-45 7.324019e-05 0.00029067887 6e-45 0.0004705806
6e-45 6e-45 0.0 6e-45 0.00027558935 6e-45 0.00037491127 0.000111253736
6e-45 -8.89692e-05 6e-45 0.0 6e-45 8.453046e-05 6e-45 0.00020481471
6e-45 6e-45 -0.0002693305 6e-45 6e-45 -0.00015123832 6e-45 -1.620978e-05
6e-45 3.576118e-05 6e-45 6e-45 0.000105267034 6e-45 5.4610613e-05 5.9923263e-05
0.00043503754 0.00013958357 6e-45 -0.00016205784 6e-45 0.00024660653 -1.46497205e-05 6e-45
6e-45 6e-45 6e-45 6e-45 6e-45 -6.888461e-05 6e-45 6e-45
6e-45 6e-45 0.00027062028 0.0 -0.00016650691 0.0 7.777305e-05 -0.00011579326
6e-45 6e-45 6e-45 6e-45 -5.834365e-06 6e-45 6e-45 6e-45
0.00028732125 9.2892165e-05 6e-45 -3.2108725e-05 6e-45 0.0001641784 6e-45 0.00017298863
6e-45 6e-45 6e-45 6e-45 6e-45 -5.4770288e-05 6e-45 -6.211269e-05
6e-45 0.0005873527 6e-45 -0.00011008784 6e-45 6e-45 6e-45 6e-45
00000000: 0000 0000 31ab b6b8 0400 0000 90d2 3238
00000010: 0400 0000 551f 7939 d678 d4b8 0400 0000
00000020: 0400 0000 0400 0000 66ab 9139 0dc7 e438
00000030: 6329 0139 0400 0000 a877 9838 0400 0000
00000040: 0000 0000 0400 0000 0400 0000 76c8 ff38
00000050: d919 acb8 0093 9439 0400 0000 0400 0000
00000060: a49c 1738 0655 2a38 28f7 3eb7 0400 0000
00000070: 0400 0000 0400 0000 108e 4e39 066b d138
00000080: 8bfa 1c3a 0400 0000 0400 0000 0400 0000
00000090: 8798 9938 4266 9839 0400 0000 42b8 f639
000000a0: 0400 0000 0400 0000 0000 0000 0400 0000
000000b0: fa7c 9039 0400 0000 bd8f c439 e550 e938
000000c0: 0400 0000 fa94 bab8 0400 0000 0000 0000
000000d0: 0400 0000 f245 b138 0400 0000 88c3 5639
000000e0: 0400 0000 0400 0000 ee34 8db9 0400 0000
000000f0: 0400 0000 ba95 1eb9 0400 0000 3dfa 87b7
00000100: 0400 0000 46fe 1538 0400 0000 0400 0000
00000110: cfc2 dc38 0400 0000 b30d 6538 1d56 7b38
00000120: c015 e439 2e5d 1239 0400 0000 12ee 29b9
00000130: 0400 0000 f84a 8139 12c8 75b7 0400 0000
00000140: 0400 0000 0400 0000 0400 0000 0400 0000
00000150: 0400 0000 2576 90b8 0400 0000 0400 0000
00000160: 0400 0000 0400 0000 0ae2 8d39 0000 0000
00000170: 5c98 2eb9 0000 0000 171a a338 08d6 f2b8
00000180: 0400 0000 0400 0000 0400 0000 0400 0000
00000190: d0c4 c3b6 0400 0000 0400 0000 0400 0000
000001a0: 9ba3 9639 1acf c238 0400 0000 7bac 06b8
000001b0: 0400 0000 4e27 2c39 0400 0000 4864 3539
000001c0: 0400 0000 0400 0000 0400 0000 0400 0000
000001d0: 0400 0000 26b9 65b8 0400 0000 7f42 82b8
000001e0: 0400 0000 93f8 193a 0400 0000 f6de e6b8
000001f0: 0400 0000 0400 0000 0400 0000 0400 0000

exp_avg_sq f4 [128]
0.0 4.6721726e-07 9.261868e-11 6.413435e-07 1.0071564e-11 2.095402e-06 9.422261e-07 4.959398e-10
2.3850302e-11 1.4539477e-09 7.8525204e-07 6.2315905e-07 7.8508594e-07 5.584805e-13 6.106264e-07 1.3744313e-09
0.0 3.1950198e-12 8.500711e-11 5.0832773e-07 2.625385e-06 1.4793995e-06 1.3097604e-10 2.5591547e-09
8.548668e-07 4.66784e-07 4.8784835e-07 4.0893476e-15 3.2526556e-10 1.5180478e-09 8.879642e-07 8.120166e-07
3.4111665e-06 1.0227605e-10 1.4605959e-09 1.5275291e-11 3.6397012e-07 1.1049526e-06 4.5551627e-12 8.636483e-07
9.948916e-11 2.0263975e-11 0.0 2.3662299e-09 5.804115e-07 1.203291e-09 1.2046054e-06 9.1457576e-07
7.613617e-12 7.1664545e-07 1.4047117e-09 0.0 1.7576537e-11 3.8254052e-07 1.5210325e-09 8.8630867e-07
1.2323015e-10 7.3597953e-13 5.1689966e-07 2.1422775e-13 2.4338016e-13 6.318679e-07 4.679243e-13 5.1011534e-07
2.5870484e-12 7.639858e-07 6.79991e-11 2.1200523e-10 6.14833e-07 4.1770683e-13 9.286029e-07 4.4961362e-07
1.5030812e-06 7.8835694e-07 1.9896791e-10 1.2694175e-06 3.7660017e-10 9.279031e-07 5.832497e-07 8.8350394e-10
6.147617e-10 6.7478916e-13 7.197651e-12 2.862074e-14 8.047217e-10 9.245047e-07 7.2748036e-12 1.3851525e-10
2.3871928e-13 1.163903e-10 4.9192244e-07 0.0 5.153287e-07 0.0 6.700506e-07 7.7484657e-07
1.6981344e-13 5.49015e-10 2.0481931e-14 2.0340914e-10 5.441237e-07 2.471099e-11 3.885664e-11 1.5506688e-12
7.6125457e-07 4.2449892e-07 1.7692899e-10 5.3443404e-07 1.5214932e-11 9.073423e-07 3.55015e-11 5.5700775e-07
9.754396e-13 6.711323e-14 3.7834173e-11 4.5843388e-11 2.5244726e-13 7.373111e-07 4.2716668e-14 7.0561316e-07
1.4035766e-13 9.751334e-07 3.744611e-09 1.5043111e-06 1.1358041e-09 3.628822e-11 1.1074321e-09 2.4625849e-10
00000000: 0000 0000 dad5 fa34 aeab cb2e ca28 2c35
00000010: 4b2e 312d bb9e 0c36 49ed 7c35 a952 0830
00000020: 1bca d12d 3dd4 c730 1cca 5235 2a47 2735
00000030: b2be 5235 c332 1d2b ede9 2335 81e6 bc30
00000040: 0000 0000 5cd4 602c c0ee ba2e 0474 0835
00000050: c52f 3036 c88f c635 7a02 102f 20dd 2f31
00000060: 007a 6535 4e9a fa34 aff4 0235 9355 9327
00000070: 0fd1 b22f 8fa3 d030 6f5c 6e35 5bf9 5935
00000080: 65eb 6436 4ce8 e02e 26be c830 e65c 862d
00000090: ac67 c334 e24d 9435 4245 a02c 76d5 6735
000000a0: 6bc7 da2e 6a3e b22d 0000 0000 289b 2231
000000b0: 93cd 1b35 0a61 a530 edad a135 2b81 7535
000000c0: aff0 052d 805f 4035 e60f c130 0000 0000
000000d0: d89a 9a2d f85f cd34 930c d130 abea 6d35
000000e0: 347e 072f ea28 4f2b 13c1 0a35 f232 712a
000000f0: c702 892a a29d 2935 80b5 032b dcee 0835
00000100: 1f0c 362c b414 4d35 1788 952e 2b1a 692f
00000110: 010b 2535 e625 eb2a 1b45 7935 6d62 f134
00000120: 7abd c935 7a9f 5335 7dc4 5a2f da60 aa35
00000130: c309 cf2f 0415 7935 9d90 1c35 10db 7230
00000140: 02fc 2830 afef 3d2b ad3e fd2c 77e5 0029
00000150: 4133 5d30 7b2b 7835 9bf5 ff2c 944c 182f
00000160: 1363 862a eaf1 ff2e a70c 0435 0000 0000
00000170: 1e55 0a35 0000 0000 87dd 3335 0dff 4f35
00000180: 6431 3f2a 7fe9 1630 1e7c b828 95a6 5f2f
00000190: e50f 1235 345c d92d b0e4 2a2e bb3c da2b
000001a0: 0459 4c35 b0e6 e334 1589 422f 0776 0f35
000001b0: fbd4 852d 1790 7335 2323 1c2e 4885 1535
000001c0: ea47 892b 2520 9729 7e65 262e 119f 492e
000001d0: 7c1d 8e2a a2eb 4535 f760 4029 5e69 3d35
000001e0: 5707 1e2a 54e1 8235 f2a9 8031 bce7 c935
000001f0: 8e1a 9c30 e798 1f2e 4e34 9830 cd61 872f

exp_avg f4 [64, 128]
0.0 6e-45 6e-45 6e-45 6e-45 6e-45 6e-45 6e-45
6e-45 6e-45 6e-45 6e-45 6e-45 6e-45 6e-45 6e-45
0.0 6e-45 6e-45 6e-45 6e-45 6e-45 6e-45 6e-45
6e-45 6e-45 6e-45 6e-45 6e-45 6e-45 6e-45 6e-45
6e-45 6e-45 6e-45 6e-45 6e-45 6e-45 6e-45 6e-45
6e-45 6e-45 0.0 6e-45 6e-45 6e-45 6e-45 6e-45
6e-45 6e-45 6e-45 0.0 6e-45 6e-45 6e-45 6e-45
6e-45 6e-45 6e-45 0.0 0.0 6e-45 0.0 6e-45
6e-45 6e-45 0.0 6e-45 6e-45 6e-45 6e-45 6e-45
6e-45 6e-45 6e-45 6e-45 6e-45 6e-45 6e-45 6e-45
6e-45 6e-45 6e-45 6e-45 6e-45 6e-45 6e-45 6e-45
6e-45 0.0 6e-45 0.0 6e-45 0.0 6e-45 6e-45
6e-45 6e-45 0.0 6e-45 6e-45 6e-45 6e-45 6e-45
6e-45 6e-45 6e-45 6e-45 6e-45 6e-45 6e-45 6e-45
6e-45 6e-45 6e-45 6e-45 6e-45 6e-45 6e-45 6e-45
0.0 6e-45 6e-45 6e-45 6e-45 6e-45 6e-45 6e-45
0.0 -2.3617045e-05 -6e-45 -6.2599436e-05 -6e-45 -0.00033281985 -0.00015653807 -6e-45
-6e-45 -6e-45 -0.0002460652 -2.2529566e-06 -0.00011660571 -6e-45 -0.0003891919 -6e-45
0.0 -6e-45 -6e-45 -0.0001228428 -0.00031396892 -6.1675964e-06 -6e-45 -6e-45
-0.00021898515 -0.00012970866 6.2092986e-05 -6e-45 -6e-45 -6e-45 -0.00015976309 -0.00031338635
-0.0006315771 -6e-45 6e-45 -6e-45 -5.745847e-05 -0.00023008176 -6e-45 -0.00019982828
-6e-45 -6e-45 0.0 -6e-45 -0.00016749828 6e-45 -0.00014001178 -0.00029144637
-6e-45 -0.00026337826 -6e-45 0.0 -6e-45 7.890875e-05 -6e-45 -4.4841443e-05
-6e-45 -6e-45 -0.00025981225 6e-45 -6e-45 -4.8712587e-05 6e-45 -0.00013108648
-6e-45 -0.0002291416 6e-45 -6e-45 -7.503158e-05 -6e-45 -0.00013968322 -4.4499684e-05
-0.00017380522 -0.00012915501 -6e-45 -9.6862925e-05 -6e-45 -0.00019981523 -0.00019604963 -6e-45
-6e-45 -6e-45 -6e-45 -6e-45 -6e-45 -8.2839986e-05 -6e-45 -6e-45
-6e-45 -6e-45 -0.00027897808 0.0 -0.00013946791 0.0 -5.2052586e-05 -8.742291e-05
-6e-45 -6e-45 -6e-45 -6e-45 -9.119359e-05 -6e-45 -6e-45 -6e-45
1.0764343e-05 1.467541e-05 -6e-45 -4.9334354e-05 -6e-45 -6.32762e-05 -6e-45 -0.00022624138
-6e-45 -6e-45 -6e-45 -6e-45 -6e-45 -6.898351e-05 -6e-45 -3.0262723e-05
-6e-45 -0.00022560032 -6e-45 9.12666e-05 -6e-45 -6e-45 -6e-45 -6e-45
00000000: 0000 0000 0400 0000 0400 0000 0400 0000
00000010: 0400 0000 0400 0000 0400 0000 0400 0000
00000020: 0400 0000 0400 0000 0400 0000 0400 0000
00000030: 0400 0000 0400 0000 0400 0000 0400 0000
00000040: 0000 0000 0400 0000 0400 0000 0400 0000
00000050: 0400 0000 0400 0000 0400 0000 0400 0000
00000060: 0400 0000 0400 0000 0400 0000 0400 0000
00000070: 0400 0000 0400 0000 0400 0000 0400 0000
00000080: 0400 0000 0400 0000 0400 0000 0400 0000
00000090: 0400 0000 0400 0000 0400 0000 0400 0000
000000a0: 0400 0000 0400 0000 0000 0000 0400 0000
000000b0: 0400 0000 0400 0000 0400 0000 0400 0000
000000c0: 0400 0000 0400 0000 0400 0000 0000 0000
000000d0: 0400 0000 0400 0000 0400 0000 0400 0000
000000e0: 0400 0000 0400 0000 0400 0000 0000 0000
000000f0: 0000 0000 0400 0000 0000 0000 0400 0000
00000100: 0400 0000 0400 0000 0000 0000 0400 0000
00000110: 0400 0000 0400 0000 0400 0000 0400 0000
00000120: 0400 0000 0400 0000 0400 0000 0400 0000
00000130: 0400 0000 0400 0000 0400 0000 0400 0000
00000140: 0400 0000 0400 0000 0400 0000 0400 0000
00000150: 0400 0000 0400 0000 0400 0000 0400 0000
00000160: 0400 0000 0000 0000 0400 0000 0000 0000
00000170: 0400 0000 0000 0000 0400 0000 0400 0000
00000180: 0400 0000 0400 0000 0000 0000 0400 0000
00000190: 0400 0000 0400 0000 0400 0000 0400 0000
000001a0: 0400 0000 0400 0000 0400 0000 0400 0000
000001b0: 0400 0000 0400 0000 0400 0000 0400 0000
000001c0: 0400 0000 0400 0000 0400 0000 0400 0000
000001d0: 0400 0000 0400 0000 0400 0000 0400 0000
000001e0: 0000 0000 0400 0000 0400 0000 0400 0000
000001f0: 0400 0000 0400 0000 0400 0000 0400 0000
00000200: 0000 0000 381d c6b7 0400 0080 d147 83b8
00000210: 0400 0080 537e aeb9 5e24 24b9 0400 0080
00000220: 0400 0080 0400 0080 5002 81b9 8031 17b6
00000230: 378a f4b8 0400 0080 740c ccb9 0400 0080
00000240: 0000 0000 0400 0080 0400 0080 5dcf 00b9
00000250: 329c a4b9 40f3 ceb6 0400 0080 0400 0080
00000260: 619f 65b9 6702 08b9 eb37 8238 0400 0080
00000270: 0400 0080 0400 0080 1486 27b9 014e a4b9
00000280: 6c90 25ba 0400 0080 0400 0000 0400 0080
00000290: 90ff 70b8 1a42 71b9 0400 0080 ff88 51b9
000002a0: 0400 0080 0400 0080 0000 0000 0400 0080
000002b0: 7aa2 2fb9 0400 0000 20d0 12b9 45cd 98b9
000002c0: 0400 0080 0816 8ab9 0400 0080 0000 0000
000002d0: 0400 0080 d07b a538 0400 0080 2214 3cb8
000002e0: 0400 0080 0400 0080 6937 88b9 0400 0000
000002f0: 0400 0080 be50 4cb8 0400 0000 4274 09b9
00000300: 0400 0080 bb45 70b9 0400 0000 0400 0080
00000310: 465a 9db8 0400 0080 ee77 12b9 2ca5 3ab8
00000320: 7c3f 36b9 c96d 07b9 0400 0080 e322 cbb8
00000330: 0400 0080 7e85 51b9 ac92 4db9 0400 0080
00000340: 0400 0080 0400 0080 0400 0080 0400 0080
00000350: 0400 0080 61ba adb8 0400 0080 0400 0080
00000360: 0400 0080 0400 0080 ce43 92b9 0000 0000
00000370: 223e 12b9 0000 0000 0a53 5ab8 d156 b7b8
00000380: 0400 0080 0400 0080 0400 0080 0400 0080
00000390: 303f bfb8 0400 0080 0400 0080 0400 0080
000003a0: 8098 3437 6836 7637 0400 0080 5cec 4eb8
000003b0: 0400 0080 27b3 84b8 0400 0080 353b 6db9
000003c0: 0400 0080 0400 0080 0400 0080 0400 0080
000003d0: 0400 0080 3dab 90b8 0400 0080 b4dc fdb7
000003e0: 0400 0080 208f 6cb9 0400 0080 6266 bf38
000003f0: 0400 0080 0400 0080 0400 0080 0400 0080
