models/RaceModels/classif_pos_3copies0to10_twolayers/model.pt (torch, 501999 bytes, 18 tensors)

fc1.weight f4 [128, 240]
0	0x3d2bdab7	0.04195663
1	0xbe030901	-0.12796403
2	0x3d59c900	0.053170204
3	0xbe0903b0	-0.13380313
4	0xbd80c0e4	-0.06286791
5	0xbe3adde0	-0.18248701
6	0xbdc2d236	-0.09512751
7	0xbdce8c03	-0.10085299
8	0x3e101803	0.1407166
9	0xbe4f4730	-0.20242
10	0x3ec5353d	0.3851718
11	0xbe05d980	-0.13071251
12	0xbac7866f	-0.001522256
13	0xbe58a4e2	-0.21156648
14	0xbd10f40e	-0.035389
15	0xbe4986a0	-0.19680262
16	0x3d3a393d	0.045464743
17	0x3e08cc5c	0.13359207
18	0x3dacb8e0	0.084336996
19	0xbda9881b	-0.08277913
20	0xbcad9fe3	-0.021194404
21	0x3ca35cb2	0.019941662
22	0x3df8598d	0.121264555
23	0x3e5bdd22	0.21471074
24	0x3de2cb14	0.1107389
25	0xbb68d1e8	-0.0035525504
26	0x3e070622	0.13185933
27	0xbdd3fdae	-0.1035112
28	0xbd6b5dda	-0.05746255
29	0xbe3f777c	-0.18697923
30	0x3c51b038	0.0127983615
31	0x3c03fc5d	0.008055774
32	0x3d7f6c49	0.06235913
33	0xbe0be051	-0.13659789
34	0x3e7119ab	0.23544948
35	0x3d08080f	0.03321081
36	0x3c0abc12	0.008467691
37	0xbd9c3f5e	-0.07629274
38	0xbc9b97f7	-0.01899336
39	0xbe1934ce	-0.1496155
40	0x3e0ce53f	0.13759325
41	0x3e3e92f9	0.18610753
42	0x3dc57d1b	0.096430026
43	0x3da5707a	0.08078094
44	0xbd6d0998	-0.057870477
45	0x3e31303e	0.17303559
46	0x3e4aefc7	0.1981803
47	0x3dbf77aa	0.09348996
48	0x3c9342cc	0.017976187
49	0xbdb8524b	-0.09000071
50	0x3e019414	0.12654144
51	0xbcac03fe	-0.020997997
52	0x3d1e13d3	0.038593125
53	0xbdcc53bc	-0.099769086
54	0x3dda4bef	0.106590144
55	0xbdb9c506	-0.09070782
56	0x3d99b0b7	0.07504409
57	0xbdb31c92	-0.08745684
58	0x3e8120f4	0.25220454
59	0x3d072ada	0.03299985
60	0x3ca19665	0.019725034
61	0xbdbd4bbd	-0.092429616
62	0xbd78c89f	-0.060738202
63	0xbe1148f1	-0.14187981
64	0x3dbfe119	0.09369106
65	0x3e0fe9e4	0.14054066
66	0x3e1170b7	0.14203154
67	0x3cf213f8	0.029550537
68	0xbd99e339	-0.075140424
69	0x3d8439d5	0.06456343
70	0x3e616d20	0.22014284
71	0xbc32e302	-0.010918381
72	0x3df823ab	0.12116178
73	0x3d4a4a94	0.04938753
74	0x3e0dd0c2	0.13849166
75	0xbdb5f5c2	-0.08884765
76	0x3c9c6b1a	0.019094039
77	0xbe25f318	-0.16206014
78	0x3cc84afa	0.024449814
79	0xbd85257d	-0.06501291
80	0x3e2d648b	0.16932885
81	0xbc95060c	-0.01819136
82	0x3e5520d4	0.20813304
83	0xbda00950	-0.07814276
84	0xbd32da04	-0.043664947
85	0xbde3f339	-0.111303754
86	0xbde57d7f	-0.11205577
87	0xbe666290	-0.22498536
88	0x3d7ed0f3	0.06221099
89	0x3e09b5f1	0.13448311
90	0x3e18c4d9	0.14918841
91	0x3e1f4bf8	0.15556324
92	0x3d05784a	0.03258542
93	0x3da23778	0.07920736
94	0x3dbd2585	0.09235672
95	0x3bbdfc7b	0.0057979203
96	0x3db3bfdb	0.08776828
97	0xbd58f2bd	-0.05296587
98	0x3dcd8e4e	0.10036908
99	0xbc904a46	-0.017613541
100	0x3dd911a3	0.10599067
101	0xbe329173	-0.17438297
102	0x3e0757a5	0.13217027
103	0xbe12b4fd	-0.14326854
104	0x3dcfda59	0.101490684
105	0x3cb4cbb5	0.022069791
106	0x3d8d2c08	0.06893164
107	0xbdd5074f	-0.10401785
108	0xbd7bc76e	-0.061469488
109	0xbdc45e8a	-0.095883444
110	0xbd5076c3	-0.05089451
111	0xbddcc0ce	-0.10778962
112	0x3dcc1bcf	0.099662416
113	0x3c960ff2	0.01831815
114	0x3d29676e	0.041358404
115	0x3dcc01a1	0.09961248
116	0xbd4dad18	-0.050213903
117	0x3daf54f7	0.08561128
118	0x3e3cdc59	0.18443431
119	0xbd6d645f	-0.05795705
120	0x3d437ca5	0.047726292
121	0xbd6c4d62	-0.057690986
122	0x3da377e6	0.07981853
123	0xbd1e8a1e	-0.038705938
124	0x3e29d980	0.16586876
125	0xbe6b3b61	-0.2297187
126	0x3e258145	0.16162594
127	0xbe39a402	-0.1812897
128	0x3e10c194	0.14136344
129	0xbcb830ac	-0.022484146
130	0x3e2e1cf1	0.17003228
131	0x3b277ed0	0.0025557764
132	0xbd2366a3	-0.039892804
133	0xbdfd0874	-0.12355128
134	0xbd6195fc	-0.055074677
135	0xbe01e3ee	-0.12684605
136	0x3cdbd971	0.026837083
137	0x3deed2f3	0.11661329
138	0x3de05aad	0.10954795
139	0x3e083ac2	0.13303664
140	0x3c81b622	0.015833918
141	0x3e3c6e38	0.1840142
142	0x3e2eb02f	0.17059396
143	0xbdbad08b	-0.09121808
144	0x3cf0383a	0.029323686
145	0xbcb9b226	-0.022667956
146	0xbc70e7c8	-0.014703698
147	0xbd0d6135	-0.034516532
148	0x3cf6c979	0.030125367
149	0xbd815e5f	-0.06316828
150	0x3df3a507	0.11896711
151	0xbe1c9578	-0.15291393
152	0x3e1e90a8	0.1548487
153	0xbd60cda0	-0.0548836
154	0x3e99f65e	0.30070776
155	0x3d91bbaa	0.07115872
156	0xbe1c0fa7	-0.15240346
157	0xbe528288	-0.20557606
158	0xbe007b79	-0.12547101
159	0xbe27803e	-0.16357514
160	0x3dc772b9	0.097386785
161	0x3dc69f52	0.09698357
162	0x3da6a923	0.08137729
163	0x3dde1ef0	0.108457446
164	0xbc0091ba	-0.007847244
165	0x3e69b23a	0.22821894
166	0x3df4696d	0.11934171
167	0xbd47a874	-0.048744634
168	0x3da43c9b	0.08019372
169	0xba23703b	-0.000623468
170	0xbc93edc6	-0.018057715
171	0xbe087a73	-0.1332796
172	0xbda5acf9	-0.080896325
173	0xbdd33685	-0.10313133
174	0x3e0ccf65	0.1375099
175	0xbe1a3ae5	-0.15061529
176	0x3e02f8ac	0.12790173
177	0x3ad5fe9e	0.0016326492
178	0x3e85fc7d	0.26169196
179	0x3d4e6c0e	0.050396018
180	0xbdea198b	-0.11430653
181	0xbe28a6c4	-0.16469866
182	0xbc33f363	-0.010983321
183	0xbd88d82f	-0.06681859
184	0x3dc01f58	0.09380978
185	0x3dbbd360	0.09171176
186	0x3c3a1e1c	0.011359718
187	0xbd89374c	-0.067
188	0x3d9a9742	0.075483814
189	0x3df927a3	0.12165763
190	0x3e416e1e	0.18889663
191	0xbca9e83e	-0.020740625
192	0x3dd2db6a	0.10295756
193	0x3df28772	0.118422404
194	0x3d4af205	0.049547214
195	0xbdbf8dcd	-0.09353218
196	0xbd609b91	-0.05483586
197	0xbdc28ec6	-0.09499888
198	0x3e333999	0.1750244
199	0xbe93a02e	-0.28833145
200	0x3e4c34b9	0.19941987
201	0xbdbd734d	-0.092505075
202	0x3eb9f5da	0.36320382
203	0xbb641ddd	-0.003480784
204	0xbd53689c	-0.051613435
205	0xbde1d692	-0.11027254
206	0x3e17a7f5	0.14810164
207	0x3c7f70cb	0.015590857
208	0x3dcc835a	0.09985991
209	0x3d893d0b	0.06701096
210	0xbb5b7bba	-0.0033490495
211	0xbdec271f	-0.11530899
212	0xbbfc5bc2	-0.007701368
213	0x3e726793	0.23672323
214	0x3d61ab4d	0.055095006
215	0xbd39ceb8	-0.045363158
216	0x3d943f19	0.072385974
217	0x3e24c8b4	0.16092187
218	0xbc908ac0	-0.017644286
219	0xbe1263f2	-0.14295939
220	0xbd82af49	-0.06381089
221	0xbdd9443f	-0.1060872
222	0xbd02df07	-0.031950977
223	0xbea91d8c	-0.33030355
224	0x3e3eb979	0.1862544
225	0x3d08b59e	0.03337633
226	0x3e9bf674	0.30461466
227	0xbd7ad396	-0.06123694
228	0xbe2c4798	-0.16824186
229	0xbd767eb0	-0.060179412
230	0x3def1489	0.11673839
231	0xbea8378f	-0.32854888
232	0x3e52fe38	0.2060479
233	0x3ded67d8	0.11592072
234	0x3dd848f1	0.105607875
235	0x3dbf5fa3	0.09344413
236	0x3cb067c0	0.021533847
237	0x3eaed7b0	0.34148932
238	0xbcffc248	-0.03122057
239	0xbd996eff	-0.07491874
240	0xbd20e8b9	-0.03928444
241	0x3c61de7b	0.013785954
242	0xbca855d5	-0.02054874
243	0x3d2817ff	0.04103851
244	0x3d213a6a	0.03936235
245	0xbd0a65e3	-0.033788573
246	0xbd2bf2b7	-0.041979518
247	0x3d5f02f4	0.054446176
248	0xbd7c1751	-0.061545674
249	0xbc251b2f	-0.010077282
250	0x3d5f86c2	0.054571874
251	0xb97af357	-0.00023932509
252	0xbd0a888e	-0.033821635
253	0xbd62a0fa	-0.0553293
254	0xbd453c64	-0.048153296
255	0xbbaa0860	-0.0051889867

fc1.bias f4 [128]
0	0xbd3c2d0a	-0.04594139
1	0xbd119730	-0.035544574
2	0x3d2da5a5	0.0423943
3	0x3d37e9bb	0.044900637
4	0x3de6a0c7	0.112611346
5	0xbd62c108	-0.05535987
6	0x3c81fcf9	0.015867697
7	0xbd39ea0f	-0.04538923
8	0xbd819ee9	-0.06329138
9	0xbd4b3cfd	-0.04961871
10	0xbc9f438e	-0.019441392
11	0xbd1b6437	-0.03793737
12	0xbb24a832	-0.0025124666
13	0x3d93c7ce	0.07215844
14	0xbd090ae4	-0.03345765
15	0x3d1b83c1	0.037967447
16	0xbc4385d3	-0.011933762
17	0xbcad8b4c	-0.021184586
18	0xbcc2be15	-0.023772279
19	0x3c1e063e	0.009645043
20	0x3d684cbf	0.056713816
21	0xbd84e45b	-0.06488868
22	0x3cb303bd	0.021852368
23	0xbd88093b	-0.066423856
24	0x3d8cabf9	0.06868739
25	0xbd36985a	-0.044578888
26	0x3d02023c	0.031740412
27	0x3cef4313	0.029206788
28	0xbd25a4a8	-0.04044023
29	0xbd52a3f5	-0.051425893
30	0x3c8cc54e	0.017183926
31	0x3b8506c6	0.0040596453
32	0xbd030c9f	-0.03199446
33	0xbb303be3	-0.0026891164
34	0xbd782ec5	-0.060591478
35	0x3d5789a2	0.05262149
36	0x3d2744a9	0.040836964
37	0xbcc2d907	-0.023785127
38	0xbbef02f9	-0.0072940555
39	0xbda95471	-0.08268059
40	0x3ca27946	0.019833218
41	0x3cd5934c	0.026071213
42	0x3d170d56	0.036877953
43	0x3d3487aa	0.04407469
44	0x3c2c35f2	0.010510908
45	0xbd25e016	-0.040496908
46	0xbd7af8a7	-0.06127229
47	0xbcce0338	-0.02514802
48	0xbc917c2c	-0.017759405
49	0x3a9dbbe9	0.0012034151
50	0xbccaf27d	-0.02477383
51	0xbc8b7af4	-0.017026402
52	0x3c7c0df4	0.015384186
53	0x3ab9e3bb	0.0014182249
54	0x3d916c65	0.07100753
55	0x3dc2f591	0.09519494
56	0xbd8db783	-0.06919768
57	0x3be5f19b	0.007017327
58	0xbcfba4e0	-0.030718267
59	0xbd6a5403	-0.057209026
60	0x3d84d972	0.06486787
61	0x3b89f8c9	0.0042105657
62	0xbd18db86	-0.03731873
63	0x3cc48454	0.02398888
64	0x3d39e3a3	0.045383107
65	0x38cda516	9.8059114e-05
66	0x3b0b162e	0.0021222937
67	0xbd2e25da	-0.042516567
68	0xbd3e7051	-0.046493832
69	0x3c8ce28d	0.017197872
70	0xbd6707a0	-0.056403756
71	0x3c58c145	0.013229673
72	0x3b333f40	0.0027350932
73	0x3b92cd24	0.004480021
74	0xbd1b8136	-0.037965022
75	0xbc7b86cb	-0.015351961
76	0x3d353725	0.044242043
77	0xba272733	-0.00063763856
78	0x3ce88d36	0.028387647
79	0x3b815070	0.0039463565
80	0x3dad4469	0.08460314
81	0xbc983f14	-0.018584765
82	0xbb4f3ddd	-0.0031622567
83	0xbccb6247	-0.024827136
84	0x3cef9a2e	0.029248323
85	0x3c03b997	0.008039854
86	0x3db8bfbd	0.09020946
87	0xbcf11f37	-0.02943383
88	0xbd08d917	-0.033410158
89	0xbd9e0a0d	-0.07716761
90	0xbd787cc7	-0.060665872
91	0x3d8a2d9c	0.067469805
92	0x3e035992	0.12827137
93	0xbd79f826	-0.06102767
94	0x3b0eb27c	0.0021773865
95	0x3bf4a6b7	0.007466163
96	0xbcbf2667	-0.023333741
97	0x3d3482cb	0.044070046
98	0xbc938df6	-0.018012028
99	0x3d5067f5	0.05088039
100	0x3cbf5401	0.023355486
101	0x3cb47b0c	0.02203133
102	0xbc835665	-0.016032407
103	0x3da4ef9d	0.08053515
104	0xbd51dca7	-0.05123582
105	0x3c03f610	0.008054271
106	0x3ce4bfee	0.02792355
107	0xbbd7d2ad	-0.006586394
108	0xbcf6c252	-0.030121956
109	0xbc9445f3	-0.01809976
110	0x3d0598f2	0.032616563
111	0xbd3304e6	-0.043705843
112	0x3d53d196	0.05171355
113	0x3da355c7	0.07975345
114	0xbb95d0bc	-0.004572002
115	0x3d85787c	0.06517121
116	0x3b769066	0.003762269
117	0xbc8b7701	-0.017024519
118	0x3d5e5a7a	0.054285504
119	0x3d6e9fd9	0.05825791
120	0x3c8f005f	0.017456232
121	0x3df470ad	0.11935554
122	0x3d879ea1	0.06622053
123	0xbd86c1b0	-0.06579912
124	0xbd84a63e	-0.06477021
125	0xbd065112	-0.03279216
126	0xbd15d1ab	-0.036576908
127	0x3d4657ea	0.048423685

fc2.weight f4 [64, 128]
0	0xbd945b38	-0.07243961
1	0x3ce39d06	0.027784836
2	0x3d0e8012	0.034790106
3	0xbdbf9076	-0.093537256
4	0xbd3d30bf	-0.046189066
5	0x3cd4c6b4	0.025973655
6	0xbcd7e6be	-0.026355144
7	0x3d1de6c5	0.038550157
8	0xbcc219ec	-0.023694001
9	0x3d334886	0.043770336
10	0x3cfad06b	0.03061696
11	0x3d8cb101	0.06869698
12	0xbd06111b	-0.032731157
13	0xbdb46db8	-0.0880999
14	0xbcb1eb5e	-0.021718677
15	0xbd03b880	-0.032158375
16	0xbc0b7d1c	-0.008513715
17	0xbc77d860	-0.015127271
18	0xbd20b768	-0.03923741
19	0x3bcd8282	0.0062716613
20	0x3d398d7b	0.045300942
21	0xbd77b4bd	-0.0604751
22	0x3d337b33	0.043818664
23	0xbd3d16ba	-0.046164252
24	0xbda332b9	-0.07968659
25	0xbd3cc9b8	-0.04609081
26	0xbdb1b59f	-0.086772196
27	0xbdb51f49	-0.08843858
28	0xbdab539b	-0.08365556
29	0x3c96fa64	0.018429942
30	0xbc4ff68f	-0.0126930615
31	0xbcb273f6	-0.02178381
32	0x3c4f0461	0.012635321
33	0x3d95cb9d	0.07314227
34	0x3d8147ce	0.06312524
35	0xbd1b5a9a	-0.0379282
36	0xbd50cc23	-0.05097593
37	0x3d7f72fa	0.06236551
38	0xbd07651e	-0.033055417
39	0xbdb7e296	-0.08978765
40	0x3d9d9a14	0.07695404
41	0x3ca6d910	0.020367175
42	0x3ce762ab	0.02824529
43	0xbd9c8da7	-0.076442055
44	0x3ba65a95	0.005076716
45	0xbdad5d9d	-0.08465121
46	0x3bea0680	0.007141888
47	0xbd83630f	-0.06415378
48	0xbd39980a	-0.04531101
49	0xbd99cec1	-0.07510138
50	0x3c137762	0.009000631
51	0x3c0df070	0.008663282
52	0xbb02ff2b	-0.0019988518
53	0xbd299de8	-0.041410357
54	0x3d4f234c	0.05057077
55	0xbc14c8c8	-0.009081073
56	0x3d317e1b	0.043333154
57	0x3cba203c	0.022720449
58	0x3d423ee3	0.047423255
59	0xbd96664b	-0.073437296
60	0x3ad5fe92	0.0016326478
61	0xbdb2ac22	-0.08724238
62	0xbd1acf5b	-0.037795406
63	0xbce8a3c8	-0.02839841
64	0xbd931e55	-0.0718352
65	0x3ba9355f	0.005163833
66	0x3d149d3a	0.036282755
67	0xbc3837c8	-0.011243768
68	0x3da237ce	0.079208
69	0xbd1e83e1	-0.03869999
70	0x3d55f30a	0.052233733
71	0x3cb32fc1	0.021873357
72	0xbbf1d650	-0.0073802844
73	0xbd9404db	-0.072274886
74	0xbd50513e	-0.05085873
75	0xbc8689fe	-0.016423222
76	0x3c452aa4	0.012034092
77	0xbd92cc00	-0.07167816
78	0x3d73113a	0.0593426
79	0xbc6714df	-0.014104097
80	0xbd85cfbc	-0.06533763
81	0xbcd37ae8	-0.025815442
82	0x3c174e51	0.009234981
83	0xbdab09d2	-0.083514825
84	0x3d9cd60e	0.07658015
85	0x3db4df93	0.08831706
86	0x3d90cb82	0.07070066
87	0xbd747857	-0.059685078
88	0x3d72bb73	0.059260797
89	0xbc51bcd4	-0.012801368
90	0xbd57b70e	-0.05266481
91	0x3d67631e	0.05649101
92	0xbd1fe786	-0.039039157
93	0x3d2c444b	0.042057317
94	0x3d38585f	0.045006152
95	0xbc800ee7	-0.015632106
96	0x3d7c7d60	0.061643004
97	0x3d6c3d94	0.057675913
98	0x3ceb9308	0.028756633
99	0xbd9abb7e	-0.075552925
100	0xbd1fe28e	-0.03903442
101	0xbd3ea8a4	-0.046547547
102	0xbdb347eb	-0.08753952
103	0xbca019be	-0.019543525
104	0xbbd8da10	-0.006617792
105	0xbd8e8073	-0.069580935
106	0x3c5a4e9e	0.013324408
107	0xbd0721c6	-0.032991193
108	0x3c61b78d	0.013776672
109	0x3c859a09	0.016308801
110	0xbcb1315d	-0.021629984
111	0x3ca74a8d	0.02042129
112	0x3d9ad069	0.07559282
113	0xbc594cdb	-0.013262953
114	0xbd02970f	-0.031882342
115	0xbc854e90	-0.016272813
116	0x3d9d9383	0.07694151
117	0x3d9334f8	0.07187837
118	0x3ca1dbd3	0.01975814
119	0xbd72e2a7	-0.059298184
120	0x3c59a484	0.0132838525
121	0xbd92d6d9	-0.07169885
122	0xbdb97f33	-0.090574645
123	0x3cdd23a8	0.026994541
124	0x3d99e8f8	0.075151384
125	0xbdaf2e2c	-0.085537285
126	0xbdb49279	-0.08817
127	0x3d0abeec	0.033873484
128	0xbe0a7d57	-0.13524376
129	0xbd5bd683	-0.05367137
130	0x3e22648a	0.15858665
131	0xbdc55e67	-0.096371464
132	0x3e6e8a16	0.23294863
133	0x3d99bef7	0.07507127
134	0xbd257433	-0.04039402
135	0x3d9812a1	0.07425428
136	0x3cd09187	0.025460018
137	0xbda063a3	-0.07831504
138	0xbe26cbfb	-0.1628875
139	0xbdad585e	-0.0846412
140	0x3e179a5e	0.1480498
141	0x3e40f37f	0.18842886
142	0x3c9fa365	0.019487092
143	0xbd8fb65f	-0.070172064
144	0xbe1b457b	-0.15163223
145	0x3dd8a03b	0.105774365
146	0x3e276b6d	0.16349573
147	0x3db2b5b9	0.08726067
148	0x3eade5ac	0.33964288
149	0x3d859efe	0.06524466
150	0x3df0bab8	0.11754364
151	0x3d95be41	0.07311679
152	0x3e66498f	0.22488998
153	0xbd89867b	-0.06715103
154	0x3e0dd715	0.13851579
155	0xbca61620	-0.020274222
156	0x381f4800	3.797561e-05
157	0xbd3a7955	-0.045525867
158	0xbc71b258	-0.014751993
159	0xbe39defb	-0.18151467
160	0x3d9a6781	0.07539273
161	0xbc281780	-0.010259509
162	0xbd3acb6b	-0.04560415
163	0x3e38a540	0.18031788
164	0x3d87af92	0.06625284
165	0x3e67ed16	0.22649035
166	0x3dad9291	0.08475221
167	0xbe1a41ca	-0.15064159
168	0xbcc471f8	-0.023980126
169	0xbe204ef8	-0.15655124
170	0x3e35d60c	0.17757434
171	0xbce647e0	-0.028110445
172	0xbd570b58	-0.052501053
173	0x3e107d50	0.14110303
174	0xbd4c679a	-0.04990349
175	0xbcd6ff56	-0.0262448
176	0x3c66b980	0.014082313
177	0x3c474973	0.012163508
178	0xbd348ab7	-0.0440776
179	0x3e0989b8	0.13431442
180	0xbc312bba	-0.010813648
181	0xbd6f7a13	-0.05846603
182	0x3eb82cff	0.3597183
183	0x3e03f4d5	0.12886365
184	0x3dbf85f9	0.09351725
185	0x3e3c81e6	0.18408927
186	0xbe4f3ab1	-0.20237233
187	0xbe331b4a	-0.17490879
188	0xbd3e44ab	-0.046452206
189	0xbca7ad3e	-0.02046835
190	0x3d194d8e	0.037427478
191	0x3cf61330	0.030038446
192	0x3d5db1e4	0.054124728
193	0xbe1ab2ae	-0.15107223
194	0x3e12d8b5	0.1434048
195	0xbc923044	-0.01784528
196	0x3cf49f9a	0.02986126
197	0x3e106d79	0.1410426
198	0x3d9497f1	0.07255543
199	0xbc79a9fc	-0.015238281
200	0xbd5fb971	-0.05462021
201	0x3e1a346c	0.1505906
202	0xbe07694b	-0.1322376
203	0xbe02bbc3	-0.12766938
204	0xbd08353a	-0.033253886
205	0xbd0f0297	-0.03491458
206	0x3ea8677f	0.3289146
207	0x3dc67838	0.09690899
208	0xbd1f7ac6	-0.038935445
209	0x3d9be4b5	0.07611982
210	0xbe75d4e2	-0.2400699
211	0xbeb61230	-0.3556075
212	0x3dbb71e9	0.09152586
213	0xbe5721a7	-0.21008931
214	0xbdcaea73	-0.09907999
215	0x3b0371cf	0.002005685
216	0xbd8881d2	-0.06665386
217	0x3e1d207b	0.15344422
218	0x3c049aea	0.008093575
219	0x3dbdef86	0.09274201
220	0xbbe95d89	-0.007121746
221	0x3db777c8	0.08958393
222	0xbd844aee	-0.06459604
223	0x3d6a0427	0.057132866
224	0xbb11c200	-0.0022240877
225	0xbdc05638	-0.09391445
226	0x3d875688	0.066083014
227	0xbf032d81	-0.5124131
228	0xbd6d3f63	-0.05792178
229	0xbe8cb752	-0.27483612
230	0xbe9dd65b	-0.30827603
231	0x3e2bde84	0.16784102
232	0x3db2abe1	0.087241895
233	0xbd33ab6e	-0.04386466
234	0xbd8d41ab	-0.06897291
235	0xbd08cbc9	-0.03339747
236	0xbe91e818	-0.28497386
237	0xbc403c5f	-0.011733144
238	0x3d2f6596	0.04282149
239	0x3ecc665f	0.39921853
240	0x3d954348	0.072882235
241	0x3c4c8141	0.012481988
242	0xbd97a5e1	-0.07404686
243	0xbd08d347	-0.033404615
244	0x3e37501f	0.17901658
245	0xbce81fa9	-0.02833541
246	0xbd2f0d85	-0.042737503
247	0xbd07f11d	-0.033188928
248	0xbd5f51d2	-0.05452139
249	0x3e12d601	0.14339449
250	0x3df300c5	0.11865381
251	0x3d9b0cc3	0.075707935
252	0x3e6947d1	0.22781302
253	0x3d2f1463	0.04274405
254	0xbd914d4b	-0.070948206
255	0xbd63c5a0	-0.05560839

fc2.bias f4 [64]
0	0x3d9426ad	0.07233939
1	0xbc567252	-0.0130887795
2	0xbda43280	-0.080174446
3	0xbdb0c3fd	-0.08631132
4	0xbcbe9d21	-0.023268284
5	0x3d97fb88	0.07421023
6	0xbd88d1f6	-0.06680672
7	0xbd73482c	-0.059395
8	0xbdc6666e	-0.09687506
9	0x3c02b4a6	0.00797764
10	0x3d120081	0.03564501
11	0x3bdd86eb	0.0067604682
12	0x3e1e6f34	0.15472108
13	0xbd6f9d30	-0.058499515
14	0xbd32d0c1	-0.043656114
15	0xbd62e480	-0.055393696
16	0xbd18e5fd	-0.03732871
17	0x3d89c096	0.06726186
18	0xbc97a4d9	-0.018511223
19	0xbcd44623	-0.02591235
20	0x3d0c82c1	0.034304384
21	0x3d428b80	0.04749632
22	0x3c2923bf	0.010323464
23	0x3c53bcf2	0.012923466
24	0x3d3fecce	0.046856694
25	0x3e01f7f7	0.12692247
26	0xbd00e6b6	-0.031470023
27	0x3de8c847	0.11366325
28	0x3d78e201	0.06076241
29	0xbd75c517	-0.060002413
30	0x3c6209c4	0.013796274
31	0x3df9fe40	0.122066975
32	0xbca3099c	-0.019902043
33	0x3d8a0cc8	0.06740719
34	0xbd883755	-0.06651179
35	0x3dc144df	0.09436964
36	0xbbb18b69	-0.0054182303
37	0xbd68f36d	-0.056872774
38	0xbd0ecade	-0.034861438
39	0xbd68a039	-0.056793425
40	0xbd254af7	-0.040354695
41	0x3d9cc4db	0.07654735
42	0x3d5da676	0.054113828
43	0x3e060f07	0.1309167
44	0x3d982786	0.074294135
45	0xbd9daf42	-0.076994434
46	0xbd042f8b	-0.032271903
47	0xbd736c74	-0.0594296
48	0xbd25a93f	-0.04044461
49	0xbd91bf13	-0.07116523
50	0x3c297ffe	0.010345457
51	0xbd38b52d	-0.045094658
52	0xbd19980a	-0.03749851
53	0xbe10f0f5	-0.14154418
54	0xbbd0ff14	-0.006378064
55	0xbdcc2417	-0.09967821
56	0xbcb3a510	-0.021929294
57	0xbce84125	-0.028351376
58	0xbbac6df7	-0.0052621323
59	0xbd10a178	-0.03531024
60	0x3d2d8489	0.042362723
61	0x3bc6a7d5	0.0060624876
62	0x3d73fed0	0.05956918
63	0x3cbaa337	0.022782905

fc3.weight f4 [24, 64]
0	0x3d40931b	0.04701529
1	0xbf5a265f	-0.852148
2	0x3dcc8f9e	0.0998833
3	0xbd5a633a	-0.053317286
4	0x3df47aa4	0.11937454
5	0xbdeef4ef	-0.11667811
6	0xbd5c3112	-0.053757735
7	0xbdcf6ac1	-0.101277836
8	0x3d2b9dc0	0.04189849
9	0xbca21f1d	-0.019790227
10	0xbf834b4d	-1.0257355
11	0xbc325285	-0.010883932
12	0xbe099805	-0.13436897
13	0x3db75ff5	0.08953849
14	0xbf9e4b25	-1.2366682
15	0xbd91d9a7	-0.07121592
16	0xbd8da446	-0.06916098
17	0xbee08988	-0.43854928
18	0x3d4a3d00	0.04937458
19	0xbe9714b0	-0.2950797
20	0xbfa42ac6	-1.2825553
21	0xbce97d96	-0.028502267
22	0x3e3521ec	0.17688721
23	0x3d10fbc9	0.03539637
24	0x3dd6025e	0.1044967
25	0x3dc0751f	0.09397339
26	0x3b5b6936	0.0033479459
27	0xbe420d0e	-0.18950292
28	0x3ca2491a	0.019810248
29	0xbd0264f4	-0.031834558
30	0x3d33f92c	0.0439388
31	0xbdc4f949	-0.0961786
32	0xbe0194d6	-0.12654433
33	0xbdb29d4c	-0.08721408
34	0xbd91faf3	-0.07127943
35	0xbe2f28da	-0.17105427
36	0xbe7a8458	-0.24464548
37	0xbd8d8a30	-0.06911123
38	0x3e350bcc	0.17680281
39	0xbd94972c	-0.07255396
40	0x3ddbabd7	0.10726135
41	0xbb8034b4	-0.0039125327
42	0xbc00e6a4	-0.007867489
43	0xbd458808	-0.048225433
44	0x3e2320bd	0.15930457
45	0xbc9e68bc	-0.01933705
46	0xbe14e6b3	-0.1454113
47	0x3d4fbdab	0.05071799
48	0x3eb3aaff	0.35091397
49	0x3e700577	0.23439585
50	0xbc0ea2dc	-0.008705821
51	0xbdf37714	-0.11887947
52	0xbd776e68	-0.060408026
53	0x3dbdf8d6	0.09275977
54	0xbbe0e36a	-0.0068630474
55	0x3d9712cb	0.07376631
56	0x3e0f7f6e	0.14013454
57	0xbe1ec9e6	-0.15506706
58	0x3d514e67	0.05110016
59	0x3d95d27c	0.07315537
60	0x3e73c7ad	0.23806639
61	0xbd87efb7	-0.06637519
62	0xbef245cc	-0.47318876
63	0xbdfb58db	-0.12272807
64	0xbd810df0	-0.063014865
65	0xbd4ca91d	-0.049965966
66	0x3c7c2e86	0.015391951
67	0x3c8d5be5	0.017255733
68	0x3e20daf1	0.1570852
69	0xbd0a902c	-0.0338289
70	0x3c2926cb	0.01032419
71	0xbd5a40b6	-0.05328437
72	0xbdb7af53	-0.08968987
73	0xbdb948ef	-0.09047114
74	0xbe67664e	-0.2259762
75	0x3e54a586	0.20766267
76	0x3dd11bc6	0.102103755
77	0x3dca80dd	0.0988786
78	0x3ed4e202	0.4157868
79	0x3d7ac92f	0.06122702
80	0x3e3a8236	0.18213734
81	0xbd8827a0	-0.06648183
82	0xbe9b1d8e	-0.30295986
83	0x3dcdc047	0.100464396
84	0xbda7a9ad	-0.0818666
85	0x3e29554a	0.16536441
86	0xbd258558	-0.04041037
87	0x3ba37afa	0.004989025
88	0xbd85147e	-0.06498049
89	0xbe7bf091	-0.24603488
90	0x3eac10b3	0.3360649
91	0xbe5202d2	-0.20508888
92	0xbe743af3	-0.23850612
93	0xbd8f7264	-0.0700424
94	0xbc25a3a0	-0.010109812
95	0xbf35e8f1	-0.71058565
96	0xbce7447e	-0.028230902
97	0x3e820585	0.25394836
98	0x3dcc5ba4	0.099784166
99	0x3e132550	0.14369702
100	0x3e4172bf	0.18891428
101	0xbdb0f007	-0.086395316
102	0x3e731f1d	0.23742338
103	0xbd9d48cf	-0.07679903
104	0xbdc11256	-0.094273254
105	0xbdf382f5	-0.118902124
106	0xbd9d916c	-0.07693753
107	0xbeb0835f	-0.34475228
108	0xbe6a7029	-0.22894348
109	0x3d8700c4	0.06591943
110	0xbcdb6a28	-0.026784018
111	0xbd799a1f	-0.060937997
112	0xbdd81640	-0.10551119
113	0xbb9af3c8	-0.004728768
114	0xbdd9121f	-0.105991594
115	0xbdb10c84	-0.08644965
116	0x3cd8fa10	0.026486427
117	0xbc9078ba	-0.017635692
118	0xbf1328bf	-0.5748405
119	0x3dc0d9fc	0.09416577
120	0xbd1de536	-0.03854867
121	0x3cf2cb92	0.029638086
122	0x3d836017	0.06414812
123	0xbd4fa3c4	-0.05069329
124	0xbe332a9a	-0.1749672
125	0xbdfd0e4f	-0.12356245
126	0x3e2490d5	0.16070874
127	0xbcb9ded5	-0.022689262
128	0x3db6c292	0.0892383
129	0x3eca00db	0.39453778
130	0xbd41143a	-0.04713843
131	0xbdac5551	-0.0841471
132	0xbe927bce	-0.2861008
133	0xbea131fd	-0.3148345
134	0xbd145f01	-0.036223415
135	0xbd8c4c0f	-0.068504445
136	0xbda7c02c	-0.08190951
137	0xbd821e7a	-0.06353469
138	0xbf999d50	-1.2001133
139	0xbe599dca	-0.21251598
140	0x3e287f25	0.16454752
141	0xbd17e71b	-0.037085634
142	0x3eeff4f5	0.46866575
143	0x3b60972b	0.003426979
144	0x3e39618d	0.18103619
145	0xbe9afde0	-0.30271816
146	0x3de4741a	0.11154957
147	0xbdee7c39	-0.11644787
148	0x3d7ec58e	0.06220012
149	0x3e3ca5ec	0.18422669
150	0xbd347abb	-0.044062357
151	0x3d94960e	0.07255183
152	0xbd119e78	-0.03555152
153	0xbca52dde	-0.020163473
154	0xbca854a9	-0.020548182
155	0xbe15ea23	-0.14640097
156	0x3ca1072b	0.019656738
157	0x3d190f02	0.03736783
158	0x3d99a9ef	0.075031154
159	0xbc8b7b81	-0.017026665
160	0xbdb6cb38	-0.0892548
161	0xbe3a3723	-0.18185095
162	0xbcc18546	-0.02362312
163	0xbc17e174	-0.009270061
164	0xbf11c761	-0.56944853
165	0xbe17adfb	-0.14812462
166	0xbe1ead82	-0.15495875
167	0xbd244a0e	-0.040109687
168	0x3c46359a	0.012097741
169	0xbdde6dec	-0.1086081
170	0x3d0d4506	0.034489654
171	0x3dfc160e	0.12308894
172	0x3dc8f97a	0.09813209
173	0x3dddc680	0.108288765
174	0xbdd411d5	-0.10354964
175	0xbd54394a	-0.051812448
176	0xbefbf37f	-0.4920921
177	0x3d218889	0.03943685
178	0x3c0b535d	0.008503762
179	0xbc94d0ed	-0.01816603
180	0xbd0d924a	-0.03456334
181	0xbda099bb	-0.07841822
182	0x3d262d8e	0.040570788
183	0x3d1e25f1	0.038610402
184	0x3cfaf620	0.03063494
185	0x3d079e6c	0.033110067
186	0x3e19a0b7	0.15002714
187	0xbd28aa58	-0.041178077
188	0xbe07dbad	-0.13267393
189	0x3e06bb5b	0.13157408
190	0xbd72cb5b	-0.059275966
191	0xbd4c7dc3	-0.049924623
192	0xbd8363e1	-0.06415535
193	0xbee7d97e	-0.4528312
194	0x3de80df8	0.11330789
195	0x3d17c96e	0.037057333
196	0x3e36d5b8	0.17854965
197	0x3d83e2fd	0.06439779
198	0xbd2728bf	-0.040810343
199	0xbc29454f	-0.010331466
200	0xbde4bed9	-0.11169214
201	0xbd1b6eaf	-0.037947353
202	0x3e7aa29b	0.24476092
203	0xbdef0043	-0.11669972
204	0xbbd59061	-0.0065174554
205	0xbd67be73	-0.05657811
206	0xbe0b429b	-0.13599627
207	0x3da330be	0.07968281
208	0xbe073202	-0.1320267
209	0x3e5e8c36	0.21733174
210	0xbc2c4a36	-0.01051574
211	0xbc425154	-0.01186021
212	0x3dc8b38c	0.09799871
213	0x3e9fa1eb	0.3117822
214	0x3de18cb7	0.11013167
215	0x3d9efeb5	0.07763425
216	0xbcd30248	-0.025757924
217	0x3dfea83b	0.12434431
218	0xbea8220c	-0.32838476
219	0xbe279dc7	-0.16368781
220	0xbea6f197	-0.32606193
221	0xbcdacbf0	-0.026708573
222	0x3b4a0774	0.0030827196
223	0x3cbcc5c0	0.023043513
224	0x3d3a67f4	0.045509294
225	0xbdf3f4b1	-0.119119056
226	0xbc928157	-0.01788394
227	0x3d5816e6	0.052756213
228	0x3d75ffad	0.060058285
229	0x3d803d73	0.062617205
230	0x3da6064d	0.081066705
231	0xbdf9ba27	-0.12193709
232	0xbd7070d6	-0.05870136
233	0xbe806534	-0.25077212
234	0x3d1022e8	0.03518954
235	0xbda5042d	-0.08057437
236	0x3ddebe9e	0.10876201
237	0xbc2ca339	-0.010536962
238	0xbe1892e1	-0.1489978
239	0x3cd4b051	0.02596298
240	0xbea492df	-0.32143304
241	0xbd887880	-0.066636086
242	0x3d3366ee	0.043799333
243	0xbc6d5e3a	-0.014487797
244	0xbcb637da	-0.022243429
245	0xbf4392e3	-0.76396006
246	0xbe88cbc2	-0.26717955
247	0x3d5577ec	0.05211632
248	0x3e68749c	0.22700733
249	0x3e64031e	0.22266814
250	0xbdd26a4a	-0.10274179
251	0xbd8a8a75	-0.0676469
252	0x3db57d49	0.08861787
253	0xbeca173e	-0.39470857
254	0x3e4c724f	0.1996548
255	0xbdfe9c0a	-0.12432106

fc3.bias f4 [24]
0	0x3dc0edb7	0.094203405
1	0x3d914507	0.07093244
2	0x3d8b87bf	0.06813001
3	0xbdd05f97	-0.10174482
4	0xbd6de8eb	-0.058083456
5	0xbcae42fa	-0.021272171
6	0x3d6d102c	0.05787675
7	0xbe0bcdca	-0.13652721
8	0xbe13c5e7	-0.14430963
9	0xbdf5a403	-0.119941734
10	0xbd913e07	-0.07091909
11	0x3d8b8257	0.0681197
12	0xbd77db11	-0.060511652
13	0xbe2206cf	-0.1582291
14	0xbc725717	-0.014791272
15	0x3c18a1ff	0.009315967
16	0x3d5e28f5	0.05423828
17	0xbd2f4e9d	-0.04279958
18	0x396e3ea6	0.00022720787
19	0xbd931a9a	-0.07182808
20	0xbe053e7b	-0.13012116
21	0x3d8f99b9	0.07011742
22	0x3c18085a	0.009279335
23	0xbdd13ce8	-0.10216695

exp_avg f4 [128, 240]
0	0x3b0aa5a0	0.002115585
1	0x3a625540	0.0008633919
2	0x3aa56a36	0.0012620154
3	0x39f067b8	0.00045853644
4	0x3a663669	0.00087819115
5	0x3a94fe7e	0.0011367348
6	0x3a292096	0.0006451694
7	0x3a081224	0.00051906914
8	0x3b009f16	0.0019626073
9	0x39d5d4da	0.00040785113
10	0x39cdb5a2	0.00039235974
11	0x3af03c63	0.0018328544
12	0xb8b82916	-8.7814566e-05
13	0x39e3cadc	0.00043447956
14	0x3a77e9fa	0.00094571675
15	0x3adad3e1	0.0016695225
16	0x3a350870	0.00069058593
17	0x39cb31e0	0.00038756337
18	0x3ac8b063	0.0015311356
19	0x3add8277	0.0016899843
20	0x3918dbf0	0.00014577783
21	0x399c5eb5	0.000298252
22	0x3a120661	0.00055704085
23	0x38e913c6	0.00011113989
24	0x3b108c2e	0.002205621
25	0x3a6138f0	0.0008591553
26	0x3aa95ac2	0.0012920725
27	0x3a0894f6	0.0005210185
28	0x3a692141	0.00088932
29	0x3a95da2f	0.0011432822
30	0x3a3a11e2	0.00070980017
31	0x39ffdda4	0.00048802525
32	0x3b02139c	0.0019848114
33	0x39bc6d36	0.00035939523
34	0x3a1f0c8e	0.00060672394
35	0x3ac42e99	0.00149675
36	0xb866546c	-5.4914897e-05
37	0x3a06b71f	0.00051389815
38	0x3a70a5aa	0.00091799593
39	0x3ade5e6e	0.0016965398
40	0x39f25e4f	0.00046228102
41	0x39dc1d16	0.0004198334
42	0x3ac79a82	0.0015228542
43	0x3ad5cc4d	0.0016311497
44	0x39149fda	0.00014173929
45	0x39b2c67b	0.00034098685
46	0x3a21e83b	0.00061762676
47	0x3986e4a1	0.00025728813
48	0x3b0e6426	0.0021727174
49	0x3a609042	0.0008566418
50	0x3aa57c0e	0.0012625472
51	0x39f298af	0.00046271595
52	0x3a3e4830	0.00072586816
53	0x3a9851f2	0.0011621101
54	0x3a26651a	0.0006347463
55	0x3a1e6700	0.000604257
56	0x3b008a03	0.0019613511
57	0x39da98ee	0.00041694142
58	0x3a182138	0.000580329
59	0x3ac8a19d	0.0015306954
60	0xb8b05c46	-8.409521e-05
61	0x3a043d36	0.00050445215
62	0x3a8d41f0	0.0010777097
63	0x3ad0de50	0.0015935395
64	0x3a0427ce	0.0005041332
65	0x39cb078e	0.00038724806
66	0x3ac8e524	0.0015327078
67	0x3ac40a00	0.0014956594
68	0x39547560	0.00020261621
69	0x39ff3f1f	0.0004868442
70	0x3a09feed	0.0005264122
71	0x39c00e72	0.00036631856
72	0x3b0e73d6	0.0021736524
73	0x3a3d933a	0.00072317163
74	0x3aa2a060	0.0012407415
75	0x39df9caf	0.00042650613
76	0x3a3b8c65	0.00071544043
77	0x3a9d9845	0.0012023529
78	0x3a1cf50b	0.0005987442
79	0x3a108bc6	0.0005513992
80	0x3b01150d	0.0019696385
81	0x395bf67a	0.00020977287
82	0x3a1bf253	0.000594889
83	0x3ade0780	0.0016939491
84	0xb9157323	-0.00014252639
85	0x3a20050a	0.00061042665
86	0x3a883e1c	0.0010394487
87	0x3ad76327	0.0016432748
88	0x3a21c2b2	0.00061706745
89	0x39ec5624	0.00045077608
90	0x3ac58ecd	0.0015072465
91	0x3ac03342	0.0014663714
92	0x394bdfa2	0.00019442898
93	0x39fae94d	0.00047857538
94	0x3a01c7bc	0.0004950722
95	0x39dc73fc	0.00042048085
96	0x3b0deb65	0.0021655199
97	0x3a498804	0.00076878094
98	0x3a9ee588	0.0012122849
99	0x39b0258d	0.00033597313
100	0x3a2434ce	0.0006263972
101	0x3a96f842	0.0011518078
102	0x3a10d66e	0.00055251166
103	0x3a101a33	0.0005497068
104	0x3b05ce81	0.0020417275
105	0x38f57af9	0.00011705416
106	0x3a3dca5a	0.00072399306
107	0x3ae21a05	0.0017250186
108	0x3627a140	2.49788e-06
109	0x3a219b40	0.00061647967
110	0x3a83c77a	0.0010053955
111	0x3acc0d4a	0.0015567925
112	0x3a486c44	0.00076455274
113	0x3a1b8b98	0.0005933582
114	0x3ac4657c	0.0014983858
115	0x3ad8c788	0.0016538957
116	0x38dbe14b	0.00010484698
117	0x39ee7c23	0.00045487387
118	0x39da8470	0.00041678874
119	0x39bafc44	0.00035664637
120	0x3b1118e7	0.0022140087
121	0x3a5865d8	0.0008254922
122	0x3ab8f0bc	0.001410983
123	0x39a7145a	0.00031867885
124	0x39ffb392	0.0004877118
125	0x3a945d26	0.0011319264
126	0x39eb371d	0.00044863755
127	0x3a13c266	0.00056365726
128	0x3b0914dc	0.0020916974
129	0x3921049e	0.00015355877
130	0x3a1a6e02	0.0005891026
131	0x3ae24675	0.001726343
132	0x390c0c98	0.00013356132
133	0x3a236ab1	0.0006233855
134	0x3a87fc9b	0.0010374965
135	0x3ac2e05a	0.0014867887
136	0x3a5ac424	0.0008345267
137	0x3a118126	0.00055505557
138	0x3ac3b242	0.0014930444
139	0x3ad4d5b3	0.0016238004
140	0x38b4fc3c	8.630051e-05
141	0x3a08a82c	0.0005213048
142	0x39cae00b	0.00038695367
143	0x39b69924	0.00034827844
144	0x3b116fe4	0.0022191936
145	0x3a43a5bd	0.00074633566
146	0x3abe3d21	0.0014514067
147	0x39edefcc	0.00045382825
148	0x3a183524	0.00058062584
149	0x3a7d08fa	0.00096525217
150	0x39de7d15	0.00042436333
151	0x39f4e5a3	0.000467104
152	0x3b0472ed	0.0020210103
153	0x394d05cb	0.00019552482
154	0x39cee2cf	0.00039460367
155	0x3ae99c0c	0.0017822995
156	0x39528f50	0.00020080549
157	0x3a4e290c	0.0007864393
158	0x3a91c090	0.001112001
159	0x3abfa229	0.0014620471
160	0x3a4b8e23	0.00077650155
161	0x3a03d34d	0.00050287397
162	0x3acc42ce	0.0015583874
163	0x3ade820f	0.0016976016
164	0x390fdf66	0.00013720765
165	0x39e04a1f	0.00042779834
166	0x39dda12c	0.00042272487
167	0x39b7298c	0.00034935435
168	0x3b10509d	0.0022020706
169	0x3a4dad30	0.00078459363
170	0x3abc5a6b	0.0014370208
171	0x3a4d4a83	0.00078312325
172	0x3a3bbaf5	0.00071613427
173	0x3a78ecb1	0.0009495719
174	0x39e8815e	0.00044346874
175	0x3a009ebe	0.0004906467
176	0x3b0585eb	0.002037401
177	0x390d56a2	0.00013479081
178	0x39b6c7d8	0.0003486264
179	0x3aee7cb2	0.0018195121
180	0x393145d5	0.0001690605
181	0x3a46228f	0.000755825
182	0x3a7cac8e	0.000963875
183	0x3aa7f2c3	0.0012813437
184	0x3a3ad82a	0.0007127548
185	0x3a170646	0.00057611277
186	0x3ac9e785	0.0015404081
187	0x3af8c73f	0.0018980278
188	0x3918a100	0.00014555827
189	0x39c7f619	0.00038139595
190	0x39e3b73d	0.00043433337
191	0x3979ed61	0.00023834921
192	0x3b0f2b12	0.002184574
193	0x3a1ea453	0.0006051708
194	0x3ab8a9ff	0.0014088749
195	0x3a334943	0.0006839225
196	0x3a6298f4	0.00086440076
197	0x3a6be937	0.00089992903
198	0x3a0c3e0f	0.00053498236
199	0x3a30fc4a	0.0006751461
200	0x3b028e91	0.0019921402
201	0x39585262	0.00020630055
202	0x39947ab4	0.0002832018
203	0x3af03ea6	0.0018329218
204	0x391b0f62	0.00014787682
205	0x3a54a8a4	0.00081122876
206	0x3a75745b	0.00093633466
207	0x3aaf379a	0.0013368011
208	0x3a356c54	0.0006920744
209	0x3a0805de	0.00051888626
210	0x3acaa23e	0.0015459729
211	0x3afe3ce8	0.0019396814
212	0x39300298	0.00016785634
213	0x399bb6ff	0.00029700247
214	0x3a0de219	0.00054124143
215	0x39dfdfc1	0.00042700584
216	0x3b115bc8	0.002217995
217	0x39ff4bef	0.00048693965
218	0x3ab6993f	0.0013931169
219	0x3a4664b7	0.0007568108
220	0x3a5f87ac	0.00085269916
221	0x3a53e581	0.000808321
222	0x3a4cbd5f	0.0007810201
223	0x3a30fc68	0.00067514786
224	0x3b012a5a	0.0019709081
225	0x392ba674	0.0001636984
226	0x3990a9ed	0.00027592425
227	0x3b010667	0.0019687654
228	0x3966b244	0.00022000918
229	0x3a34a8f2	0.000689163
230	0x3a8baa63	0.0010655638
231	0x3ad92d85	0.0016569352
232	0x3a2e0e7e	0.0006639733
233	0x3a2db391	0.0006626184
234	0x3acb51ff	0.0015512108
235	0x3ade17a7	0.0016944305
236	0x389c8f3a	7.465338e-05
237	0x38601b86	5.3431395e-05
238	0x3a21261a	0.000614734
239	0x3a2aaad0	0.00065104384
240	0x00000004	6e-45
241	0x00000004	6e-45
242	0x00000004	6e-45
243	0x00000004	6e-45
244	0x00000004	6e-45
245	0x00000004	6e-45
246	0x00000004	6e-45
247	0x00000004	6e-45
248	0x00000004	6e-45
249	0x00000004	6e-45
250	0x00000004	6e-45
251	0x00000004	6e-45
252	0x00000004	6e-45
253	0x00000004	6e-45
254	0x00000004	6e-45
255	0x80000004	-6e-45

exp_avg_sq f4 [128, 240]
0	0x38fcc1a5	0.000120523655
1	0x37dee943	2.6573083e-05
2	0x389a3c55	7.35453e-05
3	0x380233e9	3.104276e-05
4	0x38953b7f	7.115956e-05
5	0x38546dd1	5.0647013e-05
6	0x37be9c26	2.2722477e-05
7	0x37e2b20a	2.7024205e-05
8	0x3888de6d	6.5264154e-05
9	0x3817900d	3.6135363e-05
10	0x37667c3c	1.3737994e-05
11	0x3874da15	5.8377238e-05
12	0x38aaf99e	8.1527265e-05
13	0x37a0844e	1.9135095e-05
14	0x381d9def	3.7578804e-05
15	0x37e74464	2.7569193e-05
16	0x38827227	6.2201456e-05
17	0x389af370	7.388636e-05
18	0x38f2560d	0.000115554874
19	0x383cb0c3	4.4987315e-05
20	0x388f8cfd	6.8450325e-05
21	0x3801548b	3.0834733e-05
22	0x37dd05b5	2.634791e-05
23	0x37cbbd63	2.4287676e-05
24	0x38fcaeb0	0.000120488345
25	0x37d35a40	2.5195186e-05
26	0x389b5e76	7.408571e-05
27	0x3802c7fa	3.1180658e-05
28	0x3894c60a	7.0940776e-05
29	0x385b042e	5.221756e-05
30	0x37bccc66	2.2506527e-05
31	0x37ed06ec	2.8255825e-05
32	0x38891fd4	6.5385975e-05
33	0x381af257	3.6942158e-05
34	0x376081ae	1.3381634e-05
35	0x3881600a	6.169088e-05
36	0x38a8b604	8.044767e-05
37	0x379e60d0	1.888015e-05
38	0x381efb89	3.7904396e-05
39	0x37e5db8f	2.7401167e-05
40	0x387a3a5f	5.9659007e-05
41	0x389ad1b9	7.382356e-05
42	0x38f237b0	0.00011549832
43	0x3849746a	4.8030553e-05
44	0x3889cf7b	6.571315e-05
45	0x38035be5	3.1318417e-05
46	0x37d8473f	2.5782383e-05
47	0x37dd57ea	2.6386191e-05
48	0x38fe3259	0.00012121042
49	0x37d763aa	2.5676407e-05
50	0x389ae01a	7.3850344e-05
51	0x38028fba	3.112827e-05
52	0x388edb9f	6.811995e-05
53	0x38517e9e	4.9947404e-05
54	0x37b4b259	2.1540722e-05
55	0x37f0c693	2.8702698e-05
56	0x3888a0fe	6.5149725e-05
57	0x3817ed19	3.622202e-05
58	0x37716b24	1.4389665e-05
59	0x3886214e	6.3958214e-05
60	0x38ab2dc7	8.162442e-05
61	0x379ef6bd	1.8949964e-05
62	0x3823c026	3.904118e-05
63	0x37ced5be	2.4656645e-05
64	0x387c5c29	6.0167313e-05
65	0x389a541f	7.358961e-05
66	0x38f2a349	0.000115698735
67	0x38459373	4.7105783e-05
68	0x388fec02	6.862731e-05
69	0x3800cc76	3.0707997e-05
70	0x37f1d011	2.8826327e-05
71	0x37eeaf9a	2.8453582e-05
72	0x38fde584	0.00012106731
73	0x37e039cf	2.67298e-05
74	0x389bb454	7.424565e-05
75	0x3802e103	3.1203974e-05
76	0x38909e94	6.8959926e-05
77	0x385968f2	5.183457e-05
78	0x37ba4d0a	2.2208802e-05
79	0x37ed15dc	2.826278e-05
80	0x3888a0d5	6.514943e-05
81	0x381527c8	3.5561417e-05
82	0x3775fe9b	1.4662418e-05
83	0x38873dc4	6.4488064e-05
84	0x38ac617a	8.2197555e-05
85	0x379717c0	1.8011662e-05
86	0x3823f4ec	3.909033e-05
87	0x37ceee02	2.4667945e-05
88	0x387baf3e	6.000627e-05
89	0x389d6d3d	7.5066906e-05
90	0x38f1131b	0.00011495334
91	0x384a69e8	4.8259186e-05
92	0x388de8f5	6.7667956e-05
93	0x38018674	3.0881216e-05
94	0x37ef7e3e	2.8549806e-05
95	0x37f0830b	2.8671251e-05
96	0x38fea4a3	0.0001214233
97	0x37e02451	2.6719792e-05
98	0x389a39c2	7.3540505e-05
99	0x37fd0317	3.0161389e-05
100	0x38903eea	6.878174e-05
101	0x3858cb61	5.1687824e-05
102	0x37b86397	2.1980884e-05
103	0x37f243af	2.8880166e-05
104	0x3888b78f	6.519176e-05
105	0x38166a0a	3.5861543e-05
106	0x377a6acd	1.4926028e-05
107	0x3884ab60	6.3261716e-05
108	0x38aa62b7	8.124619e-05
109	0x379347d5	1.7557215e-05
110	0x3822e4d5	3.8836926e-05
111	0x37ced30c	2.465539e-05
112	0x3880e7f6	6.146722e-05
113	0x38a12c07	7.685279e-05
114	0x38fca5de	0.000120471916
115	0x3850b7ce	4.9762246e-05
116	0x388ee68e	6.814032e-05
117	0x3801c6af	3.0941035e-05
118	0x37f22b28	2.8868744e-05
119	0x37f2b785	2.8934106e-05
120	0x39021506	0.00012405598
121	0x37e49247	2.7247834e-05
122	0x389d3293	7.4957636e-05
123	0x38008945	3.064542e-05
124	0x388b0dbd	6.6305955e-05
125	0x38595d87	5.1823936e-05
126	0x37b17da1	2.1158545e-05
127	0x37ecfda7	2.8251508e-05
128	0x38942189	7.063436e-05
129	0x3811ea2e	3.478879e-05
130	0x3777b004	1.4763329e-05
131	0x38869a88	6.4184016e-05
132	0x38aaf443	8.151729e-05
133	0x378c6e4d	1.6740663e-05
134	0x382173ff	3.849342e-05
135	0x37cd094d	2.4442235e-05
136	0x3881ef7f	6.195809e-05
137	0x38a0e9d8	7.672951e-05
138	0x38fcacc1	0.00012048474
139	0x385007d0	4.959834e-05
140	0x388f9c99	6.84794e-05
141	0x3802f893	3.1225918e-05
142	0x37f630f0	2.9348274e-05
143	0x37f22c41	2.8869255e-05
144	0x3900716e	0.00012249287
145	0x37df0ec2	2.6590544e-05
146	0x389d29e1	7.494144e-05
147	0x380100e9	3.0756844e-05
148	0x388bf7b3	6.674174e-05
149	0x385e84e9	5.3052707e-05
150	0x37afc828	2.095483e-05
151	0x37ee8d4a	2.8437604e-05
152	0x389629e0	7.160357e-05
153	0x3812a336	3.4961115e-05
154	0x377f89ec	1.5231297e-05
155	0x38898b9f	6.5586755e-05
156	0x38aaf8cc	8.152574e-05
157	0x378ce7ff	1.6797332e-05
158	0x3824678d	3.9197086e-05
159	0x37cbf5b2	2.4313897e-05
160	0x38864ec2	6.404288e-05
161	0x389fd3c7	7.6211574e-05
162	0x38f921cc	0.000118795404
163	0x384c930c	4.877434e-05
164	0x388ffde9	6.866066e-05
165	0x37fc9e11	3.0114346e-05
166	0x37fc6243	3.0086498e-05
167	0x37f26a9f	2.8898297e-05
168	0x38fff057	0.00012204114
169	0x37eb6709	2.8062163e-05
170	0x389d4192	7.498557e-05
171	0x3807f30c	3.2412863e-05
172	0x38894c93	6.546932e-05
173	0x3863e1c5	5.433128e-05
174	0x37b7b14f	2.1897866e-05
175	0x37e6286b	2.7436958e-05
176	0x389091d4	6.893618e-05
177	0x38183565	3.628935e-05
178	0x3777d4a5	1.4771857e-05
179	0x387ff93b	6.102885e-05
180	0x38abbff6	8.189671e-05
181	0x378f843d	1.7108507e-05
182	0x38223966	3.8677266e-05
183	0x37ca941e	2.4149249e-05
184	0x3888ad19	6.517227e-05
185	0x38a0e2d0	7.671642e-05
186	0x38fa70aa	0.00011941914
187	0x384fe69b	4.9567414e-05
188	0x388f8606	6.843735e-05
189	0x38110a5a	3.4580335e-05
190	0x37f0b52a	2.869459e-05
191	0x3800c226	3.0698393e-05
192	0x390249ea	0.00012425301
193	0x37e88477	2.7718239e-05
194	0x389c660e	7.457669e-05
195	0x3808743d	3.2533182e-05
196	0x38898eff	6.559304e-05
197	0x3868e049	5.5521992e-05
198	0x37bb4881	2.23259e-05
199	0x37eb849a	2.807593e-05
200	0x388b1c6a	6.633329e-05
201	0x381d826d	3.7553185e-05
202	0x37811b85	1.5390813e-05
203	0x38864c08	6.40378e-05
204	0x38abbdf1	8.189295e-05
205	0x378d0f22	1.6815557e-05
206	0x381e0302	3.7672937e-05
207	0x37d20256	2.5035039e-05
208	0x3887ba82	6.4720414e-05
209	0x38a25a73	7.7416094e-05
210	0x38fb4005	0.00011980537
211	0x385455b5	5.062456e-05
212	0x388dff07	6.7709065e-05
213	0x380cfd23	3.3614353e-05
214	0x37f9b3cc	2.9766838e-05
215	0x37fcbaae	3.012767e-05
216	0x3903aee2	0.00012558282
217	0x37db7dc7	2.6165404e-05
218	0x389f1959	7.586432e-05
219	0x380c0e26	3.3391778e-05
220	0x38890fdc	6.535623e-05
221	0x3871d7ea	5.7659963e-05
222	0x37b4cce6	2.1553085e-05
223	0x37ed8d4c	2.8318398e-05
224	0x388c3339	6.685261e-05
225	0x381ae09a	3.6925638e-05
226	0x377d2d19	1.5090475e-05
227	0x38806328	6.121985e-05
228	0x38aef547	8.342653e-05
229	0x378b5d07	1.661341e-05
230	0x381bee5e	3.7176877e-05
231	0x37f5f123	2.9318564e-05
232	0x3889c6d2	6.569702e-05
233	0x389feaa6	7.6254175e-05
234	0x38fc9ebc	0.00012045863
235	0x384bd186	4.8594105e-05
236	0x388d5b62	6.740425e-05
237	0x38146b44	3.538585e-05
238	0x3800fc96	3.0752817e-05
239	0x37ff8c64	3.0463743e-05
240	0x3182701f	3.7962447e-09
241	0x309dc95e	1.1480485e-09
242	0x30b82ad2	1.3399932e-09
243	0x30d23d84	1.5296995e-09
244	0x31954f92	4.345517e-09
245	0x30a08c4c	1.1681407e-09
246	0x30d8aa98	1.5764554e-09
247	0x30aeb6bd	1.2712104e-09
248	0x31015813	1.8822035e-09
249	0x311e4fa4	2.3037297e-09
250	0x30cd61ae	1.4943475e-09
251	0x30cd8aa5	1.4955118e-09
252	0x319e37a2	4.60473e-09
253	0x30f7ea46	1.80382e-09
254	0x30745ff2	8.890303e-10
255	0x2f958b80	2.7202063e-10

exp_avg f4 [128]
0	0x3ad8b44e	0.0016533227
1	0x00000004	6e-45
2	0xbb8c8b07	-0.0042890343
3	0xbb10e901	-0.0022111537
4	0x3b23930c	0.0024959473
5	0x00000000	0.0
6	0xbb3860d8	-0.0028133895
7	0x00000004	6e-45
8	0x00000004	6e-45
9	0x00000000	0.0
10	0xba43c796	-0.00074684
11	0x3b469162	0.0030299057
12	0x3b69c30a	0.003566923
13	0xbafcb658	-0.0019280417
14	0x00000004	6e-45
15	0x00000004	6e-45
16	0x3b808f1d	0.0039233104
17	0x3ad211c6	0.0016027025
18	0xbb80b25f	-0.0039275135
19	0x00000004	6e-45
20	0xb9b3e577	-0.00034312505
21	0x00000004	6e-45
22	0x3a0a5166	0.00052764115
23	0x3a9ea8b2	0.0012104718
24	0xbae02403	-0.0017100576
25	0x00000000	0.0
26	0xba975428	-0.0011545466
27	0x00000004	6e-45
28	0x00000000	0.0
29	0x00000000	0.0
30	0x3b85d3b1	0.0040840735
31	0x3afd7d9a	0.00193398
32	0x3ac556ba	0.0015055754
33	0x00000004	6e-45
34	0x00000004	6e-45
35	0xbb5cbfdc	-0.0033683693
36	0x3a2c6723	0.0006576648
37	0xbb40f180	-0.002944082
38	0x00000004	6e-45
39	0x3b64fea0	0.0034941807
40	0x00000004	6e-45
41	0x39be7bb5	0.00036331793
42	0x3b27af14	0.0025586532
43	0x3b4071c1	0.0029364678
44	0x00000004	6e-45
45	0xbac49526	-0.0014998063
46	0x00000000	0.0
47	0x00000000	0.0
48	0x00000000	0.0
49	0x3a786f3e	0.00094770256
50	0x3a986580	0.0011626929
51	0xba3980fb	-0.00070764095
52	0x00000004	6e-45
53	0x00000004	6e-45
54	0xba85f311	-0.0010219534
55	0x3ad25168	0.001604599
56	0x00000004	6e-45
57	0xba8a5f2a	-0.0010556926
58	0xbb928489	-0.004471366
59	0xb99d0908	-0.00029952102
60	0xbacb4569	-0.0015508357
61	0xbb13726e	-0.0022498625
62	0x00000000	0.0
63	0x00000000	0.0
64	0x00000004	6e-45
65	0xbb846f01	-0.004041553
66	0x3a3bf5cd	0.0007170111
67	0x00000004	6e-45
68	0x00000004	6e-45
69	0xba3d0a6d	-0.00072113314
70	0x00000000	0.0
71	0x3907fbf0	0.00012968457
72	0x3a3b79bd	0.00071516243
73	0x3a26e6d9	0.00063667964
74	0x3b61c2bf	0.0034448353
75	0x3b51199f	0.003190614
76	0x00000004	6e-45
77	0x00000004	6e-45
78	0xbb03cb44	-0.002011017
79	0x3ae89e24	0.0017747325
80	0x3b17dc2b	0.0023172002
81	0x00000004	6e-45
82	0xbaddc695	-0.0016920144
83	0x3b97cdd0	0.004632689
84	0x00000004	6e-45
85	0x3a039bf2	0.0005020491
86	0xbae3febb	-0.0017394641
87	0x00000004	6e-45
88	0x00000004	6e-45
89	0xbb16bde4	-0.0023001367
90	0x00000004	6e-45
91	0xbb2022f3	-0.0024434894
92	0x3b07023a	0.0020600692
93	0x00000004	6e-45
94	0x3b96d276	0.0046027256
95	0x00000004	6e-45
96	0x00000004	6e-45
97	0xbba9fe71	-0.0051878025
98	0x00000004	6e-45
99	0x3ac31be8	0.0014885636
100	0xbaadd0a7	-0.0013261036
101	0xbb04548f	-0.0020192002
102	0x3a9900c3	0.0011673201
103	0x3ac1d75c	0.0014788914
104	0x00000000	0.0
105	0x00000000	0.0
106	0x00000004	6e-45
107	0xb9c5c6f0	-0.00037722988
108	0x3913857c	0.00014068739
109	0x3b4cebc2	0.0031268452
110	0xbb28c2c6	-0.002575086
111	0x3b211ebe	0.0024584974
112	0x00000004	6e-45
113	0xbae5541d	-0.0017496381
114	0x3b61c229	0.0034448004
115	0x3aba1f9f	0.0014200098
116	0xbb5b99c4	-0.00335084
117	0x39f8f31f	0.00047483385
118	0x00000004	6e-45
119	0xbb9545ce	-0.0045554405
120	0xbb306f1f	-0.0026921702
121	0xbb3a72d9	-0.0028449802
122	0xbb624d29	-0.0034530854
123	0x00000004	6e-45
124	0x3899d830	7.3358766e-05
125	0x00000004	6e-45
126	0x3ad2a401	0.0016070605
127	0x00000004	6e-45

exp_avg_sq f4 [128]
0	0x39159abd	0.00014267392
1	0x31e13b25	6.555086e-09
2	0x39b899b8	0.00035209744
3	0x391e8bb4	0.00015120098
4	0x39c657db	0.0003783096
5	0x00000000	0.0
6	0x390bbe86	0.00013327049
7	0x304271ff	7.0738787e-10
8	0x303a2887	6.7724e-10
9	0x00000000	0.0
10	0x39e0aef7	0.00042854968
11	0x393d4768	0.00018051045
12	0x39f42bc7	0.00046571923
13	0x38ad0b99	8.251443e-05
14	0x2f44d22f	1.7900768e-10
15	0x30ad4735	1.2607645e-09
16	0x397d8b1a	0.0002417978
17	0x391c3341	0.00014896413
18	0x39e74859	0.00044113657
19	0x310c3bb8	2.0406627e-09
20	0x39b35101	0.00034201893
21	0x2e5ed8e3	5.066959e-11
22	0x396a4a57	0.00022343673
23	0x39ce1ff2	0.00039315183
24	0x395f9755	0.00021323313
25	0x00000000	0.0
26	0x3950617c	0.00019872742
27	0x2e4f8589	4.7184954e-11
28	0x00000000	0.0
29	0x00000000	0.0
30	0x39b1a05e	0.00033879554
31	0x39c80a9b	0.00038154874
32	0x3958d6d4	0.00020679395
33	0x2dce3001	2.3440807e-11
34	0x30a02b9c	1.1653927e-09
35	0x3a20dca9	0.00061363966
36	0x38d90e21	0.00010349998
37	0x3969dfc2	0.00022303968
38	0x32c43685	2.2842196e-08
39	0x3982d9b3	0.0002495773
40	0x329b65f2	1.8090734e-08
41	0x38cb19ba	9.684586e-05
42	0x39ae668b	0.00033264267
43	0x39763bb8	0.00023482635
44	0x2f0a61f8	1.2585832e-10
45	0x39514c01	0.00019960107
46	0x00000000	0.0
47	0x00000000	0.0
48	0x00000000	0.0
49	0x39cb22cd	0.00038745106
50	0x39a558f4	0.00031537528
51	0x3937b526	0.00017519723
52	0x2f3cb96f	1.716438e-10
53	0x31400d8e	2.7947382e-09
54	0x3a078819	0.00051701214
55	0x39c4b6d7	0.0003752026
56	0x311401f7	2.1537951e-09
57	0x394a3a5c	0.00019285962
58	0x3a0f117e	0.00054576236
59	0x399797f4	0.00028914178
60	0x3a16b253	0.0005748618
61	0x3999a5e0	0.0002930602
62	0x00000000	0.0
63	0x00000000	0.0
64	0x2e8b04fb	6.321873e-11
65	0x39937266	0.00028123258
66	0x395aa128	0.00020850135
67	0x2be4c65b	1.6255429e-12
68	0x3212859e	8.5286995e-09
69	0x392059f4	0.00015292299
70	0x00000000	0.0
71	0x390a6d54	0.00013201433
72	0x393584c0	0.00017310958
73	0x3953e19a	0.00020206571
74	0x3a27fc07	0.00064080994
75	0x3990c779	0.0002761444
76	0x2f187fca	1.3869719e-10
77	0x32876bff	1.576518e-08
78	0x39ca1e7f	0.00038551164
79	0x39a192df	0.0003081774
80	0x3947cdc5	0.00019054774
81	0x2cf8e98f	7.074514e-12
82	0x396fc6f2	0.00022866929
83	0x397b89b0	0.00023988518
84	0x3303f99f	3.0727843e-08
85	0x39156268	0.00014246406
86	0x38edbfd6	0.00011336773
87	0x30cdfe00	1.4987904e-09
88	0x2f2c2b82	1.5658766e-10
89	0x3a1a17ee	0.00058781996
90	0x307cd372	9.197755e-10
91	0x39d81493	0.0004121406
92	0x3959f84e	0.00020787233
93	0x3066c50a	8.395352e-10
94	0x395c8cdd	0.0002103331
95	0x2e42e465	4.4313348e-11
96	0x2bef547c	1.700542e-12
97	0x39379735	0.00017508569
98	0x2e72174a	5.5045114e-11
99	0x393b6dfa	0.00017874679
100	0x3976dc52	0.00023542464
101	0x391c5918	0.0001491051
102	0x392ac779	0.00016286773
103	0x396afc89	0.00022410056
104	0x00000000	0.0
105	0x00000000	0.0
106	0x2e0e1902	3.2309273e-11
107	0x39b56e10	0.00034605013
108	0x39ac97da	0.00032919535
109	0x396bd2cf	0.00022489879
110	0x39c9115f	0.0003835065
111	0x39cc85b5	0.00039009532
112	0x3130e114	2.5739313e-09
113	0x398c0a86	0.0002671072
114	0x392ffd6a	0.00016783705
115	0x39275d2e	0.00015961073
116	0x3909c11f	0.00013137281
117	0x3a13662b	0.0005622829
118	0x2fa65a98	3.0259595e-10
119	0x39a2b291	0.0003103209
120	0x38df8d9f	0.000106598476
121	0x395888e9	0.00020650368
122	0x39ab29b0	0.0003264672
123	0x2f644d61	2.076397e-10
124	0x3a2040ed	0.00061131903
125	0x3116823b	2.19019e-09
126	0x396b5802	0.00022444132
127	0x2dff75c5	2.9042444e-11
