models/RaceModelsOld/reg_pos_coef_3copies_0to5_twolayers_mse/model.pt (torch, 419229 bytes, 24 tensors)

fc1.weight f4 [128, 144]
00000000: d502 edbd 21c1 2b3e cce6 76bd 216b 00bd
00000010: 2199 a6bd be01 873c 0eae 213e 3c8e e13c
00000020: f1f3 123d f5b1 873c 420a a73d 8f90 29bc
00000030: 33a8 f73c 7afc d53b 479f aabb 026c 6abe
00000040: 90c7 10be e176 27be 7a23 c63c 21fe 0dbe
00000050: 574f c9bd b7e8 c03c 4154 68bd 01dc 153d
00000060: b62a 9fbc 3a9d 923c c30f 873b 4732 083e
00000070: 64d1 71bb 7478 c73c 47ff f43d 01d3 593d
00000080: 2069 093d bd47 583c 1e0a ef3d f9a1 053e
00000090: 814c 703d 3637 bb3d 4d6d 6cbd 79df f23c
000000a0: f7df 9dbc 9d2a 4a3d 2496 9f3c 7e4c bc3d
000000b0: 4d38 fa3c cefd 033e fc2b b33d b808 693e
000000c0: 116a 02bd 8667 4f3d 00a7 1b3d b7e9 9b3c
000000d0: 8324 993c de41 053d 96e4 21bd 6402 253c
000000e0: e92c 3bbd f072 f4bc 0fa5 1bbc 0ec6 cebc
000000f0: d54a 17bc 560a 4ebd ef7a 23be 75c8 01be
00000100: 1707 c8bc be74 2a3c fc3c d83d 1c4b 3c3d
00000110: e5c1 883b f0e5 2cbd 52fc 15bd 49e9 a23d
00000120: 52bd 9f3d e8af 92bd cced f13b 5e6c 873d
00000130: d68e 8e3c 2b2f 92bd 03fb 273d e681 dc3d
00000140: bd0e 813d 8b69 463d 61c7 9d3d f161 013d
00000150: cc15 a4bc 683e f83d 1bde 0dbe 2852 6fbd
00000160: e416 5d3d 8429 e5bd 5a37 ecbb 4b4e 4e3d
00000170: 19ec fdbc 86ef 9a3d 7d66 0c3e c004 3cbb
00000180: a7e5 27bd 112d a7bd 1b3f fdb9 376c 5b3d
00000190: 4922 97bd f91f 0f3d e981 6c3d 1c37 eb3d
000001a0: 4d7c 63bd e53d 293d 4ccf a6bd 3f14 023d
000001b0: c67b a5bd 8a0c f03d 348d c23b 9538 373d
000001c0: e9f4 833c 10c6 8e3a 1f2d 1d3d 89e0 f1bd
000001d0: 4d58 adbd 7fcc 033d 0dee 223e 6d8e 1cbe
000001e0: 8f58 a8bd 953d 9ebc 706e 713c c89e 37bd
000001f0: 02ba b9bd d23d b53c 1979 f63d a99d 1e3e
00000200: c883 3e3d 75f5 18bb cae0 f33d 1bac 87bd
00000210: 416a 79bd 546d 033e 35b1 6bbd a575 3f3d
00000220: 5fa6 3abd 4f33 0fbd 0e0e 153c 9ff4 d0bc
00000230: f482 143d d0c5 41bc 68d0 fd3c 36c7 85bc
00000240: a4d6 f2bc 8a6b cbbd 81ec 4cbc 53df 443d
00000250: 1785 bcbc 005f 3bbd be0b 6cbb f477 ed3d
00000260: 8068 8cbb 2b58 9cbd fd7e 283e f016 83bd
00000270: 6e67 c43c e090 073e 22d3 c93c dd62 e23d
00000280: 53dd 60bd c56f 07be 2b47 a43d 487f 1c3e
00000290: 191c 65be 0b2a 063d dab8 2abe 1e7c 44be
000002a0: 3d62 19bc 26ea aebd 950d 443d fc54 0d3d
000002b0: c650 413b 8113 253c 17fd 473d bc60 b83d
000002c0: 8924 cf3c 605c 5c3d 5f99 8a3d 2801 9a3c
000002d0: 5e9b ac3d 708f b7bd 8652 843b 417d 92bd
000002e0: 9171 b73c 2d93 023d 0774 e63d 3e8e f33d
000002f0: ee80 bdbd d631 d93c 7aff 8cbc f50f 2ebd
00000300: ce6d 193c 3854 dcbc 2faa 213d 7aba a5bb
00000310: 924d f23b 75a4 703d 9af9 ccbc 6323 19bd
00000320: 681d e6bc f416 8abd 9f1e 093d 8461 e2bd
00000330: 44a1 393d 5534 c4bd ff4f 233d e90f 0fbc
00000340: 875b 7d3c a979 94bd 3eaa 213c e833 523b
00000350: df96 94bd c71f ac3c 9915 3b3c c69b 66bd
00000360: c74e 633b e9e6 5d3c 22dc b03c c32b 843d
00000370: e728 b6bc 0d4f d43d 425d 3a3d 9a2d a8bc
00000380: dd9e 0b3e 5775 ca3d 4fa2 93bd c002 6e3d
00000390: 9c30 353e faf8 4a3d 568d 073d 6d98 b33d
000003a0: 0bcb 9dbd 165e 8a3d 9c7f e93d 21e7 c93d
000003b0: c869 88bd 26ab 51ba e60a 04bd 667f 443d
000003c0: 1605 913d 94ca 333d 8bd0 58bd 3c76 003e
000003d0: d489 2ebc b95d cabb a933 6abd a969 6e3c
000003e0: 2722 1b3b 4902 6fbd 94d7 853d c1e9 823d
000003f0: ac70 b33d 4e17 a33d 9a13 edbc 3a53 f83d
-0.11572806 0.16772892 -0.0602787 -0.031352166 -0.08134676 0.016480323 0.15789053 0.027533643
0.035877172 0.016564349 0.081562534 -0.010349407 0.03023157 0.0065303417 -0.0052069756 -0.22892764
-0.14138627 -0.16353942 0.024186838 -0.13866474 -0.09829586 0.023548467 -0.056720976 0.036586765
-0.019429546 0.017897237 0.004121752 0.1330043 -0.0036898488 0.024349429 0.11962753 0.053179745
0.03354752 0.0132006975 0.116718516 0.13050069 0.05866671 0.0914139 -0.057721425 0.029647576
-0.019271834 0.049357045 0.019480772 0.09194277 0.030544424 0.12889788 0.08748624 0.22757232
-0.031839434 0.050635837 0.03800106 0.019032342 0.018694168 0.03253352 -0.039524637 0.010071371
-0.045697127 -0.029839963 -0.009499802 -0.025240924 -0.00923415 -0.050302826 -0.15964864 -0.12674125
-0.024417443 0.01040381 0.10558507 0.045970067 0.0041735047 -0.042211473 -0.036617585 0.07954652
0.07799782 -0.07162458 0.007383084 0.06612466 0.017402094 -0.07137903 0.041010868 0.10766964
0.06301639 0.048440497 0.07704044 0.031587545 -0.020029925 0.12121278 -0.13854258 -0.05842796
0.05397691 -0.11189559 -0.007208747 0.050367635 -0.03099637 0.07565217 0.13710971 -0.0028689355
-0.040990498 -0.081628926 -0.00048302938 0.05357 -0.07379586 0.0349426 0.05774108 0.11485121
-0.055538464 0.041318793 -0.081450075 0.03175759 -0.080802485 0.11721142 0.005937243 0.044731695
0.016107993 0.0010892767 0.03837311 -0.11810405 -0.08464108 0.032177445 0.15911122 -0.15288706
-0.08220016 -0.019316474 0.014735803 -0.04482916 -0.09068681 0.022124205 0.12034816 0.1548983
0.046512395 -0.0023339663 0.119081095 -0.066246234 -0.060892347 0.12834674 -0.057542045 0.046743054
-0.04556882 -0.03496104 0.009097589 -0.02550727 0.0362577 -0.011826947 0.030983165 -0.016330343
-0.029643364 -0.09932621 -0.012507559 0.04806454 -0.023012681 -0.045744896 -0.003601774 0.11595145
-0.0042849183 -0.07634004 0.16454692 -0.06400859 0.0239751 0.13238859 0.024636809 0.11054013
-0.05489857 -0.1322623 0.08021387 0.15282929 -0.22374 0.03275494 -0.16672078 -0.19187972
-0.009361801 -0.08540754 0.047864515 0.034504876 0.0029497608 0.010075451 0.04882535 0.090028256
0.025285976 0.053799033 0.067675345 0.01879938 0.084280714 -0.089629054 0.004038158 -0.071527965
0.02239302 0.03187864 0.11252599 0.11892365 -0.09253107 0.026513021 -0.017211664 -0.042495687
0.009364558 -0.026895627 0.03946894 -0.00505763 0.007394501 0.05875059 -0.025021363 -0.037387263
-0.028090194 -0.06742659 0.03347647 -0.11053756 0.04531981 -0.09580294 0.039871212 -0.008731821
0.015463716 -0.07249767 0.009867249 0.0032074396 -0.07255339 0.021011246 0.0114187235 -0.0563009
0.0034684406 0.013543823 0.021589343 0.064536594 -0.0222363 0.1036664 0.045499094 -0.020529557
0.1363482 0.09885662 -0.07208692 0.05810809 0.17694324 0.04955385 0.033093773 0.08769307
-0.07704743 0.06756227 0.11401293 0.098585375 -0.06660801 -0.00079982204 -0.032236956 0.04797306
0.07081048 0.043894365 -0.052933257 0.12545103 -0.010652978 -0.0061757234 -0.057178173 0.0145515585
0.002367148 -0.05835179 0.06535259 0.06392241 0.08761725 0.079634294 -0.02894001 0.12125249

fc1.bias f4 [128]
00000000: b3e9 003e 90f2 8dbc 8360 7abd e65e 8a3d
00000010: 668e 95bd 6d6a 52bd 587f 52bc 61ac 72bd
00000020: 863d ae3d 899c abbc 8aa9 3dbd d2cc 053d
00000030: a039 39bd b28a 5d3d 77cf 6e3d 0e82 a2ba
00000040: cf09 83bd dbc3 683d e6fb 6fbd 8e78 4dbd
00000050: 4be9 8a3d dbc4 383d f828 283c a635 a53d
00000060: 9209 56bc 9637 b93d 1384 093c b659 353d
00000070: e86f 363c 6c52 d83d 051d fa3c 0b23 ee3c
00000080: 593a 263d 447c 733d b7b4 543c 2bf3 953d
00000090: 15bf b43c daaf 7bbc 3a1b 423c f39e 2e3d
000000a0: dd00 6f3c 22e0 323d add6 46bc 8ff4 74bc
000000b0: abb3 32bb f4b3 c03c 954c 663d ef3d d1bc
000000c0: c127 603d 30ad 4abd f1c7 ce3b 8412 363c
000000d0: 0caa d8bc 36a2 543d f449 b2bd ad03 6b3b
000000e0: ac64 0d3d eab6 503c 61c4 273d 3744 de3a
000000f0: 2651 13bb db9d 00bd 485b 4bbd 5f90 cf3d
00000100: abdd d5bc 2572 7abb b174 f2bb c430 90bd
00000110: 739b 44bc afd1 ae3d 1509 83bc a9ad 83bd
00000120: fd7d 72bd 902f 5cbc 7caa 5abc 786c 54bd
00000130: 728b 053e 60b4 67bb dc35 783d 1d8c fdbc
00000140: ad3a 0f3d 5b64 023d d6d1 893d 4893 313c
00000150: 84b6 92bd c4e9 8f3d 4f97 043d df4f c63c
00000160: 691b 823d 4244 eabc 4900 0a3d 079d 9c3b
00000170: 1b72 09bd f04d f13c c60b 36bd 1f2a d9bb
00000180: 3461 873c 6fb7 45bd bf25 21bc 77eb c6bc
00000190: b329 83ba 1edc b3bd ab72 30bd 681f 2e3c
000001a0: 1c4d 92bd ecd3 b03a 2c2e 09bd 5b97 10bd
000001b0: 7a1f 133d 47da a93d b469 dfbb 3bc8 703d
000001c0: 907b eb3b 9831 91bc 51cd 81bc 056a 36bd
000001d0: 3ed0 a0bd 7c83 fe3c 41bf 83bb bb3f d63d
000001e0: cf63 af3d 7367 b23d 0633 c33d 1bc5 6dbd
000001f0: b67a a73d c7fe 553d 6e81 57bc a7cd 2f3d
0.12589149 -0.017327577 -0.061127197 0.06756382 -0.07302551 -0.051371027 -0.012847744 -0.059246425
0.085078284 -0.020948665 -0.046304263 0.032666035 -0.04522097 0.05408735 0.058303323 -0.0012398378
-0.06398355 0.056827407 -0.05858984 -0.050163798 0.06782778 0.04510961 0.010263674 0.08066873
-0.013063805 0.09043805 0.008393305 0.04427501 0.011135079 0.10562596 0.030531416 0.029069444
0.04058299 0.05944468 0.012982539 0.07321771 0.022063771 -0.0153617505 0.011847312 0.042632055
0.014587608 0.04367078 -0.012136144 -0.014950885 -0.0027267735 0.023523308 0.056225378 -0.025542228
0.054725412 -0.04948157 0.006310456 0.011112813 -0.026448272 0.05191251 -0.08705512 0.0035860345
0.034519836 0.012738923 0.040958766 0.0016957585 -0.0022478788 -0.031400543 -0.0496476 0.101349585
-0.026106676 -0.0038215008 -0.0073991646 -0.07040551 -0.011999953 0.08536088 -0.015995542 -0.064296074
-0.059202183 -0.013439074 -0.013346311 -0.051861256 0.13041475 -0.0035355315 0.06059824 -0.0309506
0.034968067 0.031833988 0.06729476 0.010838337 -0.07163718 0.07027009 0.03237086 0.024208007
0.06352884 -0.028597001 0.03369168 0.0047794613 -0.033556085 0.029456109 -0.04444482 -0.0066273357
0.016525842 -0.04827064 -0.0098356595 -0.0242822 -0.0010006934 -0.087822184 -0.043078106 0.010627605
-0.07143614 0.0013490892 -0.0334913 -0.035300594 0.03591869 0.08293586 -0.0068180207 0.058784705
0.0071863607 -0.017723843 -0.015844973 -0.0445347 -0.07852219 0.031068556 -0.004020602 0.10461374
0.08563959 0.087111376 0.09531216 -0.058049303 0.08177702 0.052244928 -0.013153417 0.042920735

fc2.weight f4 [64, 128]
00000000: 1e34 173e 04eb dfbd 18b5 97bd ba7a 88bd
00000010: dd73 843a ede5 cb3d acb0 29bc 403f f7bd
00000020: 4c70 bbbd 73e1 943d 4c44 783d 3c1e 12be
00000030: 6cc1 bf3d d2de 62bd 0e66 553d 13a2 c4bd
00000040: d39f 2fbd d2fa 513d 9054 b63d 26b2 aabd
00000050: dc6e a8bc 2d43 bd3d 63f9 833d 693c aebb
00000060: dd31 763c 4afc 093e 1ec9 03be cf18 33bd
00000070: e33a b23d ebcc 273e 9455 d23d f5ee 0a3d
00000080: 7e44 7b3c da44 d8b9 7f00 95bc c3ea 753d
00000090: 8fe5 ae3d dd0b d4bd ce75 e23d 2f6d 02be
000000a0: 0eec 75bd cab9 bc3d b02a 223d 8f4f 84bd
000000b0: f437 c63d a0b1 35bc 8d65 b73d 228a b2bd
000000c0: 4540 c8bd 2148 a1bd 5f3b 92bd c173 e43c
000000d0: 4d3e 04bd 5ae6 cf3c c96a cbbc 86a2 173e
000000e0: d089 2b3e d99b 543d a1af ddbd 61e5 993d
000000f0: 2fb7 c63c d562 ad3d 2551 ae3b 7c23 503d
00000100: 32b4 723d 2ed1 433d 7e0f cdb9 adbc 5cbd
00000110: 50be 22bd 0bf1 973d 455f 1b3e 1ad6 fd3d
00000120: ed76 0cbe 1b93 c8bd acbf 2cbe 3c2b 52bd
00000130: 5162 a83d 9a96 33bd 8c18 173e 8f6e bebc
00000140: 45e5 57bd f027 e4bd 5de5 7abd 7507 ddbd
00000150: e22e a13d 6106 5ebe 5469 d9bc 1a36 2cba
00000160: 8d77 74bc 1d89 d33d ba0f d4bc e9bc a53d
00000170: c4fb b63d 6cd4 3dbe 62d5 f03d 5de3 18be
00000180: a2a8 66bd b77f 97bd ce39 6d3d 94a2 4f3e
00000190: 9bf2 68bd f6ef 543e 8611 a53d 0a1f 38be
000001a0: e61a 39bd e193 30bd c0dc 8fbd 3bb6 d83d
000001b0: 5860 8c3d cbd2 e8bc fcbb 093e c0b2 bc3c
000001c0: 2fa5 c13d 7732 693d 9595 40bc f899 53ba
000001d0: 5995 863d abc5 8ebd c8ed 033c 16c0 603d
000001e0: b703 cf3d 544a 1e3e f790 7bbc 1e10 913d
000001f0: a2d0 023e 77c9 a5bd 6468 9fbc 9756 a73d
00000200: 227d c33d 8c18 6f3d 1eae ca3a 334b 1f3e
00000210: 9ade 79bc 24b6 913d 2950 203e 8157 39bd
00000220: 806f 0abd 5feb f1bd 6740 27bd a62b 023e
00000230: 1705 cb3d 1bad 2abd 381c c5ba 4daa d63c
00000240: 6af0 98bd 6b51 a0b9 3899 0a3e 26a9 4c3d
00000250: 9cd6 45bd 263d 2a3e df87 963d fc3f 273e
00000260: 58e9 ad3d 048d a93d 624d 53bd 7386 123e
00000270: ed0b 823d e814 65bd a306 9e3c aa53 083e
00000280: 633c 563b 03f6 af3d cfa9 c5bd 5402 ce3b
00000290: 4739 313d 2fd1 913d 46ea cd3d dd35 313e
000002a0: 93aa bcbb 736c 2cbd e253 0c3d 5957 af3c
000002b0: 4c69 83bd ea6a 77bd 3d15 84bc 53fb a33d
000002c0: 93cf 0abd 0006 5fb9 d0d9 91bd bcd8 a2bd
000002d0: 5de1 2ebe dc32 f83d a9c6 1bbd 8bd5 a33c
000002e0: a69e 31be 6687 443d 56f9 8f3d 5038 c53b
000002f0: ad5d 9bbb 1f9e d9bd 0981 2fbd ef72 fb3c
00000300: 3e3d 563d 2b25 14bd 54f2 d7bd dc3a 1c3d
00000310: 0640 df3d e229 66bc fdb8 61bd af5e 8dbd
00000320: 54f7 eebd 541b 09bc aca1 903d 8b22 a93d
00000330: 49a8 94bd 24ee 31bd 9a9f 90bd 8ecb f03d
00000340: d552 fc3c 19b0 3b3e 2a71 a93a dae8 86bd
00000350: c2b9 7b39 6a72 283e 3b14 5b3c 66f4 96bd
00000360: 07a3 763c 6a90 283e 10ae df3c e4c7 6a3d
00000370: 4dc6 063c 08e5 f9bd 5bf3 b43d 7d85 223e
00000380: af1e 3dbd 10ea 603c 9379 8b3d 10ab b33b
00000390: 360e 253c 86af 1a3e 9210 4dbc c1ca 0b3d
000003a0: 5842 31bd 1ae9 dcbd e2c6 8a3c 366c b33d
000003b0: 9a16 19be 0b76 16bd de20 e23d f197 fb3d
000003c0: 71d0 953d 0039 353e 4eea 913d f2a2 613d
000003d0: d499 9cbd 31ac 853d 43b1 64bd d5fa c63a
000003e0: 801b 9c3d 1d6a f73d 019b 973d 51c7 93bb
000003f0: 581e b9bd 3bda 263c 6390 503d 9487 f9bb
0.14765975 -0.109334975 -0.07407588 -0.06664033 0.0010105331 0.09955964 -0.010357063 -0.12072611
-0.09152278 0.072695635 0.060612008 -0.14269346 0.09363064 -0.05538828 0.05209928 -0.09601226
-0.04287703 0.05126459 0.08902848 -0.0833476 -0.020560674 0.092413284 0.06444051 -0.00531726
0.015026537 0.13475147 -0.12869689 -0.04372483 0.08702638 0.16386764 0.10270229 0.033919293
0.015336154 -0.0004125003 -0.018188713 0.06003834 0.085398786 -0.10353825 0.11057626 -0.12736963
-0.060039572 0.09215124 0.03959149 -0.06460487 0.09678641 -0.011089712 0.08954916 -0.08717753
-0.097778834 -0.078750856 -0.071402304 0.027887227 -0.032285977 0.025378395 -0.024831193 0.14808092
0.1675179 0.05190644 -0.10824514 0.07514454 0.02425727 0.08466116 0.005319732 0.05081509
0.05925388 0.04780691 -0.0003911219 -0.053890873 -0.039732277 0.07419022 0.15173061 0.12394352
-0.13717242 -0.09793683 -0.16869992 -0.051310763 0.08221877 -0.043844797 0.14755458 -0.023246078
-0.052708883 -0.1114043 -0.061253894 -0.10792438 0.0787027 -0.21682121 -0.026539482 -0.0006569341
-0.014921081 0.10328887 -0.025886405 0.080926724 0.08934739 -0.18538064 0.117594495 -0.14930482
-0.056313165 -0.073974065 0.057916455 0.20276862 -0.05687199 0.20794663 0.08059983 -0.1798059
-0.045191668 -0.04310978 -0.070245266 0.10581633 0.068543136 -0.028420826 0.13450617 0.023034453
0.094553344 0.056932893 -0.011754413 -0.00080719544 0.065714546 -0.06971296 0.008052297 0.054870687
0.101081304 0.15458041 -0.0153543865 0.07083152 0.127749 -0.08095067 -0.019458957 0.081708126
0.095453516 0.05837302 0.0015463268 0.1555603 -0.015250826 0.07114819 0.15655579 -0.045249466
-0.03379774 -0.118124716 -0.040832903 0.12711963 0.0991308 -0.041668992 -0.0015038317 0.026204253
-0.0746773 -0.0003057824 0.13535011 0.049966 -0.04830037 0.16624889 0.07350134 0.16333002
0.084917724 0.0827885 -0.05158747 0.14309101 0.06349931 -0.05592814 0.019290274 0.13313165
0.0032689802 0.08591845 -0.09651529 0.0062868986 0.043267515 0.07119977 0.1005445 0.17305703
-0.0057576387 -0.042095613 0.034259684 0.021403955 -0.06416568 -0.060404696 -0.016123408 0.08006921
-0.033889364 -0.00021269172 -0.071216226 -0.07951495 -0.17078157 0.12119076 -0.038031254 0.019999286
-0.17345676 0.04798069 0.07029979 0.006018676 -0.0047413916 -0.10625862 -0.042847667 0.030694453
0.0523045 -0.03616826 -0.10544267 0.03814207 0.109008834 -0.014048072 -0.05510806 -0.06902825
-0.11668268 -0.008368332 0.070620865 0.08258542 -0.0725866 -0.04344 -0.070616916 0.11757575
0.030801216 0.18328895 0.0012927402 -0.06587382 0.00024006426 0.16449896 0.013371523 -0.07370834
0.015053517 0.1646134 0.02730468 0.057319537 0.0082259895 -0.12201887 0.08835479 0.15871234
-0.04617184 0.01372768 0.06810298 0.0054830387 0.010074189 0.1510602 -0.012516158 0.034128908
-0.04327616 -0.10786648 0.016940538 0.08760874 -0.14950028 -0.03673367 0.11041425 0.1228484
0.07315148 0.17697525 0.07124768 0.055087037 -0.07646528 0.065269835 -0.055833112 0.0015180955
0.07622433 0.120807864 0.074026115 -0.0045098444 -0.09038991 0.010183866 0.050918948 -0.007615039

fc2.bias f4 [64]
00000000: 7027 833c 9b84 e63b 74ea eebb 6aa3 d3b9
00000010: 6b31 a9bd cb4f b0bd 4384 753d bab6 43bd
00000020: 5105 e23c f32a c1bc 3f6e 66bd 756f ed3d
00000030: 8339 73bd 9502 66bd ad30 a4bb 2f56 b23d
00000040: 456e 803d 8b30 21bd 8a3d 2f3c c3da ca3d
00000050: 2837 8d3d f3b9 803d 7bf4 b03d 5d25 933d
00000060: 16c4 8c3d 0aa9 ddbc a248 033c fa05 903d
00000070: 8fa5 a2bd 69f8 1dbd 4de0 1f3c 5d94 833c
00000080: 87f9 4e3d 7c82 523c db33 243b 05bd 4c3d
00000090: 914e 6fbd 8bff 923d e1d9 a43c 71ec c4bd
000000a0: 844b 243d 5aa6 04bd 2a09 0ebc ea71 ccbc
000000b0: d4c0 dbbc b8bb 853c 56a9 a2bc 5381 8dbd
000000c0: 8b73 823d cd14 75bd 8523 c8bd 96ea 88bd
000000d0: 9270 093c 1534 893d 3332 93bc b393 a63d
000000e0: 420c 993d 8f21 8ebd 8f67 153c 49ab 8b3c
000000f0: 734c 3b3c c05e 34bd 4cfc 7e3d 38ce 2d3d
0.016010016 0.007034851 -0.0072911326 -0.0004036681 -0.08261379 -0.08608969 0.059940588 -0.047781684
0.027590426 -0.02358005 -0.056257483 0.11593524 -0.05938102 -0.056154806 -0.0050106854 0.087078445
0.06271032 -0.039352935 0.010695824 0.09905007 0.06895286 0.06285467 0.08640381 0.07184861
0.06873338 -0.027058143 0.0080129225 0.0703239 -0.07941734 -0.03856698 0.009758067 0.016061956
0.050530937 0.012848493 0.0025055322 0.04998495 -0.058424536 0.07177647 0.020123424 -0.0961541
0.04011108 -0.032385208 -0.008669177 -0.024956662 -0.026825346 0.016324863 -0.019856136 -0.06909432
0.06369694 -0.05983429 -0.097724 -0.06685369 0.008388655 0.06699387 -0.017968273 0.0813364
0.07473041 -0.069399945 0.009118929 0.017049449 0.011431801 -0.044035673 0.062252328 0.042432994

fc3.weight f4 [32, 64]
00000000: 9b81 253e 87f7 d5b9 0b91 7dbd 4651 86be
00000010: 5ebe e93d 0048 6eb9 a6aa 3ebe 9a97 88bd
00000020: 3f9c 943d 64bc 703d c4ea 92bd c716 a33d
00000030: efad ffbc ca11 dd3d 6064 fdbc 7585 9abe
00000040: af44 093e a50d f03d e108 e5bd e3de e9bd
00000050: c0d7 493d dd53 51ba bd59 0cbc f24b 76bc
00000060: ba7e fcbd 89c8 18bd a910 a1bd fb16 723d
00000070: 17c6 493e e215 debd e417 653d 57df d9bd
00000080: ef67 613c 4859 00be 9444 ef3d ad1d 29be
00000090: 42ca 323e c3e9 f13b 4dd6 083e 50b5 363e
000000a0: d42f e83d 2e59 d73d 5276 9fbe c3e2 ed3e
000000b0: a2b2 7b3d 3db6 893d d30d 843d 6d35 f73d
000000c0: 9f40 5b3d 1955 f43d 3d9d 88bc cdba 6a3e
000000d0: b784 bcba ab34 9fbb 3bbe 273e e3ec d63d
000000e0: 7c74 223d 072a 8d3d 0204 e7bb 1c37 28be
000000f0: b2c1 9abd ae90 fabd 5bba e03d e735 203e
00000100: ad0b 133e 0c89 e23d d3d7 95bc b6f5 0fbd
00000110: f0ae 07bd c602 34bd ac7c c23b 37aa 2fbe
00000120: 195e 663d b7c1 01be 5f5e bebc 86d2 1f3d
00000130: 1c68 a43d 003d 8c3b a4b6 d4bd 58f8 233e
00000140: f04c c23d e773 2d3e 9313 02be 85e3 03be
00000150: 9572 c9bd 0107 38bd 5ec7 d7bd 37a9 4fbd
00000160: 83da 653d 77f9 073e f8c1 c1bd 64ee 9c3d
00000170: 9f8c 36bd fa84 963d f106 e33d 3508 903d
00000180: 2b8a 163e 9ed4 453c 078f cebc 1a1f ef3e
00000190: ceaf aabc a264 b23d b183 36bc 2bb6 d83d
000001a0: 0e13 4ebd 6db7 8bbd 35c6 adbd c1bc f8bd
000001b0: 76cd a63c eb59 18bd 1f9b 1b3d 9566 53bc
000001c0: 7f4b b8bd 21dd babb d1ce ce3d 7ec4 493e
000001d0: bd9f 7b3d b72c c3bd 0c0d 893d eb26 a3bd
000001e0: bfce 683c 78a3 1ebe 56e6 e83d 78bf 5a3d
000001f0: 7711 c53d 1b2f 113e 53fa 413d 7f77 4c3e
00000200: 2858 6a3d 895d c43d 5df7 8fbd 9851 a4bc
00000210: a454 d5bd b0f4 533d 7bfe 383d 9579 0abe
00000220: 765d b3bd 0525 babd 6ea3 823c b2d5 96bd
00000230: 72b7 b63d e0b7 a23c e75e 9c3d 1640 10be
00000240: aaf6 c03d 2df1 d0bd 4260 a4bc 4c44 80bc
00000250: 138b c73d dc4f ed3d 1c70 d2bd 2743 243d
00000260: f689 803d d031 9cbd 805b 24bd a8e3 87bd
00000270: b7f5 523d bcd2 2ebd 87f6 6f3d c716 18bd
00000280: 05f6 903c a4ec f4bd 2881 843c ae68 323d
00000290: 9404 08bd 37e3 08be 9283 1bbc 1f1e b13d
000002a0: 5b68 99bd 36a8 d1bd f12a 85bd f27e 92bd
000002b0: f07e aa3c fc13 9ebd c78d 71bd 940a 6dbc
000002c0: 99ac b4bd 4619 b5bd 0acb e4bb 7805 a43d
000002d0: f4b0 dbbd e8b0 bd3d 6044 d9bc 2c38 553d
000002e0: 56de 353c 285c 55bd 3ae4 f3bb c639 9ebd
000002f0: 845f 10be 21b3 7abd 64dd b73d b04d a23d
00000300: edb1 c6bd 724b e63d b495 abbd f0a6 fa3c
00000310: c00d 14bd 7a69 35bd 2165 c43d 289e 68bc
00000320: 7e37 cbbd ee53 ecbd b284 16be e05a ee3d
00000330: 4909 0b3d 523e 9e3d 79e2 c93d 1413 613e
00000340: 9328 00bd 4c28 0cbe 960e 3dbe 8dfb 5a3c
00000350: 73e4 c8bd 1d68 1c3b b3b5 963d 845e c7bd
00000360: f47e 35bd 913f dc3c 9c47 f7bd ba7c 49bd
00000370: 7015 2a3e f088 4e3c 46a9 073e 19dc 053e
00000380: fd34 ce3d eac1 f4bd e4bb d23d 05be 8a3e
00000390: 8f17 393d d183 f23d 4dec ff3d 8524 b23c
000003a0: d5b6 18bd 7ed9 573d 05cd 6abc 9845 273d
000003b0: 6eb6 9dbb ce95 06be 7615 433c 108e bf3d
000003c0: 0223 b83d ca75 163c ea9d d7bd ef63 c4be
000003d0: 2bcb 3abd c2e5 b5bd d195 e6bd 3ce2 7bbc
000003e0: a30e 1a3e 0296 4d3e 83d4 06bd c0f4 a5b9
000003f0: c86d f03d 9b20 60be ce95 3b3d 8092 f8bd
0.16162722 -0.00040810948 -0.061905902 -0.26233882 0.11413263 -0.00022724271 -0.18619785 -0.06669541
0.07256364 0.058773413 -0.07173684 0.07963329 -0.031210868 0.107944086 -0.030931652 -0.30179945
0.13405107 0.117213525 -0.11183334 -0.114194654 0.04927802 -0.0007985214 -0.008566317 -0.015032755
-0.12328859 -0.03730062 -0.07864506 0.059103947 0.19704472 -0.108440176 0.055930987 -0.10638302
0.01375769 -0.12534058 0.11683002 -0.16515227 0.17459968 0.007382603 0.13363 0.17842603
0.113372475 0.105150566 -0.3114496 0.46462068 0.061449654 0.06724212 0.06447949 0.12070737
0.053528424 0.119302936 -0.01667654 0.22922821 -0.0014382814 -0.0048585734 0.16381161 0.10494401
0.03966187 0.06892782 -0.0070500383 -0.16427273 -0.07556476 -0.12234627 0.109730445 0.15645562
0.14359923 0.11061296 -0.01829139 -0.035146438 -0.033125818 -0.043947957 0.005935272 -0.17154776
0.056242082 -0.12671553 -0.023238359 0.03901913 0.0802767 0.0042797327 -0.103863984 0.16012704
0.09487331 0.16938744 -0.1270278 -0.1287976 -0.09836308 -0.044928554 -0.10536073 -0.050698485
0.056116592 0.13278757 -0.09460825 0.07662657 -0.0445677 0.07349582 0.11085308 0.07032815
0.14701144 0.012074618 -0.025214685 0.46703416 -0.020835783 0.087106004 -0.011139796 0.10581621
-0.05031114 -0.06822095 -0.084850706 -0.12145377 0.020361643 -0.037195127 0.037989732 -0.012902875
-0.08998775 -0.00570263 0.10098041 0.19703862 0.061431635 -0.09530013 0.066919416 -0.079664074
0.014209448 -0.15492046 0.11372058 0.053405255 0.09622472 0.14178126 0.04735787 0.19967459
0.05721298 0.09588153 -0.07029603 -0.020058438 -0.104165345 0.051747024 0.045164566 -0.13522942
-0.08758061 -0.09089092 0.01594707 -0.07364978 0.08921708 0.019863069 0.07635289 -0.14086947
0.094220474 -0.10202251 -0.02006543 -0.015657566 0.09743323 0.115874976 -0.102752894 0.040103104
0.06276314 -0.076266885 -0.040126324 -0.06635219 0.051503863 -0.04268144 0.058584716 -0.037131097
0.017695436 -0.11959198 0.016174868 0.04355686 -0.03320749 -0.13367926 -0.009491818 0.08648323
-0.07490607 -0.10237162 -0.06502331 -0.07153119 0.020812482 -0.077186555 -0.0589731 -0.014467854
-0.08821983 -0.08842711 -0.006982212 0.080088556 -0.107271105 0.09262258 -0.026521862 0.052055523
0.011100372 -0.05208984 -0.007442978 -0.07725863 -0.14098936 -0.061205987 0.08977774 0.07924974
-0.097019054 0.11244859 -0.08378163 0.03059718 -0.036145926 -0.044290043 0.09589601 -0.014197864
-0.09922694 -0.11539446 -0.14699057 0.11638427 0.033944402 0.077267304 0.09857649 0.21979934
-0.031288695 -0.13687247 -0.18462595 0.013365638 -0.09809198 0.0023865767 0.07358875 -0.09734824
-0.044310525 0.02688578 -0.12074205 -0.049191214 0.1660974 0.012605891 0.13248166 0.13072242
0.100687005 -0.11951049 0.102897435 0.27098098 0.045188483 0.11841548 0.12496243 0.02174593
-0.037283737 0.05269765 -0.014331107 0.040837854 -0.004813007 -0.13143083 0.011906972 0.09353268
0.08991052 0.009183357 -0.105281666 -0.38357493 -0.045603912 -0.088817134 -0.11259044 -0.015373763
0.15044646 0.20076755 -0.03291751 -0.00031653605 0.11739689 -0.21887438 0.04579716 -0.12137318

fc3.bias f4 [32]
00000000: 65e0 61bd ab64 fb3d 434b ebbd d0cb a83c
00000010: 460f 00bb 90c2 5a3d af00 df3d 81af 87bb
00000020: 6395 643d eb05 363c 5e5e 833d e638 a6bc
00000030: 9345 c7bd 4d3c 123c 425a b7bd ac8a 2ebd
00000040: 9344 003e 3c23 f7bd 8252 b0bd 769c 93bd
00000050: b5f5 24bc 3217 b8bd 3f96 e23d b992 093d
00000060: af65 b93d a6b7 1e3d 1d96 c2bd 8424 e23d
00000070: 4a08 95bc d69b af3b b51c a73d 1b81 503d
-0.05514564 0.1227506 -0.114889644 0.020604998 -0.0019540354 0.053408206 0.10888802 -0.0041407947
0.05580653 0.011109809 0.064144835 -0.020290803 -0.09730067 0.00892551 -0.08952762 -0.042612717
0.12526159 -0.12067267 -0.08609487 -0.07207577 -0.010068347 -0.08988799 0.110638134 0.03358719
0.09052598 0.03874936 -0.09501288 0.11042121 -0.01819243 0.0053591533 0.08159772 0.050904375

fc4.weight f4 [24, 32]
00000000: 30d9 00be 9ae1 023e b054 2abe 8246 be3c
00000010: 33bf e63d 8339 b53c 1959 293e 5320 9b3d
00000020: 44ac db3c 45f2 11bd 84d3 b43d ce77 afbd
00000030: fa99 bb3c 2ff3 003d 1f91 bc3d b382 1d3e
00000040: 9f31 4bbe 2d95 f43d 7857 c53c 9e72 223e
00000050: c3ce 3bbe 51b3 cdbd 8f56 d03c 6238 973e
00000060: c1d4 973d 62a2 ee3d d84c e4bc 7c69 363d
00000070: 8484 53be 3c27 503e 034f ee3c 3779 29bd
00000080: 7665 32bc 8deb 73be f598 233e 3065 ea3d
00000090: 42cb febd 8e93 44be 9270 203e a7ce c8bc
000000a0: 0f89 a53d dd88 b73d 8aae 3c3e 6ed6 ab3d
000000b0: 0263 35be 97d2 0bbe 1af3 4e3e cbe6 173e
000000c0: 526c 803d 3bf1 a6bd e3dd 8dbd fd09 15be
000000d0: 5d11 d8bb fecb 70be 4eac 17bd ef6b ac3b
000000e0: 7a8d 8cbb dec3 3dbe bf73 053e ec4a 5e3d
000000f0: 0a55 febc f9e0 333d 23c5 333e 14e3 22be
00000100: e57b d6bd 2fb0 b33d ebc4 f3bd 1e10 3abd
00000110: 64ad cb3d b44c 45bd 04af c9bd 463b a5bd
00000120: 914c d3bd 3750 e7bd 3051 2a3e 1e66 473e
00000130: 45f0 5fbe f600 d7bd b1e6 6a3d 8ac3 febd
00000140: 6355 2d3e bc39 9e3b 2081 863c 2c6c 313e
00000150: 128e 08bd ed27 473d 50ff 503e 414a 8c3d
00000160: b3c2 15be 07d0 403e 582b 47bc 0b04 25bd
00000170: 4b38 26be 44de 453e 4348 583d 8047 06bd
00000180: 023d 4bbe 8d3d 343e 7889 163d b6fa 49be
00000190: 1553 aa3d 0214 8bbd 34b3 c0bd 3ffd e7bd
000001a0: 0eae 2d3e 1e37 293e 38bd bf3c 2ea3 083e
000001b0: 36d0 19bf 2ef0 2e3e ac95 cdbd 6533 1e3e
000001c0: 70a0 10be 7160 273d 2aa5 c63d bb0f 13be
000001d0: 3d61 20ba 3862 2ebe 386a 813d 68c3 6cbd
000001e0: 7869 133e df0b 4e3d d66c 3ebe 58d9 0ebe
000001f0: fce7 7e3e 60ce 213e 2845 e53d d47f 023d
00000200: 2c5e f13d 4071 063e 0537 6ebd e5a3 87bb
00000210: 6ea8 043e 0271 13be 3149 00bb c839 f23c
00000220: 4aa4 133e 7a0b 4cbe f8bc a6bd 6593 253e
00000230: 4998 0d3e b267 24be 57f5 0bbe a39f d3bd
00000240: 64de 9a3d b876 da3c 6c85 23bd 54bb bbbd
00000250: 3fc8 7abd 2fdd 063c d3c6 0e3e 03fc f43d
00000260: d9ad 813d cca6 4ebe 4f4f 773e 4513 113e
00000270: 7d84 2d3e 03ed 14be 12a1 de3c 5904 07be
00000280: f104 443e af3a ce3b 1fea 01be b194 f5bd
00000290: d7d7 2bbe 8b40 183e a577 c0bd 9d39 73bd
000002a0: 298c 453e 5980 10bd e154 d7bd ff1f 5c3e
000002b0: bebb 26bd 77f9 9a3d 5215 52bd 08ff e0bc
000002c0: 2060 6e3d 0a25 e2bd b89b 6b3d af21 b93c
000002d0: e3e7 263d 99c1 3bbd 86d1 963d e4c9 4b3e
000002e0: 5a4c 39bd ec83 583e a0d8 cfbd d3bc 94bd
000002f0: b90e d5bd 6da2 f8bd e87e bc3d 32bb 0bbe
00000300: 930f 893d 5e50 f4bd 9496 05be 0e1a 38bd
00000310: eca6 32be 17d1 513e fcdc 1d3d 77f7 2ebe
00000320: 21ab ab3d 5125 473e 0e91 273e 5a01 43be
00000330: 16b2 f2bc b6e1 01be cb68 0dbd 8813 46bd
00000340: 7db4 343e 6e07 be3d 4fd2 1ebe 48fd 20be
00000350: 8c2c 6fbe d36a 25bd ec28 2c3e 18e1 023e
00000360: 6920 08be 04ad 34be f007 eb3d fe31 c9bd
00000370: 1e66 99bd fc7c c1bd a23a 533e 3f1c 173e
00000380: b4ee 7a3e 163f da3d 790b 263e 50d6 0abe
00000390: 4b34 afbd 9f39 9dbe 9709 9c3d 3faf f9bc
000003a0: fec8 3abd e8c7 1b3e bcde 003e aa08 5d3d
000003b0: 80b9 4f3e 9dcd 2b3e f7a5 7c3d 00f4 2dbd
000003c0: 7719 ac3d e77c 0ebe 8065 423b 7556 33be
000003d0: a788 5abe 08b6 fa3d c0bf 033e 9380 24bd
000003e0: bae1 cf3d 9ecb 33bd 53c9 95bd 1b0c c1bd
000003f0: d79b 0a3d ab93 4d3d c86c 45be cb72 3fbd
-0.1258285 0.12781373 -0.16633868 0.02322698 0.11266937 0.02212215 0.16537894 0.07574525
0.026815541 -0.035631437 0.08829406 -0.08567773 0.02290057 0.031481918 0.09207367 0.15381889
-0.19843148 0.119425155 0.02408956 0.15864035 -0.18340592 -0.100439675 0.0254319 0.29535204
0.074136265 0.11652066 -0.027868673 0.04453419 -0.2065602 0.20327467 0.02909041 -0.041375365
-0.010888448 -0.23820324 0.15976317 0.11445081 -0.12441112 -0.19196913 0.15667942 -0.024512602
0.080827825 0.089616515 0.18425956 0.083905086 -0.1771355 -0.13654552 0.20209923 0.14834134
0.062706605 -0.0815148 -0.06927087 -0.14554591 -0.0065938667 -0.23515317 -0.037029557 0.00526189
-0.0042893263 -0.18531749 0.13032435 0.05427067 -0.03104641 0.043915723 0.1755567 -0.15906936
-0.1047285 0.08773839 -0.119027935 -0.045425527 0.09945181 -0.048168853 -0.09847835 -0.08067946
-0.10317338 -0.11294597 0.16632533 0.19472548 -0.21869 -0.1049823 0.05734891 -0.1243964
0.16927104 0.00482866 0.016418993 0.1732642 -0.033338614 0.04862206 0.20409894 0.068501
-0.14625053 0.18829356 -0.01215633 -0.04028706 -0.16232412 0.19323069 0.05280329 -0.03278303
-0.19847491 0.17601605 0.036752194 -0.19724545 0.08316628 -0.067909256 -0.0940918 -0.113276
0.16960928 0.16524932 0.023405656 0.13343498 -0.6008333 0.17083809 -0.10038313 0.15449293
-0.14123702 0.040863458 0.09699471 -0.1436147 -0.0006118005 -0.17029655 0.06319088 -0.05780354
0.14395702 0.05030429 -0.18596205 -0.13950098 0.24893183 0.15801382 0.11194831 0.031860188
0.1178554 0.13129139 -0.05815794 -0.004139411 0.12954876 -0.14398578 -0.0019574875 0.029568568
0.1441814 -0.19926253 -0.08141512 0.16169508 0.13827623 -0.16055182 -0.13667808 -0.10333183
0.07561949 0.026667938 -0.039922163 -0.091665894 -0.061226126 0.008231445 0.13943033 0.1196213
0.06331987 -0.20180815 0.24151348 0.14167507 0.16945072 -0.14543538 0.027176414 -0.13185252
0.1914251 0.0062936167 -0.12686966 -0.11991251 -0.16781555 0.14868371 -0.093978204 -0.059381116
0.19291748 -0.035278652 -0.10514236 0.2149658 -0.04070639 0.07567113 -0.051289864 -0.027465358
0.05819714 -0.11042221 0.05752155 0.02259907 0.04074849 -0.045838926 0.07364182 0.19901234
-0.04523883 0.21144074 -0.1014874 -0.07262578 -0.10403199 -0.12140355 0.09203893 -0.13645628
0.06692424 -0.11929391 -0.13045722 -0.044946723 -0.17446488 0.20489918 0.038540825 -0.17086588
0.083822496 0.19447829 0.16363928 -0.19043484 -0.029625934 -0.12683758 -0.034523766 -0.04835847
0.17646976 0.09278761 -0.15509914 -0.15721619 -0.23356837 -0.04038508 0.16812485 0.12781179
-0.13293613 -0.17644125 0.11476123 -0.098239884 -0.074901804 -0.09447667 0.20627835 0.14756869
0.2450512 0.10656564 0.16215314 -0.13558316 -0.08554896 -0.30708024 0.076190166 -0.030479072
-0.045601837 0.15212977 0.12584966 0.05396334 0.20285606 0.16777654 0.061681714 -0.042469025
0.084032945 -0.13914834 0.002966255 -0.1751345 -0.21341191 0.12241751 0.12866116 -0.04016168
0.10150476 -0.043895356 -0.0731379 -0.09426137 0.033840027 0.050189655 -0.19279778 -0.046740334

fc4.bias f4 [24]
00000000: 84ff 10bc 46a2 6dbd 3bee b63d 06e4 013d
00000010: cfe8 9dbd b494 013e 6905 143d cd8a 363d
00000020: 4d1c 1abe d84b da3b 6e29 943d b0f7 f23c
00000030: 22ac 09be 35e5 cc3c 629f 023e dba1 42bc
00000040: ce8a 483d ff36 47bc 4720 fcbc a6b8 363e
00000050: eb81 463e e281 0bbe 9f33 27be 6e47 7a3c
-0.008849982 -0.058016084 0.089321576 0.0317116 -0.0771042 0.12654382 0.036137972 0.044565964
-0.15049858 0.0066618733 0.072344646 0.029659122 -0.1344457 0.025011638 0.12756112 -0.01187941
0.0489605 -0.012159108 -0.03077711 0.17843875 0.19385497 -0.13623765 -0.16328286 0.015275819

exp_avg f4 [128, 144]
00000000: ca45 2ab9 703d 2cb8 1f6d e7b8 8579 85b8
00000010: 1a49 d1b8 9627 a4b8 363f f8b7 9eb8 53b8
00000020: e8af 03b9 4895 c3b8 840f a1b8 178d 03b9
00000030: 22fb cab8 a2f0 2db8 79e1 3fb8 8cf8 38b8
00000040: 0615 c6b8 0bdd bcb8 e468 18b9 1ccb d1b8
00000050: c6e0 54b8 247c 9db8 861c 62b8 fc44 92b8
00000060: 2f6a 4db9 e333 a0b8 c1b1 0cb9 adf5 ebb8
00000070: 9947 0bb9 a121 03b9 0e8a 52b8 f671 66b8
00000080: f6e6 20b9 4ed7 f8b8 cce9 d7b8 bc82 21b9
00000090: b42c d4b8 a0f6 b6b8 7a5b 5bb8 7cb5 b5b8
000000a0: 8f48 feb8 7762 e1b8 30be 49b9 ee17 f4b8
000000b0: fc82 dbb8 03a0 b9b8 5c04 43b8 810c bcb8
000000c0: 2e9f 4fb9 2d9b a1b8 046c 0bb9 c83b d6b8
000000d0: a15f 09b9 1c4b eeb8 4a62 3ab8 9420 84b8
000000e0: 40a1 20b9 dbc8 f1b8 4829 d9b8 8419 27b9
000000f0: 4265 d6b8 3cc5 d8b8 2a05 4bb8 c664 a1b8
00000100: 3bd7 02b9 2ad7 e5b8 580d 4db9 9822 f5b8
00000110: 5c65 ceb8 de13 bcb8 bc21 62b8 44cf b0b8
00000120: 4ee0 51b9 e4ed 9bb8 628d 0ab9 850f d1b8
00000130: 8963 07b9 7f62 f7b8 96ab 52b8 1a79 8bb8
00000140: ec11 28b9 8297 e3b8 4ecc ceb8 d2a4 2cb9
00000150: aef6 dbb8 f2c5 dab8 fe62 7ab8 cc66 9cb8
00000160: 6eeb 02b9 82f5 ecb8 933b 4ab9 8c39 fbb8
00000170: b42c b8b8 1581 bbb8 cc12 99b8 f022 96b8
00000180: 1119 51b9 f898 9ab8 ba4e 0bb9 9810 d2b8
00000190: 426b 08b9 8737 03b9 fffc 45b8 e223 9db8
000001a0: 94ef 22b9 ec4a e4b8 f6da c8b8 6831 2bb9
000001b0: fee7 dab8 76df deb8 c363 86b8 2ab9 aab8
000001c0: ed31 02b9 02b3 eeb8 527c 47b9 2cf4 f3b8
000001d0: a293 aeb8 f9a6 bfb8 0f59 9cb8 198a 8ab8
000001e0: dac0 4cb9 4e2b a4b8 7045 0fb9 9aa4 ccb8
000001f0: 25a8 04b9 89e0 01b9 0a90 65b8 6859 a8b8
00000200: 9e13 22b9 beb5 e6b8 ed1b d3b8 effc 28b9
00000210: 8852 d4b8 29bf dab8 c2e2 81b8 afb6 9cb8
00000220: aee2 f6b8 b272 f4b8 263b 47b9 a8b0 fab8
00000230: 4dd6 a8b8 e3f5 c3b8 af64 99b8 c458 93b8
00000240: 1557 45b8 c0c7 bab7 4c2a c5b7 0a18 27b7
00000250: c9c6 02b8 6025 10b8 f29f f5b7 c6b8 99b7
00000260: 3eb2 37b8 6fa1 f0b7 5758 91b7 fd5f 21b8
00000270: 2ddb 50b8 920d 6db7 aa5c 2fb7 9e0e ceb7
00000280: d020 1eb8 f063 1db8 2ff6 a1b8 98e3 37b8
00000290: 68ee 91b7 dfca aab7 1baa ffb7 aeec 07b8
000002a0: 9efb 7db8 6288 1db7 1410 58b8 eb8d ccb7
000002b0: ad5b 5eb8 7266 1bb8 0d28 3ab8 2605 d0b7
000002c0: 177e 2bb8 4155 08b8 9d22 fbb7 4ca7 abb7
000002d0: d86a 62b8 3970 e3b7 9b05 f2b7 1c2c 80b7
000002e0: a6ef 40b8 281f 7fb8 3b13 bcb8 84b2 f1b7
000002f0: c42d 2ab8 fad0 56b8 f178 42b8 2c5f d7b7
00000300: 7818 8eb8 16c2 9bb7 1205 26b8 4afd 04b8
00000310: 20c3 5eb8 961a 23b8 677f 2eb8 5a24 c3b7
00000320: 6f49 0eb8 27b9 00b8 6729 f4b7 8d1f bcb7
00000330: 5182 60b8 2a6d bdb7 6aa5 dab7 3719 5db7
00000340: 46f5 2db8 2b9e 80b8 e2b2 afb8 e67b 04b8
00000350: b441 21b8 79c2 65b8 067f 54b8 dc1b e0b7
00000360: eed6 87b8 60c3 a2b7 2ad7 46b8 ee5f f4b7
00000370: 7690 58b8 7ea3 12b8 62e4 31b8 3496 b1b7
00000380: 5369 29b8 b609 21b8 e56e cdb7 1617 d4b7
00000390: 4ca4 59b8 8193 ceb7 1436 b7b7 f063 6cb7
000003a0: 0a65 2ab8 8cff 82b8 92ac b6b8 2120 28b8
000003b0: 68da f8b7 3579 59b8 5aff 51b8 a4f4 20b8
000003c0: 8836 84b8 4297 97b7 4693 5cb8 2df4 08b8
000003d0: a0dc 61b8 de26 10b8 366c 2ab8 9001 ceb7
000003e0: 061a 21b8 39a6 17b8 625a fbb7 5ee3 e7b7
000003f0: db46 5cb8 055d cbb7 148b aab7 e5ca 92b7
-0.00016238462 -4.1065214e-05 -0.00011035264 -6.364569e-05 -9.979513e-05 -7.827503e-05 -2.9593339e-05 -5.047826e-05
-0.00012558664 -9.3261304e-05 -7.679968e-05 -0.00012545694 -9.678888e-05 -4.147052e-05 -4.5747936e-05 -4.4100496e-05
-9.445292e-05 -9.005711e-05 -0.00014534924 -0.00010003729 -5.0754075e-05 -7.5094664e-05 -5.3909163e-05 -6.974672e-05
-0.0001958988 -7.639059e-05 -0.00013417659 -0.00011251434 -0.00013282745 -0.00012505661 -5.0196475e-05 -5.4942408e-05
-0.00015344829 -0.00011865665 -0.00010295547 -0.00015402859 -0.00010117274 -8.724374e-05 -5.2298863e-05 -8.664557e-05
-0.00012125179 -0.000107471766 -0.00019239704 -0.00011639284 -0.000104671315 -8.851292e-05 -4.6495683e-05 -8.9668676e-05
-0.00019800357 -7.705982e-05 -0.00013296312 -0.0001021545 -0.00013100963 -0.000113627146 -4.4437395e-05 -6.300319e-05
-0.0001531886 -0.00011529188 -0.000103550556 -0.00015935866 -0.00010223176 -0.000103364204 -4.840378e-05 -7.695849e-05
-0.00012477946 -0.00010959648 -0.00019555294 -0.00011688954 -9.841725e-05 -8.968239e-05 -5.3914016e-05 -8.43094e-05
-0.00020015353 -7.4352865e-05 -0.00013213375 -9.968787e-05 -0.00012911683 -0.00011796224 -5.0227703e-05 -6.6505934e-05
-0.00016028405 -0.00010852424 -9.8609e-05 -0.00016464599 -0.000104886814 -0.0001043192 -5.969684e-05 -7.457807e-05
-0.0001248547 -0.00011299086 -0.00019286414 -0.000119793316 -8.78213e-05 -8.940898e-05 -7.29911e-05 -7.159065e-05
-0.00019941131 -7.371785e-05 -0.00013285401 -0.00010016671 -0.00013009927 -0.00012513819 -4.720408e-05 -7.493027e-05
-0.00015538774 -0.000108858425 -9.577528e-05 -0.00016326236 -0.00010438262 -0.00010627408 -6.4082e-05 -8.140721e-05
-0.00012416365 -0.00011382067 -0.00019024432 -0.000116326235 -8.324465e-05 -9.138691e-05 -7.455248e-05 -6.6060755e-05
-0.00019526799 -7.8281955e-05 -0.0001366341 -9.7581375e-05 -0.0001265114 -0.00012386045 -5.4732e-05 -8.0275175e-05
-0.00015456832 -0.00011001107 -0.000100664656 -0.00016115954 -0.000101243204 -0.000104306564 -6.193436e-05 -7.472687e-05
-0.000117724165 -0.0001165619 -0.00019000153 -0.00011953834 -8.050781e-05 -9.3441246e-05 -7.314362e-05 -7.02604e-05
-4.704956e-05 -2.2265944e-05 -2.3503926e-05 -9.959573e-06 -3.117955e-05 -3.4367084e-05 -2.9280756e-05 -1.8325063e-05
-4.37966e-05 -2.8685403e-05 -1.7326483e-05 -3.8474787e-05 -4.9795188e-05 -1.412946e-05 -1.0452388e-05 -2.456392e-05
-3.7700695e-05 -3.752479e-05 -7.7229335e-05 -4.3842563e-05 -1.7396364e-05 -2.0360048e-05 -3.047758e-05 -3.2406933e-05
-6.0554237e-05 -9.389683e-06 -5.1513387e-05 -2.438478e-05 -5.3014304e-05 -3.705029e-05 -4.4383156e-05 -2.479793e-05
-4.0887007e-05 -3.2504326e-05 -2.993765e-05 -2.0462692e-05 -5.3982105e-05 -2.7112766e-05 -2.8851258e-05 -1.527933e-05
-4.5999557e-05 -6.0825754e-05 -8.9681205e-05 -2.8812567e-05 -4.057378e-05 -5.12162e-05 -4.636584e-05 -2.5674315e-05
-6.775645e-05 -1.8567818e-05 -3.9582206e-05 -3.1707146e-05 -5.311065e-05 -3.888699e-05 -4.1603485e-05 -2.3262739e-05
-3.392383e-05 -3.0690015e-05 -2.9106346e-05 -2.2426038e-05 -5.352713e-05 -2.258139e-05 -2.6064652e-05 -1.3178497e-05
-4.1474843e-05 -6.132977e-05 -8.37797e-05 -3.1586642e-05 -3.8446582e-05 -5.477897e-05 -5.066304e-05 -2.6715854e-05
-6.4773354e-05 -1.9402883e-05 -4.7407266e-05 -2.9131737e-05 -5.1632953e-05 -3.4961377e-05 -4.2412787e-05 -2.1169988e-05
-4.039083e-05 -3.8394435e-05 -2.4489544e-05 -2.528312e-05 -5.1889845e-05 -2.46258e-05 -2.1840482e-05 -1.4089965e-05
-4.062526e-05 -6.2464824e-05 -8.71058e-05 -4.0084244e-05 -2.9665607e-05 -5.1849715e-05 -5.0067298e-05 -3.8374812e-05
-6.304408e-05 -1.8071038e-05 -5.2589246e-05 -3.2652333e-05 -5.3849653e-05 -3.4368473e-05 -4.0631938e-05 -2.4557841e-05
-3.8409627e-05 -3.6156012e-05 -2.996362e-05 -2.7643222e-05 -5.2518077e-05 -2.4242801e-05 -2.0330343e-05 -1.7499036e-05

exp_avg_sq f4 [128, 144]
00000000: 3bd9 2534 c936 ab32 fc9a c433 c326 2433
00000010: ab46 9d33 130a 8033 29ba 6732 2e92 b332
00000020: 7c8c cd33 8b0c 3333 37a9 0633 e78e d033
00000030: 4851 8a33 5f7f 3232 0355 ce32 367e 2833
00000040: 835c 7b33 0fa5 ac33 6bef 1d34 fa8f 9633
00000050: 75c7 3d33 63df c432 fd8c fe32 74ef f432
00000060: 1caa 8734 65b9 8933 3ca0 1534 d7a9 9833
00000070: e19a 0734 7b5a 0134 9f82 0933 575f 8d33
00000080: f7e4 1434 68d9 ae33 d929 8d33 72e5 1834
00000090: a1c8 d233 31a6 8b33 0033 7633 f733 9d33
000000a0: f7da fc33 9786 0334 983b 8b34 9fe9 d833
000000b0: 6a1d db33 393d 5133 fb4f 6733 acaa 3b33
000000c0: cee4 8534 e247 8933 cf26 1634 a83c 8f33
000000d0: e86d 0934 7a1c fb33 1b72 0633 18a5 8e33
000000e0: c979 1134 a2d0 af33 28ed 9033 69a9 1b34
000000f0: 8b4c d533 6149 9033 06c1 7d33 7370 9333
00000100: 08be fb33 5068 0434 f4b6 8c34 cc9c d433
00000110: 6d1e e533 94d6 4333 529c 7533 c8a2 4533
00000120: 8fa4 8634 f622 8333 3455 1734 50c7 8c33
00000130: 5208 0334 8805 f633 c162 0c33 e49c 8b33
00000140: e35b 1834 bc93 ab33 767b 8633 b06e 2234
00000150: 957b cf33 d1a9 8f33 ace9 8933 88ef 9133
00000160: 1843 0734 95f6 0534 cb58 8c34 1829 db33
00000170: 7f92 e733 bdbf 3f33 de8b 8233 9254 4d33
00000180: 4e05 8734 c921 8033 f57c 1834 a2e8 9633
00000190: b908 0334 32d0 fb33 3b4f 0633 08c7 9033
000001a0: 6081 1c34 afe8 ae33 d9a5 8933 a52c 2134
000001b0: 3729 d333 4be2 8933 580c 8233 566b 9733
000001c0: 932d 0b34 0e6d 0634 4143 8c34 f32a dd33
000001d0: e85d e033 97ee 3a33 57ca 7c33 b50f 4a33
000001e0: 502b 8a34 c30c 8133 c771 1b34 be42 9833
000001f0: c1c7 fd33 ee81 f733 7cb9 0c33 6e9f 9533
00000200: 021e 1e34 206c b033 ae30 9233 8b01 2534
00000210: 4216 d233 5345 8033 188d 8133 287e 9733
00000220: 5113 0b34 d4cd 0634 27db 8b34 7580 dc33
00000230: 53ab e233 5d8d 3933 5ac5 7b33 adc1 4733
00000240: 8bb0 b933 2694 f132 9e20 6933 979f ae32
00000250: 348b 6f33 70d3 2533 0235 6332 3f75 0832
00000260: 6a5e 4d33 741e 0e33 4654 b432 d20e 2233
00000270: be6f 7933 e337 cf31 0c48 d032 2d7e 7132
00000280: 4d83 7833 3c57 8d33 8cb8 e233 433a f832
00000290: 9823 2033 c93c 8332 8eb4 a632 8228 c432
000002a0: ba6c 1c34 58b6 7e33 53ad be33 1095 3933
000002b0: 6403 bc33 1cb0 9033 63f1 f032 d9f2 fb32
000002c0: ad8e ab33 313c 9a33 578e 1e33 96c7 8233
000002d0: 3682 dc33 0c3a 2033 d42c 3933 30d3 d132
000002e0: 721f cd33 775c f633 81e6 3534 b4e8 f532
000002f0: cdb2 9233 c9db 5033 18af 3b33 4361 1933
00000300: 0b45 2634 aeae 7433 94eb c233 bb44 2f33
00000310: c59d c533 4e4e 9433 b181 ea32 7f52 0b33
00000320: a46b a833 67e5 a133 bd13 3433 29b3 8a33
00000330: 901d e233 a3e9 2233 3b9b 4333 5503 f032
00000340: 46d0 d233 3f2d ff33 7d53 3534 65da e432
00000350: edd9 9033 4043 5433 666b 3333 3e69 1c33
00000360: 9d0f 2634 11cd 7633 a2af c533 cb3d 2933
00000370: a95a c233 2111 9433 37c0 e332 35c2 1333
00000380: 9f32 9f33 8e35 a233 1137 3f33 0894 9633
00000390: ec49 ec33 7c3b 2533 de71 4733 c452 0233
000003a0: fb8f d133 9f46 fa33 1436 3334 2892 ee32
000003b0: 0f1a 9333 6522 4d33 a893 3a33 eecc 3033
000003c0: 94eb 2334 4f74 6c33 cd91 ce33 f34f 2a33
000003d0: 6a66 c033 952b 9533 1d0a eb32 4d7f 1233
000003e0: 39b5 9b33 7b44 9a33 9d6b 4433 8d8a 9733
000003f0: 73f0 f333 62eb 2833 6ab5 4c33 faad f832
1.544585e-07 1.9931933e-08 9.155153e-08 3.821948e-08 7.3237366e-08 5.962297e-08 1.3488298e-08 2.0904817e-08
9.57161e-08 4.1688093e-08 3.1353206e-08 9.7117486e-08 6.440911e-08 1.03899245e-08 2.4020215e-08 3.9230336e-08
5.852463e-08 8.039398e-08 1.4708864e-07 7.0111085e-08 4.4186397e-08 2.2918988e-08 2.9633606e-08 2.851423e-08
2.526948e-07 6.413283e-08 1.3934999e-07 7.108945e-08 1.26292e-07 1.2046978e-07 3.2016597e-08 6.5831664e-08
1.3866871e-07 8.1420524e-08 6.573436e-08 1.4239575e-07 9.815381e-08 6.502922e-08 5.7322723e-08 7.3203346e-08
1.1774494e-07 1.2249289e-07 2.5934128e-07 1.0100779e-07 1.02033326e-07 4.8717286e-08 5.385662e-08 4.3694556e-08
2.4939658e-07 6.392635e-08 1.3983957e-07 6.66999e-08 1.2799103e-07 1.1693278e-07 3.1303085e-08 6.642421e-08
1.3548483e-07 8.1870226e-08 6.748661e-08 1.4497131e-07 9.9325085e-08 6.71887e-08 5.9081707e-08 6.865675e-08
1.1722665e-07 1.2331407e-07 2.6210148e-07 9.9005405e-08 1.0669178e-07 4.5597133e-08 5.718568e-08 4.6015685e-08
2.5079177e-07 6.106522e-08 1.4093968e-07 6.555513e-08 1.2203353e-07 1.1456274e-07 3.2686106e-08 6.50123e-08
1.4189531e-07 7.989681e-08 6.262319e-08 1.5127694e-07 9.661668e-08 6.689846e-08 6.422064e-08 6.795659e-08
1.2597263e-07 1.2476296e-07 2.6141637e-07 1.0205457e-07 1.0783423e-07 4.4645038e-08 6.0790384e-08 4.7807198e-08
2.514957e-07 5.96661e-08 1.4201562e-07 7.027235e-08 1.2203499e-07 1.1725969e-07 3.1271366e-08 6.741726e-08
1.4575699e-07 8.144831e-08 6.409727e-08 1.5010535e-07 9.83295e-08 6.420722e-08 6.055842e-08 7.05101e-08
1.2961964e-07 1.2519396e-07 2.6125966e-07 1.0298927e-07 1.0447894e-07 4.3523496e-08 5.885735e-08 4.7046075e-08
2.5736017e-07 6.009352e-08 1.4476892e-07 7.090192e-08 1.18175656e-07 1.1525468e-07 3.2764987e-08 6.967353e-08
1.4725813e-07 8.2153065e-08 6.8075096e-08 1.5367384e-07 9.782936e-08 5.9730745e-08 6.0326954e-08 7.054433e-08
1.2952411e-07 1.2554602e-07 2.6050222e-07 1.02679145e-07 1.0555109e-07 4.320224e-08 5.861998e-08 4.6509445e-08
8.646847e-08 2.8123463e-08 5.4279205e-08 2.0328839e-08 5.577313e-08 3.8609357e-08 1.3225192e-08 7.942901e-09
4.781615e-08 3.308965e-08 2.0993081e-08 3.7732043e-08 5.807646e-08 6.0308465e-09 2.424715e-08 1.4056735e-08
5.7861417e-08 6.581692e-08 1.0557514e-07 2.8897494e-08 3.7285275e-08 1.5278049e-08 1.940705e-08 2.2835824e-08
1.4568187e-07 5.9304824e-08 8.879092e-08 4.320924e-08 8.755049e-08 6.737557e-08 2.8049447e-08 2.933068e-08
7.9887606e-08 7.1821326e-08 3.69167e-08 6.089901e-08 1.02682336e-07 3.7305696e-08 4.311444e-08 2.442684e-08
9.551776e-08 1.1472087e-07 1.6940795e-07 2.8627575e-08 6.8311785e-08 4.8628667e-08 4.3698577e-08 3.5711547e-08
1.5485072e-07 5.6969547e-08 9.0766804e-08 4.0807873e-08 9.2022255e-08 6.9060306e-08 2.7300162e-08 3.243849e-08
7.842689e-08 7.538875e-08 4.1927468e-08 6.458715e-08 1.05293225e-07 3.7931056e-08 4.5543157e-08 2.7941192e-08
9.816772e-08 1.1882593e-07 1.6887311e-07 2.6642008e-08 6.745163e-08 4.942126e-08 4.1774364e-08 3.6417298e-08
1.5465635e-07 5.7462845e-08 9.205475e-08 3.940458e-08 9.05032e-08 6.894903e-08 2.6513687e-08 3.4402735e-08
7.4132224e-08 7.5534544e-08 4.4520736e-08 7.011846e-08 1.1003053e-07 3.8471157e-08 4.643686e-08 3.034326e-08
9.758511e-08 1.1654378e-07 1.6690348e-07 2.777331e-08 6.849961e-08 4.7761564e-08 4.3440792e-08 4.1164576e-08
1.5266261e-07 5.5053814e-08 9.6191435e-08 3.9653923e-08 8.959326e-08 6.946281e-08 2.73622e-08 3.4109053e-08
7.250714e-08 7.18364e-08 4.573268e-08 7.056688e-08 1.1359307e-07 3.9329628e-08 4.7662446e-08 2.8950115e-08

exp_avg f4 [128]
00000000: dcb2 62b9 670c 9bb8 3761 4fb8 26d4 e0b7
00000010: 37b9 6939 2915 c138 8fcf c4b8 2833 0038
00000020: 042d 1cb9 df93 67b8 0400 0000 21eb 1f39
00000030: b621 1e38 d671 0e39 d514 2b39 cc58 cbb6
00000040: 0400 0000 095f e738 74a8 f438 0000 0000
00000050: 0000 0000 2433 1cba 0000 0000 61db 89b8
00000060: 42ad 7f39 af47 24b9 fd46 a0b8 6efe 9938
00000070: 0000 0000 5657 c337 686d fbb7 f39f 03b8
00000080: 0400 0000 c8ef 3137 ccff 22b7 2d37 15b9
00000090: 5203 5438 8416 8238 18d7 acb8 78fc 74b9
000000a0: d9f0 5739 d6d3 78b8 4ead dbb8 0400 0000
000000b0: 3f18 bd38 0000 0000 c4ec 0639 0400 0000
000000c0: 0600 d438 0000 0000 d857 f2b7 0400 0000
000000d0: 5055 5e39 e10e d1b8 0400 0000 8059 86b8
000000e0: 0739 4f39 3990 38b9 d7fb 9c38 0400 0000
000000f0: 0357 fd38 885c 4238 0a76 ec38 3fb9 3bb8
00000100: 2634 2b38 fa13 a637 1266 a337 5cc7 0039
00000110: ce00 1639 3a7e 8ab7 9c81 b838 e08a 2c39
00000120: a61b fdb8 833d 8238 7851 51b7 0000 0000
00000130: 067c 68b7 0000 0000 503f 8337 551e 9cb9
00000140: 82ae b938 43b8 8a38 2c6e 4b38 d0ef aeb8
00000150: 0400 0000 ecd8 7139 f0cf 1eb8 fb96 d5b8
00000160: b0a2 8c38 da71 49b9 2961 d6b8 3c60 b7b7
00000170: 3825 8c39 4617 d8b7 5ab7 8c38 de19 adb7
00000180: 75ee fe38 0400 0000 462b 61b9 a24e cb38
00000190: 7627 0f39 8d32 c2b9 586b 3538 8105 3039
000001a0: 309d ec38 d79f 1639 905e 0638 403f 0d36
000001b0: d8b7 65b9 625a 4838 b9cd 0cb8 b491 0b38
000001c0: 17be a8b9 e059 34b7 2cea 19b8 a068 6737
000001d0: 0400 0000 0000 0000 f07b bd38 e255 8838
000001e0: 6b39 9eb7 b349 9e38 1e4d 0639 d2d3 beb7
000001f0: 68c3 f637 0400 0000 178b d538 125e e638
-0.0002161967 -7.393286e-05 -4.9443184e-05 -2.680167e-05 0.0002228961 9.2068985e-05 -9.384669e-05 3.056522e-05
-0.00014894089 -5.5212407e-05 6e-45 0.00015251014 3.770153e-05 0.00013584582 0.00016315591 -6.0602088e-06
6e-45 0.0001103264 0.000116662035 0.0 0.0 -0.0005958548 0.0 -6.5735316e-05
0.00024383239 -0.00015666963 -7.642617e-05 7.343e-05 0.0 2.328648e-05 -2.9972478e-05 -3.1381798e-05
6e-45 1.0605851e-05 -9.71551e-06 -0.00014230302 5.054783e-05 6.203077e-05 -8.2416635e-05 -0.00023363705
0.0002059372 -5.9325095e-05 -0.00010475014 6e-45 9.0167385e-05 0.0 0.00012867438 6e-45
0.00010108952 0.0 -2.8889554e-05 6e-45 0.00021203351 -9.968668e-05 6e-45 -6.4062886e-05
0.00019762303 -0.00017601335 7.4855685e-05 6e-45 0.00012080187 4.633938e-05 0.000112753434 -4.4756798e-05
4.0818144e-05 1.9798044e-05 1.9478644e-05 0.00012281298 0.00014305415 -1.650966e-05 8.797945e-05 0.00016454933
-0.0001206913 6.2103405e-05 -1.2476339e-05 0.0 -1.3857154e-05 0.0 1.56459e-05 -0.00029777238
8.853992e-05 6.614674e-05 4.8501577e-05 -8.341635e-05 6e-45 0.0002306436 -3.7863792e-05 -0.00010184754
6.706023e-05 -0.00019211267 -0.00010222413 -2.1860113e-05 0.0002673061 -2.5760044e-05 6.709872e-05 -2.0635252e-05
0.0001215608 6e-45 -0.00021473793 9.694441e-05 0.00013652243 -0.00037040227 4.3253734e-05 0.00016786718
0.000112826354 0.0001436466 3.2036158e-05 2.1047454e-06 -0.00021907629 4.776789e-05 -3.3570195e-05 3.327588e-05
-0.00032185085 -1.0749762e-05 -3.6696132e-05 1.3793033e-05 6e-45 0.0 9.0353074e-05 6.500982e-05
-1.8861805e-05 7.547755e-05 0.00012807964 -2.2748402e-05 2.9416478e-05 6e-45 0.00010182539 0.000109847766
