models/RaceMultiOutputModeltvt4v2/model.pt (torch, 270255 bytes, 18 tensors)

fc1.weight f4 [128, 24]
00000000: 2e13 96bd 4838 843c bee5 173e c1ec cfbd
00000010: b0b8 483e 1c55 4fbd 82cd 30be ccb3 c4bd
00000020: 9a58 8abd 4cf0 143d 416f 46be eadd 9abd
00000030: fe02 253e 767a bbbd 48d7 063e 6c0e 083d
00000040: 5e2c 313e 7d50 b6bd 723d 87bd 7032 853c
00000050: a8d0 733d c047 79bb c025 e4bd 68f4 5e3d
00000060: 2ea4 913d 865f 2d3d d75c bfbd a141 023e
00000070: 3dc9 cf3c f1df a03d e8c5 32be 2f73 283e
00000080: 207f eebc 84cb 7d3d c2f5 3b3e 7974 b63b
00000090: 7308 afbd 5856 f53d 7c26 fa3d 361f 1bbc
000000a0: 2466 2bbe 91ea 1ebd 5eb6 4dbe d051 70bd
000000b0: 1d4e f23c 078a 2dbe 1622 583e ca8b 403e
000000c0: d4ef 60bd e827 3f3d 50af cdbc ecc2 343d
000000d0: 08bb b23d dc66 c43d 0040 3cb9 4c1f 97bd
000000e0: 3025 1a3e a266 023e 0025 92bd e612 8bbd
000000f0: b002 473e c81b 8cbc e682 4abe 809e 3bbc
00000100: 60a9 92bd fcb6 4ebd 1046 82bd 00b7 233e
00000110: fe44 45be cc60 a93d 440d 08bd ebfc 0dbe
00000120: e467 42be 5f45 efbd 1a73 d6bd 2bb4 3ebe
00000130: 2876 273d 4c86 423e 508a 2fbe 1853 dfbd
00000140: c109 34be 10fb cdbd c0e0 9d3d c2ba 293e
00000150: a674 ecbd 3d39 e6bd fc88 393d 1bab 40be
00000160: 06af b6bd 60ff ed3c 3c4a 1abe 58ba 793d
00000170: 2072 e13c 08c8 8fbc 6d2e 40be 6470 233e
00000180: b0eb 66bc 406b bebc 5ade 1dbe c431 2e3e
00000190: fb60 f3bd 1429 1c3e 8092 033c 30d7 0b3c
000001a0: 200d b53d 0ebd 25be fa9f 24be 42c9 9abd
000001b0: e002 8e3c 3617 4a3e 38c1 f3bc dcd5 993d
000001c0: fc0b 37be 4c0a c63d 0833 a83c 3006 87bc
000001d0: 68bc 0ebe c0cb 163c 90dc d0bd a082 d9bc
000001e0: a334 723d 142f 103e 896d cabb c4df ffbd
000001f0: 14b4 7f3d 47f5 98bd d300 c8bd 34bc 14be
00000200: f740 62bc 7399 093e 1b4e 443e 148b d7bd
00000210: fbcc d33d 6938 573e fad1 b7bc 0851 7abd
00000220: 9035 523e 95bc 513c ba22 20be 95e2 fdbd
00000230: 36ea 9a3c ae61 5b3d 4a7c e33d 3abb 463d
00000240: f988 5abc 5839 4abe 1691 55be 62aa a0bd
00000250: 1de0 0e3e 38c9 1e3e 0f0f 0f3e 427d 2ebe
00000260: 7a67 ddbd 5459 023e 12c7 20be 098a ad3d
00000270: a2f5 bc3d c991 16be 973f 62be d9e7 52be
00000280: 8b84 47bd c4e7 9abd 60e4 f43d e94b 523d
00000290: f5a6 e33b bfd0 e6bc 69a7 993d 979a f73d
000002a0: 521f 57be 1054 39be 15c1 243e 08a0 4dbe
000002b0: 206c 20bd a0b1 1b3c 2ba6 febd d646 f63c
000002c0: a0b4 573d 091b 72bb 32fb f2bd 3dc7 923b
000002d0: eecf b93d 64d8 053e 0907 cdbd f282 09be
000002e0: 404f 0339 617d 3e3e 5378 e83d d900 c93c
000002f0: a50c 1bbd bec1 6b3d 1253 37be b854 25bd
00000300: 6d68 2fbe 9e71 39bd 0050 d13d e3c1 b83d
00000310: ab42 b33d 48bf f93d f919 92bd 5728 993b
00000320: 75b8 973c 1347 38be 7ada 383e 9d4d 0cbe
00000330: 3775 bdbd 342d 1bbe 70e7 56bd ff35 d43d
00000340: 6575 093d d76a 183e 36d4 81bd 6684 df3d
00000350: d252 223e 9520 a7bc 8ac4 0bbe 47ff 85bb
00000360: 2f64 bc39 7fb0 90bd 72db fc3d 5e8c 7a3b
00000370: 4797 b8bd 8895 163e 3aca 7bbc 4820 65bd
00000380: 6e70 1bbe bed4 883d 9d4f 36be 62f0 bb3d
00000390: e869 d23d 7684 efbd 29d6 943d 6ebf f93c
000003a0: e51b 023c ab4c 48be f78d 093e 45b8 393e
000003b0: 13f9 173e d72e 163e d27e dcbc 8089 d6bd
000003c0: eaf4 1f3e f59f 093e 3fd6 17be db8b 4f3e
000003d0: 576f cb3d 7c7b 7c3d cf34 e5bd 9186 d23d
000003e0: 536a dabd fc15 453e e75e 6dbc d738 3dbd
000003f0: b058 89bc 13b5 aa3d 27fd 6e3d ad93 de3c
-0.07327877 0.016140118 0.14833733 -0.10152579 0.19601703 -0.050618276 -0.17265895 -0.09604606
-0.06755181 0.036361977 -0.19378377 -0.07561858 0.16114423 -0.09154217 0.13168061 0.03321688
0.17302081 -0.08902071 -0.06603517 0.016259402 0.059525162 -0.003803715 -0.11140013 0.054432303
0.07111393 0.042327426 -0.0934388 0.12720348 0.025364513 0.078552134 -0.17458308 0.16450189
-0.029113352 0.061961666 0.18355468 0.005568084 -0.085465334 0.119793594 0.122143716 -0.0094678905
-0.16738182 -0.03879792 -0.20089099 -0.058671772 0.029578263 -0.16947185 0.21106753 0.18803325
-0.054916218 0.046668917 -0.02510801 0.044131204 0.0872708 0.09589931 -0.00017952919 -0.07379016
0.15053248 0.12734464 -0.071359634 -0.06790714 0.19434619 -0.01710309 -0.19776496 -0.011451364
-0.07161212 -0.050467476 -0.063610196 0.15987778 -0.192646 0.08270416 -0.033215776 -0.13866012
-0.18984944 -0.11683153 -0.10471173 -0.18623416 0.040884167 0.18996543 -0.17142606 -0.10904521
-0.17581846 -0.10057652 0.07708883 0.16575149 -0.115456864 -0.11241386 0.045296654 -0.18815272
-0.08920102 0.029052436 -0.1506738 0.060968727 0.02752024 -0.017551437 -0.1876771 0.15960842
-0.014094278 -0.0232445 -0.15416852 0.17011172 -0.11883732 0.15250045 0.008030534 0.008535191
0.08840394 -0.161854 -0.16076651 -0.07557918 0.017335355 0.19735417 -0.02975522 0.075114936
-0.17875665 0.09669933 0.020532146 -0.016482443 -0.13939059 0.009203851 -0.10198319 -0.026551545
0.05913223 0.14080459 -0.0061776084 -0.12493852 0.062427595 -0.07468658 -0.09765782 -0.14524919
-0.013809434 0.13437442 0.1917042 -0.10524574 0.10341831 0.21017613 -0.022438992 -0.061112434
0.20528245 0.012801309 -0.15638247 -0.12396733 0.018910509 0.05355995 0.11107691 0.048518397
-0.013338321 -0.19748437 -0.20856127 -0.07844998 0.1395268 0.15506446 0.13970588 -0.1703997
-0.10810752 0.12729388 -0.1570094 0.08473594 0.09226538 -0.1470405 -0.2209457 -0.20596255
-0.048710387 -0.07563737 0.119576216 0.051341925 0.006947393 -0.02817571 0.07502634 0.120900325
-0.21008042 -0.18098474 0.1608928 -0.20080578 -0.039165616 0.009502798 -0.12434038 0.030063074
0.05266249 -0.0036942384 -0.11864318 0.0044793175 0.090728626 0.13070828 -0.100111075 -0.13428858
0.00012522656 0.18602516 0.11351075 0.024536537 -0.037853856 0.057557814 -0.17902783 -0.040363997
-0.17129679 -0.04527437 0.10220337 0.09021356 0.0875295 0.12194687 -0.0713386 0.0046739983
0.018520573 -0.17995863 0.18052092 -0.13701482 -0.092508726 -0.15153962 -0.05246681 0.103618614
0.03355922 0.14884506 -0.06339304 0.10913925 0.15851906 -0.020401279 -0.13649192 -0.0040892693
0.00035932797 -0.07064914 0.12346543 0.0038230638 -0.09013229 0.14705479 -0.015368039 -0.05593899
-0.15179607 0.06681202 -0.17803808 0.09176709 0.10274106 -0.11695187 0.0726741 0.030486789
0.007941221 -0.19560497 0.13433062 0.181367 0.14841108 0.14666305 -0.026915941 -0.10475445
0.15620771 0.13439925 -0.14827822 0.20268194 0.09933346 0.0616412 -0.11191713 0.10279573
-0.10664811 0.19246668 -0.0144879585 -0.046196785 -0.016765922 0.083353184 0.058346894 0.027170027

fc1.bias f4 [128]
00000000: 84b7 e83d f992 b0bd 1e78 14be 76f8 10be
00000010: d80d cd3d 0026 02be 0f8d 223d 2d65 18be
00000020: 138b ef3c adff 373e 43c0 003e c2df 60bd
00000030: 31dd 0b3e 848c 553e e81f c03d 6c31 48bd
00000040: b0d8 433e f6c2 353e 1d80 4fbe d691 0cbd
00000050: 282a 773d 0b20 33be 58aa 4e3e a07f f9bb
00000060: 80b7 ed3a 704b 4fbd 8b33 28be e913 46be
00000070: dc5b 9ebd 1811 fcbd da12 3c3d 7439 2f3d
00000080: 6cb6 bb3d 41f6 f7bd 6aab 223c 6e6f 5e3d
00000090: fe78 7cbd 1fc2 92bd 90f4 583d 5e16 343e
000000a0: 287d f0bc d2f5 6f3d e22c b03d b56e e6bd
000000b0: e1a7 573e 21d2 74bd 84c1 b1bd e0f1 c9bb
000000c0: d106 fabd 3217 41be 94b0 4e3e bbb7 4fbe
000000d0: 8987 acbd 50d0 163e be15 d13d d4ce 033e
000000e0: 8320 2abe d8db a43d 809f 25bd eccb 2c3e
000000f0: cdc1 b53d 4263 0f3e f94d 013d 04b3 1ebe
00000100: 4d21 08be e6ea c1bd c0dc e43d 53c2 1f3e
00000110: bb82 b9bd 53f0 39be 8790 023e 0736 d2bd
00000120: ecbf 293e df39 67bc 9aa4 e83d 3609 02be
00000130: b99c c1bc f765 e93d 20dc 493e cc1a 73bd
00000140: 9282 7f3d 9e0a debd 276f 1cbb 66d0 163e
00000150: 08a2 c13d dad3 2e3e 1f94 3e3c 0077 f53c
00000160: 55dc c03d 84ec 3b3e 34cf 133e 7c41 4abe
00000170: 37c5 ccbd dce2 41be 7047 d8bd 2397 493d
00000180: 102d 7d3d fc2e 343d 569c b5bd 6d90 a03c
00000190: 1ef3 37be 7491 f03d 15b3 20be d240 09be
000001a0: 9e55 02be bb9f 153e 320f f8bc e0c7 12be
000001b0: 2597 7dbd 8b0a e7bd 146c c1bd 7f15 833d
000001c0: 2d43 9bbd d348 c83d 8b1f e5bd 8d7d 40be
000001d0: 3a58 3cbd 13a4 0abe 6c28 353e 4009 383e
000001e0: f58a 10bc 57c6 8fbd d059 153d 9ebf a33b
000001f0: 1466 84bd 7cd0 353e 2ec3 a83c 80a7 443b
0.11363128 -0.08621783 -0.14498946 -0.1415728 0.10012406 -0.12709808 0.039685305 -0.14882345
0.02924112 0.17968626 0.12573342 -0.054900892 0.13658597 0.20854384 0.09381086 -0.048875257
0.19125628 0.17750153 -0.20263715 -0.034318767 0.060342938 -0.17492692 0.20182168 -0.007614091
0.0018136352 -0.050609052 -0.16425912 -0.19343533 -0.077323645 -0.12307948 0.045916416 0.0427794
0.091656536 -0.12107516 0.009928564 0.054305486 -0.061638825 -0.07165932 0.052967608 0.17586657
-0.029356554 0.058584042 0.08602311 -0.112515844 0.21060134 -0.059770707 -0.08679488 -0.006162867
-0.122083314 -0.18856505 0.20184547 -0.20284931 -0.08424289 0.14727902 0.10209225 0.12871867
-0.16613965 0.08049744 -0.040435314 0.16874665 0.08874855 0.14002708 0.0315685 -0.15497977
-0.13293953 -0.094686314 0.11174917 0.15601473 -0.09058138 -0.18158083 0.12750445 -0.10264211
0.16577119 -0.014112919 0.1135952 -0.12698826 -0.023634301 0.113964014 0.19712877 -0.059351727
0.06238038 -0.10841869 -0.0023869963 0.14727935 0.09454733 0.17073002 0.0116319945 0.02996397
0.09417025 0.18351942 0.1443451 -0.19751543 -0.09998553 -0.18934196 -0.105605006 0.0492164
0.061810553 0.04399012 -0.08867709 0.019600118 -0.17963836 0.11746493 -0.15693314 -0.13403633
-0.12727973 0.14611714 -0.030280683 -0.14334059 -0.06191172 -0.11281308 -0.094444424 0.064005844
-0.07581172 0.09779515 -0.11187657 -0.18797894 -0.045982577 -0.13539152 0.17691201 0.17972279
-0.008822192 -0.07020252 0.036462605 0.004997208 -0.06464782 0.17755312 0.020600881 0.0030007064

fc2.weight f4 [64, 128]
00000000: 1a2e 25bd 10cc bdbc 49a1 2dbd f8ab 97bc
00000010: 0719 9e3d 74ed 183d 7c12 1fbd 93e4 d13c
00000020: 8c4b a7bd a075 d23b 4667 383a 9e41 9a3a
00000030: 606b 3e3d 6d27 bebc 57b4 b33d 2060 e03b
00000040: 2cc8 ee3c d985 23bd 5255 ebbc 11a4 40bd
00000050: 5277 dbbc d768 af3d 3608 4c3d b9bd 33bd
00000060: f764 43bd 280b 123d 14f5 be3c 58bf 7ebd
00000070: a873 203c 17a8 e13c a0ee c33d 0567 843d
00000080: 1681 89bb 5293 4c3d 40e4 8c3b 8892 17bc
00000090: cce1 513c d585 b9bd f55f 923d 99e4 943d
000000a0: 4fd6 aa3d b6b1 023d 945d 91bd a510 41bd
000000b0: cf20 e2bc 0088 af3c 2f3e a5bd aa53 633d
000000c0: 9023 f13c a81c 983c dda3 843d 1efc 493d
000000d0: 4315 bd3d a8f8 383c 52d7 4bbd ea77 f0bc
000000e0: c522 28bd b69d 3fbd 18c1 82bc 6d0a cd3c
000000f0: a09e 62bc 631e a8bd 8ea8 b4bd 05e9 cd3d
00000100: c055 803c ebbc 0cbd 10a5 9d3c 58b9 babc
00000110: 006d 123d d17e eabc 20dd eebd 6354 8f3d
00000120: 14dd aabc 1694 f53c a419 b0bd d053 f5bc
00000130: 6c59 4fbd 9e4c b7bc b267 433d d892 8abd
00000140: 965c e0bc 2cd5 9bbc 27ec 1c3d d052 963c
00000150: 69f3 993d 2293 1abd 0fd8 46bd e8a2 3d3c
00000160: 8917 843d 8ee6 83bd 1b71 80bd 990e cbbc
00000170: 3a5f 093d b388 983d 261b 88bd e966 86bc
00000180: ddca 41bd 7ee5 703d 306e 95bd c933 06bd
00000190: f493 c73d 2cbf e9bc 36c9 70bd cc7a abbd
000001a0: 7068 83bd 9ee7 98bd cd2c 7a3d 8a37 5dbd
000001b0: ab8c 9c3d 5594 833d 8f0f 95bd f929 ddbc
000001c0: dc52 f0bc 49f5 b2bb 07f3 ecbc 05da 6dbd
000001d0: 816a 323d 0c6b 48bd 1831 413c 4076 54bc
000001e0: 319d b03d 36ce b83c 00a6 58bc 1a48 c9bc
000001f0: 9caa 81bd 8c39 32bd dbec 72bd 2a22 3e3d
00000200: cc56 c13c 92e8 8fbd b277 063d 54b4 afbd
00000210: af7c 97bd f213 783d 3ad1 52bd a0eb 4cbc
00000220: f54a 1fbd 84c6 4dbd b05d ebbb 5859 443c
00000230: a789 9dbd e26d 4d3d c107 9ebd e253 45bd
00000240: 06e3 183d d0a0 5ebc 406a 913c 5946 afbd
00000250: 410f 893d 40ea 96bb 1f42 23bd e073 483c
00000260: b015 eabc e87e 9abc b89e 7cbc d4d2 833c
00000270: bef3 743d 63b0 aa3d 102e c8bb f42b 67bd
00000280: 66a1 213d 40cc a03b 3c94 8d3c 4fe8 8d3d
00000290: 9265 163d 5924 98bd 5d4f 85bd 9a03 673d
000002a0: 7e3d 1b3d 007f e53c 00cc 5439 39a1 b2bd
000002b0: 3ac2 2ebd 20e8 a7bd 16c0 90bd 082d 8fbc
000002c0: 1618 273d 5dcb a73d 0282 4b3d 204d b93b
000002d0: 7658 0b3d 8eb6 403d ffe0 973d e8b3 153d
000002e0: 3418 b83c 58e5 903c 00e2 c0bc 0c26 d33c
000002f0: c830 c43c d220 21bd 59a3 aabd a75f a3bd
00000300: 2841 87bc 8c1a c5bc 0037 593b 0c24 abbc
00000310: fcdb 95bc ebff 80bd 2eeb 323d e491 debc
00000320: ef3d 8e3d 7f9f ab3d 8090 8fbb 6ecd 82bd
00000330: 66a6 053d ac63 b73c 30cf 36bd 00da 19ba
00000340: e4a3 40bd 7a82 7d3d b528 06bd 8d0d b3bd
00000350: a3c2 47bd cc98 b3bc c6ff 1b3d ebb1 a63d
00000360: deb7 4d3d 8df0 9f3d 7680 87bd 65ef 5abd
00000370: 15ac 11bd 42e2 063d ca5f 3b3d ddb7 23bd
00000380: 3009 67bc 1187 903d eeaa 493d c09e 6dbd
00000390: f07a 963c 4a57 ffbc 6e4b 133d 5b5a 973d
000003a0: 0269 87bd 6387 abbd c59a 903d 086f 8fbc
000003b0: d253 263d 402f faba b017 013c a34b a53d
000003c0: 38c9 c9bc caed 353d 10ae 56bc aa1b 413d
000003d0: 506f 27bc b48b 9a3c b904 a43d 8c81 19bd
000003e0: c87e 693c a0e0 72bb a865 2bbd 4026 5a3b
000003f0: 582a 8bbd 1e44 9dbd 3daf 14bd d6ff 413d
-0.04032717 -0.023168594 -0.04239014 -0.018514618 0.07719617 0.037335828 -0.038835987 0.025621688
-0.08168706 0.0064227134 0.0007034432 0.0011768823 0.04648912 -0.023212159 0.087746315 0.0068473965
0.029148184 -0.03992257 -0.028727207 -0.047031466 -0.026790295 0.085649185 0.049812518 -0.043882105
-0.04770371 0.03565517 0.023310222 -0.0621942 0.0097932 0.027545972 0.095669985 0.06464962
-0.0041962964 0.049945183 0.0042996705 -0.009251244 0.012810182 -0.090587296 0.071472086 0.07270164
0.08341657 0.03190776 -0.07097927 -0.047135014 -0.027603535 0.021427155 -0.08068501 0.05549971
0.029435903 0.018568352 0.06476567 0.049312703 0.09232571 0.011289753 -0.049765892 -0.029354054
-0.041048784 -0.046781264 -0.015961215 0.025029385 -0.013831764 -0.08208921 -0.08821212 0.100542106
0.015665889 -0.034359854 0.019243747 -0.022793457 0.03574848 -0.028624924 -0.1166327 0.06998517
-0.020857371 0.02997784 -0.085986406 -0.029947191 -0.05062239 -0.022375401 0.047706313 -0.067662895
-0.027387898 -0.019022547 0.03831115 0.018350035 0.0751713 -0.037737973 -0.048545893 0.011574484
0.064498015 -0.06440459 -0.06271573 -0.024787234 0.03353808 0.07447948 -0.06645803 -0.016406493
-0.047312606 0.05881261 -0.07296407 -0.03276423 0.09745017 -0.02853354 -0.05878564 -0.08373031
-0.06416404 -0.074660525 0.06107788 -0.054008044 0.07644018 0.064247765 -0.07278358 -0.026997553
-0.029336385 -0.005461369 -0.028924478 -0.058069248 0.0435586 -0.048930213 0.01179149 -0.012967646
0.08623732 0.022559267 -0.013223171 -0.024570514 -0.06331369 -0.043511912 -0.059307914 0.0464193
0.023600958 -0.07026781 0.032828994 -0.08579317 -0.073968284 0.060565896 -0.051469065 -0.012507349
-0.038889844 -0.050238147 -0.0071827993 0.011984192 -0.07692271 0.05015362 -0.07716323 -0.0481757
0.03732588 -0.013588145 0.01775086 -0.085583396 0.066923626 -0.0046055615 -0.03985798 0.012234658
-0.028574795 -0.018859342 -0.015418701 0.016091742 0.059802763 0.08334424 -0.0061090067 -0.0564384
0.039460562 0.004907161 0.017282598 0.06929075 0.03671796 -0.07428808 -0.06509278 0.05639992
0.03790044 0.02801466 0.00020293891 -0.08722157 -0.042665698 -0.08198571 -0.070678875 -0.017477527
0.040794455 0.08193085 0.049684532 0.005654946 0.03401991 0.047049098 0.074159615 0.036548525
0.022472478 0.017687485 -0.023545265 0.025774978 0.023949042 -0.03933794 -0.08331937 -0.079772286
-0.016510561 -0.02406051 0.0033144355 -0.020891212 -0.018293373 -0.062988125 0.043681316 -0.027169175
0.06945407 0.08380031 -0.0043812394 -0.06386839 0.032629393 0.022386394 -0.044631183 -0.00058689713
-0.0470313 0.06189201 -0.032753665 -0.08742819 -0.048769604 -0.021923445 0.03808572 0.08139404
0.050224178 0.07809553 -0.06616299 -0.05345096 -0.0355645 0.03293062 0.04574565 -0.039970268
-0.014101312 0.07057012 0.049235277 -0.058012724 0.018369168 -0.031169552 0.035960607 0.07390281
-0.066118255 -0.08375432 0.0706077 -0.017508999 0.04060728 -0.0019087568 0.007879183 0.08071067
-0.024632081 0.044416226 -0.013103023 0.047145523 -0.01021941 0.018865444 0.08008713 -0.03747706
0.014251418 -0.0037060156 -0.041844994 0.003328696 -0.06795186 -0.07679008 -0.036299933 0.047363125

fc2.bias f4 [64]
00000000: 33e4 6ebd 6c79 acbd a23e 6b3d 448f 5dbd
00000010: 60f9 1c3c b1bd 4abd b401 afbc ccd6 ec3c
00000020: 17e0 44bd 4614 8c3c bbf4 0d3d 5e3d b3bd
00000030: 88c2 ab3d b5f3 45bd 9f10 9c3d 8755 8b3d
00000040: 0e04 c7ba 2aaa 3abc 1918 a4bd 3a40 823d
00000050: 4768 bcbd 6cd4 11bd c91b bbbd f83e eb3b
00000060: 65e2 87bd 51a4 94bd d8f6 d7bc 0c0a 833c
00000070: a15f 90bd 3725 34bd b6cc 8fbd 3a4a 4a3d
00000080: ed6f 79bc d047 b7bb 6fe7 5e3c d17c 92bd
00000090: 2223 563d 61af 08bd ad7b 413d 69ec a3bd
000000a0: 116c 9dbd 6c03 c1bc e81b 343c 7972 6ebd
000000b0: aa36 b93c 4d79 74bd e25a cabc 0070 63bb
000000c0: 66a3 dfbb 6255 babd 1f64 993d 725b a0bd
000000d0: 7189 e13c 49a0 943d 597b 853d 48d3 a63c
000000e0: b600 443d 9cec 033d 4145 9c3d 0efe 3f3d
000000f0: bc5c 90bd b96f 37bd 654c 87bd d857 7dbd
-0.058323096 -0.08421597 0.05743278 -0.054091707 0.00958094 -0.04949731 -0.021363117 0.028911017
-0.04806527 0.01709951 0.03465722 -0.08751939 0.08386713 -0.04832812 0.07620358 0.068034224
-0.0015183704 -0.011393109 -0.08012409 0.063599065 -0.09199577 -0.035602972 -0.09136159 0.0071791373
-0.06634978 -0.07257903 -0.026362821 0.015996002 -0.0704949 -0.043980803 -0.070214674 0.049387194
-0.015224439 -0.0055932775 0.013604983 -0.07152713 0.0522796 -0.03337038 0.047237087 -0.08004076
-0.07686628 -0.023561202 0.0109929815 -0.05821464 0.022609074 -0.059685994 -0.02470154 -0.0034704208
-0.0068248985 -0.09098317 0.074898 -0.07829942 0.027531357 0.072571345 0.06517667 0.020364419
0.04785224 0.03220807 0.07630397 0.046873145 -0.07048938 -0.04478428 -0.06606368 -0.061851352

fc3.weight f4 [24, 64]
00000000: 89d5 26bc 4e27 ddbd 502a f8bd 8f7d a4bd
00000010: 0ae9 a0bd b841 6e3d 1348 bf3d 28ce 073d
00000020: 6230 4f3d 6624 1c3e 010f e6bb 5573 e43d
00000030: 2b63 cabd fd32 b1bd 40fb 15bb 72b1 edbc
00000040: 0e8d 473c 3de7 033e 94a8 01bd 2677 e13b
00000050: 7f67 b8bd aa5a 00bb 865b ea3d 7e7e 943b
00000060: 37a0 3c3d 953f 8a3d 1884 b9bd 2aaa bf3d
00000070: 4471 a4bd 9c86 9fbd eac9 92bd c062 f0bb
00000080: ce29 1c3c 52b9 a4bd 7073 7fbd 103c 793d
00000090: be53 a5bd a81c f83c 9980 80bd 5dc3 a43d
000000a0: fa0e 6c3d e840 89bd 05cc 883d 3163 a3ba
000000b0: fb86 d2bd e368 4a3d 351f 7abd c05e 70bb
000000c0: 208e 8e3d 2517 32bd 4c33 a1bd a0b2 9bbc
000000d0: 0029 6abe a73d 023e a067 2a3d d6b3 833d
000000e0: 98ef 70bd a0d1 40be 10d9 a93d 3806 37bd
000000f0: eaf2 88bd ecad 82bd e011 ee3b c439 b9bd
00000100: 7603 00be c85e 3f3d 0cec be3d 9cba 713c
00000110: 10bf f9bc 928c 7fbd 74c6 d43d ecae fdbd
00000120: b301 133d 3796 4ebd f661 2cbd 0a45 d2bd
00000130: 921c 433d a234 9e3d 7898 d23d 05e8 583d
00000140: 33b4 d53d a22e d9bd a004 903d b57a f2bc
00000150: 1c9f f23c 32cf f33c 7b6d 06be ea66 29bd
00000160: 8341 c0bd 0601 94bd 88b1 e3bd 587e d63d
00000170: b193 9cbc 4bd4 6bbc 0dff c9bd 806c e83a
00000180: 0b73 df3c 800d 1dbd ba16 88bd 36f9 b03d
00000190: 000d babb 26de d93d 29ed 9d3d c8a6 173c
000001a0: 6404 8d3d 2850 edbc 5410 933c b2a7 6a3d
000001b0: 2357 12bd f6df c6bc 6ab6 15bb b2b1 efbd
000001c0: 453b 8d3d 6fa9 e03c d833 02bd 4a93 943d
000001d0: b3ab 1737 33cf 31bd 60aa 4e3c b48c e83d
000001e0: b8a0 9b3c d62f e2bd 24fe c0bd 4064 a8bc
000001f0: 7c98 debd be95 a03d 0079 91bb 3ec9 a8bd
00000200: f8c7 963d 8232 873d b431 b83d ca5b 943d
00000210: bc8b e1bd 8395 be3d 7ec3 ccbc 2c3b 22bd
00000220: 759e 1ebd 3e50 87bd 9974 d63c d474 a73a
00000230: 5561 9ebc 56b0 58bd 5acb a53d 1c90 3c3d
00000240: 1493 813d c995 cf3d a342 38bc b773 c63d
00000250: d333 05be 37c0 e63b 0808 d2bd 2d75 f9bd
00000260: 2a89 89bd 8a1e 3ebd 20b3 453d 8880 e23d
00000270: f0c2 4b3d 63f5 ebbc d8ec f5bd 28c2 913c
00000280: 0c98 69bd 9007 61bd a8c3 85bb dc51 8ebd
00000290: 4c3f 61bd d8e8 d53d 45f9 acbd 50cd b6bd
000002a0: 41c3 e8bd a845 d5bd f639 f53c 02e5 01bd
000002b0: 1325 9c3d 821a e6bd d443 a13d f4d6 b3bd
000002c0: 77f8 5e3d 6cf7 d5bd 206f 97bd f7ad 9e3c
000002d0: 8d78 7abb 9f82 0b3d c4ce a3bd 2855 be3d
000002e0: 3491 00bd be9b 95bd 7cc2 913d 34e0 c33d
000002f0: 3c80 1f3d 2007 703c 98c4 43bd 40b5 b6bc
00000300: d336 27bd d0c3 df3c dc77 c53d d0b3 f53d
00000310: 741f b7bd 7250 5c3b e862 aa3d c0ba 563d
00000320: 18fc b3bd f459 933d 05ad b93d 2235 bfbc
00000330: dbd3 47bd 8b01 c73d ac73 96bd 06c8 d73d
00000340: fb90 afbd 4326 bebd 8ed1 9d3d 8d06 b43d
00000350: cf6e a5bd 6244 22bd 61b1 013d 254c 4c3d
00000360: e2ae 83bd 0cf3 2bbd 30da 7fbd e067 8dbd
00000370: 05fb 5f3d 08bc 203c cb0b 06bd 0015 5d3b
00000380: 49ab bf3d ae8e c43d a9bb 123d 6868 863c
00000390: 1813 4abd a454 e9bd 1b31 2e3d 1a19 8dbd
000003a0: 3828 5bbd d29f fdbd 1663 4fbd 49ae 97bd
000003b0: f6ef bdbd bd1a 873c e870 80bd 8489 363d
000003c0: 63b6 663d 3fc3 a6bc 404a 2c3b f12f 75bc
000003d0: 0b28 393e b682 9d3d 980d d03c cc34 f3bd
000003e0: d029 cbbd 596c c5bd 90a0 cbbd a0e1 7ebc
000003f0: 4c5e 34bd 6801 aebc 1ced 79bd 6ed9 a23d
-0.010182747 -0.107985124 -0.121174455 -0.08031761 -0.07856949 0.058168143 0.09339919 0.03315559
0.05058325 0.1524826 -0.0070208316 0.1115481 -0.09882196 -0.08652303 -0.0022885352 -0.029015277
0.012179626 0.12881179 -0.03165491 0.0068806587 -0.09004115 -0.001958529 0.11443238 0.0045316806
0.04605123 0.067504086 -0.09058398 0.09358628 -0.08029416 -0.077893466 -0.07167418 -0.0073359907
0.009531451 -0.080431595 -0.06236595 0.060848296 -0.08072613 0.030287102 -0.06274528 0.08045075
0.05763147 -0.06701833 0.06679539 -0.0012465474 -0.10279652 0.049416434 -0.061064918 -0.003667757
0.06960702 -0.043479104 -0.07871112 -0.019006073 -0.22867203 0.12718831 0.04160273 0.06430785
-0.058822244 -0.18829966 0.082933545 -0.044683665 -0.06686957 -0.06380829 0.0072653145 -0.09044221
-0.1250132 0.04672125 0.09322366 0.014753964 -0.030486614 -0.062389918 0.103894144 -0.12386879
0.035890292 -0.050436225 -0.04208561 -0.102670744 0.04763467 0.07724883 0.10282987 0.052955646
0.10434761 -0.10604598 0.07032132 -0.029599527 0.029616885 0.029761884 -0.13127701 -0.041357912
-0.09387495 -0.07226758 -0.11117846 0.10473317 -0.019113394 -0.014393876 -0.098631 0.0017732531
0.027276536 -0.038342953 -0.0664496 0.08641283 -0.0056778193 0.106380746 0.0771125 0.009256072
0.06885603 -0.028968886 0.017952122 0.057288833 -0.03572763 -0.024276715 -0.0022844323 -0.117038146
0.068960704 0.027424542 -0.031787723 0.07254656 9.040278e-06 -0.04341049 0.012613863 0.11354962
0.018997535 -0.1104428 -0.094234735 -0.020555615 -0.10868928 0.07841061 -0.004439473 -0.08241509
0.0736236 0.066014305 0.08993855 0.0724407 -0.1101298 0.09305861 -0.024995562 -0.039607212
-0.038725335 -0.06607102 0.026178645 0.0012775906 -0.01933352 -0.052902542 0.08095427 0.04603587
0.06326881 0.10135991 -0.011246356 0.096900396 -0.1300805 0.0070419568 -0.10255438 -0.12180553
-0.06715615 -0.046415843 0.04826653 0.11059672 0.049746454 -0.028803533 -0.12008065 0.017792776
-0.05702977 -0.054938853 -0.004082162 -0.06949207 -0.054992005 0.10444802 -0.08445982 -0.08925879
-0.11365367 -0.104136765 0.029934864 -0.03171254 0.07624259 -0.11235525 0.07874265 -0.087812334
0.054436173 -0.104475826 -0.07394242 0.019370062 -0.0038218827 0.034060117 -0.07998422 0.09293586
-0.031388476 -0.07305096 0.07117173 0.09564248 0.038940653 0.014650136 -0.04779491 -0.022303224
-0.04082377 0.02731505 0.09642002 0.11997187 -0.08941546 0.0033617285 0.08319646 0.052424192
-0.087883174 0.071948916 0.09066204 -0.023340765 -0.048786025 0.09717091 -0.073462814 0.10536198
-0.08572575 -0.092846416 0.07705985 0.08790312 -0.08077776 -0.039615996 0.031663302 0.049877305
-0.064298406 -0.041979834 -0.06246394 -0.06904578 0.05468275 0.009810455 -0.03272609 0.003373444
0.09358842 0.095975265 0.035823498 0.016407207 -0.049334615 -0.11393097 0.0425273 -0.06889553
-0.053505152 -0.12383999 -0.050631605 -0.07406289 -0.092742845 0.016492242 -0.06271535 0.04456474
0.05632628 -0.020356772 0.0026289374 -0.014965043 0.18081681 0.07690947 0.025397107 -0.118753046
-0.099200845 -0.09639806 -0.09942734 -0.015556723 -0.04403524 -0.021240905 -0.06101714 0.07951628

fc3.bias f4 [24]
00000000: d113 913d ae0b 3f3d 1fa7 c3bd c32c 8fbb
00000010: ce45 9f3d a82c cebd b336 f2bd 3be5 3c3d
00000020: 8f74 153d e356 973d abb7 023d 4cd4 b03d
00000030: e8dd d63d 0e92 babd 4150 01be 1359 b73b
00000040: de87 ff3d d3bb f83d 4622 b2bb 1ad2 abbd
00000050: b057 07bd 7c21 0c3d b5f6 4ebd d649 0a3b
0.07083858 0.046641998 -0.0955336 -0.0043693497 0.07776986 -0.10067111 -0.11826839 0.04611705
0.036488112 0.07389619 0.03191344 0.086342424 0.10491544 -0.09109889 -0.1262827 0.0055953353
0.124770865 0.121451996 -0.0054362146 -0.08389683 -0.03304261 0.03421162 -0.050528247 0.0021101139

exp_avg f4 [128, 24]
00000000: 0000 0000 0000 0000 0000 0000 0000 0000
00000010: 0000 0000 0000 0000 0000 0000 0000 0000
00000020: 0000 0000 0000 0000 0000 0000 0000 0000
00000030: 0000 0000 0000 0000 0000 0000 0000 0000
00000040: 0000 0000 0000 0000 0000 0000 0000 0000
00000050: 0000 0000 0000 0000 0000 0000 0000 0000
00000060: 44b5 0137 3c41 0338 dc14 6638 1276 a438
00000070: b0e1 d538 75a4 0339 165a 1c39 a20f 3539
00000080: acc4 4d39 947a 6639 3a2b 7f39 c7ef 8b39
00000090: b34c 9839 3aa7 a439 3f00 b139 005c bd39
000000a0: 26b5 c939 9413 d639 4303 853a 041f 0c39
000000b0: 5788 103a 5788 103a 5788 103a 5788 103a
000000c0: 0000 0000 0000 0000 0000 0000 0000 0000
000000d0: 0000 0000 0000 0000 0000 0000 0000 0000
000000e0: 0000 0000 0000 0000 0000 0000 0000 0000
000000f0: 0000 0000 0000 0000 0000 0000 0000 0000
00000100: 0000 0000 0000 0000 0000 0000 0000 0000
00000110: 0000 0000 0000 0000 0000 0000 0000 0000
00000120: 0000 0000 0000 0000 0000 0000 0000 0000
00000130: 0000 0000 0000 0000 0000 0000 0000 0000
00000140: 0000 0000 0000 0000 0000 0000 0000 0000
00000150: 0000 0000 0000 0000 0000 0000 0000 0000
00000160: 0000 0000 0000 0000 0000 0000 0000 0000
00000170: 0000 0000 0000 0000 0000 0000 0000 0000
00000180: 0000 0000 0000 0000 0000 0000 0000 0000
00000190: 0000 0000 0000 0000 0000 0000 0000 0000
000001a0: 0000 0000 0000 0000 0000 0000 0000 0000
000001b0: 0000 0000 0000 0000 0000 0000 0000 0000
000001c0: 0000 0000 0000 0000 0000 0000 0000 0000
000001d0: 0000 0000 0000 0000 0000 0000 0000 0000
000001e0: 62cd 3db7 fd47 66b7 0e5f 87b7 499a 9bb7
000001f0: 0fdf afb7 4d0f c4b7 ae55 d8b7 4d8e ecb7
00000200: 126b 00b8 428a 0ab8 f098 14b8 85bc 1eb8
00000210: 36eb 28b8 5802 33b8 791d 3db8 4e2a 47b8
00000220: 3158 51b8 d577 5bb8 d610 83b9 5cbd 1038
00000230: 9dea aab8 9dea aab8 9dea aab8 9dea aab8
00000240: 0400 0000 0400 0000 0400 0000 0400 0000
00000250: 0400 0000 0400 0000 0400 0000 0400 0000
00000260: 0400 0000 0400 0000 0400 0000 0400 0000
00000270: 0400 0000 0400 0000 0400 0000 0400 0000
00000280: 0400 0000 0400 0000 0400 0000 0400 0000
00000290: 0400 0000 0400 0000 0400 0000 0400 0000
000002a0: 0400 0000 0400 0000 0400 0000 0400 0000
000002b0: 0400 0000 0400 0000 0400 0000 0400 0000
000002c0: 0400 0000 0400 0000 0400 0000 0400 0000
000002d0: 0400 0000 0400 0000 0400 0000 0400 0000
000002e0: 0400 0000 0400 0000 0400 0000 0400 0000
000002f0: 0400 0000 0400 0000 0400 0000 0400 0000
00000300: 1bf1 1238 1bf1 9238 cb65 dc38 1bf1 1239
00000310: e4ab 3739 cb65 5c39 eb93 8039 1bf1 9239
00000320: 934d a539 e4ab b739 4109 ca39 cb65 dc39
00000330: c0c2 ee39 eb93 003a 78c1 093a 1bf1 123a
00000340: 6c1e 1c3a 934d 253a 89b1 5f3a 474d 153a
00000350: d397 653a d397 653a d397 653a d397 653a
00000360: 52a2 0a38 5056 6838 4f04 a338 f3de d138
00000370: ea5b 0039 83c8 1739 3735 2f39 dda2 4639
00000380: d50e 5e39 5c7b 7539 ad74 8639 832a 9239
00000390: cfe1 9d39 4797 a939 3c4e b539 0705 c139
000003a0: 67ba cc39 5670 d839 128f fb39 326f f639
000003b0: a618 193a a618 193a a618 193a a618 193a
000003c0: 65bf 1736 b588 9336 304e db36 d057 1137
000003d0: 105e 3537 6c1d 5937 90f5 7c37 0a45 9037
000003e0: 913c a237 f130 b437 5eec c537 70f3 d737
000003f0: 8402 ea37 58f4 fb37 a9e6 0638 54c4 0f38
0.0 0.0 0.0 0.0 0.0 0.0 0.0 0.0
0.0 0.0 0.0 0.0 0.0 0.0 0.0 0.0
0.0 0.0 0.0 0.0 0.0 0.0 0.0 0.0
7.731203e-06 3.1293588e-05 5.48557e-05 7.842122e-05 0.00010198669 0.00012554399 0.00014910879 0.00017267329
0.0001962359 0.00021980173 0.00024334798 0.00026690794 0.00029048845 0.0003140511 0.00033760254 0.00036117435
0.00038472674 0.00040831848 0.0010148067 0.00013362995 0.000551348 0.000551348 0.000551348 0.000551348
0.0 0.0 0.0 0.0 0.0 0.0 0.0 0.0
0.0 0.0 0.0 0.0 0.0 0.0 0.0 0.0
0.0 0.0 0.0 0.0 0.0 0.0 0.0 0.0
0.0 0.0 0.0 0.0 0.0 0.0 0.0 0.0
0.0 0.0 0.0 0.0 0.0 0.0 0.0 0.0
0.0 0.0 0.0 0.0 0.0 0.0 0.0 0.0
0.0 0.0 0.0 0.0 0.0 0.0 0.0 0.0
0.0 0.0 0.0 0.0 0.0 0.0 0.0 0.0
0.0 0.0 0.0 0.0 0.0 0.0 0.0 0.0
-1.1313097e-05 -1.3725829e-05 -1.6137517e-05 -1.8549285e-05 -2.0965495e-05 -2.3372146e-05 -2.5789104e-05 -2.8199656e-05
-3.0617295e-05 -3.3030527e-05 -3.5428384e-05 -3.7845708e-05 -4.027338e-05 -4.267911e-05 -4.508856e-05 -4.7484697e-05
-4.9911618e-05 -5.232527e-05 -0.0002499881 3.450863e-05 -8.149932e-05 -8.149932e-05 -8.149932e-05 -8.149932e-05
6e-45 6e-45 6e-45 6e-45 6e-45 6e-45 6e-45 6e-45
6e-45 6e-45 6e-45 6e-45 6e-45 6e-45 6e-45 6e-45
6e-45 6e-45 6e-45 6e-45 6e-45 6e-45 6e-45 6e-45
6e-45 6e-45 6e-45 6e-45 6e-45 6e-45 6e-45 6e-45
6e-45 6e-45 6e-45 6e-45 6e-45 6e-45 6e-45 6e-45
6e-45 6e-45 6e-45 6e-45 6e-45 6e-45 6e-45 6e-45
3.503366e-05 7.006732e-05 0.00010509378 0.00014013464 0.00017516274 0.00021018756 0.0002452427 0.00028026928
0.0003152905 0.00035032548 0.00038535337 0.00042037512 0.00045539998 0.0004904854 0.00052549643 0.00056053855
0.0005955461 0.000630581 0.00085332297 0.0005695414 0.00087582803 0.00087582803 0.00087582803 0.00087582803
3.3052936e-05 5.5393495e-05 7.773248e-05 0.00010007424 0.00012241272 0.00014475179 0.00016709125 0.00018943423
0.00021177095 0.00023410976 0.00025645402 0.00027878964 0.00030113614 0.00032346902 0.000345813 0.00036815574
0.00039048793 0.00041282427 0.00047981046 0.00047003623 0.000584016 0.000584016 0.000584016 0.000584016
2.261216e-06 4.396856e-06 6.535811e-06 8.663119e-06 1.0810341e-05 1.2941058e-05 1.5077545e-05 1.7198287e-05
1.9340108e-05 2.1480462e-05 2.3594297e-05 2.5743357e-05 2.7896145e-05 3.0035313e-05 3.216291e-05 3.42767e-05

exp_avg_sq f4 [128, 24]
00000000: 0000 0000 0000 0000 0000 0000 0000 0000
00000010: 0000 0000 0000 0000 0000 0000 0000 0000
00000020: 0000 0000 0000 0000 0000 0000 0000 0000
00000030: 0000 0000 0000 0000 0000 0000 0000 0000
00000040: 0000 0000 0000 0000 0000 0000 0000 0000
00000050: 0000 0000 0000 0000 0000 0000 0000 0000
00000060: 6175 153a b89b 163b 2a21 b03b 8694 203c
00000070: 3b32 7f3c 32f5 b93c 625e ff3c 3eea 273d
00000080: d1ab 553d 0c7a 843d 3de1 a03d dc0b c03d
00000090: c9f9 e13d 7155 033e 930f 173e 8e2b 2c3e
000000a0: d8a8 423e 0988 5a3e 0cea 783e 5155 973e
000000b0: 4e63 cf3e 4e63 cf3e 4e63 cf3e 4e63 cf3e
000000c0: 0000 0000 0000 0000 0000 0000 0000 0000
000000d0: 0000 0000 0000 0000 0000 0000 0000 0000
000000e0: 0000 0000 0000 0000 0000 0000 0000 0000
000000f0: 0000 0000 0000 0000 0000 0000 0000 0000
00000100: 0000 0000 0000 0000 0000 0000 0000 0000
00000110: 0000 0000 0000 0000 0000 0000 0000 0000
00000120: 0000 0000 0000 0000 0000 0000 0000 0000
00000130: 0000 0000 0000 0000 0000 0000 0000 0000
00000140: 0000 0000 0000 0000 0000 0000 0000 0000
00000150: 0000 0000 0000 0000 0000 0000 0000 0000
00000160: 0000 0000 0000 0000 0000 0000 0000 0000
00000170: 0000 0000 0000 0000 0000 0000 0000 0000
00000180: 0000 0000 0000 0000 0000 0000 0000 0000
00000190: 0000 0000 0000 0000 0000 0000 0000 0000
000001a0: 0000 0000 0000 0000 0000 0000 0000 0000
000001b0: 0000 0000 0000 0000 0000 0000 0000 0000
000001c0: 0000 0000 0000 0000 0000 0000 0000 0000
000001d0: 0000 0000 0000 0000 0000 0000 0000 0000
000001e0: 2c66 6a3b 05da 063c e9e3 753c a5db c33c
000001f0: ef14 0f3d 9fee 443d 32bd 813d 725c a53d
00000200: db54 cd3d 55a6 f93d 8328 153e 87aa 2f3e
00000210: f858 4c3e 1634 6b3e f31d 863e 26b8 973e
00000220: 8f68 aa3e 3c2f be3e a66e dc3e 8163 033f
00000230: a8c3 413f a8c3 413f a8c3 413f a8c3 413f
00000240: b4c6 c53a 784e d23b 1092 7a3c ad7c e63c
00000250: 1317 383d 9597 863d 2543 b93d 460e f43d
00000260: 787c 1b3e 8c01 413e 5c96 6a3e 861d 8c3e
00000270: adf7 a43e d5d9 bf3e d6c3 dc3e a5b5 fb3e
00000280: c857 0e3f 8dd8 1f3f b2f5 3a3f d758 623f
00000290: e723 973f e723 973f e723 973f e723 973f
000002a0: ed53 3e39 ed53 3e3a 7d1e d63a ed53 3e3b
000002b0: 86b1 943b 7d1e d63b 42b8 113c ed53 3e3c
000002c0: 5ae2 703c 86b1 943c 45eb b33c 7d1e d63c
000002d0: d84a fb3c 42b8 113d b947 273d ed53 3e3d
000002e0: c8dc 563d 5ae2 703d c3ba 8b3d f5e7 ac3d
000002f0: 8055 e83d 8055 e83d 8055 e83d 8055 e83d
00000300: 1e73 793b 1e73 793c b950 0c3d 1e73 793d
00000310: cae1 c23d b950 0c3e 21fc 3e3e 1e73 793e
00000320: c7da 9d3e cae1 c23e b5ce eb3e b950 0c3f
00000330: ffac 243f 21fc 3e3f 263e 5b3f 1e73 793f
00000340: 85cd 8c3f c7da 9d3f 9f4c b73f 05f3 da3f
00000350: 6940 1840 6940 1840 6940 1840 6940 1840
00000360: 8679 e43b 126d ba3c 6426 433d 5b2f a73d
00000370: 9a6f ff3d 2a2a 353e 6fee 733e 8402 9e3e
00000380: dbb6 c63e 3e14 f43e 340d 133f 0d65 2e3f
00000390: 5811 4c3f 0312 6c3f c433 873f b188 993f
000003a0: e807 ad3f 50b1 c13f 894c e13f d436 0640
000003b0: 0d45 3e40 0d45 3e40 0d45 3e40 0d45 3e40
000003c0: 5656 823a 2d4e 243b e042 a03b 8a74 053c
000003d0: d80c 493c 3375 8d3c 7786 bd3c 7dba f43c
000003e0: 7488 193d 0845 3c3d c992 623d f938 863d
000003f0: 39f1 9c3d 1b72 b53d 70bb cf3d ddcd eb3d
0.0 0.0 0.0 0.0 0.0 0.0 0.0 0.0
0.0 0.0 0.0 0.0 0.0 0.0 0.0 0.0
0.0 0.0 0.0 0.0 0.0 0.0 0.0 0.0
0.000570139 0.0022981 0.005375047 0.009801036 0.015575941 0.022699926 0.031172935 0.040994875
0.05216581 0.06468591 0.07855461 0.09377262 0.11033971 0.12825562 0.14752035 0.1681349
0.19009721 0.21340956 0.24308032 0.2955728 0.4050545 0.4050545 0.4050545 0.4050545
0.0 0.0 0.0 0.0 0.0 0.0 0.0 0.0
0.0 0.0 0.0 0.0 0.0 0.0 0.0 0.0
0.0 0.0 0.0 0.0 0.0 0.0 0.0 0.0
0.0 0.0 0.0 0.0 0.0 0.0 0.0 0.0
0.0 0.0 0.0 0.0 0.0 0.0 0.0 0.0
0.0 0.0 0.0 0.0 0.0 0.0 0.0 0.0
0.0 0.0 0.0 0.0 0.0 0.0 0.0 0.0
0.0 0.0 0.0 0.0 0.0 0.0 0.0 0.0
0.0 0.0 0.0 0.0 0.0 0.0 0.0 0.0
0.0035766466 0.008230691 0.015007951 0.023908446 0.034932073 0.04807913 0.06334914 0.08074273
0.100259505 0.121899284 0.14566235 0.17154895 0.19955814 0.22969088 0.26194724 0.29632682
0.33282897 0.37145412 0.43053168 0.51323706 0.7568917 0.7568917 0.7568917 0.7568917
0.0015089125 0.0064180456 0.015293613 0.028135622 0.04494388 0.06571881 0.0904601 0.11916785
0.151842 0.18848246 0.2290892 0.27366275 0.32220212 0.3747088 0.4311816 0.4916202
0.55602694 0.62439805 0.7303115 0.8841681 1.1807832 1.1807832 1.1807832 1.1807832
0.00018151077 0.0007260431 0.001633599 0.0029041723 0.004537764 0.006534396 0.008894028 0.011616689
0.014702404 0.018151056 0.021962771 0.026137585 0.030675337 0.035576113 0.040839884 0.046466757
0.052456647 0.058809616 0.06822731 0.0844268 0.11344433 0.11344433 0.11344433 0.11344433
0.0038063 0.0152252 0.03425667 0.0609008 0.09515722 0.13702668 0.18650867 0.2436032
0.30830976 0.38062888 0.46056142 0.54810673 0.6432647 0.7460347 0.85641706 0.9744128
1.100022 1.233239 1.4320258 1.7105414 2.3789313 2.3789313 2.3789313 2.3789313
0.0069724945 0.022757087 0.047644034 0.08163329 0.12472458 0.17691866 0.23821424 0.30861294
0.38811383 0.47671694 0.5744202 0.6812294 0.79713964 0.92214984 1.0562673 1.199484
1.3518038 1.5132236 1.7601482 2.0970964 2.9729645 2.9729645 2.9729645 2.9729645
0.0009943943 0.002507101 0.0048907846 0.008145461 0.012271129 0.017267799 0.023135407 0.02987408
0.037483647 0.04596427 0.055315766 0.065538354 0.07663197 0.088596545 0.10143173 0.11513875

exp_avg f4 [128]
00000000: 0000 0000 8303 b937 0000 0000 0000 0000
00000010: 0000 0000 30da 5ab6 0400 0000 0400 0000
00000020: f6f1 1238 6ef5 c337 9306 1036 9d57 adb7
00000030: 0013 9c36 20d4 edb3 0000 0000 0400 0000
00000040: 0000 0000 0400 0000 0000 0000 54aa d9b4
00000050: 0000 0000 7621 af36 0000 0000 0000 0000
00000060: 877e 8d37 0000 0000 0000 0000 0400 0000
00000070: 0000 0000 d1c5 acb6 df4d b237 0000 0000
00000080: 825d 5c37 8f94 a1b7 0400 0000 0400 0000
00000090: adb3 acb7 0ea4 9cb6 0000 0000 1677 4238
000000a0: 0000 0000 fc6b 8fb7 0400 0000 0400 0000
000000b0: ae78 b836 b781 1db7 0400 0000 0000 0000
000000c0: 0000 0000 0000 0000 0000 0000 0000 0000
000000d0: cab0 e7b6 0000 0000 56e2 fc34 0400 0000
000000e0: 0400 0000 0000 0000 0000 0000 ba8b a2b7
000000f0: 0400 0000 0000 0000 0400 0000 7b3f 17b8
00000100: 1ff8 aeb7 0400 0000 0000 0000 8f6e 8ab7
00000110: 64d9 89b7 f8f3 8cb5 6440 1238 0000 0000
00000120: 0000 0000 467a 7bb7 43db a9b7 0000 0000
00000130: 0400 0000 0400 0000 0000 0000 0000 0000
00000140: e9f7 a237 0000 0000 0400 0000 ca07 a6b6
00000150: 0000 0000 0000 0000 23b2 a637 0000 0000
00000160: 9645 9337 0000 0000 0000 0000 1175 09b8
00000170: 0000 0000 2905 1bb8 0000 0000 3028 13b5
00000180: 0000 0000 0000 0000 625e cb37 ecca 8e38
00000190: 78e9 a4b7 0000 0000 0400 0000 0000 0000
000001a0: 0000 0000 a075 2db7 59c8 a7b6 0000 0000
000001b0: 0400 0000 0000 0000 a9d1 a337 8c05 0d37
000001c0: 0400 0000 e828 3935 802a 53b7 cc84 c3b3
000001d0: 0e01 6e37 0000 0000 0000 0000 0000 0000
000001e0: 4723 85b7 7c95 e237 0000 0000 baf4 4237
000001f0: 45c2 3db7 5527 aa37 8bce 3fb6 0000 0000
0.0 2.2055354e-05 0.0 0.0 0.0 -3.2611533e-06 6e-45 6e-45
3.5034456e-05 2.3360099e-05 2.1461499e-06 -2.0664005e-05 4.651374e-06 -1.1074758e-07 0.0 6e-45
0.0 6e-45 0.0 -4.054333e-07 0.0 5.219302e-06 0.0 0.0
1.6867429e-05 0.0 0.0 6e-45 0.0 -5.1490283e-06 2.1255515e-05 0.0
1.3134793e-05 -1.9261874e-05 6e-45 6e-45 -2.0587666e-05 -4.6682608e-06 0.0 4.636411e-05
0.0 -1.7097213e-05 6e-45 6e-45 5.4976763e-06 -9.388131e-06 6e-45 0.0
0.0 0.0 0.0 0.0 -6.9049174e-06 0.0 4.710334e-07 6e-45
6e-45 0.0 0.0 -1.937697e-05 6e-45 0.0 6e-45 -3.6060326e-05
-2.0857957e-05 6e-45 0.0 -1.6502365e-05 -1.6432903e-05 -1.0501817e-06 3.486908e-05 0.0
0.0 -1.4989235e-05 -2.0248472e-05 0.0 6e-45 6e-45 0.0 0.0
1.9427347e-05 0.0 6e-45 -4.9480923e-06 0.0 0.0 1.9871693e-05 0.0
1.7556169e-05 0.0 0.0 -3.2772372e-05 0.0 -3.6959686e-05 0.0 -5.482025e-07
0.0 0.0 2.4243436e-05 6.808885e-05 -1.965904e-05 0.0 6e-45 0.0
0.0 -1.033899e-05 -5.0003114e-06 0.0 6e-45 0.0 1.9528745e-05 8.405546e-06
6e-45 6.8977397e-07 -1.2586475e-05 -9.104551e-08 1.4186151e-05 0.0 0.0 0.0
-1.5871263e-05 2.7010909e-05 0.0 1.1620281e-05 -1.131051e-05 2.0283895e-05 -2.8581442e-06 0.0

exp_avg_sq f4 [128]
00000000: 0000 0000 64e4 293a 0000 0000 0000 0000
00000010: 0000 0000 40bb 9e3a cda0 f73a ef53 3e39
00000020: 1e73 793b 72de 9b3b 724c f039 5837 853b
00000030: b265 0e39 2e3a 6336 0000 0000 9d5a 7732
00000040: 0000 0000 1730 8038 0000 0000 42cd 9737
00000050: 0000 0000 4b86 2c3c 0000 0000 0000 0000
00000060: 9347 613a 0000 0000 0000 0000 bb20 6734
00000070: 0000 0000 fb08 473b e609 133c 0000 0000
00000080: ecfe 5e3a b456 203b c377 1935 74e6 8e34
00000090: e615 a73a c9a7 2e37 0000 0000 ee32 953b
000000a0: 0000 0000 8afd f53a 5a0e 8f39 3123 063a
000000b0: 79d2 a93a 64ad e439 994b 6835 0000 0000
000000c0: 0000 0000 0000 0000 0000 0000 0000 0000
000000d0: e4e0 413a 0000 0000 b12c 6337 bcc8 0f3a
000000e0: faa8 f935 0000 0000 0000 0000 06ce 653a
000000f0: 3e40 9236 0000 0000 9054 2b35 e0e7 553b
00000100: b065 933a b052 6c3a 0000 0000 376c 5439
00000110: 1c94 393a 7df0 0d3a 228e a13a 0000 0000
00000120: 0000 0000 cd1c 5a3a df73 033a 0000 0000
00000130: abc0 8934 0ebc 193b 0000 0000 0000 0000
00000140: 0b15 413a 0000 0000 7ce4 3436 6fdc fe3a
00000150: 0000 0000 0000 0000 1d33 1b3b 0000 0000
00000160: c50e f53b 0000 0000 0000 0000 bb85 383a
00000170: 0000 0000 b23a d23a 0000 0000 ea53 1c3a
00000180: 0000 0000 0000 0000 76a9 563a 8703 7c3a
00000190: 61a4 0a3c 0000 0000 1ddc 463a 0000 0000
000001a0: 0000 0000 7373 803b dbe5 883b 0000 0000
000001b0: 65f4 953a 0000 0000 17ef b53b cf40 003b
000001c0: 6b77 5836 5ca9 9534 7238 183b e343 e33a
000001d0: 0c0f b93b 0000 0000 0000 0000 0000 0000
000001e0: dc69 423a 7307 2d3a 0000 0000 7d61 e73a
000001f0: 599d 9a39 ab81 ce3b 1c34 ee3c 0000 0000
0.0 0.0006480871 0.0 0.0 0.0 0.0012110248 0.0018892527 0.0001815108
0.0038063 0.004756742 0.00045833323 0.0040654354 0.0001358006 3.38595e-06 0.0 1.4397895e-08
0.0 6.112473e-05 0.0 1.8096183e-05 0.0 0.010530065 0.0 0.0
0.0008593734 0.0 0.0 2.1525459e-07 0.0 0.0030370343 0.008974528 0.0
0.0008506614 0.0024465742 5.717122e-07 2.6617238e-07 0.0012747615 1.0410274e-05 0.0 0.0045531904
0.0 0.0018767577 0.00027285778 0.0005116938 0.0012956402 0.00043616735 8.6536744e-07 0.0
0.0 0.0 0.0 0.0 0.0007395877 0.0 1.354066e-05 0.0005484929
1.8601124e-06 0.0 0.0 0.00087663566 4.358618e-06 0.0 6.382552e-07 0.003263943
0.0011245515 0.0009015007 0.0 0.00020258209 0.000707926 0.00054145587 0.0012325684 0.0
0.0 0.00083203317 0.00050145196 0.0 2.5658423e-07 0.0023458037 0.0 0.0
0.00073655014 0.0 2.6955086e-06 0.0019444356 0.0 0.0 0.002368159 0.0
0.0074785673 0.0 0.0 0.00070389704 0.0 0.0016039221 0.0 0.0005963432
0.0 0.0 0.0008188704 0.0009613563 0.008462043 0.0 0.00075859 0.0
0.0 0.0039200126 0.0041777915 0.0 0.0011440633 0.0 0.0055521834 0.001956988
3.2256019e-06 2.7876638e-07 0.0023227003 0.0017338957 0.0056475457 0.0 0.0 0.0
0.0007416287 0.0006600536 0.0 0.0017652955 0.00029490402 0.0063020787 0.029077582 0.0

exp_avg f4 [64, 128]
00000000: 0000 0000 fbbc be39 0000 0000 0000 0000
00000010: 0000 0000 41c0 fe38 0400 0080 0400 0080
00000020: c143 a239 2428 f1b8 88aa 9238 b3d5 a8b9
00000030: 5bf0 deb9 0400 0000 0000 0000 0000 0000
00000040: 0000 0000 0400 0080 0000 0000 0400 0000
00000050: 0000 0000 90b3 5db9 0000 0000 0000 0000
00000060: 0a27 f839 0000 0000 0000 0000 0000 0000
00000070: 0000 0000 fed0 b838 4e25 deb9 0000 0000
00000080: 2a83 0c39 9812 19ba 0000 0000 0000 0000
00000090: 1bd8 00ba 83f6 7eb9 0000 0000 988b 6239
000000a0: 0000 0000 cf77 16ba 0400 0080 0400 0080
000000b0: 8adb 4639 1039 9737 0400 0080 0000 0000
000000c0: 0000 0000 0000 0000 0000 0000 0000 0000
000000d0: 881b 7ab9 0000 0000 0400 0000 0400 0080
000000e0: 0400 0080 0000 0000 0000 0000 348d 04b9
000000f0: 0000 0000 0000 0000 0000 0000 6702 29ba
00000100: 29e4 c2b9 0400 0080 0000 0000 205a 2aba
00000110: 8e43 b5b9 0400 0000 3bd2 183a 0000 0000
00000120: 0000 0000 d12b 8439 10a8 5c39 0000 0000
00000130: 0000 0000 0400 0080 0000 0000 0000 0000
00000140: 8046 9439 0000 0000 0400 0080 ae5c b9b9
00000150: 0000 0000 0000 0000 7454 f438 0000 0000
00000160: cef3 b7b7 0000 0000 0000 0000 ec18 97b9
00000170: 0000 0000 444d b6b9 0000 0000 0400 0000
00000180: 0000 0000 0000 0000 6af4 0e3a abb5 263a
00000190: c88b 3aba 0000 0000 0400 0080 0000 0000
000001a0: 0000 0000 7e72 8839 2ae3 4bb9 0000 0000
000001b0: 0400 0080 0000 0000 5f7a e039 5df9 2639
000001c0: 0000 0000 0400 0000 fce4 14ba 0400 0000
000001d0: fec6 39b9 0000 0000 0000 0000 0000 0000
000001e0: 5efc c0b9 93ee 7c39 0000 0000 6324 b939
000001f0: 9c5e 39b9 78cf 2bba fc88 35b9 0000 0000
00000200: 0000 0000 0000 0000 0000 0000 0000 0000
00000210: 0000 0000 0000 0000 0000 0000 0000 0000
00000220: 0000 0000 0000 0000 0000 0000 0000 0000
00000230: 0000 0000 0000 0000 0000 0000 0000 0000
00000240: 0000 0000 0000 0000 0000 0000 0000 0000
00000250: 0000 0000 0000 0000 0000 0000 0000 0000
00000260: 0000 0000 0000 0000 0000 0000 0000 0000
00000270: 0000 0000 0000 0000 0000 0000 0000 0000
00000280: 0000 0000 0000 0000 0000 0000 0000 0000
00000290: 0000 0000 0000 0000 0000 0000 0000 0000
000002a0: 0000 0000 0000 0000 0000 0000 0000 0000
000002b0: 0000 0000 0000 0000 0000 0000 0000 0000
000002c0: 0000 0000 0000 0000 0000 0000 0000 0000
000002d0: 0000 0000 0000 0000 0000 0000 0000 0000
000002e0: 0000 0000 0000 0000 0000 0000 0000 0000
000002f0: 0000 0000 0000 0000 0000 0000 0000 0000
00000300: 0000 0000 0000 0000 0000 0000 0000 0000
00000310: 0000 0000 0000 0000 0000 0000 0000 0000
00000320: 0000 0000 0000 0000 0000 0000 0000 0000
00000330: 0000 0000 0000 0000 0000 0000 0000 0000
00000340: 0000 0000 0000 0000 0000 0000 0000 0000
00000350: 0000 0000 0000 0000 0000 0000 0000 0000
00000360: 0000 0000 0000 0000 0000 0000 0000 0000
00000370: 0000 0000 0000 0000 0000 0000 0000 0000
00000380: 0000 0000 0000 0000 0000 0000 0000 0000
00000390: 0000 0000 0000 0000 0000 0000 0000 0000
000003a0: 0000 0000 0000 0000 0000 0000 0000 0000
000003b0: 0000 0000 0000 0000 0000 0000 0000 0000
000003c0: 0000 0000 0000 0000 0000 0000 0000 0000
000003d0: 0000 0000 0000 0000 0000 0000 0000 0000
000003e0: 0000 0000 0000 0000 0000 0000 0000 0000
000003f0: 0000 0000 0000 0000 0000 0000 0000 0000
0.0 0.00036380425 0.0 0.0 0.0 0.00012147474 -6e-45 -6e-45
0.00030949528 -0.00011499252 6.9935864e-05 -0.00032202675 -0.00042522218 6e-45 0.0 0.0
0.0 -6e-45 0.0 6e-45 0.0 -0.00021143095 0.0 0.0
0.00047331332 0.0 0.0 0.0 0.0 8.8127315e-05 -0.00042370934 0.0
0.00013400303 -0.00058392575 0.0 0.0 -0.0004915015 -0.0002431516 0.0 0.00021605042
0.0 -0.0005739899 -6e-45 -6e-45 0.00018964536 1.8027175e-05 -6e-45 0.0
0.0 0.0 0.0 0.0 -0.00023852114 0.0 6e-45 -6e-45
-6e-45 0.0 0.0 -0.00012641103 0.0 0.0 0.0 -0.00064471964
-0.00037172556 -6e-45 0.0 -0.0006498415 -0.00034573342 6e-45 0.00058296666 0.0
0.0 0.00025209648 0.00021043443 0.0 0.0 -6e-45 0.0 0.0
0.00028281286 0.0 -6e-45 -0.00035355 0.0 0.0 0.00011650557 0.0
-2.192883e-05 0.0 0.0 -0.00028819533 0.0 -0.00034771312 0.0 6e-45
0.0 0.0 0.00054532907 0.0006359468 -0.0007116166 0.0 -6e-45 0.0
0.0 0.00026025245 -0.00019444214 0.0 -6e-45 0.0 0.00042815783 0.00015923889
0.0 6e-45 -0.0005679873 6e-45 -0.00017717105 0.0 0.0 0.0
-0.00036809122 0.00024121469 0.0 0.0003531306 -0.0001767822 -0.00065540476 -0.00017312536 0.0
0.0 0.0 0.0 0.0 0.0 0.0 0.0 0.0
0.0 0.0 0.0 0.0 0.0 0.0 0.0 0.0
0.0 0.0 0.0 0.0 0.0 0.0 0.0 0.0
0.0 0.0 0.0 0.0 0.0 0.0 0.0 0.0
0.0 0.0 0.0 0.0 0.0 0.0 0.0 0.0
0.0 0.0 0.0 0.0 0.0 0.0 0.0 0.0
0.0 0.0 0.0 0.0 0.0 0.0 0.0 0.0
0.0 0.0 0.0 0.0 0.0 0.0 0.0 0.0
0.0 0.0 0.0 0.0 0.0 0.0 0.0 0.0
0.0 0.0 0.0 0.0 0.0 0.0 0.0 0.0
0.0 0.0 0.0 0.0 0.0 0.0 0.0 0.0
0.0 0.0 0.0 0.0 0.0 0.0 0.0 0.0
0.0 0.0 0.0 0.0 0.0 0.0 0.0 0.0
0.0 0.0 0.0 0.0 0.0 0.0 0.0 0.0
0.0 0.0 0.0 0.0 0.0 0.0 0.0 0.0
0.0 0.0 0.0 0.0 0.0 0.0 0.0 0.0

exp_avg_sq f4 [64, 128]
00000000: 0000 0000 3228 203d 0000 0000 0000 0000
00000010: 0000 0000 a54f 903e 4d7d 0b3d de7a 9639
00000020: 26e8 373d b587 7e3f ef66 9f3c a018 733e
00000030: c02f 2340 695d 7339 0000 0000 0000 0000
00000040: 0000 0000 37e8 193a 0000 0000 6fe4 823a
00000050: 0000 0000 ee0a 5d3f 0000 0000 0000 0000
00000060: 07e3 6c3f 0000 0000 0000 0000 0000 0000
00000070: 0000 0000 aabc de3f 1c5c 0840 0000 0000
00000080: 5b0d 7c40 55b5 133f 0000 0000 0000 0000
00000090: 7ad8 0a3f a8fe 863a 0000 0000 6cba 493e
000000a0: 0000 0000 5929 b43e 8c65 d239 5ef3 3e3b
000000b0: 82d4 033e 5fbd 2840 c08d 2034 0000 0000
000000c0: 0000 0000 0000 0000 0000 0000 0000 0000
000000d0: b478 c23f 0000 0000 7831 383a 7b8d 9a38
000000e0: 8643 3638 0000 0000 0000 0000 aa9e 993e
000000f0: 0000 0000 0000 0000 0000 0000 3280 783e
00000100: 392e 343e d3a5 963b 0000 0000 c0b1 cf3f
00000110: baca 163f 6d31 9e39 f692 f63c 0000 0000
00000120: 0000 0000 065b a13d 1c66 943d 0000 0000
00000130: 0000 0000 a543 af3c 0000 0000 0000 0000
00000140: 8fba f43c 0000 0000 4975 9335 de6d 7a3f
00000150: 0000 0000 0000 0000 183b d73f 0000 0000
00000160: 4e47 b53e 0000 0000 0000 0000 6b0d 323f
00000170: 0000 0000 2599 a73e 0000 0000 c2bd bc3a
00000180: 0000 0000 0000 0000 db47 353e 4a44 1f3b
00000190: 26bc 4b3e 0000 0000 aafc 2c3c 0000 0000
000001a0: 0000 0000 5cff a03f 86f7 0140 0000 0000
000001b0: 6d1a 8a3b 0000 0000 37c4 963f 2cbd ca3d
000001c0: 0000 0000 879e ab39 bbcc 0c40 6782 1b3c
000001d0: 18e8 de3e 0000 0000 0000 0000 0000 0000
000001e0: a4e8 1b3f 7482 de3f 0000 0000 8908 253e
000001f0: 5b0e 533f 6531 3540 08ce b440 0000 0000
00000200: 0000 0000 0000 0000 0000 0000 0000 0000
00000210: 0000 0000 0000 0000 0000 0000 0000 0000
00000220: 0000 0000 0000 0000 0000 0000 0000 0000
00000230: 0000 0000 0000 0000 0000 0000 0000 0000
00000240: 0000 0000 0000 0000 0000 0000 0000 0000
00000250: 0000 0000 0000 0000 0000 0000 0000 0000
00000260: 0000 0000 0000 0000 0000 0000 0000 0000
00000270: 0000 0000 0000 0000 0000 0000 0000 0000
00000280: 0000 0000 0000 0000 0000 0000 0000 0000
00000290: 0000 0000 0000 0000 0000 0000 0000 0000
000002a0: 0000 0000 0000 0000 0000 0000 0000 0000
000002b0: 0000 0000 0000 0000 0000 0000 0000 0000
000002c0: 0000 0000 0000 0000 0000 0000 0000 0000
000002d0: 0000 0000 0000 0000 0000 0000 0000 0000
000002e0: 0000 0000 0000 0000 0000 0000 0000 0000
000002f0: 0000 0000 0000 0000 0000 0000 0000 0000
00000300: 0000 0000 0000 0000 0000 0000 0000 0000
00000310: 0000 0000 0000 0000 0000 0000 0000 0000
00000320: 0000 0000 0000 0000 0000 0000 0000 0000
00000330: 0000 0000 0000 0000 0000 0000 0000 0000
00000340: 0000 0000 0000 0000 0000 0000 0000 0000
00000350: 0000 0000 0000 0000 0000 0000 0000 0000
00000360: 0000 0000 0000 0000 0000 0000 0000 0000
00000370: 0000 0000 0000 0000 0000 0000 0000 0000
00000380: 0000 0000 0000 0000 0000 0000 0000 0000
00000390: 0000 0000 0000 0000 0000 0000 0000 0000
000003a0: 0000 0000 0000 0000 0000 0000 0000 0000
000003b0: 0000 0000 0000 0000 0000 0000 0000 0000
000003c0: 0000 0000 0000 0000 0000 0000 0000 0000
000003d0: 0000 0000 0000 0000 0000 0000 0000 0000
000003e0: 0000 0000 0000 0000 0000 0000 0000 0000
000003f0: 0000 0000 0000 0000 0000 0000 0000 0000
0.0 0.039100833 0.0 0.0 0.0 0.28185764 0.034055043 0.00028701773
0.04489913 0.9942582 0.019458262 0.23739862 2.5497894 0.00023209084 0.0 0.0
0.0 0.00058710895 0.0 0.0009986291 0.0 0.863448 0.0 0.0
0.92533916 0.0 0.0 0.0 0.0 1.7401326 2.130622 0.0
3.9383152 0.57698566 0.0 0.0 0.5423657 0.0010299282 0.0 0.1970002
0.0 0.35187796 0.0004012998 0.0029136757 0.12874034 2.6365583 1.495273e-07 0.0
0.0 0.0 0.0 0.0 1.5193086 0.0 0.00070264144 7.369645e-05
4.3455067e-05 0.0 0.0 0.30003864 0.0 0.0 0.0 0.24267653
0.17595758 0.0045974045 0.0 1.622612 0.58903086 0.00030172933 0.030099373 0.0
0.0 0.078786895 0.07246038 0.0 0.0 0.02139456 0.0 0.0
0.029874114 0.0 1.0986488e-06 0.97823894 0.0 0.0 1.6814909 0.0
0.35405964 0.0 0.0 0.69551724 0.0 0.32734028 0.0 0.0014399814
0.0 0.0 0.17703192 0.0024302178 0.19895992 0.0 0.010558287 0.0
0.0 1.257793 2.0307326 0.0 0.004214576 0.0 1.177863 0.09899363
0.0 0.00032733774 2.1999958 0.00949154 0.43536448 0.0 0.0 0.0
0.60901856 1.7383561 0.0 0.16116537 0.8244378 2.8311398 5.6501503 0.0
0.0 0.0 0.0 0.0 0.0 0.0 0.0 0.0
0.0 0.0 0.0 0.0 0.0 0.0 0.0 0.0
0.0 0.0 0.0 0.0 0.0 0.0 0.0 0.0
0.0 0.0 0.0 0.0 0.0 0.0 0.0 0.0
0.0 0.0 0.0 0.0 0.0 0.0 0.0 0.0
0.0 0.0 0.0 0.0 0.0 0.0 0.0 0.0
0.0 0.0 0.0 0.0 0.0 0.0 0.0 0.0
0.0 0.0 0.0 0.0 0.0 0.0 0.0 0.0
0.0 0.0 0.0 0.0 0.0 0.0 0.0 0.0
0.0 0.0 0.0 0.0 0.0 0.0 0.0 0.0
0.0 0.0 0.0 0.0 0.0 0.0 0.0 0.0
0.0 0.0 0.0 0.0 0.0 0.0 0.0 0.0
0.0 0.0 0.0 0.0 0.0 0.0 0.0 0.0
0.0 0.0 0.0 0.0 0.0 0.0 0.0 0.0
0.0 0.0 0.0 0.0 0.0 0.0 0.0 0.0
0.0 0.0 0.0 0.0 0.0 0.0 0.0 0.0
