models/RaceModels/cat_pos_3copies_0to10_customweightrankingloss/model.pt (torch, 500015 bytes, 18 tensors)

fc1.weight f4 [128, 240]
00000000: 7daf f43d 8337 933b d689 423c 58b2 3e3e
00000010: 1e82 1ebc de12 dfbd da48 ffbd da91 d53d
00000020: 861e fa3d 9cf7 513d f75f d43a 1cea 293e
00000030: 8a46 96bc 3403 93bc a052 da3c 59eb 713d
00000040: dc6d 8bbd 7102 63be 6976 4d3d e5e9 dfbd
00000050: 8281 77bd 01f2 edbd 0ac7 f2bd b6e3 7e3d
00000060: e654 dc3d bd2d 073d a977 0e3b 81ff b93d
00000070: e6df 49bc 32ac 18be adcf 2abe 4d6a 4a3d
00000080: 1126 823d 7b9f ad3d 13ac c73d dc64 243e
00000090: 6707 50bd 91b2 e23d 7a1e 1f3e 0398 863d
000000a0: 1724 77bd e4ee 62be c457 c63d 774b 9abd
000000b0: 1c96 4b3d b415 90bc d2b8 bebd 3060 d9bc
000000c0: 820c d8ba 6532 86bd 69a5 ccbd 3258 f43d
000000d0: d5bf 00bd 119c c7bd a58e e2bd ba60 e33d
000000e0: 39dd 683d 1f49 003e db22 113e 2b3c 143e
000000f0: 3af7 d1bd 2192 903d 7782 f83d b64f 3d3c
00000100: f8d0 2b3d 3418 11be a686 da3d b573 d7bd
00000110: f207 18be 4cce 273d 29fb d9bd 94b2 e2ba
00000120: 03aa c93d 5d70 4e3d 7f18 80bd 4faf df3d
00000130: 891b 7fbd bc13 e5bd 3692 63be 54ab e03d
00000140: fc0d 0e3e 5daf 723d fa64 c03b 6acc ec3d
00000150: 9702 a4bd d18f 0d3e 4206 343e 9383 873d
00000160: e348 a23d e458 7bbe ad46 573d 6db5 13be
00000170: 6d9e d2bd 034d 06bd 89f0 12bd dc2b f9bd
00000180: 90ed ad3d b858 d33c a51c 39bc 846f 073e
00000190: 7b8a 053d 7f7c 68bd cfda 4fbe 1539 9d3d
000001a0: 9603 8c3c 536a af3d f854 90bc 5801 5d3e
000001b0: 75b8 ecbd 2d05 383e 0112 173e 0368 9d3c
000001c0: 21d0 9a3c 9602 52be 5008 693d bc06 b8bd
000001d0: ccf8 91bd f9b8 f53c 5d5c 03bd bc14 50be
000001e0: 99a2 633d c8ae 29bc fdf1 f3bd f541 ca3d
000001f0: 918d a93d e681 3b39 d481 18be 6508 1a3e
00000200: 9684 c33c 16b9 193e eb65 3abd 89c8 fc3d
00000210: 3664 13be 2698 8d3d 4c0b 743e cda1 4a3d
00000220: bc46 bf3c 7937 80be 501f d13d 0c46 e6bd
00000230: 7139 0abe 299d 963d acf2 48bd c853 51be
00000240: d6e2 543d fa4f 143c b6e0 a2bd 6926 b03d
00000250: 1add b53d 625b 02bd 6cc8 d8b8 b4db 3e3e
00000260: e55d 9c3d 4d1a 473e a414 3c3d bf06 213e
00000270: 7b58 e5bd f5d3 fb3d 3465 5e3e 095e afbb
00000280: 8a72 a63d 318e 61be d5e5 fc3d 2824 21be
00000290: 8b8f 22be 6bd3 ad3d 36a9 c0bd c52d 22be
000002a0: 24e2 823d 3ae0 52bd 0976 d9bd 8da5 2f3e
000002b0: 0825 333d 5730 27bd b50a 9abd 925e 943e
000002c0: 5790 8bbc 2b8a 373e b877 c63d ff55 5a3e
000002d0: ad0b 82be bc2e dd3c 6ce3 893e 6ebb 1bbc
000002e0: a9f5 5abd 4e42 9dbe 4928 8e3d 1f40 c0bd
000002f0: ea64 febd 0572 9abc f0c0 edbd 8801 58be
00000300: dfa4 a73d 2d23 bdbd aeba a0bd daf4 c13d
00000310: dc1b 513d fb98 e5bd a850 33bd 9b20 8a3e
00000320: 93c3 e43c 3dc3 743e a372 413d 87c2 363e
00000330: 43fb 18be 0bc6 673e d19c 8a3e 4760 723d
00000340: f14d 21bd 358d 5dbe 63d0 c03d 6fe9 cbbd
00000350: cbdf 83be 2996 a93a 44e4 eabd 8349 61be
00000360: b0f9 c53d 9a6f 06be 038b f5bd 5854 0a3e
00000370: d0c1 403c 13b5 d7bd 019d c7bc b4d7 a33e
00000380: ad4e 1f3d 4005 5a3e 5b39 553d 4efa 533e
00000390: fbfc d0bd 4574 293e 72fe 883e e1b6 e33d
000003a0: c126 583b 468b b2be cd16 383e 9904 20be
000003b0: 29cd 57be 8d41 1a3e 65fb 8bbd 826f 9cbe
000003c0: 87aa 95bc e96a 203d 14ad 2e3d f136 2dbd
000003d0: f0d4 48bd 4b60 5bbc 8bdb 84bd 25bf e3ba
000003e0: e33f 703b 0ddb febc e711 90bd f2d2 483d
000003f0: ae94 873c 0ae6 aa3c be89 023d 9385 34bd
0.11947534 0.0044927015 0.011873683 0.1862272 -0.009674577 -0.108922705 -0.12465067 0.104282096
0.12212853 0.05126153 0.0016202916 0.16593212 -0.018344183 -0.017945863 0.026650727 0.059062336
-0.068080634 -0.221689 0.050161753 -0.10933284 -0.060426243 -0.11618424 -0.1185437 0.06222888
0.107583806 0.033002604 0.0021738803 0.09081937 -0.012321448 -0.14909437 -0.16680785 0.049417783
0.06354917 0.08477684 0.097496174 0.160541 -0.05078831 0.11069215 0.1553897 0.06571963
-0.060337152 -0.22161442 0.09684709 -0.07533925 0.049703702 -0.017588474 -0.093125954 -0.026535124
-0.001648322 -0.06552581 -0.09992487 0.119308844 -0.031432945 -0.09746564 -0.110623635 0.111024335
0.0568516 0.12527893 0.14173453 0.14476077 -0.10252233 0.07059122 0.12134259 0.011554649
0.041947335 -0.14169389 0.106702134 -0.10520116 -0.14846781 0.040968224 -0.10643608 -0.0017295652
0.0984688 0.050400127 -0.06254672 0.10922109 -0.06228212 -0.11185405 -0.22223744 0.10970178
0.13872522 0.05924927 0.0058714123 0.115624264 -0.080083065 0.13824393 0.17580512 0.06616893
0.07924058 -0.24545628 0.052557636 -0.14424677 -0.102841236 -0.032788288 -0.035873923 -0.12166569
0.08492577 0.02579914 -0.011298333 0.13226134 0.03260277 -0.056759354 -0.20298313 0.07676903
0.017091554 0.085652016 -0.017618641 0.21582544 -0.1155862 0.17970724 0.14752962 0.019214636
0.018898072 -0.20508799 0.056892693 -0.089856595 -0.07127532 0.029995428 -0.032070506 -0.2032041
0.055574987 -0.0103566125 -0.1191139 0.098758616 0.08278955 0.000178821 -0.14893275 0.15042265
0.023866933 0.15012011 -0.045507353 0.123429365 -0.14393696 0.06913786 0.23832434 0.04947071
0.023349158 -0.25042322 0.102110505 -0.11243829 -0.13498475 0.07354195 -0.049059555 -0.20442116
0.05197414 0.009052271 -0.079530165 0.08601076 0.088800624 -0.03182543 -0.00010337014 0.18638498
0.076350965 0.19443627 0.045918122 0.1572523 -0.11198517 0.12296287 0.21718293 -0.005351786
0.08127315 -0.22026898 0.123485245 -0.15736449 -0.1587507 0.084875904 -0.094072744 -0.15837772
0.06390789 -0.05148337 -0.106182165 0.17152996 0.043736488 -0.040817585 -0.075215735 0.289784
-0.0170366 0.179238 0.09690803 0.21321867 -0.25399533 0.026999824 0.26931322 -0.009505136
-0.053456936 -0.3071465 0.069412775 -0.0938723 -0.124215916 -0.018853197 -0.116090655 -0.21094334
0.081857435 -0.09235225 -0.07848106 0.0947053 0.05105196 -0.11210819 -0.04377809 0.26978
0.027925288 0.23902602 0.047228467 0.17847644 -0.14939599 0.22634141 0.27072766 0.05917385
-0.03938097 -0.21635897 0.094147466 -0.09956633 -0.25756678 0.0012938428 -0.114693195 -0.22000699
0.09666765 -0.1312851 -0.11989405 0.13508737 0.0117649585 -0.10532584 -0.024366857 0.32000506
0.03889339 0.21291065 0.05205665 0.20700952 -0.10204502 0.1654826 0.26756626 0.11118866
0.0032982084 -0.34871882 0.17977448 -0.15626754 -0.21074356 0.15064068 -0.06835059 -0.30553824
-0.01826979 0.039164457 0.04264553 -0.042288724 -0.049031198 -0.013389657 -0.06487187 -0.0017375691
0.0036659173 -0.03111031 -0.070346646 0.049029298 0.016550388 0.020861644 0.031869642 -0.0440727

fc1.bias f4 [128]
00000000: fda9 7a3d 25e3 4cbd 74f4 c5bb a5f1 5abd
00000010: ec00 9cbc bff8 6fbd cc29 ea3c 43cd 9fbc
00000020: 7c1a d83c 826c c2bc cea7 01bd bdfa 92bc
00000030: a797 e73c 38a6 71bd 3f6a e73b 3942 1ebd
00000040: 411b 5dbd d60b 443c 1c7b 0fbc 5e07 07bd
00000050: cdb4 f63c 4832 b93d e3d8 b2bc 1447 883c
00000060: 3613 183e e619 1bbc 4fd8 2abd d8b1 0d3d
00000070: 02b1 0b3d ad9e 5e3d ab95 fa3c 34ad 76bb
00000080: a300 39bd 9412 563b c46f 833c f05a 35bd
00000090: 7ed8 a4bc 1ade 41bd b9c4 553d 3c2b 46bc
000000a0: 4c1c 86bd f779 86bd cf3f 80bd 5b67 82bd
000000b0: 7a8a 2abd 7149 4cbd 98c2 c6bb eec3 c13d
000000c0: f891 42bd e14c 853d 844d be3b e52d 18bc
000000d0: 64e5 013e ebc8 27bd c2fd 90bd 45f1 f23d
000000e0: 003c df3b 5056 8cbd 4a11 30bc 2289 113d
000000f0: f6e9 8fbc 8437 04bc 7407 573d 811b 08bd
00000100: 66f0 10bd 4361 303b cebd db3b 5bb1 51bc
00000110: 38da 443d c719 893d a064 753d 7c41 8bbd
00000120: 2244 33bc 3d35 49bd 184d 8c3d 90d2 6d3d
00000130: e2d8 d53c e544 4d3b 3572 c03c 277f 063d
00000140: 9f45 353d 9f28 2dbd 963f a43c 6d20 54bc
00000150: 4b82 bcbc 7f43 8cbd 2d54 10bd 8b9c 38bc
00000160: fdac f53c 9b56 02bc 6efa 82bc 77b3 55bd
00000170: b6cb 5a3c fb1b 1dbd bc5f e93c 21ef 7fbd
00000180: c2c6 2bbb 6fb6 d4bc 3176 16bd 9be6 91bb
00000190: ba89 08bd 928a 29bd 0f5b 3dbc c6bd 0bbd
000001a0: e899 253d 0f3b 40bd 4116 743d 6a85 15bc
000001b0: 71a5 75bb 0d99 c03c 8438 4cbd 80dd c7ba
000001c0: 48ec a33c 5140 e63c a356 d139 ac84 41bc
000001d0: a63b 89bc 3d1b 9c3d 5ec8 383d 1780 94bd
000001e0: b171 3fbd 4a21 44bc a024 373b 425f c439
000001f0: dc13 e03c f7c8 dc3c 6ea6 86bd 2737 07bd
0.06119727 -0.05002131 -0.006041104 -0.053453106 -0.019043408 -0.058586832 0.028584383 -0.019507056
0.026379816 -0.023733381 -0.03165417 -0.017941827 0.028270556 -0.05899641 0.007062226 -0.038637374
-0.05398107 0.0119657125 -0.008757379 -0.03296601 0.03011551 0.090427935 -0.021831935 0.016635455
0.14851078 -0.009466624 -0.041710194 0.034593433 0.034104355 0.054350544 0.030588945 -0.0037639858
-0.045166623 0.0032664882 0.016044505 -0.044276178 -0.020122763 -0.047330953 0.052189562 -0.012095269
-0.06548366 -0.06566232 -0.062621705 -0.0636737 -0.041635968 -0.049874727 -0.006065678 0.09461199
-0.047502488 0.06508804 0.0058075804 -0.009288286 0.12685162 -0.040963095 -0.070796505 0.11862425
0.0068125725 -0.068524 -0.0107463095 0.03553117 -0.017567616 -0.008069877 0.052497342 -0.033229355
-0.03538551 0.0026913441 0.006705976 -0.0127986325 0.048059672 0.0669437 0.059910417 -0.067995995
-0.010941537 -0.049123038 0.06850642 0.058062136 0.026104394 0.0031321582 0.023491958 0.032836106
0.04425585 -0.042275067 0.020049851 -0.012947184 -0.023011347 -0.06848811 -0.035236526 -0.0112677915
0.029989714 -0.007955219 -0.015988555 -0.052173104 0.013354233 -0.038356762 0.028488033 -0.06248391
-0.0026210998 -0.025965897 -0.03673381 -0.004452539 -0.03333447 -0.041391917 -0.011557355 -0.03411653
0.04042998 -0.046931323 0.059591535 -0.009126047 -0.0037482644 0.02351048 -0.049858585 -0.0015248507
0.020010129 0.02810684 0.00039928136 -0.011811417 -0.016752075 0.07622383 0.04511296 -0.07250994
-0.046739284 -0.011970827 0.0027945414 0.00037455006 0.02735322 0.026951296 -0.06574713 -0.03301158

fc2.weight f4 [64, 128]
00000000: 5c7b bdba b699 a1bd 7e25 d8bc 2dd3 0dbd
00000010: 9ddb 80bd 6a51 243d 561c adbd 8bd7 3ebd
00000020: 1fa6 713c 1e27 743d 4bca 9a3d e8ba 62bd
00000030: e8f5 e13c 6437 8fbc 2bec 173b c257 35bd
00000040: f011 803c 2ceb b23c d0ca ce3c d988 9d3c
00000050: 5521 e4bc 0bb7 64bd 7c47 12bc 2287 7fbd
00000060: 2e43 1b3b a9d1 d83c 0535 a63d c1d1 3cbd
00000070: 261e 98bd bc9a 31bd 5d40 67bd 58af 103d
00000080: 8ca7 c8bc 2ce5 a9bc 2027 8c3b 4dad cfbd
00000090: b4da 98bc f7ed af3d c0e3 0cbd e9f8 9ebd
000000a0: 5bad 15bd 895b 55bd b902 e9bd b635 fdbb
000000b0: d972 98bd 6d04 a3bd f65b 1f3d 69f7 663c
000000c0: 846f c03c 65d3 75bd c231 01bd defa b4bc
000000d0: 3c2d 4abd d87b 7cbc 327c 413c f439 3d3d
000000e0: 3cfe 17bd 2514 cebc bf24 87bd 5cf7 a03c
000000f0: 048e 89bd 6aab d73c ae4b 4cbd 2f0b 0c3d
00000100: 602c 7abb ca29 30bd 0bd2 df3c 343e cbbd
00000110: 0f15 00bd 4b65 dbbd dd56 543d 0a1e 013d
00000120: a041 b9bc 3319 d3bd 247a c4bd 5c26 dbbc
00000130: a268 5abd d4ff cd3c 49ed 51bd e058 8ebc
00000140: 9bc1 9a3d 0044 e4bd e57b 4dbd 6c6b 6ebd
00000150: 4a79 94bd 00de 2fb9 f0ab 343c e824 553d
00000160: cfbc 883d f027 9fbb 2b63 d0bd 7296 c33c
00000170: 8ba2 01bd f717 aa3d 70ba fcbc 019f af3d
00000180: 45d8 64bd 1564 ad3d fa49 a3bd c821 e8bc
00000190: 3ce1 fdbc e971 123d 078f db3c 4cf0 d5bd
000001a0: aaf5 683d 74e8 833d 4872 d13c dcf8 a33c
000001b0: 3762 433b b684 2d3d 6017 d43c c428 80bd
000001c0: f342 593d af06 d3bd 8519 31bd c073 e13b
000001d0: de40 7a3d a2fe 1cba 56a1 34bd e46c d5bd
000001e0: 9f3e cbbd b959 a33d 0649 3e3d c81a 173d
000001f0: a401 97bc abac 97bd 66ff 0fbd cf6c a53d
00000200: 15fb 873d 28a2 7bbd db11 35be 7425 89bd
00000210: e092 bc3c ccf2 893c fda0 383d c8ef 57bd
00000220: 42eb acbd 95d0 cd3d 9727 7b3d 13f9 853d
00000230: e67d 473c 3cdb fabc 6bf6 293e 8f0a 043e
00000240: fd28 113d 98c4 ae3d 1a19 88bd 52a2 51be
00000250: 24ef 5f3d 2b3d a73d ac2b c3bc 7a65 263e
00000260: cc4f 633d 3307 89be f494 90bd fb4e 933d
00000270: f29d cbbd c98b 41bc 170c e0bd ef8e 48bd
00000280: 9011 0ebd ac84 163d 3946 153c b86e 48bd
00000290: 9950 a23d 8482 683d aa68 b4bb 4248 183c
000002a0: 1114 773d d6f6 38bc 18ff 973e ed21 0e3d
000002b0: 27b2 643e 85d8 af3d 9ece 3a3d d000 aa3d
000002c0: f6d0 cf3d 0f2b 92be 2d06 a1bc 1e3d 79bc
000002d0: 76f3 92bd a092 38bd 7ec7 643d ee14 94bd
000002e0: b4a4 7cbd 5cce 263b e850 8ebd 8d4d b43d
000002f0: 63ee 21be 382c 8b3d 102f 28bd ca97 913e
00000300: 9de8 763c b8ba 0c3d 23fc 6cbe 7e47 d8bc
00000310: 2af4 4dbd e15d 353e 2294 ce3b ef41 193d
00000320: 5b5a dabc ec23 0e3d bfce 35be f608 af3e
00000330: 9596 8dbd 4024 283d 346c 68bc 86af e1bd
00000340: 8523 6fbd a331 71bc 8804 18be cf5b cfbc
00000350: a766 e73c d339 1d3c a0a6 363d 0522 1d3e
00000360: 3833 d73c fed1 22bc a81f 8abc 0799 2bbe
00000370: 28b0 a9bd dd4e 7c3d 971f 8a3d d83a 043d
00000380: 0557 c3bd f15f 4c3c 5b6c bb3c 37d7 5f3d
00000390: 1ba9 aabb 00b0 893e bb4e 8dbd 9895 333e
000003a0: 3ac6 da3c f8a9 fc3d 3427 4fbe 4228 11bc
000003b0: 8c34 2bbd e7b9 90bd 974a b5bc 2d27 913d
000003c0: 8620 15be de6c 403e 4158 b13c a707 8ebd
000003d0: e2f0 0b3d 42fb 923e 2555 1a3c 5472 c7bc
000003e0: 1721 143e 7985 7d3d 6139 b4bd d6a3 e4bd
000003f0: f59e 1ebd 2b16 a5bd 8aff 633d b408 59bd
-0.001445632 -0.07890646 -0.026385065 -0.03462522 -0.06291888 0.040116705 -0.0845267 -0.046592277
0.014749079 0.059607618 0.075581156 -0.05535403 0.027583078 -0.017482467 0.0023181539 -0.044273145
0.015633553 0.021840654 0.025243193 0.019230293 -0.027847925 -0.055838626 -0.008928176 -0.062384732
0.0023691165 0.026467161 0.081155814 -0.046098474 -0.07427625 -0.043360457 -0.056457866 0.03532347
-0.024493955 -0.02073916 0.004277125 -0.101404764 -0.018658973 0.0859031 -0.034396887 -0.077623196
-0.036542278 -0.052089248 -0.113774724 -0.00772735 -0.074437805 -0.079598285 0.03890606 0.014097073
0.023490675 -0.060016055 -0.031541593 -0.022092279 -0.049359545 -0.015410386 0.011809396 0.046197847
-0.03710769 -0.02515609 -0.06598806 0.0196492 -0.067165405 0.026326854 -0.04987686 0.034190353
-0.0038173422 -0.043008603 0.027321836 -0.09923974 -0.031270083 -0.107126795 0.05184065 0.031522788
-0.0226143 -0.10307541 -0.09593609 -0.02675169 -0.053322442 0.025146402 -0.051251683 -0.017376363
0.075564586 -0.111457825 -0.050166983 -0.058207914 -0.072496966 -0.00016772002 0.011027321 0.05203715
0.066766374 -0.004857056 -0.10175165 0.023875449 -0.031649154 0.08305352 -0.03085062 0.085752495
-0.055870313 0.08466355 -0.07973094 -0.02833642 -0.03099119 0.035753164 0.0268016 -0.104462236
0.05687491 0.06440821 0.025567189 0.020016126 0.002981318 0.04236289 0.025890052 -0.062577754
0.053042363 -0.10304009 -0.043237228 0.0068802536 0.06109702 -0.0005988871 -0.044099174 -0.1042116
-0.099240534 0.079760976 0.04645636 0.036890775 -0.0184334 -0.07405981 -0.035155676 0.08077394
0.06639687 -0.06143394 -0.17682593 -0.06696597 0.023019254 0.016839407 0.045075405 -0.052718908
-0.08443309 0.100495495 0.061317053 0.06541648 0.012176013 -0.030622117 0.16597907 0.12894653
0.03543948 0.08533591 -0.06645413 -0.20472077 0.05467142 0.08165964 -0.023824535 0.16249648
0.055496022 -0.26763305 -0.070596606 0.07192799 -0.09942235 -0.011813113 -0.10939806 -0.048964437
-0.034684718 0.03674762 0.009110981 -0.048933715 0.07925529 0.056765094 -0.005505641 0.009294571
0.06032187 -0.011289319 0.2968681 0.034700323 0.22333585 0.0858622 0.0456072 0.08300936
0.10147278 -0.28548476 -0.019656265 -0.015212325 -0.07175343 -0.045061707 0.055854313 -0.072305545
-0.06168051 0.002545259 -0.069490254 0.08803854 -0.15813594 0.067955434 -0.041060507 0.28436118
0.015070108 0.034357756 -0.23143058 -0.026401278 -0.05028168 0.17711593 0.00630428 0.037416395
-0.026654413 0.034702227 -0.17754649 0.34186524 -0.06913487 0.041050196 -0.014185954 -0.110198066
-0.058383483 -0.014721307 -0.14845479 -0.025312332 0.02824719 0.009596306 0.0445925 0.15345009
0.02626954 -0.009937761 -0.016860798 -0.16757594 -0.08285552 0.061598647 0.067443065 0.03228268
-0.09538082 0.012474046 0.022878816 0.054648604 -0.005208147 0.2689209 -0.06899782 0.17537534
0.02670585 0.123371065 -0.20229799 -0.008859696 -0.04179816 -0.07066708 -0.022130294 0.0708755
-0.14563188 0.1879153 0.021648528 -0.06935053 0.03416527 0.2870732 0.009419714 -0.024346508
0.14465748 0.061894868 -0.08800007 -0.11164062 -0.038725812 -0.08060869 0.055663623 -0.052986816

fc2.bias f4 [64]
00000000: 7793 243d b240 51bc 1761 35bb e890 113c
00000010: bdc8 993d 958b 0f3d a5f1 9fbd 3afb aa3c
00000020: 7f09 12bd 4f88 713d 37ab ef3a be7a b13d
00000030: 05f8 90bb 5de1 413d cdea b73b e2d5 96bd
00000040: 4393 a2bc ceac a8bd dbcb e93c f5da 8e3c
00000050: 1605 6abc f761 42bd a594 403d 7a7d ae3d
00000060: 9c8d 843d 4670 99bd 75f0 cf3b c9b8 e43c
00000070: 7ab3 71bd 15de 4ebd e7ba 9d3d 7272 0bbd
00000080: 8a90 c2bd c4fe c4bd b785 6fbd 3863 943c
00000090: 5912 c13d a882 e8bc c6be b63d 144a f7bc
000000a0: 5a71 46ba 3630 a03d db24 6bbd ebd6 3e3d
000000b0: 8414 3abb 7e07 373d efcf dbbd 1694 c1bb
000000c0: a5e6 0ebd 911e aebc 8824 a6bd 2ca9 6dbd
000000d0: 3d37 813c 1fe8 ee3d cb55 6abc 3517 a93d
000000e0: d890 96bd fa1e ff3d bca4 763d 7ec0 37bb
000000f0: 829e 2abd 06cd 6fbd f74f 37bd dc41 a3bb
0.040179696 -0.012771772 -0.0027676278 0.008884646 0.07508991 0.035045225 -0.07809762 0.020871747
-0.035653587 0.058967885 0.0018285279 0.08665989 -0.0044240975 0.047334064 0.005612707 -0.07365014
-0.01984561 -0.08236085 0.028539589 0.017438391 -0.014283439 -0.047456708 0.04701676 0.085200265
0.06472322 -0.074921176 0.0063458034 0.027920144 -0.059009053 -0.050504763 0.077016644 -0.03404469
-0.09500225 -0.09618905 -0.05847713 0.018113717 0.09427328 -0.028382614 0.08923106 -0.03018669
-0.0007569991 0.078216955 -0.057408195 0.04659168 -0.0028393576 0.04468488 -0.107330196 -0.005907546
-0.03488793 -0.02125481 -0.081124365 -0.058022663 0.01577341 0.11665367 -0.014302681 0.082563795
-0.073518455 0.1245708 0.060215697 -0.0028038318 -0.04165507 -0.058545135 -0.044753995 -0.0049822163

fc3.weight f4 [24, 64]
00000000: 47be 463d 6d2c 1f3e 4de4 2c3c dc3f 7cba
00000010: 43cc d93d d11b 653d 9fce c1bd 6c42 aa3d
00000020: d00c 723c 1a45 19be 7aef 57bd b240 8ebd
00000030: 66bd 213e a9e9 fd3d 8c32 77bd ffd2 ccbd
00000040: 3bb0 973d 7e9b a1bd 8c9f 61bd 5943 16bd
00000050: 78b0 163d d338 433d 4b5f c0bd 5331 11be
00000060: ead1 5a3e 6cd7 4a3e 74c2 05be c863 8a3d
00000070: f644 9d3c e182 ec3d cd99 2fbe c8e0 4d3e
00000080: 915e b8bd 78f4 bc3d 9a52 8d3d e466 8cbc
00000090: 5f55 0cbe 1a9d e53b 5e64 6cbe 1b66 37bc
000000a0: 8bc6 f13d 244f 763e d499 003e 322a e3bc
000000b0: fccd cf3d 88bd 95bd c7f8 b7bd b903 fa3d
000000c0: 5688 723c d71c 2c3d 25f8 abbd 6315 bdbd
000000d0: 8f2b 8abd b60e edbc b6ad 56be fcd0 52bb
000000e0: 0007 ecbd c464 773e 93ec e9bd 12bb 30be
000000f0: e122 ddba c9b2 23bd 3284 e8bb ac5d b4bd
00000100: 0d76 aebc 660e d63b 8046 48bd 1fae edbd
00000110: 9071 ab3d 0f8f 2a3c 46b9 d2bd 27e9 34bd
00000120: f190 b03c ce55 953d 9b8d 2c3d 7947 3b3e
00000130: ad9c 9b3d 493e 7b3d d46c 1c3e aa37 24bd
00000140: 597d 8ebd bf5f 073c c450 d1bd 261c f8bc
00000150: 5fab cd3d 0b9f 953c 82e2 8ebd a924 e3bd
00000160: 2925 1fbd 3a96 e53b d466 e5bd d3ec 153e
00000170: ec70 6ebd 5462 e7bd 19e5 083e 9ed2 c53c
00000180: 9aaa bd3c b787 b03d 9286 df3d e113 ab3d
00000190: daf0 463e 5ed6 b0bb b23f 08bd 2aba 5dbd
000001a0: 7c81 7dbd ca7a 08be d48d 94bd 21e8 6f3d
000001b0: 6961 1f3e 1cd3 f8bd 132d 943d 17f9 52be
000001c0: cecd 5abe 9c32 c1bd 68e4 b4bd 638c 773d
000001d0: 8f31 b3bd 59ae ee3d c6d9 8f3e 79e4 0b3e
000001e0: 04e8 be3d a48f 0fbe 1fc9 8bbe fc07 a7be
000001f0: 9d5e ca3c 712d b73c 17c2 973d 270e 4dbd
00000200: 5a05 cebc 220c 8b3c ea73 823e f255 d43d
00000210: 6d6f 6cbd 79c4 f0bd eda3 d63d 3d84 703d
00000220: 820d a43d e238 b8bd 0dc2 ad3d 40e5 f1bc
00000230: da20 c33e aba9 1d3d 94c7 8bbe fbfe 1ebc
00000240: 1ebd f63d acca 9e3d 408e c43d abc8 253e
00000250: bf7e dbbd 3d39 1b3c ee16 79bc 5a0a 883d
00000260: ce88 ffbd b5de 3f3c 72d3 453e 2ed7 4dbe
00000270: 10c4 54bd 9931 0b3e 4a9d 8f3d 6c40 5abe
00000280: a37a 893d fe23 d7bd aab6 b5bd aa1e ef3d
00000290: fa0f 103e 7cc2 003e 2ec4 a7bd 910b 2dbe
000002a0: 7704 213e cae0 4f3d 6b40 52bd 7800 ecba
000002b0: b918 423e e672 fcbb 749b 973d dc28 6b3d
000002c0: 12a2 6abe 6165 0dbe 1a51 ac3d 5573 1b3d
000002d0: 6065 293d 2f69 b13c dd8f 6bbe 307b 863d
000002e0: e397 b63d 2e2a 34bc 3780 8d3d 0a02 9abe
000002f0: f800 a7bd 2102 ad3d eec2 d23c 7560 ecbd
00000300: 546a 023d a2b4 653d 833b 4fbe efbf b7bd
00000310: f299 b23d 8669 fa3d a8f2 4f3c 6b06 20bd
00000320: 4375 9b3d e6b7 3c3e 186f ef3c 3583 1dbe
00000330: d848 01be 57b7 353c 548d 4e3e 7663 86be
00000340: d06d bf3d ddc8 2cbd 1041 a7bd 5e7e be3c
00000350: 6291 aeba 0bdf 543d 2389 653b 7bc0 43bd
00000360: 2b9b 05bd 9a46 8c3d bbfc cbbd 640b 89bd
00000370: 79da 4b3d 487a a53d 59c8 5d3d 6cd6 1dbd
00000380: b934 8dbe 7879 45bd ea0c d53d 1f11 73bc
00000390: 5a00 b23d ca4a 20bd 11fd 2d3e 557f ddbd
000003a0: f6cd e9bb 860a 373d 60d9 d13d e3d6 b3bd
000003b0: 2fa7 3c3e d0a3 0cbe 65a2 263d b4ae 143e
000003c0: 4626 953d 1ab5 3dbe 0bc0 22bc 8971 f4bc
000003d0: d159 5b3b a98c 9bbe c8d6 febd 09f5 3e3e
000003e0: 543a b73c b8b7 a63d 6106 783d 43da 53bd
000003f0: 36d8 b83d bf91 01be d6dd 8d3d 01a6 86bd
0.048521306 0.15544291 0.010552478 -0.0009622553 0.10634663 0.05593473 -0.09463238 0.0831345
0.014773563 -0.14967766 -0.052718617 -0.069459334 0.15794906 0.12398083 -0.06035094 -0.10001182
0.0740666 -0.07890986 -0.055083796 -0.03668532 0.036789387 0.047661614 -0.09393176 -0.14178972
0.21369138 0.1980874 -0.13062459 0.06757313 0.019197922 0.11548401 -0.17148514 0.20105278
-0.09002412 0.09226316 0.069005206 -0.017138906 -0.13704441 0.0070072534 -0.23085162 -0.011193777
0.11805447 0.24053627 0.12558681 -0.027730081 0.1014671 -0.07311541 -0.089829974 0.12207741
0.014803013 0.04201969 -0.08396939 -0.09232595 -0.067465894 -0.028937679 -0.20964703 -0.0032168021
-0.11524773 0.24159533 -0.11422076 -0.17258862 -0.0016871357 -0.039965425 -0.007095837 -0.08806929
-0.021296525 0.006532478 -0.04889536 -0.116054766 0.0837127 0.010410084 -0.10289244 -0.044167664
0.021553488 0.072917566 0.042127233 0.18288983 0.07598243 0.061338697 0.1527589 -0.040092148
-0.06957502 0.008262574 -0.10220483 -0.03028686 0.10042452 0.018264314 -0.06976797 -0.11090977
-0.038853798 0.007006434 -0.112012535 0.14641123 -0.05821316 -0.112980515 0.13368644 0.024148282
0.023152638 0.086196356 0.10914339 0.08353401 0.19427815 -0.0053966483 -0.03326387 -0.054132618
-0.061891064 -0.1332809 -0.07253614 0.058570985 0.15564503 -0.12149641 0.0723516 -0.20602833
-0.21367571 -0.09433481 -0.088326275 0.060436618 -0.08749687 0.11654348 0.28095835 0.13661374
0.09321597 -0.14019638 -0.2730188 -0.3262328 0.024703318 0.022360535 0.074100666 -0.050062325
-0.025149036 0.016973559 0.2547906 0.10367955 -0.05772345 -0.11756224 0.10480485 0.058719862
0.08010389 -0.089952245 0.08484278 -0.02952826 0.38111 0.038491886 -0.27300704 -0.009704347
0.1204779 0.077535 0.095974445 0.1618983 -0.10717534 0.009474096 -0.015203221 0.066425994
-0.12477265 0.011710812 0.19318941 -0.20101616 -0.051944792 0.13593139 0.070124224 -0.21313637
0.06712844 -0.10504912 -0.08872731 0.116757706 0.14068595 0.1257419 -0.08191715 -0.16898943
0.1572436 0.050751485 -0.051330965 -0.0018005511 0.18954743 -0.0077041266 0.07402697 0.057412013
-0.22913387 -0.13808204 0.084139064 0.037951786 0.041356444 0.0216566 -0.23004098 0.06566465
0.08915689 -0.010996385 0.06909221 -0.3007968 -0.08154482 0.08447672 0.025727715 -0.11541835
0.031839684 0.056080468 -0.20237546 -0.08972155 0.08720769 0.12227158 0.012692131 -0.03906862
0.07590725 0.18429527 0.029227778 -0.15382083 -0.12625444 0.011091075 0.201711 -0.26247758
0.09347117 -0.042183746 -0.081667066 0.023253616 -0.0013318474 0.051970523 0.0035024367 -0.047790986
-0.032618683 0.06849404 -0.09960314 -0.06691626 0.0497689 0.08079964 0.054146145 -0.038534567
-0.27579287 -0.048211545 0.10402854 -0.014835625 0.08691473 -0.039133824 0.16991068 -0.10815302
-0.007135148 0.04468777 0.10246539 -0.08781221 0.1842315 -0.13734365 0.040682215 0.14519769
0.07282691 -0.18526116 -0.009933482 -0.029839294 0.0033470283 -0.30380753 -0.1244331 0.18648161
0.02236668 0.0814051 0.06055296 -0.051721822 0.09025614 -0.12653254 0.069270775 -0.065746315

fc3.bias f4 [24]
00000000: a91b 05be e6b6 fb3d 6666 4dbd 6565 83bd
00000010: 7c2b 56bd 78e1 91ba d402 37bd 94b6 d83d
00000020: 5a0b 7ebd 1c83 a7bd 0a90 c53d 9fba 573d
00000030: 325a bc3d e003 e4bd 544e f83d 7564 17bd
00000040: 7313 34bc 4a6e be3c 0864 9dbd 07d7 dd3c
00000050: d70f 373c cb54 ff3d eeb8 b5ba 6280 c03a
-0.12998833 0.122907445 -0.050146483 -0.06415824 -0.052287564 -0.0011129817 -0.04468043 0.10581699
-0.062022544 -0.08179304 0.09646614 0.05266821 0.09196891 -0.111335516 0.12124315 -0.036961038
-0.010990965 0.02324595 -0.07685095 0.027080072 0.01117321 0.12467345 -0.0013864317 0.0014686699

exp_avg f4 [128, 240]
00000000: 6352 dc3a 7c9c 793a 3317 a13a 29e2 583a
00000010: 19f7 b73a b0d5 943a 86ea 6b3a 826e 643a
00000020: e5f9 8d3a 1837 763a 1aa3 163a d0d5 843a
00000030: 8a6b b93a 16ef 1d3a 38f7 ae3a c47d 6d3a
00000040: 4470 a53a b2c0 973a 68d1 eb3a c8e7 a83a
00000050: e0f5 223a 220e 573a 7be5 463a 1d0c 033a
00000060: ecc8 d93a 86f2 823a b161 a73a f606 5d3a
00000070: 2898 b93a 3c4d a53a 48e0 7a3a 29ac 853a
00000080: 4bb3 993a 0a32 6c3a 21fe 0a3a cf7e 7c3a
00000090: b104 b83a 4eb0 133a a2b9 a43a 9e6a 543a
000000a0: af0f 953a 9392 9d3a 501c f03a 65f1 a13a
000000b0: 7e3c 103a 2628 473a 6939 483a f48b 0e3a
000000c0: ecb5 e63a b7d7 963a 0e39 983a ba3f 4b3a
000000d0: 629b b43a 41fa 943a 3ab5 6e3a 37f3 843a
000000e0: 06f9 9d3a f73a 793a 4aac f939 532e 963a
000000f0: bc81 b73a 3718 213a da4e ad3a 41e9 423a
00000100: b3f3 913a 16b9 a23a 4952 ed3a ba69 9a3a
00000110: d63c 543a 3b14 423a 28fa 483a d41a 193a
00000120: 243f e83a 9c58 9c3a dcdd 9d3a 0a7c 623a
00000130: c0fe a93a f14c 8f3a 5dad 6d3a 9663 7b3a
00000140: 5806 9f3a c1ea 7b3a 4fca 033a 806d 963a
00000150: 4c48 c13a c576 203a 4eca a43a 6a9d 4e3a
00000160: 3e16 893a 0662 a13a 9712 e83a 39a7 9f3a
00000170: 430e 533a 18eb 423a f5d7 4d3a 6369 213a
00000180: d471 e83a ea92 a03a 49be a53a e66b 5b3a
00000190: eb6d 9f3a 6475 8b3a 15fb 673a e6f9 6d3a
000001a0: 7a31 a33a 8442 7b3a 8f9c 0e3a 447c 8f3a
000001b0: e0ea bd3a 3aea 2b3a 9830 a13a c2ff 4b3a
000001c0: fde8 973a 8dfa 993a 9a24 e83a f8a1 9b3a
000001d0: 05bb 483a 6507 433a 161a 563a 1f48 2d3a
000001e0: 3a56 ee3a 2521 9c3a c945 ac3a fbb0 533a
000001f0: 62d5 9e3a 0de7 883a f98b 643a 524f 6d3a
00000200: 7e41 a43a e760 6d3a 41e9 153a 1084 8e3a
00000210: f60a b93a fe69 323a 9c7d 9d3a e455 493a
00000220: 9696 903a 9bfd 983a 718b e93a 9668 a53a
00000230: 1162 453a 9af1 483a ebeb 543a bba0 393a
00000240: aa50 ec3a c8ac 993a 0ce0 aa3a 4fb0 5b3a
00000250: ea1f 9c3a a3ee 883a 279e 5e3a 7693 6b3a
00000260: 79d5 a33a 14c3 573a 4a29 133a 20e4 903a
00000270: 21d9 bc3a 6ce1 4c3a 5562 9e3a ce19 523a
00000280: 9267 963a e486 983a c505 e83a 6895 a93a
00000290: eaad 3b3a 60ca 4e3a 536d 4d3a bccf 253a
000002a0: 36c5 ea3a bd4d a13a 1912 993a b3a7 713a
000002b0: fe88 973a 6aeb 923a 4122 623a e693 623a
000002c0: ecb5 a53a c11e 4a3a a0ef 023a 7d7a 893a
000002d0: 46fb c63a 8c0e 453a a674 963a 06a9 5e3a
000002e0: a02b 9b3a a9c1 ab3a ef20 e83a 79f8 a13a
000002f0: 52af 3d3a 84cc 4f3a 1b24 443a 64d2 303a
00000300: 7dd5 e53a 1c8b a63a 8a05 913a 7753 703a
00000310: 885b 943a c2c9 973a ec7c 813a a451 653a
00000320: 1e8b af3a 9975 573a dce3 ff39 e72d 883a
00000330: 30c9 c53a de69 f339 262e 8f3a 52f8 563a
00000340: 1409 993a 1a07 a73a 6bba e43a 9998 a23a
00000350: c007 5a3a 1aad 563a 6d7f 413a c602 3c3a
00000360: 4fd0 d73a f378 af3a 11a6 8e3a 37b7 833a
00000370: 7653 9a3a cab5 a53a ae99 5e3a 7ec6 613a
00000380: bc96 a83a 551b 6b3a 8437 fc39 6804 833a
00000390: 6e24 bb3a 8008 0a3a e33e 923a 48f1 523a
000003a0: f579 8a3a ba94 ae3a 9f20 dd3a 0cc8 a43a
000003b0: 2042 573a 5d72 3d3a 32cb 403a 86d2 513a
000003c0: 0400 0000 0400 0080 0400 0000 0400 0000
000003d0: 0400 0000 0400 0000 0400 0000 0400 0000
000003e0: 0400 0080 0400 0000 0400 0000 0400 0080
000003f0: 0400 0000 0400 0000 0400 0000 0400 0080
0.0016809221 0.0009521914 0.0012290239 0.00082734466 0.0014035433 0.0011355188 0.0008999485 0.0008713977
0.0010831921 0.0009392365 0.000574635 0.0010134522 0.0014146429 0.0006024701 0.0013348823 0.0009059573
0.0012621959 0.0011577813 0.0017991485 0.0012886459 0.0006216448 0.0008203705 0.0007587296 0.00049990584
0.0016615666 0.000999049 0.0012770203 0.0008431518 0.0014159726 0.0012611519 0.00095701637 0.0010198402
0.0011726407 0.0009010142 0.00053021504 0.0009631933 0.0014039484 0.00056338764 0.001256753 0.00081030454
0.0011372472 0.0012021832 0.0018318985 0.0012355266 0.0005502178 0.000759723 0.00076379493 0.0005437725
0.0017601824 0.001150838 0.0011613683 0.00077533314 0.0013779218 0.0011366085 0.00091059844 0.0010143284
0.0012052364 0.00095073826 0.00047621346 0.0011457897 0.0014000456 0.0006145271 0.0013222352 0.000743527
0.001113525 0.0012414779 0.0018106188 0.0011780777 0.00080962235 0.0007403527 0.0007666671 0.00058404845
0.0017719013 0.0011928263 0.0012044269 0.0008639699 0.0012969598 0.0010932965 0.00090666657 0.00095897296
0.0012132628 0.0009609871 0.00050274 0.0011476725 0.0014746278 0.00061212137 0.0012572499 0.0007881733
0.0010458899 0.0012312538 0.0017705736 0.0012180574 0.00080511364 0.00074355444 0.00078523095 0.00061573664
0.0017734119 0.0012250815 0.001264521 0.0008370265 0.0012163495 0.0010639844 0.0008849365 0.000907807
0.0012450658 0.0009584802 0.0005440199 0.0010947068 0.0014489554 0.0006558035 0.0012297807 0.00077819463
0.0011589822 0.0011747644 0.0017711103 0.0011873832 0.00076572626 0.00074397615 0.0008167339 0.0006610173
0.0018183657 0.0011911733 0.0013143356 0.00080753834 0.0012118036 0.0010444835 0.00087183673 0.0009052652
0.0012531725 0.0009055272 0.00057186565 0.0010873098 0.0014117646 0.0006805955 0.0012015584 0.000768034
0.0011031206 0.001167226 0.0017818046 0.001261967 0.00075295666 0.0007665396 0.0008122313 0.00070811406
0.0018029411 0.0011724466 0.0013036742 0.0008380459 0.0011911367 0.0010447096 0.00084921945 0.0008986512
0.0012499533 0.0008230668 0.00056137575 0.0011054315 0.0014407971 0.0007815573 0.0012083749 0.00080147095
0.0011474958 0.001163688 0.0017701915 0.0012938203 0.0007159399 0.00078884326 0.000783642 0.00063252053
0.0017911557 0.0012306493 0.0011678367 0.00092184095 0.0011561213 0.0011209075 0.000862632 0.00086432544
0.0012642718 0.0007710271 0.00049948134 0.0010488775 0.0015181086 0.0007517121 0.0011478856 0.00084938144
0.0011838563 0.001310398 0.001771001 0.0012357376 0.00072359026 0.00079268985 0.0007482187 0.0006745218
0.0017534938 0.0012706253 0.0011064273 0.00091677107 0.0011318782 0.0011580514 0.0009879149 0.0008747822
0.0013392901 0.00082191225 0.0004880716 0.0010389657 0.0015089866 0.0004642745 0.0010923787 0.0008200455
0.0011675679 0.0012743205 0.0017450576 0.0012405097 0.0008317195 0.00081892463 0.00073813536 0.0007172044
0.0016465279 0.0013387486 0.0010883232 0.0010049109 0.0011774141 0.0012642678 0.0008491528 0.00086126465
0.0012862305 0.00089686114 0.00048106548 0.000999582 0.0014277825 0.0005265549 0.0011157658 0.0008046818
0.001056491 0.001331947 0.0016870684 0.0012571826 0.00082114525 0.0007226819 0.0007354497 0.0008004088
6e-45 -6e-45 6e-45 6e-45 6e-45 6e-45 6e-45 6e-45
-6e-45 6e-45 6e-45 -6e-45 6e-45 6e-45 6e-45 -6e-45

exp_avg_sq f4 [128, 240]
00000000: 09ba c837 4808 d936 9215 4b37 f73e 0437
00000010: 13df 2d37 6f55 1637 1cab 8d36 9afa a836
00000020: 71e0 7f37 ba5e 0837 317b bd36 4616 8237
00000030: 7f35 1c37 643c be36 b49e cf36 9f23 0c37
00000040: 992d 1e37 1f87 4337 2f2f be37 c71c 1937
00000050: f138 1437 df64 b436 6395 c436 c832 9736
00000060: c5f0 c937 0f9d db36 bac5 4d37 ae45 0037
00000070: 2efb 3137 4ad8 1c37 6019 9b36 c1d4 b436
00000080: cccb 8237 bb92 0b37 a6ee b636 25a9 8037
00000090: a7f0 1737 0ea9 c036 03a0 cd36 5915 0c37
000000a0: 94e6 2137 cdf0 4637 c600 be37 d405 1637
000000b0: c42a 1737 4f20 b236 47f4 b736 24d1 9b36
000000c0: 4440 d037 48a8 e236 07bf 4e37 d1d9 fd36
000000d0: 13c7 3137 f498 1b37 78e3 9336 b0f9 b536
000000e0: df95 8437 c8c4 1037 a789 bd36 0d3f 8137
000000f0: 9438 1c37 8114 b736 45bd d436 439d 0a37
00000100: 9eba 2337 616e 4537 0c92 be37 ca6c 1437
00000110: 0098 1e37 fd74 aa36 28ee be36 b5b0 a236
00000120: ad12 d037 7fb6 e836 73c7 5037 25ec fd36
00000130: e7eb 2e37 302a 1637 d04b 9436 357f b936
00000140: 1b2a 8937 3acb 0e37 9030 bc36 da9d 7e37
00000150: 17df 1b37 5e0d bb36 d40d e136 4c96 0637
00000160: ffee 2237 8c0e 4637 f33a c037 9a99 1437
00000170: c975 1c37 0158 b336 30cf b936 70cb 9f36
00000180: e04a d037 154d ea36 3a18 5137 5cb8 0137
00000190: efdb 2f37 f660 1637 a88c 9336 1b78 b936
000001a0: 1dcd 8937 fc24 0d37 62ba c336 f6b1 7b37
000001b0: 1080 1837 66c8 c236 1595 e736 13b4 0737
000001c0: 893c 2437 80f0 4537 e62c c237 7911 1837
000001d0: 8f2d 1c37 0a74 b336 ad7f b836 9bff a036
000001e0: a25a ce37 ec62 e836 8293 5237 e3b4 fd36
000001f0: ccc6 3237 da8d 1037 fc42 9836 8e95 c436
00000200: e6d0 8a37 f734 1137 3dd1 c036 575f 7d37
00000210: 63f1 1237 8617 c836 d80c e936 1a51 0837
00000220: de5a 2937 3194 4137 8568 c037 3745 1e37
00000230: 04f4 1c37 7885 b336 991a b636 4c69 a536
00000240: 11c3 ce37 2a55 e436 af94 5637 6b65 fe36
00000250: 371a 3537 202f 0e37 39b2 9236 41c5 d536
00000260: 76ea 8c37 a190 1437 e6fa c536 f080 7d37
00000270: 0ade 1237 722e ce36 bd61 ed36 d012 0637
00000280: 0a9b 2837 bacb 3f37 e416 be37 4a24 1f37
00000290: d29c 1a37 ed19 b636 0daf b936 23ac a636
000002a0: cdf5 cc37 ba6d f336 e31a 5e37 6178 0037
000002b0: db13 3237 4c03 1137 e66a 9b36 1ed4 db36
000002c0: b8cd 8c37 39c7 1337 746f da36 5ac2 7937
000002d0: 493f 1537 b5bd c436 702c ef36 bd2c 0437
000002e0: ddf5 2737 3efc 3c37 f44a bc37 de55 1b37
000002f0: aba3 1b37 8579 b536 ea77 b836 f35b a936
00000300: bd19 cb37 2b3b f036 a982 5d37 696d 0337
00000310: ba92 3537 5180 0f37 f174 a336 7c6c db36
00000320: 49b1 8c37 641e 1d37 9c1c d736 dc7b 8037
00000330: 0657 1837 3038 d536 17a4 eb36 8ada 0a37
00000340: 5710 2a37 0844 3e37 b286 ba37 3481 1937
00000350: 2f1f 1e37 8bf9 b836 3a55 ba36 cb35 ab36
00000360: 3ce4 c737 0544 e836 e6b0 5c37 fccc 0737
00000370: 2110 3b37 03ea 1037 3ef4 a736 ad67 df36
00000380: c8b1 8a37 d157 1e37 ea14 d136 851f 8037
00000390: 6b99 1837 b317 db36 2e01 ef36 65d7 0937
000003a0: 19e4 2e37 2392 3e37 0ac2 b737 eb00 1a37
000003b0: 46e0 2637 0de1 bb36 1737 b936 da3e b736
000003c0: 4224 d330 332d ed2e 6fe6 0f31 b914 b42e
000003d0: 90bc 7b2f ae48 3730 0557 912f d0cf ba2e
000003e0: 301b ab2f c493 322f d87d e02f 6fa8 9d2f
000003f0: 53a1 2f30 8915 ec2f 5955 0c30 beed e92d
2.3928487e-05 6.468068e-06 1.2104765e-05 7.882473e-06 1.0363542e-05 8.960588e-06 4.222047e-06 5.035964e-06
1.5251441e-05 8.128287e-06 5.6469803e-06 1.550758e-05 9.31078e-06 5.6694716e-06 6.187556e-06 8.352944e-06
9.42815e-06 1.1654366e-05 2.2671737e-05 9.126211e-06 8.834745e-06 5.376161e-06 5.858646e-06 4.5060624e-06
2.4073184e-05 6.5449926e-06 1.2264989e-05 7.645618e-06 1.0608504e-05 9.348683e-06 4.622314e-06 5.389186e-06
1.5592108e-05 8.319209e-06 5.451805e-06 1.5337553e-05 9.056333e-06 5.7417265e-06 6.128104e-06 8.349621e-06
9.6500335e-06 1.18577855e-05 2.2650125e-05 8.942054e-06 9.0102585e-06 5.3085746e-06 5.4822626e-06 4.643707e-06
2.4825458e-05 6.7549154e-06 1.2323034e-05 7.5653447e-06 1.0596373e-05 9.274332e-06 4.4074222e-06 5.423288e-06
1.5805415e-05 8.628886e-06 5.648664e-06 1.5407359e-05 9.311498e-06 5.456212e-06 6.340126e-06 8.262056e-06
9.759007e-06 1.1767815e-05 2.2717773e-05 8.846817e-06 9.452924e-06 5.080014e-06 5.6901663e-06 4.8485476e-06
2.4804229e-05 6.935384e-06 1.2444204e-05 7.5674784e-06 1.04261335e-05 8.950519e-06 4.4195694e-06 5.5282385e-06
1.635128e-05 8.511177e-06 5.60849e-06 1.5176332e-05 9.290662e-06 5.5745904e-06 6.7071323e-06 8.022016e-06
9.711598e-06 1.1805107e-05 2.2915634e-05 8.857251e-06 9.325749e-06 5.3448607e-06 5.5375494e-06 4.7622525e-06
2.4830399e-05 6.982717e-06 1.2463011e-05 7.731924e-06 1.048202e-05 8.963272e-06 4.397316e-06 5.5274118e-06
1.6427186e-05 8.412866e-06 5.8331507e-06 1.5002201e-05 9.089723e-06 5.80498e-06 6.901692e-06 8.088554e-06
9.789256e-06 1.1798111e-05 2.314751e-05 9.063974e-06 9.308932e-06 5.3481244e-06 5.4984907e-06 4.798128e-06
2.4599318e-05 6.925655e-06 1.255132e-05 7.5610455e-06 1.0655913e-05 8.616096e-06 4.537751e-06 5.8586656e-06
1.6548158e-05 8.655005e-06 5.7464044e-06 1.5102173e-05 8.75848e-06 5.963203e-06 6.9454363e-06 8.125115e-06
1.0094342e-05 1.15382e-05 2.2936854e-05 9.433649e-06 9.355139e-06 5.3501535e-06 5.427119e-06 4.9296414e-06
2.4647949e-05 6.804844e-06 1.2790012e-05 7.5815965e-06 1.0794544e-05 8.474832e-06 4.371887e-06 6.370858e-06
1.679848e-05 8.8551615e-06 5.900266e-06 1.5109996e-05 8.753976e-06 6.1446854e-06 7.0745286e-06 7.9914025e-06
1.0049678e-05 1.1431921e-05 2.2660424e-05 9.485588e-06 9.215628e-06 5.427041e-06 5.5338082e-06 4.967225e-06
2.4433155e-05 7.254738e-06 1.3238491e-05 7.657422e-06 1.061425e-05 8.643441e-06 4.6318046e-06 6.5514023e-06
1.6785096e-05 8.808268e-06 6.509881e-06 1.4886808e-05 8.895827e-06 5.86334e-06 7.1279283e-06 7.87823e-06
1.001122e-05 1.1264403e-05 2.244625e-05 9.258712e-06 9.276827e-06 5.408367e-06 5.497587e-06 5.047297e-06
2.4211471e-05 7.1594454e-06 1.3203048e-05 7.8336825e-06 1.0822603e-05 8.55334e-06 4.8713923e-06 6.539338e-06
1.6771855e-05 9.365005e-06 6.41083e-06 1.5316466e-05 9.080168e-06 6.3544358e-06 7.0226483e-06 8.276324e-06
1.0136594e-05 1.1340722e-05 2.223565e-05 9.149593e-06 9.424794e-06 5.512678e-06 5.5531536e-06 5.1024595e-06
2.3828929e-05 6.9220573e-06 1.3154209e-05 8.094354e-06 1.1149824e-05 8.637554e-06 5.0054214e-06 6.6579873e-06
1.6533668e-05 9.43798e-06 6.23112e-06 1.5273466e-05 9.095626e-06 6.5294676e-06 7.1228924e-06 8.215987e-06
1.0424316e-05 1.1358908e-05 2.1905656e-05 9.179329e-06 9.946589e-06 5.5992336e-06 5.519843e-06 5.461142e-06
1.5362576e-09 1.0785541e-10 2.0940225e-09 8.1891334e-11 2.2895308e-10 6.6678296e-10 2.6437177e-10 8.4952156e-11
3.1124037e-10 1.6241503e-10 4.083478e-10 2.8677813e-10 6.3893885e-10 4.2943452e-10 5.105299e-10 2.6594612e-11

exp_avg f4 [128]
00000000: c1fb 063b 0400 0000 096b 43b9 f841 4c3a
00000010: 0400 0000 0000 0000 0400 0000 0400 0000
00000020: 9d6e 51ba 33af e33a 0400 0000 bc4e b5ba
00000030: 0400 0000 0000 0000 3c10 9bba 025c 9739
00000040: 0400 0000 0400 0000 0000 0000 91fc 84ba
00000050: 30e0 45ba f2e9 feba 9438 4fba b4dc 2c3b
00000060: c1a7 85bb bce0 c9b9 0000 0000 0400 0000
00000070: 9030 023b 0400 0000 516b 7dba 0400 0000
00000080: 0400 0000 0400 0000 0400 0000 ada2 e1ba
00000090: 4b66 203a 0400 0000 0400 0000 0400 0000
000000a0: aff2 923a 0400 0000 924d 84ba 6c24 4fba
000000b0: 9895 42ba 0400 0000 0000 0000 993d 4fbb
000000c0: 90ca f9b8 d872 05b9 0400 0000 7a73 df3a
000000d0: cbcb 30ba 0400 0000 9e01 573a 56eb 17bb
000000e0: 9075 573a b0e4 ae39 0400 0000 0400 0000
000000f0: 61f3 143b 963f 5dba 8623 233b b4e6 413b
00000100: 0400 0000 b5bd 32ba 086a 0b3b a03b 823a
00000110: 0400 0000 a165 5fba 28c0 c9ba 0400 0000
00000120: 0400 0000 4900 8bba c949 5ebb ee88 053b
00000130: 0400 0000 0400 0000 0400 0000 1438 55bb
00000140: 0400 0000 30f1 75ba c873 413b 0400 0000
00000150: 0400 0000 0400 0000 0400 0000 5849 8a3a
00000160: fe9e feb9 0400 0000 9d1c 003b 1663 1d39
00000170: 0400 0000 0400 0000 0400 0000 0000 0000
00000180: 8c4c 9fb9 0400 0000 93ac 0e3a 0400 0000
00000190: 0400 0000 4f4f ba39 c0e0 5cb9 39de d13a
000001a0: 0400 0000 e450 f039 1657 a43a 0400 0000
000001b0: 6a43 75b8 0400 0000 0400 0000 0000 0000
000001c0: e8e7 2738 1c14 d2ba 0400 0000 0400 0000
000001d0: 0400 0000 9769 16ba 0400 0000 d2ec f539
000001e0: f257 0ab9 0400 0000 0000 0000 ee45 09bb
000001f0: 0400 0000 0400 0000 0400 0000 0000 0000
0.0020596834 6e-45 -0.00018636523 0.00077918125 6e-45 0.0 6e-45 6e-45
-0.00079892 0.0017370939 6e-45 -0.0013832669 6e-45 0.0 -0.00118304 0.00028869516
6e-45 6e-45 0.0 -0.0010146071 -0.000754836 -0.0019448383 -0.0007904854 0.0026376667
-0.0040788357 -0.00038505148 0.0 6e-45 0.0019865371 6e-45 -0.00096671755 6e-45
6e-45 6e-45 6e-45 -0.0017214619 0.00061187585 6e-45 6e-45 6e-45
0.0011211241 6e-45 -0.0010093919 -0.00079018506 -0.0007422804 6e-45 0.0 -0.0031622408
-0.000119109754 -0.00012726651 6e-45 0.0017047965 -0.00067442347 6e-45 0.000820184 -0.0023181043
0.00082191173 0.00033358252 6e-45 6e-45 0.0022728073 -0.0008439956 0.0024893 0.0029586973
6e-45 -0.00068184297 0.0021272916 0.0009935983 6e-45 -0.0008521919 -0.001539235 6e-45
6e-45 -0.0010604943 -0.003391849 0.0020375806 6e-45 6e-45 6e-45 -0.0032534646
6e-45 -0.0009381948 0.0029518474 6e-45 6e-45 6e-45 6e-45 0.0010550423
-0.00048565114 6e-45 0.0019548305 0.00015009599 6e-45 6e-45 6e-45 0.0
-0.00030383875 6e-45 0.00054425857 6e-45 6e-45 0.00035535774 -0.00021064561 0.0016011662
6e-45 0.00045836635 0.0012538161 6e-45 -5.8475336e-05 6e-45 6e-45 0.0
4.0031882e-05 -0.0016027722 6e-45 6e-45 6e-45 -0.000573778 6e-45 0.00046906486
-0.00013193468 6e-45 0.0 -0.0020946222 6e-45 6e-45 6e-45 0.0

exp_avg_sq f4 [128]
00000000: 9463 e937 57b7 d730 73c4 b937 1817 1038
00000010: 366c b52f 0000 0000 9f3b ca32 25fe 0730
00000020: 04ba a237 d1d9 9c37 1075 da30 df12 cb37
00000030: a534 a432 0000 0000 bcc6 ba37 d85c 4837
00000040: 241e 062f 3577 8d2f 0000 0000 8d12 cb37
00000050: 3419 1e38 41b3 1338 ba09 6937 8cf4 bc37
00000060: 6027 f337 18df b037 0000 0000 cf4c 212c
00000070: 9c5d 8b37 8743 ba2f 08a6 bb37 0a4e ab30
00000080: af60 f132 80c2 8d30 8a51 ae2f 20f1 ed37
00000090: 46df 8437 9f4f 7733 87a1 7032 5bd6 102f
000000a0: 90f9 c237 2e8e 2229 0871 a137 a822 df37
000000b0: 1ef9 0738 6501 ac2c 0000 0000 700a 9637
000000c0: 08b3 cf37 9b2c 3938 256a a332 a0b7 4238
000000d0: 415b fd37 d94a 0a34 0813 4a37 d4e7 1138
000000e0: 887b ab37 432a 5037 b62f 4332 92f8 4730
000000f0: c4aa b537 3fda a537 e24b 5137 dd1a c837
00000100: 805f b131 099e 7a37 5063 b737 bb90 a637
00000110: 699a a532 4565 eb37 6f46 5138 0605 cb30
00000120: 627a 0435 cbb5 7a37 b1ea 0038 e009 2738
00000130: 4a1f 1933 fa8c c42e 63c0 7e32 7d93 5338
00000140: aecc a82f a0bf 3238 ead6 a637 936c 0c2f
00000150: d408 aa32 8a4c b12b fab5 4533 5909 0238
00000160: f0b5 8437 e015 a231 1b98 1438 5f2b 9a37
00000170: 8249 562e 6a9e 1c33 a646 6332 0000 0000
00000180: f0a8 0938 3dd2 dd2e a1f4 2a37 843d 9933
00000190: 10e8 6331 c446 de37 5d3a 0e38 e33e a737
000001a0: d72d 0230 6965 0738 42f7 3138 4709 a52f
000001b0: 5b56 5a37 a1e4 8331 2983 8532 0000 0000
000001c0: e33f b937 46c3 7938 93aa 952e 2ccf 622f
000001d0: d026 9a32 c10f 9f37 ec52 6d2f 8974 9237
000001e0: 414f 9737 972f 0b33 0000 0000 0298 9737
000001f0: 21ed 9e2f 9697 6030 cb63 102b 0000 0000
2.7822134e-05 1.5695417e-09 2.2145197e-05 3.4353783e-05 3.3000597e-10 0.0 2.3543008e-08 4.9473875e-10
1.9398525e-05 1.8698078e-05 1.5894859e-09 2.4208273e-05 1.9116053e-08 0.0 2.226547e-05 1.1942546e-05
1.2197937e-10 2.5732452e-10 0.0 2.4208124e-05 3.7693608e-05 3.5214474e-05 1.3890147e-05 2.2525222e-05
2.8986193e-05 2.1084721e-05 0.0 2.2922113e-12 1.6613682e-05 3.3881184e-10 2.2369451e-05 1.2464068e-09
2.810006e-08 1.031438e-09 3.1708353e-10 2.8364884e-05 1.5839596e-05 5.7581584e-08 1.4006566e-08 1.3172878e-10
2.3242814e-05 3.6094547e-14 1.924533e-05 2.659981e-05 3.2418517e-05 4.888689e-12 0.0 1.7886254e-05
2.475969e-05 4.414898e-05 1.9023966e-08 4.642422e-05 3.0202444e-05 1.2879481e-07 1.2044569e-05 3.47866e-05
2.0442312e-05 1.2407606e-05 1.1361342e-08 7.274902e-10 2.16564e-05 1.9771162e-05 1.2475039e-05 2.3854367e-05
5.162235e-09 1.4937957e-05 2.1861546e-05 1.9856137e-05 1.9278746e-08 2.806134e-05 4.989508e-05 1.4771622e-09
4.935192e-07 1.4943488e-05 3.073615e-05 3.98251e-05 3.5651546e-08 8.9380905e-11 1.48284895e-08 5.044368e-05
3.0704456e-10 4.261697e-05 1.988882e-05 1.2771499e-10 1.979462e-08 1.259785e-12 4.6033144e-08 3.100312e-05
1.5820347e-05 4.7173074e-09 3.542761e-05 1.8378427e-05 4.8723255e-11 3.6465657e-08 1.3229203e-08 0.0
3.282068e-05 1.0087262e-10 1.0189747e-05 7.135807e-08 3.316476e-09 2.6497415e-05 3.3909793e-05 1.9937235e-05
4.7358867e-10 3.2280954e-05 4.2430365e-05 3.0019917e-10 1.3013919e-05 3.838594e-09 1.5542883e-08 0.0
2.2083468e-05 5.954809e-05 6.8060356e-11 2.0628182e-10 1.794561e-08 1.8961613e-05 2.1584484e-10 1.7458822e-05
1.8037508e-05 3.2406742e-08 0.0 1.8071387e-05 2.8908523e-10 8.170614e-10 5.129757e-13 0.0

exp_avg f4 [64, 128]
00000000: 0400 0000 0000 0000 0400 0000 0400 0000
00000010: 0000 0000 0000 0000 0000 0000 0000 0000
00000020: 0400 0000 0400 0000 0000 0000 0400 0000
00000030: 0000 0000 0000 0000 0400 0000 0400 0000
00000040: 0000 0000 0000 0000 0000 0000 0400 0000
00000050: 0400 0000 0400 0000 0400 0000 0400 0000
00000060: 0400 0000 0400 0000 0000 0000 0000 0000
00000070: 0400 0000 0000 0000 0400 0000 0000 0000
00000080: 0000 0000 0000 0000 0000 0000 0400 0000
00000090: 0400 0000 0000 0000 0000 0000 0000 0000
000000a0: 0400 0000 0000 0000 0400 0000 0400 0000
000000b0: 0400 0000 0000 0000 0000 0000 0400 0000
000000c0: 0400 0000 0400 0000 0000 0000 0400 0000
000000d0: 0400 0000 0000 0000 0400 0000 0400 0000
000000e0: 0400 0000 0400 0000 0000 0000 0000 0000
000000f0: 0400 0000 0400 0000 0400 0000 0400 0000
00000100: 0000 0000 0400 0000 0400 0000 0400 0000
00000110: 0000 0000 0400 0000 0400 0000 0000 0000
00000120: 0000 0000 0400 0000 0400 0000 0400 0000
00000130: 0000 0000 0000 0000 0000 0000 0400 0000
00000140: 0000 0000 0400 0000 0400 0000 0000 0000
00000150: 0000 0000 0000 0000 0000 0000 0400 0000
00000160: 0400 0000 0000 0000 0400 0000 0400 0000
00000170: 0000 0000 0000 0000 0000 0000 0000 0000
00000180: 0400 0000 0000 0000 0400 0000 0000 0000
00000190: 0000 0000 0400 0000 0400 0000 0400 0000
000001a0: 0000 0000 0400 0000 0400 0000 0000 0000
000001b0: 0400 0000 0000 0000 0000 0000 0000 0000
000001c0: 0400 0000 0400 0000 0000 0000 0000 0000
000001d0: 0000 0000 0400 0000 0000 0000 0400 0000
000001e0: 0400 0000 0000 0000 0000 0000 0400 0000
000001f0: 0000 0000 0000 0000 0000 0000 0000 0000
00000200: a013 6aba 0400 0000 00ee 61b8 d0a7 7b39
00000210: 0400 0080 0000 0000 0400 0000 0400 0080
00000220: 44d8 2a3a c2d2 40ba 0400 0080 64f0 0bba
00000230: 0400 0000 0000 0000 f6f7 9738 aa16 f2b9
00000240: 0400 0000 0400 0080 0000 0000 3059 5c39
00000250: 1981 8d3a 00ed 34b7 1018 0dba 0a81 adba
00000260: 3676 b539 0d1e 4e39 0000 0000 0400 0000
00000270: f8ec 91ba 0400 0000 ffee 8c3a 0400 0000
00000280: 0400 0000 0400 0080 0400 0080 6730 ab39
00000290: 6f90 1eba 0400 0000 0400 0000 0400 0080
000002a0: 9afc 8bba 0400 0000 bdd0 d9ba e18b 3aba
000002b0: bf0d 78ba 0000 0000 0000 0000 dad7 6c3a
000002c0: ebfd 9bba 2ca0 ea39 0400 0080 f1ae 53ba
000002d0: 0f55 7d39 0400 0080 3c7b 01bb 775e 0eba
000002e0: c802 6439 0083 76b7 0400 0000 0400 0080
000002f0: 17af a0b9 b44d 3039 404a 6d3a 34d9 98ba
00000300: 0400 0000 2c16 81b9 0406 5c3a f84b beb9
00000310: 0400 0000 7e45 aeba 2391 e0b9 0400 0000
00000320: 0400 0080 8429 2aba ff34 db3a d68e b5ba
00000330: 0400 0000 0400 0000 0400 0080 c45d 113a
00000340: 0400 0000 9af8 f0ba 5044 87b8 0400 0000
00000350: 0400 0080 0400 0000 0400 0080 51d8 e7ba
00000360: 505e a3b8 0400 0080 ba32 6bba 4b2f 363a
00000370: 0400 0080 0400 0000 0400 0000 0000 0000
00000380: 20b6 beb8 0400 0080 10b4 cf38 0400 0080
00000390: 0400 0080 5621 3bba 8034 dfb8 4339 80ba
000003a0: 0400 0080 c288 1fba 5c33 9f39 0400 0080
000003b0: 2ef2 e639 0400 0080 0400 0000 0000 0000
000003c0: d7bb 6d3a 1063 8bba 0400 0000 0400 0080
000003d0: 0400 0000 0e0f 5db9 0400 0000 e059 27ba
000003e0: 1085 d4b8 0400 0080 0000 0000 628b e839
000003f0: 0400 0000 0400 0000 0000 0000 0000 0000
6e-45 0.0 6e-45 6e-45 0.0 0.0 0.0 0.0
6e-45 6e-45 0.0 6e-45 0.0 0.0 6e-45 6e-45
0.0 0.0 0.0 6e-45 6e-45 6e-45 6e-45 6e-45
6e-45 6e-45 0.0 0.0 6e-45 0.0 6e-45 0.0
0.0 0.0 0.0 6e-45 6e-45 0.0 0.0 0.0
6e-45 0.0 6e-45 6e-45 6e-45 0.0 0.0 6e-45
6e-45 6e-45 0.0 6e-45 6e-45 0.0 6e-45 6e-45
6e-45 6e-45 0.0 0.0 6e-45 6e-45 6e-45 6e-45
0.0 6e-45 6e-45 6e-45 0.0 6e-45 6e-45 0.0
0.0 6e-45 6e-45 6e-45 0.0 0.0 0.0 6e-45
0.0 6e-45 6e-45 0.0 0.0 0.0 0.0 6e-45
6e-45 0.0 6e-45 6e-45 0.0 0.0 0.0 0.0
6e-45 0.0 6e-45 0.0 0.0 6e-45 6e-45 6e-45
0.0 6e-45 6e-45 0.0 6e-45 0.0 0.0 0.0
6e-45 6e-45 0.0 0.0 0.0 6e-45 0.0 6e-45
6e-45 0.0 0.0 6e-45 0.0 0.0 0.0 0.0
-0.0008929316 6e-45 -5.3865835e-05 0.0002399974 -6e-45 0.0 6e-45 -6e-45
0.00065172114 -0.0007355624 -6e-45 -0.000533825 6e-45 0.0 7.2464274e-05 -0.00046174723
6e-45 -6e-45 0.0 0.0002101406 0.001079592 -1.0784017e-05 -0.0005382309 -0.0013237309
0.00034611084 0.00019656886 0.0 6e-45 -0.0011133244 6e-45 0.0010752379 6e-45
6e-45 -6e-45 -6e-45 0.00032651724 -0.0006048744 6e-45 6e-45 -6e-45
-0.001068014 6e-45 -0.0016617995 -0.00071161805 -0.00094624975 0.0 0.0 0.000903485
-0.0011901235 0.00044751295 -6e-45 -0.00080750795 0.00024159647 -6e-45 -0.0019757291 -0.00054309465
0.0002174481 -1.4693243e-05 6e-45 -6e-45 -0.0003064803 0.00016813615 0.00090518966 -0.0011661411
6e-45 -0.00024621317 0.00083932304 -0.00036296225 6e-45 -0.0013295857 -0.00042832745 6e-45
-6e-45 -0.00064911717 0.0016724168 -0.0013851773 6e-45 6e-45 -6e-45 0.0005545283
6e-45 -0.0018384636 -6.450026e-05 6e-45 -6e-45 6e-45 -6e-45 -0.0017688369
-7.790013e-05 -6e-45 -0.00089720974 0.0006949796 -6e-45 6e-45 6e-45 0.0
-9.0938294e-05 -6e-45 9.9040684e-05 -6e-45 -6e-45 -0.00071384513 -0.000106432475 -0.000978269
-6e-45 -0.0006085747 0.0003036511 -6e-45 0.00044049456 -6e-45 6e-45 0.0
0.0009068823 -0.0010634381 6e-45 -6e-45 6e-45 -0.0002108181 6e-45 -0.0006383937
-0.000101337326 -6e-45 0.0 0.00044354337 6e-45 6e-45 0.0 0.0
