models/RaceModels/cat_pos_3copies_0to10_customweightrankingloss/model.pt (torch, 494511 bytes, 18 tensors)

fc1.weight f4 [128, 240]
0.106741995 -0.008591767 0.080768116 0.074727766 -0.047407243 -0.034790598 -0.016715541 0.006644408
0.10723095 -0.049554303 -0.026703687 0.083956726 0.00782144 0.014231175 0.0028193921 0.09247806
-0.024234371 -0.13201785 0.032665323 0.053840972 -0.024711784 0.014761315 0.008536142 0.03140622
0.11121784 0.004749026 0.08371205 -0.013774406 -0.015944725 -0.035744343 -0.03956692 -0.004451754
0.09015397 -0.05701908 0.06778366 0.07894931 -0.062538154 0.070355855 0.0637212 0.096360184
-0.054686137 -0.12625375 0.079840004 0.08300197 0.01882114 0.050896645 -0.014505234 0.009411393
0.03235623 -0.083773285 -0.038759362 0.012048766 -0.025290696 -0.04421512 0.011669777 0.042718917
0.086917505 0.0100762425 0.05727542 0.106388085 -0.12052723 0.03868955 0.010321155 0.06423759
0.041175637 -0.03400099 0.07618664 0.035844207 -0.08133216 0.050918635 -0.053020857 0.076129496
0.12825851 0.025725009 0.00817263 0.03267014 -0.0954718 -0.053965483 -0.042130634 0.041504122
0.15904468 -0.027014006 -0.053274952 0.080915816 -0.05955353 0.07324885 0.036874663 0.08633897
0.039771628 -0.13534671 0.018703068 0.013797086 -0.024256239 -0.028460572 0.015929686 -0.010310563
0.10934303 0.01295482 0.07246291 0.042158905 -0.038740516 -0.014401602 -0.07450447 -0.0068315235
0.049177635 0.0070116 -0.03689721 0.16409133 -0.11018965 0.114934035 -0.0012582426 0.03404829
0.021403048 -0.09807345 0.011882202 0.07469151 -0.008655524 0.042209867 0.042847134 -0.046235368
0.08954072 -0.021782734 0.0037962259 0.0013245363 -0.009977065 0.04340359 -0.056811716 0.01979631
0.07728004 0.02306251 -0.040613372 0.053139064 -0.11239348 0.023715304 0.08843472 0.05632476
0.005218496 -0.12084007 0.058264825 0.09180071 -0.069574684 0.04945735 0.016534923 -0.03168269
0.07865569 0.0116621945 0.050884485 0.0015854272 -0.00039625348 0.014226922 0.06093275 0.017773341
0.11410587 0.046223663 0.039292675 0.10595946 -0.026745565 0.105185576 0.048376337 0.034560513
0.06248938 -0.083373375 0.066261806 0.05948117 -0.08873116 0.05004273 -0.073509075 -0.02935267
0.08614851 -0.03214207 -0.011140863 0.08888039 -0.08090624 0.01895191 -0.040298227 0.09536676
0.03301485 0.013666203 0.03144492 0.157381 -0.13120307 0.024058677 0.06705901 0.040649123
-0.05376858 -0.13105752 0.0016210242 0.11232444 -0.045387924 -0.06669972 -0.07036568 -0.006205603
0.0882255 -0.052697282 0.016843027 0.0052439077 -0.066139884 -0.04440628 0.046560146 0.028021688
0.09175271 0.04153141 -0.017266132 0.08563899 -0.03349302 0.115907505 0.056919076 0.07457591
-0.04490804 -0.03298065 0.022669513 0.115898706 -0.102436796 -0.035499908 -0.063439384 0.046150666
0.06521009 -0.06811205 -0.021697756 0.06825785 -0.05852362 0.024634253 0.028278513 0.07032417
0.06680026 0.05425397 -0.049744725 0.12200076 -0.0067629497 0.027070891 0.04530729 0.10180429
-0.01645393 -0.14696008 0.092178114 0.07759623 -0.049543116 0.053919833 -0.029799804 0.006616922
-0.01826979 0.039164457 0.04264553 -0.042288724 -0.049031198 -0.013389657 -0.06487187 -0.0017375691
0.0036659173 -0.03111031 -0.070346646 0.049029298 0.016550388 0.020861644 0.031869642 -0.0440727
00000000: 8c9b da3d 7cc4 0cbc c169 a53d df0a 993d
00000010: 192e 42bd 9680 0ebd 08ef 88bc 56b9 d93b
00000020: e69b db3d 74f9 4abd b1c1 dabc 81f1 ab3d
00000030: 7f25 003c e029 693c 8dc5 383b 2365 bd3d
00000040: 2987 c6bc b02f 07be 13cc 053d 5a88 5c3d
00000050: 5e70 cabc 71d9 713c 2ddb 0b3c cfa3 003d
00000060: 2ec6 e33d b89d 9b3b 3971 ab3d 0cae 61bc
00000070: 839e 82bc a968 12bd ec10 22bd 05e0 91bb
00000080: a5a2 b83d d78c 69bd 29d2 8a3d 2db0 a13d
00000090: 0114 80bd bb16 903d 4380 823d 7d58 c53d
000000a0: 92fe 5fbd aa48 01be 2883 a33d f0fc a93d
000000b0: cb2e 9a3c 0079 503d 5ca7 6dbc 3e32 1a3c
000000c0: f787 043d 5491 abbd 23c2 1ebd 3068 453c
000000d0: 6f2e cfbc ea1a 35bd 9832 3f3c 08fa 2e3d
000000e0: ce01 b23d d316 253c a199 6a3d ffe1 d93d
000000f0: fbd6 f6bd ef78 1e3d 101a 293c ff8e 833d
00000100: c9a7 283d 9f44 0bbd be07 9c3d 60d1 123d
00000110: 7a91 a6bd 0f90 503d 662c 59bd c8e9 9b3d
00000120: 3356 033e 41bd d23c 7fe6 053c 20d1 053d
00000130: b886 c3bd e90a 5dbd 2c91 2cbd 3a00 2a3d
00000140: 9cdc 223e 7a4c ddbc d636 5abd 31b7 a53d
00000150: 67ee 73bd 7e03 963d e309 173d 7cd2 b03d
00000160: 93e7 223d 5498 0abe 2d37 993c 2c0d 623c
00000170: 05b5 c6bc 2526 e9bc f97e 823c a3ed 28bc
00000180: 3def df3d 7440 543c 6f67 943d d1ae 2c3d
00000190: 60ae 1ebd b2f4 6bbc cd95 98bd f9da dfbb
000001a0: 7d6e 493d 90c1 e53b 8721 17bd 8f07 283e
000001b0: 1cab e1bd 8962 eb3d 9eeb a4ba 3876 0b3d
000001c0: 7255 af3c bcda c8bd 91ad 423c ddf7 983d
000001d0: e6cf 0dbc 41e4 2c3d 7a80 2f3d 4c61 3dbd
000001e0: 2061 b73d b471 b2bc 1aca 783b 109c ad3a
000001f0: d876 23bc f6c7 313d 67b3 68bd df2b a23c
00000200: ff44 9e3d 97ed bc3c 355a 26bd 59a8 593d
00000210: 8e2e e6bd 9946 c23c 431d b53d cbb4 663d
00000220: ebff aa3b 007b f7bd 19a7 6e3d 0302 bc3d
00000230: 2c7d 8ebd ca93 4a3d 3f74 873c b5c5 01bd
00000240: 3c16 a13d ca12 3f3c 406c 503d 1cce cf3a
00000250: 3ec0 cfb9 0918 693c 9f94 793d 6699 913c
00000260: 57b0 e93d 0655 3d3d 5bf1 203d 4601 d93d
00000270: 8419 dbbc 896b d73d 4426 463d 538f 0d3d
00000280: ddf4 7f3d a9bf aabd 45b4 873d 87a2 733d
00000290: afb8 b5bd 9bf9 4c3d ed8b 96bd 0375 f0bc
000002a0: a16e b03d 67a7 03bd 2b88 36bc ec06 b63d
000002b0: 2cb2 a5bd 0941 9b3c c10f 25bd a64f c33d
000002c0: 943a 073d 36e8 5f3c 63cc 003d 7c28 213e
000002d0: 195a 06be b416 c53c 3c56 893d b27f 263d
000002e0: 713c 5cbd f133 06be 8c78 d43a 5b0a e63d
000002f0: b0e8 39bd dd99 88bd e21b 90bd 5f58 cbbb
00000300: 92af b43d 1bd9 57bd 63fa 893c 16d5 ab3b
00000310: 5974 87bd 5ce3 35bd dab5 3e3d bd8d e53c
00000320: d8e8 bb3d d71c 2a3d b471 8dbc 7f63 af3d
00000330: fa2f 09bd ea60 ed3d fa23 693d 41bb 983d
00000340: 7ef1 37bd b816 07bd 6ab5 b93c 4d5c ed3d
00000350: 62ca d1bd 5a68 11bd 82ec 81bd 7b08 3d3d
00000360: de8c 853d 557e 8bbd 7ebf b1bc c6ca 8b3d
00000370: 77b6 6fbd c6cd c93c 57a8 e73c 1e06 903d
00000380: 93ce 883d 6939 5e3d 20c1 4bbd 89db f93d
00000390: bc9b ddbb c6c3 dd3c 2394 393d c57e d03d
000003a0: 64ca 86bc b47c 16be e1c7 bc3d c6ea 9e3d
000003b0: b9ed 4abd 0bdb 5c3d b81e f4bc c4d2 d83b
000003c0: 87aa 95bc e96a 203d 14ad 2e3d f136 2dbd
000003d0: f0d4 48bd 4b60 5bbc 8bdb 84bd 25bf e3ba
000003e0: e33f 703b 0ddb febc e711 90bd f2d2 483d
000003f0: ae94 873c 0ae6 aa3c be89 023d 9385 34bd

fc1.bias f4 [128]
0.08258736 -0.05002131 -0.012851306 -0.022069188 -0.019043408 -0.058586832 0.028584383 -0.019507056
0.010449024 0.03181036 -0.03165417 -0.0015521311 0.028270556 -0.05899641 0.018059568 -0.028806873
-0.05398107 0.0119657125 -0.008757379 -0.001663146 0.0111148255 0.06319775 0.0040402235 0.06477938
0.076981135 -0.038249277 -0.041710194 0.034593433 0.023324631 0.054350544 0.057838954 -0.0037639858
-0.045166623 0.0032664882 0.016044505 -0.050478384 0.03038099 -0.047330953 0.052189562 -0.012095269
-0.03300659 -0.06566232 -0.03479137 -0.037849892 -0.034257356 -0.049874727 -0.006065678 0.07905164
-0.037619602 0.038318556 0.0058075804 -0.007608296 0.06321624 -0.040963095 -0.047507294 0.05236534
0.021343185 -0.05198441 -0.0107463095 0.03553117 0.004333656 -0.01683622 0.044937637 0.0127544645
-0.03538551 0.01789821 0.014758716 0.029445225 0.048059672 0.060494415 0.015519472 -0.067995995
-0.010941537 -0.029966936 0.015570288 0.06893157 0.026104394 0.0031321582 0.023491958 0.008099161
0.04425585 -0.012574411 0.052631214 -0.012947184 -0.023011347 -0.06848811 -0.035236526 -0.0009170508
0.0008408236 -0.007955219 -0.0038815658 -0.043656148 0.013354233 -0.038356762 0.028488033 -0.06248391
0.019858325 -0.02596586 -0.01874631 -0.004452539 -0.03333447 -0.0063148476 -0.023271995 -0.011455704
0.04042998 -0.029003538 0.065620966 -0.009126047 0.019307464 0.02351048 -0.049858585 -0.0015248507
-0.017450955 0.055559505 0.00039928136 -0.011811417 -0.016752075 0.059797525 0.04511296 -0.03740136
-0.035882935 -0.011970827 0.0027945414 -0.03558669 0.02735322 0.026951296 -0.06574713 -0.03301158
00000000: 9023 a93d 25e3 4cbd 498e 52bc 71ca b4bc
00000010: ec00 9cbc bff8 6fbd cc29 ea3c 43cd 9fbc
00000020: 6232 2b3c 944b 023d cea7 01bd e170 cbba
00000030: a797 e73c 38a6 71bd a9f1 933c 64fc ebbc
00000040: 411b 5dbd d60b 443c 1c7b 0fbc ebfd d9ba
00000050: f51a 363c d26d 813d da63 843b 0dab 843d
00000060: 49a8 9d3d 46ab 1cbd 4fd8 2abd d8b1 0d3d
00000070: 4c13 bf3c ad9e 5e3d 8ae8 6c3d 34ad 76bb
00000080: a300 39bd 9412 563b c46f 833c 6cc2 4ebd
00000090: 8ee1 f83c 1ade 41bd b9c4 553d 3c2b 46bc
000000a0: eb31 07bd f779 86bd 6581 0ebd 7d08 1bbd
000000b0: 7151 0cbd 7149 4cbd 98c2 c6bb d4e5 a13d
000000c0: 0317 1abd ebf3 1c3d 844d be3b 034f f9bb
000000d0: 8477 813d ebc8 27bd 0297 42bd 0a7d 563d
000000e0: e7d7 ae3c 9bed 54bd 4a11 30bc 2289 113d
000000f0: 5701 8e3b 1dec 89bc 8710 383d 1af8 503c
00000100: 66f0 10bd 449f 923c 8bce 713c 1d37 f13c
00000110: 38da 443d fec8 773d 6245 7e3c 7c41 8bbd
00000120: 2244 33bc 387d f5bc 851a 7f3c ff2b 8d3d
00000130: e2d8 d53c e544 4d3b 3572 c03c 58b2 043c
00000140: 9f45 353d e704 4ebc d493 573d 6d20 54bc
00000150: 4b82 bcbc 7f43 8cbd 2d54 10bd 3d66 70ba
00000160: b76a 5c3a 9b56 02bc de61 7ebb cad0 32bd
00000170: b6cb 5a3c fb1b 1dbd bc5f e93c 21ef 7fbd
00000180: edad a23c 5bb6 d4bc dd91 99bc 9be6 91bb
00000190: ba89 08bd c8ec cebb e9a4 bebc b5b0 3bbc
000001a0: e899 253d d498 edbc 4964 863d 6a85 15bc
000001b0: b02a 9e3c 0d99 c03c 8438 4cbd 80dd c7ba
000001c0: 4ef5 8ebc 5d92 633d a356 d139 ac84 41bc
000001d0: a63b 89bc 40ee 743d 5ec8 383d 2b32 19bd
000001e0: fcf9 12bd 4a21 44bc a024 373b 59c3 11bd
000001f0: dc13 e03c f7c8 dc3c 6ea6 86bd 2737 07bd

fc2.weight f4 [64, 128]
0.0026801222 -0.07890646 -0.04205409 0.003783413 -0.06291888 0.040116705 -0.0845267 -0.046592277
0.016938804 0.07429328 0.075581156 -0.034009386 0.027583078 -0.017482467 0.028762624 -0.03341224
0.015633553 0.021840654 0.025243193 0.031884983 -0.014886652 -0.04556109 0.0074340138 -0.04866494
-7.908901e-05 0.039027773 0.081155814 -0.046098474 -0.067031756 -0.043360457 -0.047408164 0.03532347
-0.024493955 -0.02073916 0.004277125 -0.06842297 -0.0008352849 0.0859031 -0.034396887 -0.077623196
-0.015116156 -0.052089248 -0.09731634 0.0049564745 -0.05254369 -0.079598285 0.03890606 0.023926089
0.040687762 -0.042611092 -0.031541593 -0.012815447 -0.031692564 -0.015410386 0.025152555 0.050735958
-0.014330595 -0.010500624 -0.06598806 0.0196492 -0.04993319 0.045169067 -0.03246189 0.050851807
-0.0038173422 -0.011448987 0.042940278 -0.087671764 -0.031270083 -0.07805062 0.057950806 0.031522788
-0.0226143 -0.07871155 -0.09395547 0.010020897 -0.053322442 0.025146402 -0.051251683 -0.012752964
0.075564586 -0.09611871 -0.028872889 -0.058207914 -0.072496966 -0.00016772002 0.011027321 0.056662258
0.07709701 -0.004857056 -0.08076224 0.06076816 -0.031649154 0.08305352 -0.03085062 0.085752495
-0.048273567 0.08466355 -0.053741682 -0.02833642 -0.03099119 0.05530041 0.026941389 -0.081652775
0.05687491 0.07377064 0.021135453 0.020016126 0.027994325 0.04236289 0.025890052 -0.062577754
0.061029147 -0.081774145 -0.043237228 0.0068802536 0.06109702 0.016444055 -0.044099174 -0.08659612
-0.08043203 0.079760976 0.04645636 0.04560212 -0.0184334 -0.07405981 -0.035155676 0.08077394
0.06489166 -0.06143394 -0.042542405 0.0023715755 0.023019254 0.016839407 0.045075405 -0.052718908
-0.03773279 0.13121207 0.061317053 -0.030134654 0.012176013 -0.030622117 0.06622861 0.07065204
0.03543948 0.08533591 -0.06645413 -0.018472698 0.043657947 0.045507252 0.009713113 0.09662972
-0.058821082 -0.11470764 -0.070596606 0.07192799 -0.028860338 -0.011813113 0.041075032 -0.048964437
-0.034684718 0.03674762 0.009110981 -0.040776264 0.057025325 0.056765094 -0.005505641 0.009294571
0.05882274 -0.011289319 0.11657732 0.0150887305 0.07152033 0.0858622 0.0456072 0.040342603
0.05908452 -0.18938886 -0.019656265 0.0397531 -0.07732172 -0.045061707 0.041161936 -0.08659619
0.02810042 0.013919418 -0.069490254 0.08803854 -0.024584938 0.03834252 -0.0017576147 0.12745813
0.015070108 0.07139731 -0.05221516 0.020449756 -0.05028168 0.048473343 -0.013574616 0.037416395
-0.026654413 -0.01676939 -0.056135956 0.124937415 -0.06913487 0.041050196 -0.014185954 -0.0750873
-0.058383483 -0.04263884 0.0009713499 -0.025312332 0.02824719 0.009596306 0.0445925 0.038418937
0.016918784 -0.009937761 0.043109074 -0.025369894 -0.08285552 0.061598647 0.067443065 0.03228268
-0.032234687 0.012474002 0.06610361 0.054648604 -0.005208147 0.059216954 -0.055622615 -0.035013095
0.02670585 0.101102665 -0.07403728 -0.008859696 -0.029057907 -0.07066708 -0.022130294 0.0708755
-0.06488775 0.08475944 0.021648528 -0.06935053 0.03416527 0.121105574 0.009419714 0.05287111
0.11492353 0.061894868 -0.08800007 -0.055318322 -0.038725812 -0.08060869 0.055663623 -0.052986816
00000000: fda4 2f3b b699 a1bd e940 2cbd 23f3 773b
00000010: 9ddb 80bd 6a51 243d 561c adbd 8bd7 3ebd
00000020: 3fc3 8a3c 1327 983d 4bca 9a3d 6d4d 0bbd
00000030: e8f5 e13c 6437 8fbc 989f eb3c 46db 08bd
00000040: f011 803c 2ceb b23c d0ca ce3c d499 023d
00000050: 25e7 73bc 449e 3abd 0799 f33b e354 47bd
00000060: 97dc a5b8 96db 1f3d 0535 a63d c1d1 3cbd
00000070: f247 89bd bc9a 31bd 102f 42bd 58af 103d
00000080: 8ca7 c8bc 2ce5 a9bc 2027 8c3b 5821 8cbd
00000090: 05f7 5aba f7ed af3d c0e3 0cbd e9f8 9ebd
000000a0: c1a9 77bc 895b 55bd ca4d c7bd ec69 a23b
000000b0: 0d38 57bd 6d04 a3bd f65b 1f3d a500 c43c
000000c0: 36a8 263d f888 2ebd c231 01bd e1f7 51bc
000000d0: 10d0 01bd d87b 7cbc bb0c ce3c 82d0 4f3d
000000e0: dfca 6abc cf0a 2cbc bf24 87bd 5cf7 a03c
000000f0: bf86 4cbd 3303 393d c2f6 04bd fc49 503d
00000100: 602c 7abb 8894 3bbc 25e2 2f3d 418d b3bd
00000110: 0f15 00bd 01d9 9fbd d35d 6d3d 0a1e 013d
00000120: a041 b9bc 8533 a1bd ba6b c0bd b02e 243c
00000130: a268 5abd d4ff cd3c 49ed 51bd cff1 50bc
00000140: 9bc1 9a3d e3d9 c4bd d686 ecbc 6c6b 6ebd
00000150: 4a79 94bd 00de 2fb9 f0ab 343c af16 683d
00000160: 0ae5 9d3d f027 9fbb ac66 a5bd 09e8 783d
00000170: 8ba2 01bd f717 aa3d 70ba fcbc 019f af3d
00000180: 81ba 45bd 1564 ad3d 3d20 5cbd c821 e8bc
00000190: 3ce1 fdbc af82 623d 30b4 dc3c 9239 a7bd
000001a0: aaf5 683d 1015 973d 4224 ad3c dcf8 a33c
000001b0: 5b54 e53c b684 2d3d 6017 d43c c428 80bd
000001c0: b3f9 793d 3479 a7bd 8519 31bd c073 e13b
000001d0: de40 7a3d afb5 863c 56a1 34bd 4e59 b1bd
000001e0: 8cb9 a4bd b959 a33d 0649 3e3d 4ac9 3a3d
000001f0: a401 97bc abac 97bd 66ff 0fbd cf6c a53d
00000200: ebe5 843d 28a2 7bbd f240 2ebd 6f6c 1b3b
00000210: e092 bc3c ccf2 893c fda0 383d c8ef 57bd
00000220: b38d 1abd 755c 063e 9727 7b3d f3dc f6bc
00000230: e67d 473c 3cdb fabc dea2 873d 04b2 903d
00000240: fd28 113d 98c4 ae3d 1a19 88bd 0e54 97bc
00000250: add2 323d d065 3a3d c023 1f3c cde5 c53d
00000260: 60ee 70bd d7eb eabd f494 90bd fb4e 933d
00000270: 846c ecbc c98b 41bc 4b3e 283d ef8e 48bd
00000280: 9011 0ebd ac84 163d 3946 153c 0305 27bd
00000290: 6393 693d 8482 683d aa68 b4bb 4248 183c
000002a0: 1df0 703d d6f6 38bc 17c0 ee3d b936 773c
000002b0: 4079 923d 85d8 af3d 9ece 3a3d 493e 253d
000002c0: 9c02 723d 27ef 41be 2d06 a1bc 26d4 223d
000002d0: da5a 9ebd a092 38bd 6b99 283d 5859 b1bd
000002e0: da32 e63c 450e 643c e850 8ebd 8d4d b43d
000002f0: 5a66 c9bc 0c0d 1d3d c35f e6ba 6284 023e
00000300: 9de8 763c c138 923d 90df 55bd 3f86 a73c
00000310: 2af4 4dbd fc8b 463d 1168 5ebc ef41 193d
00000320: 5b5a dabc f65f 89bc d1ee 65bd 30df ff3d
00000330: 9596 8dbd 4024 283d 346c 68bc 5fc7 99bd
00000340: 8523 6fbd 10a6 2ebd 30a2 7e3a cf5b cfbc
00000350: a766 e73c d339 1d3c a0a6 363d 2d5d 1d3d
00000360: 4399 8a3c fed1 22bc 2493 303d 86d4 cfbc
00000370: 28b0 a9bd dd4e 7c3d 971f 8a3d d83a 043d
00000380: 8508 04bd c25f 4c3c 5461 873d 37d7 5f3d
00000390: 1ba9 aabb 7a8d 723d 8ad4 63bd e469 0fbd
000003a0: 3ac6 da3c ea0e cf3d dca0 97bd 4228 11bc
000003b0: d90a eebc e7b9 90bd 974a b5bc 2d27 913d
000003c0: dee3 84bd 5b96 ad3d 4158 b13c a707 8ebd
000003d0: e2f0 0b3d 3306 f83d 2555 1a3c 618f 583d
000003e0: 075d eb3d 7985 7d3d 6139 b4bd 7795 62bd
000003f0: f59e 1ebd 2b16 a5bd 8aff 633d b408 59bd

fc2.bias f4 [64]
0.049664024 0.017896058 0.035134252 0.008884646 0.07508991 0.04322627 -0.07236679 0.021375967
-0.035652798 0.060633734 0.002208165 0.08472326 -0.04859464 0.047334064 -0.036250956 -0.05386279
-0.012751239 -0.056109734 0.026483472 -0.02266872 -0.014283439 -0.047456708 0.04701676 0.041700337
0.08436276 -0.05148332 0.010499603 0.03379265 -0.059009053 -0.028673792 -0.007703293 -0.04420833
-0.056506187 -0.07901405 -0.058477078 0.018120682 0.07889872 0.0063511105 0.06836624 0.01282188
0.0042674784 0.05757709 -0.057015277 0.061418884 -0.03179109 0.04483689 -0.08440849 0.012934459
0.0037373146 0.0010115462 -0.06731675 -0.040970072 -0.0011611145 0.08846793 0.008888761 0.08452344
-0.07235607 0.10360037 0.091537274 -0.043152448 -0.04165507 -0.05721514 -0.044753995 0.0063260593
00000000: 816c 4b3d c19a 923c efe8 0f3d e890 113c
00000010: bdc8 993d 070e 313d 0a35 94bd a71c af3c
00000020: ab08 12bd 145b 783d dcb6 103b 6383 ad3d
00000030: 2c0b 47bd 5de1 413d e27b 14bd 3b9f 5cbd
00000040: 93ea 50bc 52d3 65bd def3 d83c c0b3 b9bc
00000050: 1605 6abc f761 42bd a594 403d f9cd 2a3d
00000060: 62c6 ac3d 2ce0 52bd 8706 2c3c 296a 0a3d
00000070: 7ab3 71bd 4de5 eabc e86b fcbb cb13 35bd
00000080: 0873 67bd 1ed2 a1bd a985 6fbd d371 943c
00000090: a795 a13d fa1c d03b 9903 8c3d dd12 523c
000000a0: 34d6 8b3b f4d5 6b3d da88 69bd 5e92 7b3d
000000b0: 6037 02bd e3a6 373d 5cde acbd 0eeb 533c
000000c0: bced 743b dc95 843a 5ddd 89bd 3cd0 27bd
000000d0: 8a30 98ba ad2e b53d 2aa2 113c a01a ad3d
000000e0: 6b2f 94bd 6e2c d43d e577 bb3d 9fc0 30bd
000000f0: 829e 2abd 6c5a 6abd f74f 37bd d54a cf3b

fc3.weight f4 [24, 64]
0.091362976 0.13180052 0.035278857 -0.0009622553 0.10634663 -0.004267464 -0.09585441 0.083119236
0.014773563 -0.109880395 -0.05265664 -0.088439174 0.122944705 0.12398083 -0.043560352 -0.07174264
0.100399084 -0.12026442 -0.027381057 0.018751588 0.036789387 0.047661614 -0.09393176 -0.0858442
0.1450791 0.13881214 -0.033081893 -0.00095577305 0.019197922 0.1091077 -0.12114498 0.0927963
0.015906878 0.09226316 0.069005206 -0.017139366 -0.08809399 0.0006785798 -0.09202049 -0.0073021892
0.09270832 0.11259575 0.12594512 0.019455593 0.042766467 0.0045826775 -0.10912146 0.08979437
0.037521664 0.045510415 -0.09247711 -0.09506178 -0.08121601 0.031201402 -0.1661373 0.0067489
-0.115154296 0.15887265 -0.08233929 -0.1537457 -0.0016871357 -0.039965425 -0.007095837 -0.092065156
0.011394523 -0.008723705 -0.021031119 -0.116054766 0.0837127 0.0024694102 -0.103068694 -0.04515467
0.021552693 0.09849316 0.042688493 -0.04097563 0.015244882 0.061338697 0.053370405 0.0043099876
-0.09308128 -0.011883632 -0.06161303 -0.10264611 0.10042452 0.018264314 -0.06976797 -0.0368068
-0.09328204 -0.024970863 -0.020281442 0.08544158 -0.05821316 -0.11560625 0.032169033 0.023524377
-0.01659 0.10297553 0.109143436 0.083534546 0.073174216 0.044092223 -0.08005493 -0.018822936
-0.0707278 -0.12361853 -0.07256909 0.016320437 0.056446858 -0.016323652 0.070490435 -0.09561002
-0.11867001 -0.069731355 -0.12531805 0.058387347 -0.072644256 0.08746594 0.14976226 0.043393295
0.09338965 -0.14373916 -0.08582263 -0.061318085 0.024703318 0.02118636 0.074100666 -0.032306828
0.03659702 -0.031796414 0.12361764 0.10367955 -0.05772345 -0.16601734 0.10521388 0.058808427
0.08010466 -0.10486776 0.08482386 0.0055959867 0.2034516 0.038491886 -0.11987262 0.016734041
0.036945816 0.08022951 0.07856741 0.11018381 -0.10717534 0.009474096 -0.015203221 -0.010642062
-0.046661247 0.05794805 0.14315407 -0.23266846 -0.051944792 0.06307492 0.022280801 -0.11743757
-0.024935765 -0.088024646 -0.088727266 0.11675745 0.057445288 0.109512076 -0.046900444 -0.08796347
0.11784807 0.024497427 -0.051297076 0.023252355 0.1698783 0.066162154 0.07402697 -0.0046220687
-0.12605128 -0.12224561 0.037416838 0.06040537 0.06483032 0.002756103 -0.19541518 0.050439734
0.089170806 0.06519795 0.08547877 -0.1163834 -0.08154482 0.08447672 0.025727715 -0.12943366
-0.018823763 -0.01374343 -0.10737637 -0.08972155 0.08720769 0.038216464 0.013994701 -0.039069608
0.07590649 0.10250131 0.029330958 -0.08411321 -0.12639073 0.011091075 0.086985454 -0.07585368
0.017424185 0.018251408 0.019742118 0.0026488847 -0.0013318474 0.051970523 0.0035024367 0.0028598018
-0.034358725 0.009131894 -0.06529041 -0.05213993 0.0497689 0.034998838 -0.014043186 -0.019532844
-0.046258446 -0.06500979 0.10402858 -0.014835396 0.043276522 -0.019063154 -0.002394603 -0.049176753
-0.010283187 0.026917608 0.102446035 -0.12810181 0.11763168 -0.083589554 0.062220514 0.039471895
0.023813 -0.050667055 0.09725393 -0.025663415 0.028324747 -0.09091118 -0.026628984 0.11555674
0.022349916 0.04902081 -0.020398818 0.06278496 0.09025614 -0.1280978 0.069270775 -0.045307476
00000000: 831c bb3d b7f6 063e 9080 103d dc3f 7cba
00000010: 43cc d93d 15d6 8bbb 514f c4bd 6b3a aa3d
00000020: d00c 723c f908 e1bd 7dae 57bd 991f b5bd
00000030: 6fca fb3d a9e9 fd3d 576c 32bd ceed 92bd
00000040: 099e cd3d 314d f6bd 3d4e e0bc ee9c 993c
00000050: 78b0 163d d338 433d 4b5f c0bd 15cf afbd
00000060: 9e8f 143e c524 0e3e e180 07bd d88c 7aba
00000070: f644 9d3c dc73 df3d dc1a f8bd fd0b be3d
00000080: 244f 823c 78f4 bc3d 9a52 8d3d db67 8cbc
00000090: 9f6a b4bd b8e2 313a 3d75 bcbd 3447 efbb
000000a0: dcdd bd3d 9a98 e63d c2f7 003e 5661 9f3c
000000b0: e42b 2f3d 492a 963b 127b dfbd 1ce6 b73d
000000c0: 51b0 193d 2169 3a3d a464 bdbd c0af c2bd
000000d0: 9454 a6bd 159a ff3c e51f 2abe e025 dd3b
000000e0: 04d6 ebbd 83af 223e 80a1 a8bd 836f 1dbe
000000f0: e122 ddba c9b2 23bd 3284 e8bb a88c bcbd
00000100: 18b0 3a3c dfed 0ebc 7449 acbc 1fae edbd
00000110: 9071 ab3d d4d5 213b ae15 d3bd 1af4 38bd
00000120: 468f b03c c8b6 c93d 21da 2e3d 10d6 27bd
00000130: abc5 793c 493e 7b3d ed9a 5a3d cc3a 8d3b
00000140: 66a1 bebd 91b3 42bc f25d 7cbd 2038 d2bd
00000150: 5fab cd3d 0b9f 953c 82e2 8ebd bac2 16bd
00000160: a70a bfbd b28f ccbc 4425 a6bc fffb ae3d
00000170: ec70 6ebd f8c2 ecbd adc3 033d 32b6 c03c
00000180: c0e7 87bc d6e4 d23d 9886 df3d 2914 ab3d
00000190: 5ddc 953d 0c9a 343d d7f3 a3bd 8f32 9abc
000001a0: bdd9 90bd b62b fdbd 1a9f 94bd 70b2 853c
000001b0: d234 673d 2eb9 85bc 4a5d 903d 30cf c3bd
000001c0: 4309 f3bd 50cf 8ebd 6053 00be 9227 6f3d
000001d0: 83c6 94bd 5821 b33d 475b 193e 2bbd 313d
000001e0: 1343 bf3d 5c30 13be c6c3 afbd ac28 7bbd
000001f0: 9d5e ca3c 048f ad3c 17c2 973d 2a54 04bd
00000200: c2e6 153d f53c 02bd 3f2b fd3d f255 d43d
00000210: 6d6f 6cbd 7300 2abe 607a d73d 1be1 703d
00000220: e90d a43d e8c4 d6bd 22b8 ad3d 8a5e b73b
00000230: 9e55 503e aba9 1d3d c77f f5bd d415 893c
00000240: 7f54 173d 5f4f a43d f3e7 a03d 0da8 e13d
00000250: bf7e dbbd 3d39 1b3c ee16 79bc 0b5c 2ebc
00000260: dd1f 3fbd ef5a 6d3d fb96 123e a440 6ebe
00000270: 10c4 54bd 6c2d 813d 3a86 b63c 1c83 f0bd
00000280: 1746 ccbc 4446 b4bd a4b6 b5bd 881e ef3d
00000290: c04b 6b3d de47 e03d ae1a 40bd 3126 b4bd
000002a0: 545a f13d d4ae c83c e21c 52bd b97b be3c
000002b0: 94f4 2d3e 0680 873d 749b 973d b974 97bb
000002c0: 9613 01be e85b fabd 6642 193d 9f6b 773d
000002d0: c2c5 843d bc9f 343b eb1a 48be e599 4e3d
000002e0: 2f9f b63d 8186 853d 7e0f af3d 6c5a eebd
000002f0: f800 a7bd 2102 ad3d eec2 d23c 428a 04be
00000300: 4b34 9abc 202c 61bc 24e8 dbbd efbf b7bd
00000310: f299 b23d de88 1c3d 084a 653c 7407 20bd
00000320: dd74 9b3d 35ec d13d 7a47 f03c 8c43 acbd
00000330: 926c 01be 57b7 353c 6e25 b23d 2d59 9bbd
00000340: 2abd 8e3c fa83 953c 39ba a13c e998 2d3b
00000350: 6291 aeba 0bdf 543d 2389 653b 836b 3b3b
00000360: bcbb 0cbd f19d 153c fab6 85bd ae90 55bd
00000370: 79da 4b3d f15a 0f3d 6415 66bc 5803 a0bc
00000380: 7f79 3dbd da23 85bd f00c d53d 2910 73bc
00000390: b942 313d 552a 9cbc c6ee 1cbb 906d 49bd
000003a0: d07a 28bc 5182 dc3c 3acf d13d 1f2d 03be
000003b0: e1e8 f03d 0031 abbd f0da 7e3d 48ad 213d
000003c0: 7b13 c33c 4288 4fbd 122d c73d 153c d2bc
000003d0: 4d09 e83c a42f babd 0725 dabc 03a9 ec3d
000003e0: 2c17 b73c 0bca 483d 6c1b a7bc 6795 803d
000003f0: 36d8 b83d 122c 03be d6dd 8d3d 5594 39bd

fc3.bias f4 [24]
-0.06942148 0.06672986 -0.09575879 -0.10673029 -0.029525576 0.017838316 -0.065785326 0.06804887
-0.004301236 -0.1128272 0.06852121 0.09315814 0.13632818 -0.13701081 0.090129174 -0.08657728
0.06627261 0.065274164 -0.05420478 0.0681956 -0.015513267 0.10758308 -0.021085367 -0.003141405
00000000: d92c 8ebd aaa9 883d 2f1d c4bd 6995 dabd
00000010: 9fdf f1bc a921 923c 75ba 86bd 355d 8b3d
00000020: 62f1 8cbb f211 e7bd d954 8c3d b2c9 be3d
00000030: 9d99 0b3e 904c 0cbe a595 b83d 6e4f b1bd
00000040: efb9 873d 76ae 853d d505 5ebd 22aa 8b3d
00000050: 5c2b 7ebc 8554 dc3d 38bb acbc 08e0 4dbb

exp_avg f4 [128, 240]
-0.000970662 -6.378042e-05 -0.000703293 -0.00055074913 -0.0006076599 -0.00038009405 0.0001603782 -0.00029924433
-0.0006241038 -0.000577252 -0.00031073205 -0.0007364932 -0.00032545853 -0.0005622676 -0.00036864798 -0.00022401291
-0.00052032695 -0.0001308574 -0.00071978406 -0.0004383158 -0.00061102625 -0.00010475298 -0.0001392455 -0.00013911226
-0.0009339931 -9.664909e-06 -0.0006691979 -0.00056789664 -0.0005677433 -0.0003986559 0.00017515832 -0.0002620683
-0.00057664816 -0.0006144514 -0.00031555587 -0.00081318803 -0.0002993062 -0.0006249292 -0.00043515745 -0.00028418784
-0.00048378 -0.00011006741 -0.00072742475 -0.0004486991 -0.0005713856 -0.00013200141 -0.0001377126 -0.00011927207
-0.0008806138 -3.2352615e-05 -0.00069203763 -0.0005569203 -0.00055286667 -0.00044522894 0.00013514678 -0.00027997355
-0.00059672317 -0.0006180912 -0.00032777744 -0.00080697844 -0.00026371676 -0.00060920254 -0.0004427206 -0.00028722928
-0.00050276984 -9.509806e-05 -0.00074401806 -0.00051486 -0.000506962 -0.00012257117 -0.00016141872 -0.00012281313
-0.00087299093 -2.0894862e-05 -0.00068323896 -0.0006070428 -0.00063376414 -0.00041253943 0.00013195834 -0.0002883588
-0.0006106463 -0.00061362784 -0.00031598407 -0.0008113903 -0.00021339333 -0.0006184161 -0.00042248418 -0.00034461738
-0.0004993688 -8.96306e-05 -0.0007475249 -0.0005033807 -0.0004837474 -0.0001079167 -0.00017833988 -0.000120940545
-0.0008760266 -1.3590718e-05 -0.000629707 -0.0005952276 -0.0006632504 -0.00045078242 0.00011127643 -0.0003101806
-0.0006407312 -0.00060101674 -0.0002512436 -0.00083240983 -0.00023314613 -0.0006159667 -0.0004280709 -0.00031724287
-0.00048056335 -6.42278e-05 -0.0007557643 -0.00050559745 -0.0004702699 -9.5400144e-05 -0.00019973234 -0.00012268146
-0.0008853307 -6.290327e-05 -0.0005580206 -0.00055964186 -0.00065078074 -0.0004487325 9.7106065e-05 -0.0003809604
-0.0006192888 -0.00063140364 -0.0001879525 -0.0008374186 -0.00018476002 -0.0006387229 -0.000421609 -0.00035367836
-0.0004962256 -7.1844e-05 -0.0007688727 -0.00047306536 -0.0004388728 -0.000104193125 -0.00022511352 -0.00015778077
-0.00090187916 -5.6191344e-05 -0.0005385528 -0.00051469164 -0.0006484776 -0.00040430707 2.4654059e-05 -0.00039315657
-0.00065856066 -0.0006407085 -0.00018787335 -0.0008228723 -0.00010751013 -0.0006851476 -0.00047422596 -0.00023162374
-0.00051498634 -4.1586813e-05 -0.00078933395 -0.00049437734 -0.0004515554 -9.0630696e-05 -0.0002243905 -0.00023352834
-0.00090694206 -5.27745e-05 -0.0005871474 -0.00053714373 -0.0006441375 -0.00038869865 -2.1884101e-05 -0.00035970408
-0.000655919 -0.0006400912 -0.0002651164 -0.00085696107 -5.1748808e-05 -0.00068441615 -0.000474008 -0.00020811644
-0.0004932636 -3.0722673e-05 -0.0008119066 -0.0005147491 -0.00041636088 -9.2313014e-05 -0.00019940914 -0.00019534804
-0.0009335549 -3.2870972e-05 -0.0005671912 -0.00054278376 -0.0006001997 -0.00037337103 -6.4332853e-06 -0.0003840368
-0.00066018535 -0.00067103014 -0.00028818473 -0.00090545893 -0.00010091689 -0.0007115698 -0.00052149483 -0.00023146227
-0.0004876199 -3.921958e-05 -0.0008188414 -0.00049854163 -0.00033579065 -4.2115527e-05 -0.00015622818 -0.00017839773
-0.0009856786 -2.985276e-05 -0.0005852161 -0.000529622 -0.00056525506 -0.0003163901 -3.9599865e-05 -0.0003946511
-0.00074455305 -0.00062817853 -0.00034424703 -0.0009412625 -0.0001537131 -0.0007334928 -0.00048930466 -0.00026435853
-0.00048876065 1.6156118e-05 -0.0008335234 -0.0005231367 -0.00026777282 -5.7550307e-05 -0.00014876045 -0.00014842163
4.917859e-13 -2.3542853e-15 6.6176285e-13 1.4517765e-13 1.4832948e-13 3.2263786e-13 1.4393009e-13 7.87766e-15
-3.9970258e-14 9.604316e-14 2.3985994e-13 -2.7048312e-14 2.903588e-13 2.3349438e-13 2.5869904e-13 -4.0782844e-14
00000000: 0674 7eba dac1 85b8 325d 38ba 2660 10ba
00000010: 5e4b 1fba 5c47 c7b9 322b 2839 e5e3 9cb9
00000020: e69a 23ba ba52 17ba c0e9 a2b9 3911 41ba
00000030: 4ea2 aab9 2465 13ba 1847 c1b9 02e5 6ab9
00000040: 8d66 08ba c436 09b9 e4af 3cba c0cd e5b9
00000050: 472d 20ba d4ae dbb8 6e02 12b9 aade 11b9
00000060: 37d7 74ba 7826 22b7 1c6d 2fba e6de 14ba
00000070: 9cd4 14ba b002 d1b9 b4aa 3739 3666 89b9
00000080: 342a 17ba 2313 21ba 3171 a5b9 202c 55ba
00000090: 33ec 9cb9 4ad2 23ba d825 e4b9 0cff 94b9
000000a0: daa3 fdb9 fed3 e6b8 a6b0 3eba 603f ebb9
000000b0: 0ac9 15ba dc69 0ab9 f266 10b9 b421 fab8
000000c0: fed8 66ba 5bb2 07b8 dc69 35ba 4afe 11ba
000000d0: 41ee 10ba 9e6d e9b9 30b6 0d39 6ac9 92b9
000000e0: 6a6d 1cba 6607 22ba 8bd9 abb9 688b 53ba
000000f0: 7743 8ab9 e4b2 1fba f41c e8b9 4397 96b9
00000100: 50cc 03ba 626f c7b8 350a 43ba abf7 06ba
00000110: a5e5 04ba 7386 00b9 8242 29b9 66c7 00b9
00000120: 6ed9 64ba 6047 afb7 641b 33ba f421 1fba
00000130: 3123 26ba 1b4a d8b9 4c5e 0a39 dd2e 97b9
00000140: c813 20ba dedb 20ba aaaa a5b9 7bb3 54ba
00000150: 56c2 5fb9 341d 22ba de80 ddb9 c3ad b4b9
00000160: 13e8 02ba 10f8 bbb8 8cf5 43ba 4ff5 03ba
00000170: 7a9f fdb9 5651 e2b8 bf00 3bb9 76a1 fdb8
00000180: 26a5 65ba b003 64b7 ec12 25ba 0c09 1cba
00000190: fbdd 2dba fe56 ecb9 145d e938 bc9f a2b9
000001a0: bef6 27ba 8d8d 1dba 58b9 83b9 1436 5aba
000001b0: b078 74b9 d378 21ba b46e e0b9 9e53 a6b9
000001c0: 1ff4 fbb9 0ab2 86b8 7c1e 46ba 128a 04ba
000001d0: 8f8e f6b9 9011 c8b8 3e6f 51b9 0ea4 00b9
000001e0: 8a15 68ba f0ea 83b8 2148 12ba eeb4 12ba
000001f0: 2899 2aba db43 ebb9 6ca5 cb38 a4bb c7b9
00000200: c557 22ba c884 25ba 1d15 45b9 3686 5bba
00000210: 24bc 41b9 f86f 27ba 670b ddb9 e86d b9b9
00000220: 2315 02ba f4aa 96b8 2c8e 49ba c205 f8b9
00000230: 8318 e6b9 4282 dab8 730c 6cb9 f471 25b9
00000240: 166c 6cba ffae 6bb8 ab2d 0dba 5fec 06ba
00000250: 98fe 29ba 2df9 d3b9 30d0 ce37 9520 ceb9
00000260: 42a3 2cba 38f5 27ba deff 44b9 06b6 57ba
00000270: 1077 e1b8 7a9b 33ba 88a1 f8b9 06e0 72b9
00000280: 2600 07ba 806d 2eb8 4eeb 4eba 1a99 01ba
00000290: bdbe ecb9 fc10 beb8 5e4a 6bb9 49df 74b9
000002a0: dabf 6dba 305a 5db8 ccea 19ba 1bcf 0cba
000002b0: 56db 28ba 40ca cbb9 c093 b7b7 aa96 bcb9
000002c0: fbf1 2bba cbcb 27ba 52ff 8ab9 afa5 60ba
000002d0: dc0c 59b8 646a 33ba 4784 f8b9 d539 5ab9
000002e0: 5c4e 01ba 38dc 00b8 21d6 54ba 3af0 06ba
000002f0: 034b dab9 2c98 c1b8 7c18 51b9 57d6 4cb9
00000300: cfb9 74ba f0de 09b8 8faf 14ba 9a49 0eba
00000310: b856 1dba 03c1 c3b9 80dd d7b6 8c58 c9b9
00000320: 4a10 2dba 12e8 2fba 8017 97b9 525c 6dba
00000330: 58a3 d3b8 a488 3aba edb4 08ba aeb4 72b9
00000340: 3ca7 ffb9 b47f 24b8 84a7 56ba 90b0 02ba
00000350: 0f0d b0b9 34a5 30b8 2fd1 23b9 4710 3bb9
00000360: e331 81ba 506c fab7 3069 19ba 55d6 0aba
00000370: a02d 14ba 29e1 a5b9 0818 26b8 2de9 ceb9
00000380: 1c2e 43ba 59ac 24ba 0e7c b4b9 0fbf 76ba
00000390: 0c2e 21b9 de47 40ba ae44 00ba 9a99 8ab9
000003a0: 2c20 00ba 0087 8737 cf80 5aba 1c23 09ba
000003b0: dc63 8cb9 2c62 71b8 94fc 1bb9 a1a1 1bb9
000003c0: e96c 0a2b e6a4 29a7 0a45 3a2b 9c74 232a
000003d0: 1001 272a 04a1 b52a 060d 222a 4be9 0d28
000003e0: 9202 34a9 1d45 d829 7607 872a 29a1 f3a8
000003f0: 1d75 a32a 1672 832a 76a2 912a 6bab 37a9

exp_avg_sq f4 [128, 240]
4.504101e-06 8.8973985e-07 2.941995e-06 1.075861e-06 1.2649964e-06 1.3008581e-06 8.568694e-07 8.364653e-07
2.8619484e-06 1.2139847e-06 1.1528501e-06 2.526137e-06 1.4985164e-06 8.139478e-07 6.755789e-07 1.5019509e-06
1.721794e-06 2.1145595e-06 3.3018455e-06 1.4669732e-06 2.0329207e-06 8.6879e-07 1.0199365e-06 9.230178e-07
4.5086526e-06 9.2722485e-07 2.9289774e-06 1.1143743e-06 1.2965626e-06 1.3372878e-06 8.906578e-07 8.402087e-07
2.8682389e-06 1.1992882e-06 1.1250022e-06 2.4980839e-06 1.4689566e-06 8.422879e-07 7.045608e-07 1.5114582e-06
1.7283744e-06 2.1245658e-06 3.2574133e-06 1.4156525e-06 2.0818457e-06 8.869315e-07 9.886429e-07 9.1437477e-07
4.5696347e-06 9.3390435e-07 2.9637536e-06 1.1135359e-06 1.3086993e-06 1.3354874e-06 8.8694185e-07 8.5594246e-07
2.881993e-06 1.1898826e-06 1.1199116e-06 2.5100676e-06 1.5180007e-06 8.348696e-07 6.8524554e-07 1.5024694e-06
1.7170212e-06 2.130334e-06 3.2412395e-06 1.4152504e-06 2.0563605e-06 8.6102426e-07 1.0024053e-06 9.4953435e-07
4.5654388e-06 9.604507e-07 2.9668658e-06 1.1236326e-06 1.321175e-06 1.3211269e-06 9.06201e-07 8.854401e-07
2.8698294e-06 1.2159736e-06 1.1162997e-06 2.4940637e-06 1.5140887e-06 8.415405e-07 6.726823e-07 1.504449e-06
1.7052679e-06 2.121569e-06 3.1907555e-06 1.4123893e-06 2.0457687e-06 8.8249163e-07 1.01834e-06 9.4350435e-07
4.5623183e-06 9.548633e-07 2.9692217e-06 1.1365645e-06 1.3376882e-06 1.308677e-06 9.1043586e-07 8.9705645e-07
2.845416e-06 1.220355e-06 1.1132463e-06 2.5007657e-06 1.5243597e-06 8.2793207e-07 6.620259e-07 1.5113775e-06
1.7124592e-06 2.097576e-06 3.2417038e-06 1.4169598e-06 2.0479167e-06 9.040321e-07 1.0298154e-06 9.645368e-07
4.536442e-06 9.3503195e-07 2.9929172e-06 1.1089134e-06 1.350354e-06 1.3253684e-06 9.522233e-07 9.080513e-07
2.8625784e-06 1.2363256e-06 1.0998358e-06 2.5029065e-06 1.5651005e-06 8.142763e-07 6.7342603e-07 1.52754e-06
1.7312158e-06 2.0804216e-06 3.2180913e-06 1.4336374e-06 2.031236e-06 8.98559e-07 1.0073718e-06 9.720003e-07
4.5299266e-06 9.0571115e-07 3.0449464e-06 1.1100742e-06 1.3975268e-06 1.3258268e-06 9.3468816e-07 9.0739803e-07
2.885319e-06 1.2641333e-06 1.1306637e-06 2.5155434e-06 1.6019696e-06 8.05563e-07 6.8162603e-07 1.5272489e-06
1.7249162e-06 2.072029e-06 3.191257e-06 1.482956e-06 2.0156654e-06 9.279527e-07 9.891908e-07 9.639732e-07
4.473599e-06 8.779352e-07 3.0746564e-06 1.1019536e-06 1.3713994e-06 1.303401e-06 9.631652e-07 9.2633275e-07
2.9278644e-06 1.2783482e-06 1.1302334e-06 2.5029647e-06 1.5874247e-06 8.452166e-07 6.841693e-07 1.4967866e-06
1.7723937e-06 2.06283e-06 3.1589611e-06 1.4759863e-06 1.9959764e-06 9.513592e-07 1.0110865e-06 9.884972e-07
4.428918e-06 8.588196e-07 3.1323182e-06 1.123874e-06 1.4508578e-06 1.2982882e-06 9.487342e-07 8.9162427e-07
2.9539121e-06 1.2801265e-06 1.1237038e-06 2.5177403e-06 1.591945e-06 9.0392604e-07 6.863347e-07 1.479935e-06
1.7750195e-06 2.0859218e-06 3.139031e-06 1.4819302e-06 1.9831682e-06 9.935537e-07 1.0537857e-06 9.808903e-07
4.4317753e-06 8.4411715e-07 3.125857e-06 1.1231022e-06 1.523978e-06 1.2773085e-06 1.0041323e-06 8.898381e-07
2.9501243e-06 1.3366755e-06 1.1175733e-06 2.5354564e-06 1.5547371e-06 9.366553e-07 6.66322e-07 1.4542815e-06
1.7773611e-06 2.0776988e-06 3.101648e-06 1.4910646e-06 1.9843762e-06 1.0390761e-06 1.0638411e-06 9.699661e-07
1.1362551e-08 7.9772616e-10 1.5487945e-08 6.056904e-10 1.6934002e-09 4.9317066e-09 1.9553625e-09 6.2832906e-10
2.3020157e-09 1.201265e-09 3.0202478e-09 2.1210875e-09 4.725762e-09 3.176205e-09 3.776017e-09 1.9670099e-10
00000000: ef21 9736 75d6 6e35 176f 4536 4d66 9035
00000010: f2c8 a935 2599 ae35 9e03 6635 7589 6035
00000020: e60f 4036 32f0 a235 a1bb 9a35 b486 2936
00000030: a220 c935 117e 5a35 6e59 3535 a496 c935
00000040: 6418 e735 dbe7 0d36 4695 5d36 d1e4 c435
00000050: 506d 0836 cb36 6935 c0e4 8835 4dc5 7735
00000060: 0849 9736 68e6 7835 738f 4436 9c91 9535
00000070: 8d05 ae35 dc7c b335 8a15 6f35 b48a 6135
00000080: f87b 4036 3bf7 a035 c8fe 9635 c1a4 2736
00000090: f728 c535 9519 6235 0d21 3d35 4fdd ca35
000000a0: 7efa e735 c393 0e36 ef99 5a36 7301 be35
000000b0: d6b5 0b36 7815 6e35 83b1 8435 5b73 7535
000000c0: dd54 9936 6bb1 7a35 e6e4 4636 cd74 9535
000000d0: 91a6 af35 ff3e b335 2e16 6e35 ebc3 6535
000000e0: 4368 4136 0eb4 9f35 df4f 9635 a272 2836
000000f0: 1bbe cb35 cd1b 6035 b7f1 3735 75a8 c935
00000100: 6674 e635 dcf6 0e36 1284 5936 a2f3 bd35
00000110: 0100 0a36 2321 6735 628a 8635 81e3 7e35
00000120: d230 9936 d6e8 8035 5e1a 4736 b9cf 9635
00000130: 3a53 b135 9351 b135 a941 7335 fbae 6d35
00000140: 4b97 4036 8934 a335 c4d3 9535 b05f 2736
00000150: b137 cb35 39e6 6135 6092 3435 79ec c935
00000160: 8fe0 e435 4760 0e36 c320 5636 5491 bd35
00000170: 0a4a 0936 5de4 6c35 e5ad 8835 2045 7d35
00000180: 0416 9936 da28 8035 d742 4736 0f8c 9835
00000190: 9e8a b335 cda5 af35 ad64 7435 40cd 7035
000001a0: e0f3 3e36 14cb a335 da6a 9535 d4d2 2736
000001b0: 9a98 cc35 0f3f 5e35 13b6 3135 89da ca35
000001c0: a6d7 e535 15c4 0c36 0c8c 5936 5e2e be35
000001d0: f16e 0936 9dac 7235 3038 8a35 3b75 8135
000001e0: bd37 9836 e8fe 7a35 edd9 4836 f9d5 9435
000001f0: cf3d b535 50e3 b135 499c 7f35 cfc0 7335
00000200: b91a 4036 d3ef a535 129e 9335 9bf7 2736
00000210: 7210 d235 a494 5a35 7cc5 3435 e005 cd35
00000220: 1f5c e835 5f9d 0b36 63f6 5736 686b c035
00000230: 5e50 0836 8134 7135 0835 8735 ad75 8235
00000240: c6ff 9736 ff1f 7335 c857 4c36 dcfd 9435
00000250: a892 bb35 10f3 b135 48e7 7a35 eb93 7335
00000260: 67a1 4136 4aab a935 4fc1 9735 b5d0 2836
00000270: 4203 d735 de3d 5835 fcf8 3635 dffb cc35
00000280: ab83 e735 300d 0b36 6129 5636 fb09 c735
00000290: de44 0736 6d18 7935 56c4 8435 de61 8135
000002a0: ec1b 9636 3fab 6b35 3256 4e36 d6e6 9335
000002b0: ed10 b835 84f0 ae35 1b46 8135 1aa9 7835
000002c0: 547c 4436 b693 ab35 86b2 9735 9bf8 2736
000002d0: 7f0f d535 d8e2 6235 c2a7 3735 32e5 c835
000002e0: fce2 ed35 266f 0a36 8afe 5336 811a c635
000002f0: 9df2 0536 e860 7f35 abb4 8735 81ac 8435
00000300: 1e9c 9436 a289 6635 d134 5236 04d8 9635
00000310: 18bb c235 d840 ae35 85ac 7e35 f457 6f35
00000320: d33b 4636 d0d0 ab35 2bd2 9635 73f6 2836
00000330: d0aa d535 53a5 7235 903c 3835 2ea2 c635
00000340: 353d ee35 ddfb 0b36 24a8 5236 bce6 c635
00000350: 9216 0536 3f5a 8535 cd6f 8d35 22a7 8335
00000360: a9b4 9436 4a97 6235 d0c5 5136 7fbd 9635
00000370: 7c8b cc35 fc6f ab35 b9c5 8635 35dd 6e35
00000380: c0fa 4536 d267 b335 87ff 9535 cf26 2a36
00000390: 5cac d035 766e 7b35 4ddd 3235 bb30 c335
000003a0: aa8d ee35 986e 0b36 e825 5036 9720 c835
000003b0: 532b 0536 6276 8b35 4dc9 8e35 c82f 8235
000003c0: 0735 4332 fd46 5b30 5a0a 8532 ac7d 2630
000003d0: 39bd e830 c073 a931 1a5f 0631 bab6 2c30
000003e0: 7d31 1e31 c119 a530 c38c 4f31 91c2 1131
000003f0: 3e60 a231 6444 5a31 32be 8131 6846 582f

exp_avg f4 [128]
-0.0007641604 4.7088353e-13 2.5049521e-05 -0.00040654597 1.5104523e-13 0.0 2.2367464e-12 2.9639466e-13
-0.00023350146 -0.0011769828 5.011351e-13 -0.0002673251 2.5199571e-12 0.0 -0.00010423052 -0.00030279855
1.3253515e-13 1.2939884e-13 0.0 -0.00039301126 -6.9356785e-05 7.04549e-05 -0.00059114955 -0.00068753434
0.0004277195 0.00016656349 0.0 1.390608e-14 -0.0003594045 1.7073449e-13 -0.00037065722 3.0215606e-13
2.2586488e-12 1.879183e-13 3.850824e-13 0.00031121474 -0.0010936757 6.1821303e-12 3.1893242e-12 8.547454e-14
-0.0005545132 1.5712943e-15 -0.0009765072 -0.00012820185 -0.0004146019 1.6466166e-14 0.0 -0.0007643583
-0.00076250196 0.001242886 2.0879485e-12 -0.0007997442 0.00078394316 3.934389e-11 -0.00070217974 8.36376e-05
3.142393e-05 -0.0004004368 1.4936295e-12 3.0668615e-13 -0.00046279482 -7.638399e-05 7.2599156e-05 -0.00074139296
7.873571e-13 -0.00034617173 -0.00039331437 -4.5328197e-05 8.175074e-12 -0.00094649964 -0.00043610646 3.856577e-13
8.631956e-11 -0.00035657972 0.00025105337 -0.00051189377 7.5580054e-12 7.819139e-14 4.3534213e-12 0.00018283282
2.0054208e-13 -0.00046257197 -0.00048373555 1.9412267e-13 1.850253e-12 1.0309211e-14 3.683277e-12 -0.00034074264
-0.0005556247 1.1133741e-12 -0.00036285148 -0.0009127108 5.719874e-14 3.52209e-12 2.3452208e-12 0.0
-0.0003295626 3.025768e-10 -0.00071510195 4.9130665e-12 6.152933e-13 -0.00086980645 0.00025346543 -0.00018912593
3.4568707e-13 -0.0012114311 0.00038565008 1.5786408e-13 -0.000751345 7.1462936e-13 2.6952527e-12 0.0
0.00036678754 -0.00043621284 7.496718e-14 1.9107776e-13 2.4956935e-12 -0.00077354565 1.8865745e-13 -0.00076974987
-0.00076548365 2.7619504e-12 0.0 0.0001627501 1.6475043e-13 4.889055e-13 5.3339037e-15 0.0
00000000: f051 48ba bc8a 042b 7021 d237 ad25 d5b9
00000010: d30f 2a2a 0000 0000 a465 1d2c f9da a62a
00000020: 12d8 74b9 fd44 9aba 970e 0d2b c427 8cb9
00000030: 8353 312c 0000 0000 5696 dab8 efc0 9eb9
00000040: a838 152a adb0 112a 0000 0000 140d ceb9
00000050: a473 91b8 30c1 9338 60f7 1aba a63b 34ba
00000060: 8a3f e039 8ca7 2e39 0000 0000 7a82 7a28
00000070: 756e bcb9 de3a 402a c554 c2b9 4719 aa2a
00000080: 33f0 1e2c c393 532a 39c8 d82a 892a a339
00000090: ab59 8fba ae83 d92c c26d 602c b878 c029
000000a0: c05c 11ba 8772 e226 4afc 7fba ec6d 06b9
000000b0: ed5e d9b9 6550 9428 0000 0000 385f 48ba
000000c0: a4e2 47ba 55e8 a23a 23ed 122c eda5 51ba
000000d0: 8981 4d3a 4809 2d2e 7c12 38ba 9866 af38
000000e0: 30cd 0338 b8f1 d1b9 ad35 d22b 22a6 ac2a
000000f0: 45a3 f2b9 5830 a0b8 6040 9838 0a5a 42ba
00000100: 0f9f 5d2b 627e b5b9 c335 ceb9 c81e 3eb8
00000110: 43d1 0f2d 841e 78ba 38a5 e4b9 221b d92a
00000120: 98d1 bd2e 52f3 bab9 d09f 8339 9c30 06ba
00000130: 3bf6 042d 4412 b029 222c 992c d0b6 3f39
00000140: 52ca 612a 5c85 f2b9 e39d fdb9 0d90 5a2a
00000150: 3233 022c d8b6 3928 0398 812c b4a5 b2b9
00000160: 58a7 11ba 88b1 9c2b 1a3d beb9 fc42 6fba
00000170: d4cc 8029 55d8 772c be07 252c 0000 0000
00000180: 25c9 acb9 e657 a62f ae75 3bba f8dc ac2c
00000190: 8e30 2d2b b903 64ba 8ee3 8439 1b50 46b9
000001a0: c29a c22a e2c8 9eba 1431 ca39 39bd 312a
000001b0: e9f5 44ba 7926 492b 5ba9 3d2c 0000 0000
000001c0: 644d c039 7fb3 e4b9 a3cf a829 6a22 572a
000001d0: 6b9e 2f2c c5c7 4aba cf68 542a 0ac9 49ba
000001e0: bdaa 48ba e05a 422c 0000 0000 e6a7 2a39
000001f0: 147e 392a 5b9d 092b 942c c027 0000 0000

exp_avg_sq f4 [128]
4.9196437e-06 1.16087335e-08 4.0847744e-06 3.7505522e-06 2.4408122e-09 0.0 1.7412995e-07 3.6592127e-09
1.7717291e-06 2.2325976e-06 1.1756269e-08 1.0165733e-05 1.4138718e-07 0.0 2.3789626e-06 1.068881e-05
9.0219077e-10 1.903238e-09 0.0 4.293391e-06 7.2245757e-06 8.9415225e-06 4.6555565e-06 1.0630587e-05
2.849599e-06 1.3110966e-06 0.0 1.6953805e-11 3.08976e-06 2.5059435e-09 3.2455598e-06 9.218736e-09
2.0783582e-07 7.628783e-09 2.3452356e-09 4.1270528e-06 7.1923682e-06 4.2588863e-07 1.03596356e-07 9.742996e-10
1.2169738e-05 2.6696467e-13 6.861769e-06 1.0401075e-05 9.893633e-06 3.6157972e-11 0.0 5.2724117e-06
4.216386e-06 3.070994e-06 1.4070632e-07 8.544817e-06 1.4242337e-06 9.5260197e-07 6.9233956e-06 1.395748e-06
6.779435e-06 5.811113e-06 8.4031505e-08 5.380712e-09 7.168016e-06 2.1495687e-06 7.656964e-06 3.1481222e-06
3.818124e-08 1.8099112e-06 8.7561975e-06 9.10076e-06 1.4259054e-07 3.8070464e-06 4.279476e-06 1.0925468e-08
3.6501926e-06 8.279809e-06 3.7174118e-06 3.7491675e-06 2.636885e-07 6.610837e-10 1.09675376e-07 9.060313e-06
2.2709807e-09 2.702504e-06 6.452653e-06 9.446145e-10 1.4640622e-07 9.3176985e-12 3.4047343e-07 2.7185874e-06
5.0368603e-06 3.48904e-08 3.0908595e-06 9.5882915e-06 3.603706e-10 2.6970983e-07 9.7846566e-08 0.0
3.571304e-06 7.460807e-10 3.5727523e-06 5.277836e-07 2.4529546e-08 6.94226e-06 6.635353e-06 2.9781786e-06
3.502785e-09 3.1187235e-06 6.5598942e-06 2.2203572e-09 3.945648e-06 2.8391302e-08 1.1495925e-07 0.0
2.4371784e-06 7.177656e-06 5.0339316e-10 1.5257124e-09 1.327307e-07 6.2127156e-06 1.5964429e-09 5.3361873e-06
7.798376e-06 2.396886e-07 0.0 2.6212738e-06 2.1381532e-09 6.0431935e-09 3.794102e-12 0.0
00000000: 6b13 a536 c06f 4732 f20f 8936 ffb1 7b36
00000010: 39bb 2731 0000 0000 7af8 3a34 8d75 7b31
00000020: 26cc ed35 bcd3 1536 9ef8 4932 7e8d 2a37
00000030: 36d0 1734 0000 0000 44a6 1f36 1754 3337
00000040: 08fe 7730 1eca 0231 0000 0000 f30f 9036
00000050: a26a f236 8c03 1637 ed36 9c36 065a 3237
00000060: bd3b 3f36 f0f8 af35 0000 0000 9320 952d
00000070: ac59 4f36 0635 2c31 4bce 5936 6e60 1e32
00000080: 7a29 5f34 be0f 0332 d229 2131 1d7b 8a36
00000090: f955 f136 b0a5 e434 b378 de33 1fe8 8530
000000a0: a02c 4c37 aa49 962a 263e e636 4780 2e37
000000b0: d5fc 2537 4206 1f2e 0000 0000 ace9 b036
000000c0: 7b7a 8d36 4617 4e36 0f15 1734 b65b 0f37
000000d0: 4c28 bf35 4fb6 7f35 844f e836 8955 bb35
000000e0: e77a e336 15fd c236 cf74 b433 3ee1 b831
000000f0: ca84 f036 4f41 1036 6976 0037 5444 5336
00000100: b8fc 2333 13ec f235 95e7 1237 77af 1837
00000110: fd1a 1934 8f7c 7f36 6b98 8f36 b7b2 3b32
00000120: d5f5 7436 82e9 0a37 a678 7936 359a 7b36
00000130: 1291 8d34 a1b7 3530 ad86 eb33 bf01 1837
00000140: 840f 1c31 aa5c 3536 de83 d836 abd3 8130
00000150: d633 1d34 2feb 232d 50ca b634 fa70 3636
00000160: 4d02 a936 67da 1533 906c 4f36 66dd 2037
00000170: a71d c62f a3cc 9034 b81f d233 0000 0000
00000180: 89aa 6f36 c314 4d30 6bc3 6f36 03ad 0d35
00000190: 0bb5 d232 8ff1 e836 40a5 de36 b8dc 4736
000001a0: a5b5 7031 434b 5136 101d dc36 f094 1831
000001b0: dc64 8436 22e1 f332 84df f633 0000 0000
000001c0: 688e 2336 98d7 f036 255f 0a30 3cb1 d130
000001d0: bd84 0e34 d276 d036 d769 db30 800d b336
000001e0: c5d5 0237 8dae 8034 0000 0000 24e9 2f36
000001f0: caee 1231 7ea4 cf31 3c7e 852c 0000 0000
