models/RaceModels/binary_pos_3copies0to10_threelayersdropout0.5/model.pt (torch, 538205 bytes, 24 tensors)

fc1.weight f4 [128, 240]
0	0xbc16aa49	-0.009195873
1	0xbd87ffa1	-0.06640554
2	0x3c93ff1d	0.018065983
3	0x3d0d2265	0.03445663
4	0xbced4015	-0.02896122
5	0xbcb38835	-0.021915535
6	0xbd908e9f	-0.07058453
7	0x3cd98843	0.026554232
8	0xbd6d889e	-0.057991616
9	0x3ce7afcf	0.028282074
10	0x3cff3061	0.031150999
11	0xbcb25fa2	-0.021774117
12	0x3d0b715a	0.034043647
13	0x3d8cd760	0.06877017
14	0xbd83813a	-0.064211324
15	0x3d0cc996	0.034371935
16	0x3d0bb220	0.03410542
17	0x3d82dd6d	0.0638989
18	0xbd69d2b0	-0.057085693
19	0xbaec9f7e	-0.0018052903
20	0x3c8c822c	0.017151915
21	0x3d34ed57	0.044171657
22	0xbca347f4	-0.01993177
23	0xbd8b4f42	-0.068022266
24	0xbc9b408d	-0.018951679
25	0xbc724bf9	-0.014788621
26	0x3c9e2a01	0.019307138
27	0x3d1db202	0.03849984
28	0xbd4c6d80	-0.049909115
29	0xbc82ec8f	-0.01598194
30	0x3c8a2e2b	0.016867718
31	0xbcbcbc40	-0.023038983
32	0xbc897f37	-0.016784294
33	0xbd665141	-0.056229834
34	0x3d4e5d49	0.050381932
35	0xbd0080a1	-0.03137267
36	0x3d6cca53	0.05781014
37	0x3c14105b	0.009037103
38	0xbd1d18f0	-0.03835386
39	0xbd9cff08	-0.07665831
40	0xbc77cf71	-0.0151251415
41	0xbcedad99	-0.029013442
42	0x3d49fe10	0.04931456
43	0xbcdeb582	-0.027186159
44	0x3c196480	0.00936234
45	0x3cde4dd8	0.027136728
46	0xbd836732	-0.06416167
47	0x3b5ef828	0.0034022424
48	0xbca5219e	-0.020157631
49	0xbd9c3cbe	-0.07628773
50	0xbc6cd4a4	-0.014454994
51	0x3cf4630e	0.02983239
52	0x3ccf7312	0.025323424
53	0x3c2e86b3	0.010652232
54	0x3d022a9c	0.031778917
55	0xbd483b95	-0.048884947
56	0x3baf885f	0.005356833
57	0x3c0de8f0	0.008661494
58	0x3d37e12f	0.044892486
59	0xbd564429	-0.052311096
60	0xbd24cfcf	-0.040237244
61	0xbd2e7ee8	-0.042601496
62	0xbc1c4eb1	-0.009540246
63	0xbce9e2a3	-0.028550452
64	0xbd4d1815	-0.050071795
65	0xbc82b22a	-0.015954096
66	0x3d09a402	0.033603676
67	0xbd30c090	-0.043152392
68	0xbc56511c	-0.013080861
69	0xbc33b2a7	-0.010967887
70	0x3d244a72	0.04011006
71	0xbcf78ff9	-0.030220019
72	0x3d387f29	0.045043144
73	0xbcb0b2ea	-0.021569688
74	0x3d6f9a0d	0.058496524
75	0xbcf23227	-0.02956493
76	0x3c6b4e11	0.014361874
77	0xbd2dadd5	-0.042402107
78	0xbd78c380	-0.06073332
79	0x3c123614	0.008924026
80	0xbcbc056c	-0.022951804
81	0x3cdfae87	0.0273049
82	0xbcda8f20	-0.026679575
83	0xbcd0b281	-0.025475742
84	0x3d3c1dd1	0.045926873
85	0x3d63b59f	0.05559313
86	0xbc7433bd	-0.0149049135
87	0xbca03991	-0.0195587
88	0xbc8e6c45	-0.017385611
89	0xbd4da934	-0.050210193
90	0x3d47f83a	0.04882071
91	0x3d007875	0.031364877
92	0x3b6fd4ac	0.0036595268
93	0xbd816408	-0.063179076
94	0xbc81f127	-0.01586206
95	0xbb736ba7	-0.0037143023
96	0x3ca944fc	0.020662777
97	0xbda4c298	-0.08044928
98	0xbd08873f	-0.033332106
99	0x3cab4099	0.020904826
100	0x3d7df4ae	0.062000923
101	0xbc9a7116	-0.018852752
102	0xbd261144	-0.04054381
103	0x3d46c4b9	0.048527453
104	0x3c9760f5	0.01847885
105	0x3a4c6bb6	0.00077980326
106	0xba6a8d75	-0.00089474703
107	0x3cf1974e	0.029491093
108	0xbcfb11f6	-0.030648213
109	0x3b082959	0.0020776598
110	0xbd36d690	-0.044638216
111	0x3d1c161d	0.038107026
112	0xba761418	-0.00093871495
113	0xbd1387fe	-0.036018364
114	0xbbb0e073	-0.00539785
115	0x3bc45f45	0.0059928023
116	0xbd239bbc	-0.03994344
117	0xbba6cdb6	-0.0050904406
118	0xbc97164b	-0.018443247
119	0xbd3fd6c7	-0.046835687
120	0x3c9de0a5	0.019272158
121	0xbd4f782a	-0.050651707
122	0x3d32a047	0.043609884
123	0xbd5811a5	-0.052751202
124	0x3d8375ce	0.06418954
125	0xbbde609e	-0.00678642
126	0xbd435dd0	-0.04769689
127	0x3c695f7b	0.014243956
128	0x3d39ed94	0.045392588
129	0xbc340c15	-0.010989209
130	0x3cb3d233	0.021950817
131	0xbd353621	-0.044241074
132	0x3c46bc34	0.012129832
133	0x3d2af89f	0.04174101
134	0xbc968067	-0.018371774
135	0xbda6bd4a	-0.08141573
136	0xbd38b5f6	-0.045095406
137	0xbc49e6fb	-0.012323136
138	0xbbc73b94	-0.0060801003
139	0x3d421080	0.047379017
140	0xbcb5db25	-0.022199223
141	0xbd041b6c	-0.032252714
142	0xbc858c7a	-0.016302336
143	0xbd551040	-0.05201745
144	0xbc4ba894	-0.012430329
145	0xbc9fb2e6	-0.019494485
146	0x3bd9a106	0.00664151
147	0xbd9ac9a7	-0.075579934
148	0x3cf8d3f8	0.030374512
149	0x3d29d865	0.041466136
150	0x3cce3138	0.025169954
151	0xbd4f5217	-0.050615396
152	0xbd883e4f	-0.066525094
153	0xbab06977	-0.0013459165
154	0x3c9a35d8	0.018824503
155	0x3c800e5a	0.015631843
156	0x3a10e432	0.0005527168
157	0x3b9fd67d	0.004877864
158	0xbd728709	-0.05921081
159	0xbcfd9ad8	-0.030957624
160	0xbd117349	-0.035510335
161	0xbd72fd77	-0.059323754
162	0x3cee81fb	0.029114714
163	0xbb7fed76	-0.003905145
164	0x3c87efdd	0.016593868
165	0x3d750615	0.059820253
166	0xbd82a3d2	-0.063789025
167	0xbd97d9e1	-0.07414604
168	0xbcf4dbc5	-0.02988995
169	0x3d008381	0.031375412
170	0xbd5a30d6	-0.05326923
171	0x3ca15730	0.019694895
172	0x3d35154d	0.044209767
173	0x3c8daf1c	0.017295413
174	0x3c825420	0.015909255
175	0x3c4ffced	0.01269458
176	0xbda11ddd	-0.07867024
177	0x3d4e9c9b	0.05044232
178	0x3cdfe9ee	0.027333226
179	0xbd0d4e90	-0.03449875
180	0xbd43d1a9	-0.04780737
181	0xbd39b15f	-0.04533517
182	0xbbf4587e	-0.007456838
183	0xbda7510b	-0.081697546
184	0x3c24f9bf	0.01006931
185	0x3d7a02fd	0.061038006
186	0xbd29ef91	-0.041488234
187	0x3d261cba	0.04055474
188	0xbc35c0ec	-0.011093359
189	0x3c8e3625	0.017359802
190	0xbc424705	-0.011857753
191	0x3cdf5dc0	0.027266383
192	0x3d24dd76	0.040250264
193	0xbd23397c	-0.039849743
194	0xbd321639	-0.043478224
195	0xbd4bae13	-0.049726557
196	0xbce75e06	-0.028243076
197	0x3d0157c2	0.031577833
198	0xbd0786e2	-0.03308762
199	0x3c92d05e	0.017921623
200	0x3ce55ab1	0.027997347
201	0x3c858d1e	0.016302641
202	0xbce02139	-0.027359592
203	0xbcd38993	-0.025822436
204	0x3ce0a43e	0.027422067
205	0xb9a5edce	-0.0003164843
206	0xbd2448c9	-0.040108476
207	0xbd5bb2d8	-0.053637356
208	0x3c677a9c	0.014128353
209	0x3d8c72e8	0.06857854
210	0xbd983458	-0.07431859
211	0xbc841d6a	-0.016127307
212	0xba97d951	-0.0011585151
213	0xbc88a880	-0.01668191
214	0x3d3f24cf	0.046665963
215	0x3c032aae	0.008005781
216	0xbc9ad6e7	-0.018901302
217	0xbd84ce25	-0.064846314
218	0xbc95e388	-0.018296972
219	0xbc458b3e	-0.012057124
220	0xbd2a751d	-0.041615594
221	0xbc57e400	-0.013176918
222	0xbbd20187	-0.0064088735
223	0xbd87779f	-0.06614613
224	0xbd117b83	-0.03551818
225	0xbcb67798	-0.022273824
226	0xbce1fe7f	-0.027587174
227	0xbd193070	-0.03739971
228	0x3d3d5d04	0.046231285
229	0x3d0ecd01	0.034863476
230	0xbc6ea989	-0.0145667875
231	0x3c747e2a	0.014922658
232	0x3d73f01f	0.05955517
233	0x3b33362e	0.0027345526
234	0x3cee5644	0.029093869
235	0xbcef022f	-0.029175846
236	0xbd3adcd4	-0.045620754
237	0xbd8fa421	-0.07013727
238	0x3d3cd635	0.04610272
239	0x3cec21b7	0.02882467
240	0xbd513b33	-0.051081847
241	0xbd26e877	-0.04074904
242	0x3d10e835	0.0353777
243	0xbcdada7a	-0.026715506
244	0xbd8a329e	-0.06747936
245	0xbcecefc4	-0.028922923
246	0x3d58d843	0.05294062
247	0xbcdc3cf9	-0.026884543
248	0xbd5d54f2	-0.05403609
249	0x3c1fce8f	0.009753837
250	0xbc757ee6	-0.014983868
251	0xbd7e7eee	-0.06213277
252	0x3d3a01c4	0.04541184
253	0xbc06ce62	-0.008227916
254	0xbd6c5862	-0.057701476
255	0xbbb5ab91	-0.005544134

fc1.bias f4 [128]
0	0x3bdc0884	0.0067148823
1	0x3d4a7c35	0.04943486
2	0xbc307779	-0.010770672
3	0x3d08b1bd	0.03337263
4	0x3ce9a8d1	0.02852288
5	0xbda5f38a	-0.08103092
6	0xbcc69f24	-0.024245806
7	0xbd34296e	-0.043984823
8	0x3d0d25e5	0.034459967
9	0xbcc1ee59	-0.023673223
10	0x3da98999	0.08278198
11	0x3cfaf9eb	0.030636748
12	0x3d619aa0	0.055079103
13	0x3d451389	0.048114333
14	0xbd3c6529	-0.04599491
15	0xbd0538bc	-0.03252481
16	0x3d3e11b1	0.04640359
17	0xbca97cbc	-0.02068936
18	0xbc470151	-0.01214631
19	0xbcf2e24e	-0.029648926
20	0x3c1fc0d6	0.0097505655
21	0x3c2fa2d6	0.010719975
22	0xbcd7e7dc	-0.026355676
23	0x3c3f0119	0.011657977
24	0x3c0f4ebd	0.0087468
25	0x3d3a15fd	0.045431126
26	0x3ba1d227	0.004938382
27	0xbd16c7b5	-0.03681155
28	0xbd10b5fd	-0.035329808
29	0x3c90a124	0.017654963
30	0x3cbc9bf2	0.02302358
31	0xbcd6c208	-0.026215568
32	0x3a4b1cd0	0.0007748129
33	0x3c40229a	0.011727
34	0xbd711c66	-0.058864973
35	0xbcab9592	-0.020945344
36	0x3c677842	0.014127793
37	0x3d2d2240	0.04226899
38	0xbb3bc791	-0.0028652886
39	0x3b67447f	0.003528863
40	0xbcd2459e	-0.025667962
41	0xbd0729eb	-0.03299896
42	0x3ceb1a53	0.028699076
43	0xbdbcc2a1	-0.0921681
44	0x3cdf0e43	0.02722848
45	0xbc48da21	-0.012259037
46	0x3c0253b4	0.007954527
47	0x3c5a9be0	0.013342828
48	0xbc500346	-0.012696093
49	0x3c99adf4	0.018759705
50	0x3ce736ca	0.028224368
51	0xbd037c42	-0.032100923
52	0x3d0662a7	0.032808926
53	0xbb0f4420	-0.0021860674
54	0xbd0457d0	-0.032310307
55	0xbd65cb71	-0.05610222
56	0x3b53d24b	0.003232139
57	0xbdb02164	-0.08600119
58	0xbd943971	-0.072375186
59	0x3b60a1c0	0.0034276098
60	0x3d700dbe	0.058606856
61	0xbc44ea52	-0.012018757
62	0xbce0a196	-0.0274208
63	0xbd37ffad	-0.044921566
64	0x3c2ed244	0.010670248
65	0x3cd768ba	0.026295055
66	0xbc5637e6	-0.013074851
67	0xbd4dfc3a	-0.05028937
68	0xbd434229	-0.047670517
69	0x3cf68c93	0.030096328
70	0x3cd9a5d3	0.026568329
71	0xbb347f00	-0.0027541518
72	0xbc004740	-0.007829487
73	0x3d09badc	0.03362547
74	0xbd7b3a54	-0.061334923
75	0x3a5eff1e	0.00085066434
76	0xbc3ae3c3	-0.011406842
77	0xbc8e151e	-0.017344054
78	0x3d417b5f	0.047236796
79	0x3d244063	0.040100466
80	0xbc9cfbb8	-0.019162998
81	0x3db20758	0.08692807
82	0x3d1c0f96	0.0381008
83	0x3d9034c0	0.07041311
84	0x3c723980	0.014784217
85	0x3d3d8423	0.046268594
86	0x3d77b2b6	0.060473166
87	0xbd7e2791	-0.062049452
88	0xbd09379a	-0.03350029
89	0xbd40af80	-0.04704237
90	0xbd8206a8	-0.06348926
91	0x3d09e0b9	0.033661578
92	0xbd36d111	-0.044632975
93	0xbd0efb5a	-0.034907676
94	0x3d1b6784	0.037940517
95	0xbbf87e79	-0.007583436
96	0x3cbc8815	0.023014108
97	0x3d2df6cd	0.042471696
98	0xbce66921	-0.028126301
99	0xbd7ee491	-0.062229697
100	0xbd755001	-0.05989075
101	0xbcf6f353	-0.030145323
102	0xbc2bdc60	-0.010489553
103	0x3d5967ef	0.053077634
104	0x3d1fe9b9	0.039041255
105	0xbd3fd357	-0.04683241
106	0x3c1a2ca1	0.009410054
107	0x3d908f68	0.070586026
108	0x3cab5ae1	0.020917358
109	0x3d240fac	0.04005401
110	0xbcf55efe	-0.029952522
111	0xbd2d15f8	-0.04225728
112	0xbd162f39	-0.03666613
113	0xbd33ee5e	-0.043928497
114	0x3d220b2b	0.03956143
115	0x3d1d9c8b	0.03847937
116	0x3d0639e0	0.032770038
117	0xbd4fde24	-0.05074896
118	0x3d1f783f	0.038933035
119	0xbd210dc7	-0.03931978
120	0x3d571c95	0.052517492
121	0x3cef35c0	0.029200435
122	0x3c818158	0.015808746
123	0xbe099326	-0.13435039
124	0xbc231e96	-0.009956023
125	0xbd8b6283	-0.06805899
126	0x3d295ce1	0.04134834
127	0xbc932ba3	-0.017965144

fc2.weight f4 [64, 128]
0	0xbbf802f8	-0.0075687133
1	0x3d7f373b	0.06230853
2	0xbd4a5ea5	-0.049406666
3	0x3d96b199	0.07358093
4	0xbd8e0f87	-0.06936555
5	0xbe33239e	-0.17494056
6	0x3d8d76a1	0.06907392
7	0xbcddc71f	-0.027072487
8	0x3cae640e	0.021287944
9	0x3e1e5751	0.15462996
10	0xbde5f519	-0.11228389
11	0x3c41303d	0.011791286
12	0x3d9ecab2	0.07753505
13	0x3d40256e	0.046910696
14	0x3d2a5163	0.041581523
15	0xbbad5280	-0.005289376
16	0x3daffcf4	0.08593169
17	0xbce383c5	-0.027772794
18	0xbcd15584	-0.025553472
19	0x3f04ffc9	0.519528
20	0x3d971ebe	0.073789105
21	0xbd46b6fb	-0.048514348
22	0x3ceb776d	0.02874347
23	0xbcf629ed	-0.030049289
24	0xbda740ea	-0.08166678
25	0x3d3a8fcc	0.04554729
26	0xbceb1a4c	-0.028699063
27	0x3d11b4f6	0.03557297
28	0x3d265336	0.0406067
29	0x3d375f87	0.044768836
30	0x3e5dbc11	0.21653773
31	0xbd4e4b08	-0.050364524
32	0x3c8d32c0	0.017236114
33	0xbdaaca2d	-0.08339343
34	0x3d2f251a	0.042759992
35	0x3c9ad34d	0.018899584
36	0x3d3d28e5	0.04618158
37	0xbe19620a	-0.14978805
38	0x3ccee8cb	0.025257489
39	0xbb50e9ec	-0.003187771
40	0x3d67d17d	0.056596268
41	0xbe9be7cf	-0.30450293
42	0x3d9cb15c	0.07651016
43	0x3ebf7c1a	0.3739937
44	0x3cd4b777	0.02596639
45	0xbdf464ff	-0.11933326
46	0x3cf0bce6	0.029386949
47	0xbcc29167	-0.023750974
48	0x3d805dfc	0.06267926
49	0xbd08d776	-0.033408605
50	0xbe9af907	-0.30268118
51	0x3c7a26bc	0.015268024
52	0x3b44b530	0.0030015223
53	0x3d863985	0.0655394
54	0xbf08379c	-0.53209853
55	0x3d30a1ff	0.04312324
56	0x3c9351ba	0.017983306
57	0xbcad756a	-0.021174151
58	0x3e8f8c82	0.28036886
59	0x3d92f571	0.071757205
60	0x3d0a0d7a	0.03370426
61	0x3dfb0c7e	0.12258242
62	0xbcbcd9f3	-0.023053145
63	0xbdb0188e	-0.085984334
64	0xbd8503d8	-0.06494874
65	0xbedc431d	-0.43019953
66	0x3da092ff	0.07840537
67	0x3d9aad46	0.075525805
68	0xbbec8f12	-0.0072192037
69	0x3d8e9802	0.06962587
70	0x3d5e3c9b	0.054257017
71	0xbcc0f730	-0.023555368
72	0xbd352f06	-0.0442343
73	0xbb6b131c	-0.0035869544
74	0x3da7a007	0.0818482
75	0x3d0db245	0.03459384
76	0x3c6c8be7	0.014437652
77	0xbd0ea559	-0.034825657
78	0x3d172ff1	0.036910955
79	0x3d8b644e	0.06806241
80	0xbd483312	-0.04887683
81	0x3d6fbe94	0.05853136
82	0xbc88d172	-0.016701434
83	0xbc5bf2f1	-0.013424621
84	0x3cb3fad8	0.021970198
85	0x3d0aa178	0.033845395
86	0xbd567d74	-0.052365735
87	0x3d1b0b8c	0.03785281
88	0x3d4caf38	0.04997179
89	0x3ec89b97	0.39181206
90	0xbc417e40	-0.0118098855
91	0xbd34ced2	-0.04414255
92	0x3dacf169	0.08444483
93	0xbd6f20a7	-0.05838075
94	0xbd500e08	-0.05079463
95	0xbd602574	-0.054723218
96	0xbe54813f	-0.20752428
97	0x3ceff8a9	0.029293375
98	0x3d482de2	0.048871882
99	0x3d834c31	0.06411017
100	0x3d0d0d78	0.034436673
101	0x3c5a38eb	0.013319234
102	0x3d6449e2	0.055734523
103	0xbf0d4d88	-0.5519643
104	0x3d614542	0.05499769
105	0x3d4c2fae	0.04985016
106	0xbc34a040	-0.011024535
107	0x3da10104	0.07861522
108	0x3db6cc4c	0.08925685
109	0x3da707a4	0.08155754
110	0x3d21e78e	0.03952747
111	0xbba4ab89	-0.0050253314
112	0x3e6ac49e	0.22926566
113	0x3d0f1400	0.034931183
114	0xbd960840	-0.07325792
115	0x3d679246	0.05653598
116	0x3d9801e7	0.07422238
117	0xbca9e560	-0.020739257
118	0xbd5462ca	-0.051852025
119	0x3db7e61e	0.08979438
120	0xbe51bbe9	-0.20481838
121	0xbefce635	-0.49394384
122	0xbe934ccc	-0.2876953
123	0x3d8f6fb2	0.07003726
124	0xb9636400	-0.0002168566
125	0xbd38c99e	-0.045114152
126	0xbd6e21ec	-0.05813782
127	0x3b01ea09	0.0019823334
128	0x3d849e67	0.06475525
129	0xbcbf986b	-0.023388108
130	0x3d9ec215	0.07751862
131	0xbd4f925e	-0.050676696
132	0x3c374744	0.011186425
133	0xbe712de6	-0.23552665
134	0x3cb93650	0.022608906
135	0x3c410d7d	0.011783001
136	0xbc6053ae	-0.013691826
137	0xb992258e	-0.0002787527
138	0xbd8587db	-0.06520053
139	0xbc2746b4	-0.010209728
140	0xbb9f3f7e	-0.004859864
141	0xbd409508	-0.047017127
142	0x3c9a82b9	0.018861162
143	0xbd077d77	-0.033078637
144	0x3d131b87	0.035914924
145	0xbcfb2d26	-0.030661177
146	0x3cb754fa	0.022379387
147	0x3f034cc2	0.51289
148	0x3d824967	0.06361657
149	0xbcb92a12	-0.022603069
150	0x3dca69e2	0.09883477
151	0x3d85b184	0.06527999
152	0x3992f6d6	0.00028031197
153	0x3d2dc0ee	0.04242032
154	0xbd4f10f9	-0.050553296
155	0xbaedbb71	-0.0018137527
156	0x3d9814c1	0.074258335
157	0x3d891732	0.06693877
158	0x3dfd9a6f	0.123829715
159	0x3db3b667	0.08775025
160	0x3cabc314	0.020967044
161	0xbd504efb	-0.05085657
162	0xbd953445	-0.0728536
163	0x3cfa6b0c	0.030568622
164	0x3d4b623b	0.049654227
165	0x3d8a3cbd	0.06749866
166	0x3ad81897	0.001648682
167	0xbc83821c	-0.016053252
168	0x3d99ca4a	0.07509287
169	0xbe0cafe0	-0.13738966
170	0xbdada5e2	-0.08478905
171	0x3eefe107	0.4685137
172	0xbd3a9ff4	-0.0455627
173	0xbd50af3e	-0.050948374
174	0xbd855119	-0.06509609
175	0xbb489120	-0.003060408
176	0x3d84aa8b	0.06477841
177	0xbda50c96	-0.08059041
178	0xbe4ae77a	-0.19814864
179	0x3d87b347	0.06625991
180	0x3d5e1f12	0.05422885
181	0x3d21a372	0.039462514
182	0xbdbfb184	-0.0936003
183	0x3e8c53d6	0.27407712
184	0x3dbb9f40	0.09161234
185	0xbcb92391	-0.022599967
186	0x3e825427	0.25454828
187	0x3c018600	0.007905483
188	0x3d807378	0.06272024
189	0x3e74b23e	0.23896119
190	0x3af69918	0.0018813936
191	0xbd8c946b	-0.06864246
192	0xba1db97b	-0.00060167135
193	0x3c9cef80	0.019157171
194	0xbd94e246	-0.07269721
195	0xbd29c594	-0.04144819
196	0x3d9dd851	0.07707275
197	0x3d94b552	0.072611466
198	0x3d7f703f	0.062362906
199	0x3da12809	0.07868964
200	0x3db1e52b	0.086862884
201	0xbd939b7c	-0.07207391
202	0xbd87f89a	-0.06639214
203	0xbcf30495	-0.02966527
204	0xbd6536ad	-0.055960346
205	0xbaa2b600	-0.0012413859
206	0xbd244be0	-0.040111423
207	0xbb44465c	-0.0029949164
208	0xbd00a6d3	-0.031409096
209	0xbdc8ea2f	-0.09810292
210	0xbd97f508	-0.07419783
211	0x3c3cdc24	0.011527095
212	0x3c5a08f5	0.0133078
213	0xbc3dfdaa	-0.011596123
214	0xbe5ca52c	-0.21547383
215	0x3d50ddb3	0.05099268
216	0x3e300a60	0.17191458
217	0x3e9b0d72	0.30283695
218	0x3d19126a	0.037371077
219	0x3da49fe3	0.080383085
220	0x3d5542a2	0.0520655
221	0x3d87a9f4	0.06624213
222	0xbd1811e2	-0.03712643
223	0xbd132efb	-0.035933476
224	0xbe8934d0	-0.26798105
225	0x3b46121f	0.0030223203
226	0xbd902748	-0.07038742
227	0xbc36b430	-0.0111513585
228	0xbc746de8	-0.014918782
229	0xbd0729ab	-0.032998722
230	0xbd01c2ad	-0.031679798
231	0xbd6020a8	-0.054718643
232	0x3ca5335a	0.020166088
233	0xbd3614a2	-0.04445327
234	0xbd9cb789	-0.07652194
235	0x3cabda3f	0.020978091
236	0x3cd84b81	0.02640319
237	0x3d099712	0.033591338
238	0x3bc9cfa0	0.006158784
239	0xbcc1db30	-0.023664087
240	0x3e85c42b	0.26126227
241	0x3d64a016	0.055816732
242	0xbd395d6d	-0.045255113
243	0x3d201eb5	0.039091785
244	0xbd32e8be	-0.04367899
245	0x3d31a23f	0.04336762
246	0xbd438d4a	-0.047742166
247	0x3e39d2e7	0.18146859
248	0x3e1cda4f	0.15317653
249	0x3dd15526	0.10221319
250	0xbc04d15c	-0.008106556
251	0x3dcc72ab	0.09982809
252	0x3da29633	0.079388045
253	0x3cbf86c9	0.0233797
254	0x3d540a22	0.051767476
255	0xbd1b388b	-0.03789572

fc2.bias f4 [64]
0	0xbb17456c	-0.002308215
1	0x3c4f45e8	0.012650944
2	0xbc938d0c	-0.018011592
3	0xbb4b9adb	-0.0031067643
4	0xbb941548	-0.0045191385
5	0xbd949dc5	-0.07256655
6	0xbc13ab09	-0.009012946
7	0x3c7025ef	0.014657482
8	0x3dd300b8	0.103028715
9	0xbd8fbc84	-0.070183784
10	0xbc0d295f	-0.008615821
11	0x3df7a085	0.120911635
12	0x3d3629e9	0.044473562
13	0x3cb25114	0.021767177
14	0x3bb4b470	0.005514674
15	0xbdb16c91	-0.086632855
16	0x3cd6f1df	0.02623838
17	0x3d969850	0.0735327
18	0x3c876658	0.016528293
19	0x3d390dbe	0.04517912
20	0x3cc071c8	0.023491755
21	0x3cd54870	0.026035517
22	0xbb0a7729	-0.0021128154
23	0x3d1f5cc9	0.038906846
24	0xbcb0a7ab	-0.021564325
25	0xbc211de8	-0.00983379
26	0x3ac1a1f4	0.0014772997
27	0xbc17e6a9	-0.009271302
28	0xba04bfb0	-0.0005063964
29	0x3da12e2a	0.07870133
30	0x3d244428	0.04010406
31	0x3da3ce88	0.07998377
32	0x3daaf863	0.08348157
33	0xbaedd333	-0.0018144607
34	0xbb2efb77	-0.0026700178
35	0x3cef1aff	0.029187677
36	0x3c339d8e	0.010962857
37	0xbb64d1f2	-0.0034915176
38	0x3d4f2b93	0.050578665
39	0xbc8c483b	-0.017124286
40	0x3c8bf508	0.017084613
41	0x3c6f2609	0.014596471
42	0xbc51f587	-0.012814886
43	0xbc817cff	-0.015806673
44	0x3cf07a3a	0.029355157
45	0x3d9ea289	0.07745845
46	0xbb800a75	-0.0039074966
47	0x3de2a26e	0.11066137
48	0xbd086484	-0.033298984
49	0xbc47afe3	-0.012187931
50	0x3ce6b83c	0.028164022
51	0xbd00014f	-0.031251248
52	0x3c75336b	0.014965872
53	0x3a6bdf50	0.0008997815
54	0xbd23dce4	-0.04000558
55	0x3b86af35	0.004110242
56	0xbbc475a9	-0.0059954715
57	0xbbc2c253	-0.0059435754
58	0x3dcabc4c	0.09899196
59	0x3d5eec35	0.054424483
60	0x3d372b36	0.044718944
61	0x396f8b5a	0.00022844729
62	0xbbd0a319	-0.006367099
63	0x3da54420	0.080696344

fc3.weight f4 [32, 64]
0	0x3e498699	0.19680251
1	0x3eec3e42	0.4614125
2	0xbd1b3f3b	-0.0379021
3	0x3da81ef9	0.082090326
4	0x3ec86f7b	0.39147553
5	0xbc112369	-0.00885854
6	0x3d695ca9	0.056973133
7	0x3e436807	0.19082652
8	0x3ec0d2a9	0.3766072
9	0xbd465856	-0.048424087
10	0xbe594b2d	-0.21220084
11	0x3edc16de	0.42986196
12	0x3c8cc136	0.017181974
13	0xbdc09a84	-0.094044715
14	0x3e195081	0.14972116
15	0xbdc31035	-0.095245756
16	0xbd4e0d9f	-0.05030596
17	0xbdd4be01	-0.10387803
18	0xbe18464d	-0.14870568
19	0x3e2d524d	0.16925927
20	0xbd379fbb	-0.044830065
21	0xbd154778	-0.03644511
22	0x3e564e9f	0.20928429
23	0xbe09cf94	-0.13458091
24	0xbd7147f4	-0.05890651
25	0xbc37e062	-0.011222931
26	0xbb9ccc39	-0.0047850874
27	0x3cb67396	0.022271913
28	0xbe06bcff	-0.13158034
29	0x3ee385e3	0.44438085
30	0xbced9706	-0.029002678
31	0xbe1bac4f	-0.1520245
32	0x3d4f0b65	0.050547976
33	0xbd67a47b	-0.056553345
34	0x3c663cc9	0.014052578
35	0x3edf4b24	0.43612015
36	0xbeef4edd	-0.46739855
37	0x3e4f84a2	0.20265439
38	0x3e280640	0.16408634
39	0x3b24e2fd	0.002515971
40	0xbd578d0a	-0.05262474
41	0x3e59c5ce	0.21266863
42	0xbc5b0214	-0.013367195
43	0x3cdd852d	0.027041042
44	0xbd49c0f3	-0.049256276
45	0x3bc8f9e8	0.006133307
46	0x3dbbb9bc	0.091662854
47	0xbcf599a2	-0.029980484
48	0x3b518a37	0.0031973252
49	0xbd7e4344	-0.06207587
50	0x3e3084ca	0.17238155
51	0xbce9c828	-0.028537825
52	0x3dcc7770	0.099837184
53	0xbb7ff069	-0.0039053208
54	0xbcadbf83	-0.021209484
55	0xbd2502e9	-0.04028598
56	0xbdb35b87	-0.08757692
57	0xbcfa6635	-0.030566314
58	0x3ec50f9f	0.3848848
59	0x3e32266c	0.1739747
60	0xbe273bbd	-0.16331382
61	0xbde2824e	-0.1106001
62	0xbce9afd1	-0.028526219
63	0xbdade646	-0.08491187
64	0x3d64f4f1	0.055897657
65	0xb87e5c9a	-6.064456e-05
66	0x3c97d331	0.018533321
67	0x3d2f8fa9	0.042861614
68	0xba0b6fce	-0.00053190894
69	0xbc8b48db	-0.017002514
70	0x3e0b3955	0.13596089
71	0xbcb42776	-0.021991473
72	0xbe1899e1	-0.1490245
73	0x3cb204bf	0.021730779
74	0x3d085837	0.033287253
75	0xbe12fb2f	-0.14353631
76	0xbce53aa2	-0.02798206
77	0x3b499373	0.0030758053
78	0x3c44eeb0	0.012019798
79	0x3da83800	0.08213806
80	0xbd6c597d	-0.05770253
81	0x3dbef365	0.093237676
82	0x3e82b312	0.25527245
83	0xbd97ff09	-0.07421691
84	0x3bca0aa4	0.0061658192
85	0x3e459935	0.19296725
86	0x3cd69184	0.026192434
87	0xbda17e7c	-0.07885453
88	0x3ee33a46	0.44380397
89	0xbc4e21e6	-0.012581324
90	0x3c8ad840	0.01694882
91	0xbd9e8af6	-0.077413484
92	0xbd1425aa	-0.03616873
93	0xbdea7597	-0.1144821
94	0xbdf2c7e5	-0.11854533
95	0x3c3b3faf	0.011428758
96	0x3d6b1dff	0.057401653
97	0x3da5302a	0.08065827
98	0xbd615c50	-0.055019677
99	0xbc2587d7	-0.0101031875
100	0x3e93bade	0.28853506
101	0x3eaa268e	0.3323254
102	0xbdb4d538	-0.08829731
103	0x3e85a879	0.26105097
104	0xbcb328f1	-0.021870108
105	0xbe287f1b	-0.16454737
106	0x3ec5a0ee	0.38599342
107	0x3dea3511	0.11435903
108	0xbd70fa31	-0.05883235
109	0xbd9d401c	-0.076782435
110	0x3e71d3f3	0.23616008
111	0xbb95c558	-0.0045706443
112	0x3da0b4c5	0.07846979
113	0x3d87285b	0.06599494
114	0xbe40e8b1	-0.18838765
115	0xb89e16e4	-7.538291e-05
116	0x3d98ef4b	0.074675165
117	0x3b9d73c3	0.0048050596
118	0x3ef9c5ee	0.4878382
119	0xbc3c69d9	-0.011499845
120	0x3f2e1e06	0.6801456
121	0x3f25c10d	0.647477
122	0xbd8a6be8	-0.06758863
123	0x3ca74073	0.020416474
124	0xbca496f0	-0.020091504
125	0xbd934c26	-0.071922585
126	0x3f1e1738	0.6175418
127	0x3d9beccf	0.07613527
128	0x3d843f0d	0.064573385
129	0x3adc9a2f	0.0016830618
130	0x3eb658a6	0.35614508
131	0x3e799672	0.24373797
132	0x3d2a5982	0.041589268
133	0xbebd1108	-0.36927056
134	0x3dbf042a	0.09326966
135	0x3dbfdb0b	0.09367951
136	0xbdec5656	-0.11539905
137	0xbea13f08	-0.31493402
138	0x3e1c809d	0.15283437
139	0x3c558eaa	0.013034502
140	0xbde0ce62	-0.109768644
141	0x3e39fd9f	0.18163155
142	0xbdd32c80	-0.10311222
143	0x3e1a9598	0.15096128
144	0x3d8339fd	0.06407545
145	0x3d9a3bcc	0.075309366
146	0xba60a515	-0.0008569521
147	0xbe492fa1	-0.19647075
148	0xbefe3626	-0.49650687
149	0xbe2d28e8	-0.16910136
150	0xbe2a8e6b	-0.1665589
151	0xbdda63ae	-0.10663544
152	0x3bf7807a	0.0075531574
153	0x3ddaa191	0.106753476
154	0x3e7c3821	0.24630786
155	0x3ecce053	0.40014896
156	0x3dfefe7a	0.12450881
157	0x3cad6e2b	0.021170696
158	0x3da8200d	0.08209238
159	0xbe0b6199	-0.1361145
160	0xbe557b8a	-0.20847908
161	0x3f0ba9f0	0.5455618
162	0x3e020cf7	0.12700258
163	0x3d193801	0.037406925
164	0x3e32438f	0.17408584
165	0x3acac31d	0.0015469525
166	0xbd503813	-0.050834727
167	0xbcdc1ed5	-0.02687017
168	0x3e6f0fa7	0.23345815
169	0x3e8f07b0	0.27935553
170	0x3d1525a8	0.036412865
171	0xbdf2889f	-0.11842465
172	0x3eadbdc4	0.33933842
173	0x3dacd704	0.084394485
174	0x3e51709a	0.2045311
175	0x3cfe95fa	0.031077374
176	0x3de828f8	0.11335939
177	0xbc9d2345	-0.019181857
178	0x3e84c50f	0.25931594
179	0x3dd51b9b	0.10405656
180	0x3b83ac13	0.0040183156
181	0x3d96b502	0.07358743
182	0x3d0fd8b3	0.03511877
183	0x3ef88f43	0.485468
184	0x3d26d7ab	0.04073302
185	0x3d105d5d	0.03524529
186	0xbd53620c	-0.051607177
187	0xbb0dfb01	-0.0021664503
188	0x3d6a8a1c	0.057260618
189	0x3e771a5e	0.24131152
190	0x3cc06a03	0.02348805
191	0xbe73eede	-0.2382159
192	0xbe20bff1	-0.1569822
193	0x3dc010d2	0.09378208
194	0xbbcbee77	-0.0062234956
195	0x3c17f14a	0.009273836
196	0x3e2334bc	0.15938085
197	0x3cb464e7	0.02202077
198	0xbd4534f2	-0.048146196
199	0x3f0ebebd	0.55759794
200	0x3f0fb891	0.56141
201	0xbcd5e57b	-0.026110401
202	0xbe231ec2	-0.15929702
203	0x3dc5d6ca	0.096601084
204	0x3f0f74b8	0.56037474
205	0xbc2d4e5e	-0.010577766
206	0x3e9e2730	0.30889273
207	0x3d93fadb	0.07225581
208	0x3eb2d426	0.3492748
209	0xbdfa1a97	-0.12212103
210	0xbec619e9	-0.38691643
211	0x3e9ae9b9	0.3025644
212	0xbd87491d	-0.06605742
213	0xbc204adf	-0.009783476
214	0x3ecaabf6	0.3958432
215	0xbc52e02a	-0.012870828
216	0xbe53d7a6	-0.20687732
217	0x3cbe0857	0.023197336
218	0xbc9be20b	-0.019028684
219	0xbd9e9253	-0.07742753
220	0x3bd4f8c1	0.0064993803
221	0x3e05cd4a	0.13066593
222	0xbae1e221	-0.0017233529
223	0xbda6b73b	-0.08140417
224	0x3e394af2	0.18094996
225	0xbcced9f8	-0.02525042
226	0xbdc653bf	-0.09683942
227	0x3d135e64	0.03597869
228	0xbe861275	-0.26185957
229	0x3d098b78	0.033580273
230	0x3e815ad2	0.25264603
231	0x3c220de6	0.009891009
232	0xbd2f69d4	-0.042825535
233	0xbcfa08e9	-0.030521827
234	0xbcd4577c	-0.025920622
235	0x3d2a7421	0.041614655
236	0xbd227864	-0.039665595
237	0x3d6bc66c	0.057562277
238	0xbb20e78d	-0.0024552078
239	0x3d6ec958	0.058297485
240	0xbdba2707	-0.09089475
241	0xbe1849c1	-0.14871885
242	0x3c6601a9	0.014038482
243	0x3d013365	0.031543154
244	0x3f1ec553	0.6201984
245	0x3d15172d	0.036399055
246	0x3b508d24	0.0031822408
247	0xbd4a7f8e	-0.049438052
248	0xbe6b6f6f	-0.22991727
249	0xbe3c6734	-0.18398744
250	0x3ddbde58	0.10735768
251	0xbe4f70a1	-0.20257808
252	0xbbf0e81d	-0.007351889
253	0xbda5c9e9	-0.08095152
254	0xbda9266f	-0.08259284
255	0xbcb1df03	-0.021712786

fc3.bias f4 [32]
0	0x3e48af2d	0.19598074
1	0x3c270dcc	0.0101961605
2	0x3d8fbe79	0.07018752
3	0x3e59382a	0.21212831
4	0x3cec01e5	0.028809497
5	0x3e7c57ab	0.24642818
6	0x3e444665	0.19167478
7	0x3ed69b3b	0.41915306
8	0x3e1b5b9f	0.1517167
9	0xbdb3fb43	-0.08788159
10	0x3eecbfd5	0.46240106
11	0x3e89c70a	0.26909667
12	0x3ccf8849	0.02533354
13	0x3e96187a	0.2931555
14	0x3eade2d0	0.33962107
15	0x3d9ffa93	0.07811465
16	0x3c508758	0.012727581
17	0x3da36123	0.07977512
18	0x3bb1d209	0.0054266495
19	0x3ead6537	0.33866283
20	0x3e1ea1b7	0.15491377
21	0x3e0e3012	0.13885525
22	0x3dd9d304	0.10635951
23	0x3e6e2286	0.23255357
24	0x3ea7290e	0.3264851
25	0x3e84226e	0.25807518
26	0x3e0993d3	0.13435297
27	0x3dd65d85	0.10467056
28	0x3e32dbf2	0.17466715
29	0x3d297d1a	0.04137907
30	0x3e507634	0.20357591
31	0x3e4655c4	0.19368654

fc4.weight f4 [24, 32]
0	0xbe37a64f	-0.17934535
1	0xbfa06ad9	-1.2532607
2	0x3d47a1a6	0.048738144
3	0x3c9ee6e8	0.019397214
4	0x3d372635	0.04471417
5	0xbf1cc901	-0.6124421
6	0xbfabf60f	-1.3434466
7	0xbf3e09f1	-0.7423392
8	0xbe95f888	-0.29291177
9	0xbd143aa6	-0.036188744
10	0xbf0e4f64	-0.5558989
11	0x3d63fc9a	0.05566082
12	0xbf50d256	-0.8157095
13	0xbe9743d9	-0.2954395
14	0xbf014cc5	-0.50507766
15	0x3deb6181	0.11493207
16	0xbf775703	-0.96617144
17	0xbee0a827	-0.4387829
18	0xbe9fe7d0	-0.31231546
19	0xbf511fcb	-0.8168914
20	0xc01d4afc	-2.4577017
21	0x3d830b0d	0.06398592
22	0x3e043038	0.12909019
23	0xbf4e2a8b	-0.80533665
24	0xbf46e471	-0.77692324
25	0xbea898b7	-0.32929012
26	0xbdaaea36	-0.083454534
27	0x3df1b645	0.11802343
28	0xbfb06280	-1.378006
29	0x3dccb003	0.09994509
30	0x3e2882d3	0.16456155
31	0xbde12849	-0.10994012
32	0x3de77ab0	0.11302698
33	0x3e0b7b30	0.13621211
34	0xbf315749	-0.6927381
35	0x3dbcf5cb	0.09226569
36	0xbf01dc31	-0.5072661
37	0x3db88f14	0.09011665
38	0x3d9dcbf6	0.07704918
39	0xbf2adb22	-0.6674062
40	0x3e1a4476	0.15065178
41	0x3deebb27	0.1165679
42	0xbf46a46c	-0.7759464
43	0x3e1c4661	0.15261222
44	0x3d89a499	0.06720848
45	0x3dfef6b6	0.124494
46	0xbf070733	-0.5274536
47	0xbf3514f7	-0.70735115
48	0x3cfd05b4	0.030886509
49	0x3e058176	0.13037667
50	0x3e412db9	0.18865098
51	0x3e4029eb	0.1876599
52	0x3e276d6c	0.16350335
53	0x3cd93523	0.026514595
54	0xbf3cb5e6	-0.73715055
55	0xbf0a876a	-0.54112875
56	0xbf1ef088	-0.6208577
57	0x3de28516	0.110605404
58	0x3df6fb03	0.120595954
59	0xbf7d6f77	-0.98998207
60	0x3d41d931	0.04732627
61	0xbf5073b1	-0.8142653
62	0xbddfdc6f	-0.10930716
63	0x3ded0c87	0.11574655
64	0xbeeb8bb0	-0.4600501
65	0xbd0fc733	-0.03510208
66	0x3cf49701	0.02985716
67	0xbed9456b	-0.42435774
68	0x3cdcfb9e	0.02697545
69	0xbf12d45c	-0.57355285
70	0xbf01033b	-0.50395554
71	0x3bd0550e	0.0063577956
72	0x3d6006b7	0.054693904
73	0xbf4942af	-0.78617376
74	0x3d4e3a1a	0.05034838
75	0xbe1490be	-0.1450834
76	0xbf84511a	-1.033725
77	0xbf0a603d	-0.540531
78	0x3d63d522	0.05562318
79	0x3e005aff	0.12534712
80	0x3ae77a86	0.0017660416
81	0x3d956a9b	0.07295724
82	0xbe4c18e1	-0.19931366
83	0xbf6f11be	-0.9338645
84	0xbfe15fc6	-1.7607353
85	0x3d0e9493	0.03480966
86	0x3dcf307d	0.1011667
87	0xbdb8b270	-0.09018409
88	0x3db6ba0b	0.08922204
89	0xbf3ba8b6	-0.7330431
90	0x3e0d836a	0.13819662
91	0x3de77c31	0.113029845
92	0xbec92c51	-0.39291623
93	0x3db8af21	0.09017778
94	0xbc1c366f	-0.009534462
95	0xbf2d764a	-0.6775862
96	0x3e112fce	0.14178392
97	0xbda3a49f	-0.07990383
98	0x3c994f99	0.018714713
99	0x3c9fd878	0.0195124
100	0xbea0f14b	-0.31434092
101	0x3d89392f	0.0670036
102	0xbea740bc	-0.32666576
103	0xbf074873	-0.52844924
104	0xbb860815	-0.004090319
105	0xbe4e47fb	-0.20144646
106	0xbed5963b	-0.4171618
107	0x3e303957	0.17209373
108	0xbeef46f9	-0.46733835
109	0x3e1175a6	0.14205036
110	0xbf1b3a69	-0.60636
111	0xbea1d11c	-0.3160485
112	0xbd1d95cd	-0.03847294
113	0x3dfaa3bc	0.12238261
114	0xbed47121	-0.4149256
115	0xbe646b91	-0.22306658
116	0xbef224df	-0.47293755
117	0x3e2d6445	0.16932781
118	0xbd1d13d8	-0.038349003
119	0xbf34963d	-0.70541745
120	0xbecc37d0	-0.39886332
121	0x3dd92dd9	0.10604448
122	0x3e55cca1	0.20878841
123	0xbe82acfb	-0.255226
124	0xbeeacae1	-0.4585791
125	0xbe49b05d	-0.19696184
126	0xbe5b84b2	-0.21437338
127	0x3d981bfc	0.074272126
128	0x3c6c2fae	0.014415665
129	0xbf5023fd	-0.81304914
130	0xbfb18d21	-1.3871194
131	0x3d136764	0.035987273
132	0xbfbcda0b	-1.4754041
133	0x3e2f0b25	0.17094095
134	0x3d4a2af4	0.04935737
135	0x3e42dff3	0.19030742
136	0xbf510526	-0.8164848
137	0xbd5f6e1b	-0.054548364
138	0x3e7a2782	0.24429134
139	0xbe648572	-0.2231653
140	0x3c004c27	0.007830656
141	0xbe541a0a	-0.20713058
142	0x3e6a9ae0	0.22910643
143	0xbf859a32	-1.0437682
144	0xbf9e4306	-1.2364204
145	0xbf83d701	-1.0299989
146	0xbb5a36f4	-0.0033296915
147	0x3e876c8d	0.26450005
148	0xbd52b538	-0.051442355
149	0xbf528bbd	-0.82244474
150	0xbfa45f3a	-1.2841561
151	0xbe291495	-0.16511758
152	0x3df41764	0.11918524
153	0x3caf774f	0.021419195
154	0xbf3a3ada	-0.7274605
155	0xbf537574	-0.82601094
156	0x3db41c86	0.08794503
157	0xbfe907b5	-1.8205477
158	0xbea20e05	-0.3165132
159	0x3db8cad3	0.09023061
160	0xbd903e3f	-0.070431225
161	0xbf6148b8	-0.88001585
162	0xbf240adc	-0.6407907
163	0xbdbd83f3	-0.09253683
164	0xbf6a3c61	-0.9149838
165	0x3d4d92af	0.050188717
166	0xbddad107	-0.106844
167	0x3daf240c	0.08551797
168	0xbf7334ad	-0.9500225
169	0xbf2a064d	-0.66415864
170	0x3e3a6ca2	0.18205503
171	0xbe887784	-0.26653683
172	0xbebf59a8	-0.3737309
173	0xbd839984	-0.06425765
174	0x3c2a8b34	0.010409165
175	0xbfa9c0f8	-1.3262014
176	0xbf845b48	-1.0340357
177	0xbf841371	-1.0318433
178	0xbf3f4658	-0.7471671
179	0x3d5b13cb	0.053485673
180	0xbeca1fdb	-0.3947743
181	0xbf4eb3b3	-0.8074295
182	0xbf257555	-0.6463216
183	0xbf300fdf	-0.6877422
184	0xbd45958a	-0.048238315
185	0x3d90ed94	0.070765644
186	0xbf64b108	-0.8933263
187	0xbf0158b7	-0.50525993
188	0xbdd38d98	-0.10329741
189	0xbf27e703	-0.6558687
190	0xbdb820de	-0.08990644
191	0xbc33e00e	-0.010978712
192	0x3b9ae7fe	0.0047273627
193	0x3dc11e19	0.09429569
194	0xbdba4050	-0.09094298
195	0x3d545294	0.051836565
196	0xbc0821c3	-0.008308831
197	0x3d10cb33	0.035350036
198	0x3d4eccbf	0.05048823
199	0x3e027fec	0.12744111
200	0xbe43481a	-0.19070473
201	0x3d6bce73	0.057569932
202	0x3e30aa0b	0.17252366
203	0x3dc1b67a	0.09458633
204	0x3d853f65	0.06506232
205	0xbe04e347	-0.12977324
206	0x3dcdf06a	0.10055621
207	0x3d9e835b	0.07739898
208	0xbcaca933	-0.021076774
209	0xbd933308	-0.07187468
210	0x3e2b8275	0.16748984
211	0x3d79f967	0.061028864
212	0x3de54ede	0.11196683
213	0xbe785ee6	-0.24254951
214	0x3b939376	0.0045036627
215	0x3e27b970	0.16379333
216	0x3dfb5e22	0.12273814
217	0xbcfb9b22	-0.030713622
218	0xbe7014e0	-0.23445463
219	0x3d6b2b94	0.057414606
220	0x3d860022	0.06542994
221	0x3d0beb33	0.03415985
222	0x3de3001c	0.11084005
223	0x3d3059c7	0.04305437
224	0x3cec4c7f	0.02884507
225	0x3d1cf43b	0.038318854
226	0xbd6c19d9	-0.057641838
227	0x3c859aa7	0.016309096
228	0xbd97bd10	-0.07409108
229	0x3d03e951	0.03220493
230	0xbd1acde6	-0.037794016
231	0x3c68bec0	0.014205635
232	0x3c1254aa	0.008931318
233	0xbdb7b0a0	-0.089692354
234	0x3dabcc31	0.08388556
235	0x3da29e13	0.079403065
236	0xbe1e5d31	-0.15465237
237	0x3d5d102e	0.05397051
238	0xbcfa6545	-0.030565867
239	0x3c0584b7	0.0081493175
240	0xbcdd099a	-0.026982117
241	0x3d839679	0.06425185
242	0xbe3c11ca	-0.18366161
243	0xbd0da679	-0.03458259
244	0xbee0ab29	-0.43880585
245	0x3d7bfe85	0.061522026
246	0x3b83a9cb	0.0040180436
247	0xbdfb8e5f	-0.122830145
248	0xbc5aaedf	-0.013347357
249	0x3d868e47	0.06570106
250	0x3db84be9	0.08998854
251	0xbd04c2bb	-0.032412272
252	0xbd3e96d3	-0.046530556
253	0xbcab3740	-0.020900369
254	0x3d0cf23d	0.034410704
255	0x3cdb36fa	0.026759613

fc4.bias f4 [24]
0	0xbeedba7c	-0.4643134
1	0x3e88c3dd	0.26711932
2	0x3dbff53b	0.09372946
3	0x3efba259	0.491473
4	0x3efd9fbf	0.4953594
5	0x3e9a4d36	0.30137032
6	0xbed5b1cf	-0.4173722
7	0x3dc16a49	0.094441004
8	0xbdaaa8a9	-0.083329506
9	0xbf176ed4	-0.59153485
10	0xbde9c52f	-0.11414563
11	0xbd6e8557	-0.05823263
12	0x3b8d0bff	0.0043044086
13	0xbe26781a	-0.16256753
14	0xbea1e1bb	-0.3161753
15	0x3e4ce92a	0.2001082
16	0x3e95b7e4	0.2924186
17	0xbea1a7f2	-0.31573445
18	0xbe94efcd	-0.29089203
19	0xbece43be	-0.40286058
20	0xbd77eefe	-0.060530655
21	0xbe4c785d	-0.1996779
22	0xbe04c42b	-0.12965457
23	0xbeaa480c	-0.33258092

exp_avg f4 [128, 240]
0	0x00000000	0.0
1	0x00000000	0.0
2	0x00000000	0.0
3	0x00000000	0.0
4	0x00000000	0.0
5	0x00000000	0.0
6	0x00000000	0.0
7	0x00000000	0.0
8	0x00000000	0.0
9	0x00000000	0.0
10	0x00000000	0.0
11	0x00000000	0.0
12	0x00000000	0.0
13	0x00000000	0.0
14	0x00000000	0.0
15	0x00000000	0.0
16	0x00000000	0.0
17	0x00000000	0.0
18	0x00000000	0.0
19	0x00000000	0.0
20	0x00000000	0.0
21	0x00000000	0.0
22	0x00000000	0.0
23	0x00000000	0.0
24	0x00000000	0.0
25	0x00000000	0.0
26	0x00000000	0.0
27	0x00000000	0.0
28	0x00000000	0.0
29	0x00000000	0.0
30	0x00000000	0.0
31	0x00000000	0.0
32	0x00000000	0.0
33	0x00000000	0.0
34	0x00000000	0.0
35	0x00000000	0.0
36	0x00000000	0.0
37	0x00000000	0.0
38	0x00000000	0.0
39	0x00000000	0.0
40	0x00000000	0.0
41	0x00000000	0.0
42	0x00000000	0.0
43	0x00000000	0.0
44	0x00000000	0.0
45	0x00000000	0.0
46	0x00000000	0.0
47	0x00000000	0.0
48	0x00000000	0.0
49	0x00000000	0.0
50	0x00000000	0.0
51	0x00000000	0.0
52	0x00000000	0.0
53	0x00000000	0.0
54	0x00000000	0.0
55	0x00000000	0.0
56	0x00000000	0.0
57	0x00000000	0.0
58	0x00000000	0.0
59	0x00000000	0.0
60	0x00000000	0.0
61	0x00000000	0.0
62	0x00000000	0.0
63	0x00000000	0.0
64	0x00000000	0.0
65	0x00000000	0.0
66	0x00000000	0.0
67	0x00000000	0.0
68	0x00000000	0.0
69	0x00000000	0.0
70	0x00000000	0.0
71	0x00000000	0.0
72	0x00000000	0.0
73	0x00000000	0.0
74	0x00000000	0.0
75	0x00000000	0.0
76	0x00000000	0.0
77	0x00000000	0.0
78	0x00000000	0.0
79	0x00000000	0.0
80	0x00000000	0.0
81	0x00000000	0.0
82	0x00000000	0.0
83	0x00000000	0.0
84	0x00000000	0.0
85	0x00000000	0.0
86	0x00000000	0.0
87	0x00000000	0.0
88	0x00000000	0.0
89	0x00000000	0.0
90	0x00000000	0.0
91	0x00000000	0.0
92	0x00000000	0.0
93	0x00000000	0.0
94	0x00000000	0.0
95	0x00000000	0.0
96	0x00000000	0.0
97	0x00000000	0.0
98	0x00000000	0.0
99	0x00000000	0.0
100	0x00000000	0.0
101	0x00000000	0.0
102	0x00000000	0.0
103	0x00000000	0.0
104	0x00000000	0.0
105	0x00000000	0.0
106	0x00000000	0.0
107	0x00000000	0.0
108	0x00000000	0.0
109	0x00000000	0.0
110	0x00000000	0.0
111	0x00000000	0.0
112	0x00000000	0.0
113	0x00000000	0.0
114	0x00000000	0.0
115	0x00000000	0.0
116	0x00000000	0.0
117	0x00000000	0.0
118	0x00000000	0.0
119	0x00000000	0.0
120	0x00000000	0.0
121	0x00000000	0.0
122	0x00000000	0.0
123	0x00000000	0.0
124	0x00000000	0.0
125	0x00000000	0.0
126	0x00000000	0.0
127	0x00000000	0.0
128	0x00000000	0.0
129	0x00000000	0.0
130	0x00000000	0.0
131	0x00000000	0.0
132	0x00000000	0.0
133	0x00000000	0.0
134	0x00000000	0.0
135	0x00000000	0.0
136	0x00000000	0.0
137	0x00000000	0.0
138	0x00000000	0.0
139	0x00000000	0.0
140	0x00000000	0.0
141	0x00000000	0.0
142	0x00000000	0.0
143	0x00000000	0.0
144	0x00000000	0.0
145	0x00000000	0.0
146	0x00000000	0.0
147	0x00000000	0.0
148	0x00000000	0.0
149	0x00000000	0.0
150	0x00000000	0.0
151	0x00000000	0.0
152	0x00000000	0.0
153	0x00000000	0.0
154	0x00000000	0.0
155	0x00000000	0.0
156	0x00000000	0.0
157	0x00000000	0.0
158	0x00000000	0.0
159	0x00000000	0.0
160	0x00000000	0.0
161	0x00000000	0.0
162	0x00000000	0.0
163	0x00000000	0.0
164	0x00000000	0.0
165	0x00000000	0.0
166	0x00000000	0.0
167	0x00000000	0.0
168	0x00000000	0.0
169	0x00000000	0.0
170	0x00000000	0.0
171	0x00000000	0.0
172	0x00000000	0.0
173	0x00000000	0.0
174	0x00000000	0.0
175	0x00000000	0.0
176	0x00000000	0.0
177	0x00000000	0.0
178	0x00000000	0.0
179	0x00000000	0.0
180	0x00000000	0.0
181	0x00000000	0.0
182	0x00000000	0.0
183	0x00000000	0.0
184	0x00000000	0.0
185	0x00000000	0.0
186	0x00000000	0.0
187	0x00000000	0.0
188	0x00000000	0.0
189	0x00000000	0.0
190	0x00000000	0.0
191	0x00000000	0.0
192	0x00000000	0.0
193	0x00000000	0.0
194	0x00000000	0.0
195	0x00000000	0.0
196	0x00000000	0.0
197	0x00000000	0.0
198	0x00000000	0.0
199	0x00000000	0.0
200	0x00000000	0.0
201	0x00000000	0.0
202	0x00000000	0.0
203	0x00000000	0.0
204	0x00000000	0.0
205	0x00000000	0.0
206	0x00000000	0.0
207	0x00000000	0.0
208	0x00000000	0.0
209	0x00000000	0.0
210	0x00000000	0.0
211	0x00000000	0.0
212	0x00000000	0.0
213	0x00000000	0.0
214	0x00000000	0.0
215	0x00000000	0.0
216	0x00000000	0.0
217	0x00000000	0.0
218	0x00000000	0.0
219	0x00000000	0.0
220	0x00000000	0.0
221	0x00000000	0.0
222	0x00000000	0.0
223	0x00000000	0.0
224	0x00000000	0.0
225	0x00000000	0.0
226	0x00000000	0.0
227	0x00000000	0.0
228	0x00000000	0.0
229	0x00000000	0.0
230	0x00000000	0.0
231	0x00000000	0.0
232	0x00000000	0.0
233	0x00000000	0.0
234	0x00000000	0.0
235	0x00000000	0.0
236	0x00000000	0.0
237	0x00000000	0.0
238	0x00000000	0.0
239	0x00000000	0.0
240	0x00000000	0.0
241	0x00000000	0.0
242	0x00000000	0.0
243	0x00000000	0.0
244	0x00000000	0.0
245	0x00000000	0.0
246	0x00000000	0.0
247	0x00000000	0.0
248	0x00000000	0.0
249	0x00000000	0.0
250	0x00000000	0.0
251	0x00000000	0.0
252	0x00000000	0.0
253	0x00000000	0.0
254	0x00000000	0.0
255	0x00000000	0.0

exp_avg_sq f4 [128, 240]
0	0x00000000	0.0
1	0x00000000	0.0
2	0x00000000	0.0
3	0x00000000	0.0
4	0x00000000	0.0
5	0x00000000	0.0
6	0x00000000	0.0
7	0x00000000	0.0
8	0x00000000	0.0
9	0x00000000	0.0
10	0x00000000	0.0
11	0x00000000	0.0
12	0x00000000	0.0
13	0x00000000	0.0
14	0x00000000	0.0
15	0x00000000	0.0
16	0x00000000	0.0
17	0x00000000	0.0
18	0x00000000	0.0
19	0x00000000	0.0
20	0x00000000	0.0
21	0x00000000	0.0
22	0x00000000	0.0
23	0x00000000	0.0
24	0x00000000	0.0
25	0x00000000	0.0
26	0x00000000	0.0
27	0x00000000	0.0
28	0x00000000	0.0
29	0x00000000	0.0
30	0x00000000	0.0
31	0x00000000	0.0
32	0x00000000	0.0
33	0x00000000	0.0
34	0x00000000	0.0
35	0x00000000	0.0
36	0x00000000	0.0
37	0x00000000	0.0
38	0x00000000	0.0
39	0x00000000	0.0
40	0x00000000	0.0
41	0x00000000	0.0
42	0x00000000	0.0
43	0x00000000	0.0
44	0x00000000	0.0
45	0x00000000	0.0
46	0x00000000	0.0
47	0x00000000	0.0
48	0x00000000	0.0
49	0x00000000	0.0
50	0x00000000	0.0
51	0x00000000	0.0
52	0x00000000	0.0
53	0x00000000	0.0
54	0x00000000	0.0
55	0x00000000	0.0
56	0x00000000	0.0
57	0x00000000	0.0
58	0x00000000	0.0
59	0x00000000	0.0
60	0x00000000	0.0
61	0x00000000	0.0
62	0x00000000	0.0
63	0x00000000	0.0
64	0x00000000	0.0
65	0x00000000	0.0
66	0x00000000	0.0
67	0x00000000	0.0
68	0x00000000	0.0
69	0x00000000	0.0
70	0x00000000	0.0
71	0x00000000	0.0
72	0x00000000	0.0
73	0x00000000	0.0
74	0x00000000	0.0
75	0x00000000	0.0
76	0x00000000	0.0
77	0x00000000	0.0
78	0x00000000	0.0
79	0x00000000	0.0
80	0x00000000	0.0
81	0x00000000	0.0
82	0x00000000	0.0
83	0x00000000	0.0
84	0x00000000	0.0
85	0x00000000	0.0
86	0x00000000	0.0
87	0x00000000	0.0
88	0x00000000	0.0
89	0x00000000	0.0
90	0x00000000	0.0
91	0x00000000	0.0
92	0x00000000	0.0
93	0x00000000	0.0
94	0x00000000	0.0
95	0x00000000	0.0
96	0x00000000	0.0
97	0x00000000	0.0
98	0x00000000	0.0
99	0x00000000	0.0
100	0x00000000	0.0
101	0x00000000	0.0
102	0x00000000	0.0
103	0x00000000	0.0
104	0x00000000	0.0
105	0x00000000	0.0
106	0x00000000	0.0
107	0x00000000	0.0
108	0x00000000	0.0
109	0x00000000	0.0
110	0x00000000	0.0
111	0x00000000	0.0
112	0x00000000	0.0
113	0x00000000	0.0
114	0x00000000	0.0
115	0x00000000	0.0
116	0x00000000	0.0
117	0x00000000	0.0
118	0x00000000	0.0
119	0x00000000	0.0
120	0x00000000	0.0
121	0x00000000	0.0
122	0x00000000	0.0
123	0x00000000	0.0
124	0x00000000	0.0
125	0x00000000	0.0
126	0x00000000	0.0
127	0x00000000	0.0
128	0x00000000	0.0
129	0x00000000	0.0
130	0x00000000	0.0
131	0x00000000	0.0
132	0x00000000	0.0
133	0x00000000	0.0
134	0x00000000	0.0
135	0x00000000	0.0
136	0x00000000	0.0
137	0x00000000	0.0
138	0x00000000	0.0
139	0x00000000	0.0
140	0x00000000	0.0
141	0x00000000	0.0
142	0x00000000	0.0
143	0x00000000	0.0
144	0x00000000	0.0
145	0x00000000	0.0
146	0x00000000	0.0
147	0x00000000	0.0
148	0x00000000	0.0
149	0x00000000	0.0
150	0x00000000	0.0
151	0x00000000	0.0
152	0x00000000	0.0
153	0x00000000	0.0
154	0x00000000	0.0
155	0x00000000	0.0
156	0x00000000	0.0
157	0x00000000	0.0
158	0x00000000	0.0
159	0x00000000	0.0
160	0x00000000	0.0
161	0x00000000	0.0
162	0x00000000	0.0
163	0x00000000	0.0
164	0x00000000	0.0
165	0x00000000	0.0
166	0x00000000	0.0
167	0x00000000	0.0
168	0x00000000	0.0
169	0x00000000	0.0
170	0x00000000	0.0
171	0x00000000	0.0
172	0x00000000	0.0
173	0x00000000	0.0
174	0x00000000	0.0
175	0x00000000	0.0
176	0x00000000	0.0
177	0x00000000	0.0
178	0x00000000	0.0
179	0x00000000	0.0
180	0x00000000	0.0
181	0x00000000	0.0
182	0x00000000	0.0
183	0x00000000	0.0
184	0x00000000	0.0
185	0x00000000	0.0
186	0x00000000	0.0
187	0x00000000	0.0
188	0x00000000	0.0
189	0x00000000	0.0
190	0x00000000	0.0
191	0x00000000	0.0
192	0x00000000	0.0
193	0x00000000	0.0
194	0x00000000	0.0
195	0x00000000	0.0
196	0x00000000	0.0
197	0x00000000	0.0
198	0x00000000	0.0
199	0x00000000	0.0
200	0x00000000	0.0
201	0x00000000	0.0
202	0x00000000	0.0
203	0x00000000	0.0
204	0x00000000	0.0
205	0x00000000	0.0
206	0x00000000	0.0
207	0x00000000	0.0
208	0x00000000	0.0
209	0x00000000	0.0
210	0x00000000	0.0
211	0x00000000	0.0
212	0x00000000	0.0
213	0x00000000	0.0
214	0x00000000	0.0
215	0x00000000	0.0
216	0x00000000	0.0
217	0x00000000	0.0
218	0x00000000	0.0
219	0x00000000	0.0
220	0x00000000	0.0
221	0x00000000	0.0
222	0x00000000	0.0
223	0x00000000	0.0
224	0x00000000	0.0
225	0x00000000	0.0
226	0x00000000	0.0
227	0x00000000	0.0
228	0x00000000	0.0
229	0x00000000	0.0
230	0x00000000	0.0
231	0x00000000	0.0
232	0x00000000	0.0
233	0x00000000	0.0
234	0x00000000	0.0
235	0x00000000	0.0
236	0x00000000	0.0
237	0x00000000	0.0
238	0x00000000	0.0
239	0x00000000	0.0
240	0x00000000	0.0
241	0x00000000	0.0
242	0x00000000	0.0
243	0x00000000	0.0
244	0x00000000	0.0
245	0x00000000	0.0
246	0x00000000	0.0
247	0x00000000	0.0
248	0x00000000	0.0
249	0x00000000	0.0
250	0x00000000	0.0
251	0x00000000	0.0
252	0x00000000	0.0
253	0x00000000	0.0
254	0x00000000	0.0
255	0x00000000	0.0

exp_avg f4 [128]
0	0x00000000	0.0
1	0x00000000	0.0
2	0xbbfd2872	-0.0077257687
3	0x00000000	0.0
4	0x00000000	0.0
5	0xbaedd002	-0.0018143656
6	0x00000000	0.0
7	0x00000000	0.0
8	0x00000000	0.0
9	0xbbada1be	-0.005298822
10	0xbb69cdc4	-0.0035675624
11	0xbb9ebae6	-0.0048440574
12	0x00000000	0.0
13	0x00000000	0.0
14	0x00000000	0.0
15	0x00000000	0.0
16	0xba6a11f4	-0.0008929067
17	0x3beae8cf	0.007168866
18	0x00000000	0.0
19	0x3d065f8c	0.032805964
20	0x00000000	0.0
21	0x00000000	0.0
22	0xbc320c2b	-0.010867159
23	0x00000000	0.0
24	0x00000000	0.0
25	0x00000000	0.0
26	0xbb885300	-0.004160285
27	0x00000000	0.0
28	0x00000000	0.0
29	0x00000000	0.0
30	0x3cd25b43	0.025678283
31	0x00000000	0.0
32	0x00000000	0.0
33	0x00000000	0.0
34	0x00000000	0.0
35	0xbb1c5a58	-0.002385756
36	0x00000000	0.0
37	0x00000000	0.0
38	0xba28bad8	-0.00064365333
39	0x3c84b055	0.016197363
40	0x00000000	0.0
41	0xbaa6c6d8	-0.0012724055
42	0x00000000	0.0
43	0xbbf31c21	-0.0074191247
44	0x3b9ae584	0.0047270674
45	0xbba0098e	-0.0048839515
46	0x3beef0ec	0.0072919037
47	0x00000000	0.0
48	0x00000000	0.0
49	0x00000000	0.0
50	0xba44c781	-0.0007506535
51	0x00000000	0.0
52	0x00000000	0.0
53	0x00000000	0.0
54	0xbc98d0b5	-0.018654207
55	0x3aca2040	0.0015420988
56	0x00000000	0.0
57	0xbb07cad3	-0.0020720258
58	0x3bbef843	0.005827935
59	0x00000000	0.0
60	0x3b8583a5	0.004074531
61	0x3b420217	0.0029603296
62	0x00000000	0.0
63	0x00000000	0.0
64	0x00000000	0.0
65	0x00000000	0.0
66	0x00000000	0.0
67	0x00000000	0.0
68	0x00000000	0.0
69	0x00000000	0.0
70	0x00000000	0.0
71	0x00000000	0.0
72	0x00000000	0.0
73	0xba56a563	-0.00081880967
74	0x00000000	0.0
75	0xbbc83305	-0.0061095976
76	0xbb3c2100	-0.0028706193
77	0x00000000	0.0
78	0x00000000	0.0
79	0x00000000	0.0
80	0x00000000	0.0
81	0x3bdb15ff	0.0066859717
82	0x3c0bca08	0.008532055
83	0x3b42534b	0.0029651697
84	0xbc6dad2d	-0.01450662
85	0x3b336302	0.0027372246
86	0xbacedbd8	-0.0015782071
87	0x00000000	0.0
88	0xbabf090f	-0.0014574843
89	0xbc3dadc0	-0.01157707
90	0x00000000	0.0
91	0x00000000	0.0
92	0x00000000	0.0
93	0xbb9331ca	-0.0044920193
94	0x00000000	0.0
95	0x00000000	0.0
96	0xbc1c1f71	-0.009528981
97	0x00000000	0.0
98	0x00000000	0.0
99	0x00000000	0.0
100	0x00000000	0.0
101	0x3b095bab	0.002095918
102	0x00000000	0.0
103	0x3b362bd7	0.0027797127
104	0x00000000	0.0
105	0x00000000	0.0
106	0x3ba44936	0.0050136102
107	0xbbaf1f09	-0.005344276
108	0x3bb159ea	0.00541233
109	0x00000000	0.0
110	0x00000000	0.0
111	0x00000000	0.0
112	0xbb99648e	-0.0046811765
113	0x00000000	0.0
114	0x00000000	0.0
115	0xbb1ace98	-0.0023621675
116	0x00000000	0.0
117	0x00000000	0.0
118	0x00000000	0.0
119	0x38377104	4.3735854e-05
120	0xbbf5525f	-0.007486626
121	0x00000000	0.0
122	0xbc15d3c5	-0.009144728
123	0xbaf69ed6	-0.0018815647
124	0x00000000	0.0
125	0xbc0f965e	-0.008763878
126	0x00000000	0.0
127	0x3c217a1a	0.009855771

exp_avg_sq f4 [128]
0	0x00000000	0.0
1	0x00000000	0.0
2	0x3a57339f	0.0008209291
3	0x00000000	0.0
4	0x00000000	0.0
5	0x3acddfb3	0.0015706926
6	0x00000000	0.0
7	0x00000000	0.0
8	0x00000000	0.0
9	0x3a95714c	0.0011401563
10	0x3a403710	0.00073324237
11	0x3a28ac52	0.0006434369
12	0x00000000	0.0
13	0x00000000	0.0
14	0x00000000	0.0
15	0x00000000	0.0
16	0x3a698ac4	0.00089089223
17	0x3a58d167	0.00082709495
18	0x00000000	0.0
19	0x3ba42612	0.005009421
20	0x00000000	0.0
21	0x00000000	0.0
22	0x3a4acdd0	0.0007736357
23	0x00000000	0.0
24	0x00000000	0.0
25	0x00000000	0.0
26	0x3a81f7f0	0.000991581
27	0x00000000	0.0
28	0x00000000	0.0
29	0x00000000	0.0
30	0x3b3e3be7	0.0029027404
31	0x00000000	0.0
32	0x00000000	0.0
33	0x00000000	0.0
34	0x00000000	0.0
35	0x3a34a93b	0.00068916724
36	0x00000000	0.0
37	0x00000000	0.0
38	0x3a810e42	0.0009846168
39	0x3a5588b2	0.00081456744
40	0x00000000	0.0
41	0x3abaed5b	0.0014261411
42	0x00000000	0.0
43	0x3abe11ed	0.0014501192
44	0x3a56e27a	0.00081972
45	0x39fb912f	0.0004798262
46	0x3b8afbb2	0.00424143
47	0x00000000	0.0
48	0x00000000	0.0
49	0x00000000	0.0
50	0x3aa6deb5	0.0012731167
51	0x00000000	0.0
52	0x00000000	0.0
53	0x00000000	0.0
54	0x3b4cc113	0.003124301
55	0x3a4c871d	0.0007802116
56	0x00000000	0.0
57	0x3ae1c2ad	0.0017224156
58	0x3af085d8	0.0018350435
59	0x00000000	0.0
60	0x3a268410	0.00063520763
61	0x3a6b3bb5	0.00089734356
62	0x00000000	0.0
63	0x00000000	0.0
64	0x00000000	0.0
65	0x00000000	0.0
66	0x00000000	0.0
67	0x00000000	0.0
68	0x00000000	0.0
69	0x00000000	0.0
70	0x00000000	0.0
71	0x00000000	0.0
72	0x00000000	0.0
73	0x3a440c08	0.00074785994
74	0x00000000	0.0
75	0x3ab8a77e	0.0014088002
76	0x3a7d4def	0.0009662797
77	0x00000000	0.0
78	0x00000000	0.0
79	0x00000000	0.0
80	0x00000000	0.0
81	0x3a3caa1d	0.000719698
82	0x3a2cabdb	0.0006586888
83	0x3a80988b	0.0009811086
84	0x3a352912	0.0006910722
85	0x3a0959e2	0.0005239529
86	0x3a285ba1	0.0006422345
87	0x00000000	0.0
88	0x3a919910	0.0011108238
89	0x3b02d59a	0.0019963742
90	0x00000000	0.0
91	0x00000000	0.0
92	0x00000000	0.0
93	0x3a2001d2	0.0006103787
94	0x00000000	0.0
95	0x00000000	0.0
96	0x3a3061df	0.0006728451
97	0x00000000	0.0
98	0x00000000	0.0
99	0x00000000	0.0
100	0x00000000	0.0
101	0x39fedc59	0.00048610827
102	0x00000000	0.0
103	0x3bcbe0ec	0.006221881
104	0x00000000	0.0
105	0x00000000	0.0
106	0x3a0233ff	0.00049668545
107	0x3acb5256	0.0015512209
108	0x3a58b551	0.00082667643
109	0x00000000	0.0
110	0x00000000	0.0
111	0x00000000	0.0
112	0x3a79aad0	0.0009524049
113	0x00000000	0.0
114	0x00000000	0.0
115	0x39aaca1f	0.0003257552
116	0x00000000	0.0
117	0x00000000	0.0
118	0x00000000	0.0
119	0x3a852083	0.0010156784
120	0x3aab2a40	0.0013058856
121	0x00000000	0.0
122	0x3a9143e3	0.0011082854
123	0x3a7486c7	0.0009327945
124	0x00000000	0.0
125	0x3a6e7c00	0.0009097457
126	0x00000000	0.0
127	0x3ab29817	0.0013625649
