models/RaceModels/classif_pos_coef_3copies0to10_threelayersdropout0.2lr0.0001/model.pt (torch, 431581 bytes, 24 tensors)

fc1.weight f4 [128, 144]
0.21797706 0.20908241 0.07001485 -0.013825949 0.010048081 -0.048166964 -0.1391946 -0.34101585
0.056209326 0.011784047 -0.01997032 -0.0644662 -0.07149234 -0.14306498 0.09974223 -0.048151918
0.0780879 0.210619 0.04742683 0.16155942 -0.09695587 -0.44492134 -0.06729185 0.112490326
0.055103254 -0.07337325 -0.0806389 0.12022865 0.12191896 -0.10898053 0.097794384 -0.024900997
-0.040114388 -0.036104422 0.09068058 0.01528053 0.048263643 0.13016833 0.07388125 -0.11911286
-0.06731529 0.10997729 -0.08050363 0.032551073 0.029555 -0.26162544 -0.29105964 -0.010487185
-0.047363166 0.018641658 -0.0881343 0.12326348 0.09486925 0.010444246 0.08740244 -0.022431837
0.09515358 -0.025610037 0.13418363 0.0803589 0.053197782 0.01736372 -0.050420687 -0.027673377
-0.003523807 -0.001982679 -0.06203277 -0.0056063547 -0.09043033 -0.2565393 -0.0550924 0.108112685
-0.04755719 0.09062618 -0.03419798 0.13472047 -0.06080379 0.01596994 0.17484047 0.043481715
0.10051243 -0.10710461 0.10720241 0.09150116 0.10159421 -0.0037038217 -0.077499814 -0.08088909
-0.04125516 0.011911498 0.0028691823 -0.117034264 -0.11887464 -0.16800416 0.05397834 0.056373753
0.030976813 0.039456215 0.0033243382 0.06306085 0.06420156 -0.07362476 0.025694033 0.051507693
-0.05392543 0.021580877 0.021455454 0.019151276 0.08709378 -0.00031909058 -0.06227691 -0.041539256
0.023332207 0.000610589 0.026771808 -0.07393474 -0.09103059 -0.17980061 -0.00433231 0.03803471
-0.06062808 0.10842746 -0.054358166 0.06693763 0.01856962 0.032799765 0.060240924 -0.045678113
0.07939894 -0.12237415 0.10072739 -0.050268132 0.11911542 0.07128576 -0.087635435 -0.055191766
0.049431145 0.10124256 -0.09025184 -0.045570374 -0.089757815 -0.16128361 0.037612934 0.13636032
-0.008088168 -0.45339534 0.038514134 -0.03796199 -0.087669335 -0.1256189 -0.018941076 0.07579645
-0.024210239 -0.011646055 0.057266854 0.12270545 -0.07802071 -0.15604424 -0.0838646 0.11059
-0.00097354193 0.095951624 -0.029904021 -0.045122907 0.06791075 0.13720688 0.21002854 -0.14556883
0.012438977 -0.09118567 -0.09418897 0.021602534 0.05263491 0.068993 -0.036621932 0.027772104
-0.012139903 -0.093921065 -0.05386291 0.07910984 0.016218409 0.22280368 -0.09092795 0.093303144
0.03258901 -0.02613011 -0.08468996 0.019264368 -0.010770696 0.0923415 0.10106409 -0.032009196
0.016030867 -0.17175165 -0.024480587 0.03140223 3.339804e-05 -0.016804922 -0.13289791 0.073963314
-0.074511245 0.05573448 -0.015253694 0.05493783 0.08019197 0.19511008 -0.010619435 0.14522086
0.02902449 0.10266378 -0.08181224 -0.07907287 -0.0069544446 -0.046640042 0.046034988 -0.10540999
-0.0033677686 -0.17031704 -0.11092859 -0.06574204 0.0061378996 0.02626334 -0.117239945 -0.022831853
0.021210916 0.120427296 0.054639284 0.07164903 -0.07548483 0.2086933 0.10171439 0.022424923
-0.14439535 0.07822961 0.023444472 0.016393702 -0.041213196 -0.032689508 0.045375876 -0.035620917
0.074468255 -0.34536597 -0.028443327 -0.00183329 0.12145118 -0.075714946 -0.19072308 0.16586578
0.051536508 -0.027723953 0.006028764 -0.028146377 0.004508711 0.22082911 0.023236107 0.013444361
00000000: 6135 5f3e b319 563e f263 8f3d 3c86 62bc
00000010: b5a0 243c b94a 45bd 0789 0ebe a199 aebe
00000020: c03b 663d e011 413c cc98 a3bc db06 84bd
00000030: 936a 92bd a07f 12be a745 cc3d f23a 45bd
00000040: 8dec 9f3d 82ac 573e a342 423d d56f 253e
00000050: cd90 c6bd bbcc e3be 4fd0 89bd 5461 e63d
00000060: f3b3 613d b744 96bd 0226 a5bd 703a f63d
00000070: a6b0 f93d 2f31 dfbd 6c48 c83d 2dfd cbbc
00000080: fc4e 24bd 3be2 13bd bdb6 b93d 305b 7a3c
00000090: 19b0 453d d94a 053e 0e4f 973d 71f1 f3bd
000000a0: 99dc 89bd c63b e13d 16df a4bd 4654 053d
000000b0: 541d f23c c5f3 85be c505 95be 71d2 2bbc
000000c0: e1ff 41bd 64b6 983c c27f b4bd 9071 fc3d
000000d0: cf4a c23d 581e 2b3c 0d00 b33d f9c2 b7bc
000000e0: e1df c23d 24cc d1bc 6f67 093e 3593 a43d
000000f0: ebe5 593d 5c3e 8e3c ec85 4ebd 47b3 e2bc
00000100: acef 66bb d5ef 01bb 1316 7ebd 83b5 b7bb
00000110: 8933 b9bd 1e59 83be 92a8 61bd 2f6a dd3d
00000120: 54cb 42bd 389a b93d 2e13 0cbd 2af4 093e
00000130: 650d 79bd 64d3 823c 6109 333e e219 323d
00000140: 76d9 cd3d a959 dbbd f08c db3d f664 bb3d
00000150: a010 d03d d1bb 72bb 39b8 9ebd 2ea9 a5bd
00000160: 2cfb 28bd 7228 433c e408 3c3b a9af efbd
00000170: 8c74 f3bd 4809 2cbe 6418 5d3d 2ae8 663d
00000180: 16c3 fd3c d79c 213d 24dd 593b 0c26 813d
00000190: 1c7c 833d 94c8 96bd 4b7c d23c bbf9 523d
000001a0: e9e0 5cbd 61ca b03c 59c3 af3c 23e3 9c3c
000001b0: 395e b23d 9d4b a7b9 1316 7fbd 1125 2abd
000001c0: 2f23 bf3c ef0f 203a 8d50 db3c 196b 97bd
000001d0: 3f6e babd a71d 38be 0df6 8dbb 49ca 1b3d
000001e0: 2655 78bd 370f de3d aba6 5ebd 9916 893d
000001f0: 511f 983c 0c59 063d 30bf 763d f918 3bbd
00000200: e99b a23d 4c9f fabd 294a ce3d f5e5 4dbd
00000210: c9f2 f33d 45fe 913d 357a b3bd c310 62bd
00000220: 5078 4a3d 4258 cf3d f5d5 b8bd 00a8 3abd
00000230: f2d2 b7bd 8827 25be 0510 1a3d 0aa2 0b3e
00000240: 3c84 04bc 6f23 e8be ffc0 1d3d 087e 1bbd
00000250: fb8b b3bd 3ea2 00be 512a 9bbc 2b3b 9b3d
00000260: 8d54 c6bc 18cf 3ebc a690 6a3d ff4c fb3d
00000270: 52c9 9fbd 10ca 1fbe 34c1 abbd 037d e23d
00000280: 4b35 7fba 4982 c43d 47f9 f4bc ccd2 38bd
00000290: cb14 8b3d f67f 0c3e b911 573e ff0f 15be
000002a0: dacc 4b3c 8dbf babd 26e6 c0bd ccf7 b03c
000002b0: b497 573d 344c 8d3d e100 16bd 5382 e33c
000002c0: 72e6 46bc b059 c0bd 5b9f 5cbd 5704 a23d
000002d0: 78dc 843c a626 643e 6f38 babd b815 bf3d
000002e0: 0e7c 053d d00e d6bc ee71 adbd 4fd0 9d3c
000002f0: 9377 30bc 8a1d bd3d b1fa ce3d 131c 03bd
00000300: 2a53 833c aadf 2fbe 838b c8bc a09f 003d
00000310: df14 0c38 7aaa 89bc 6416 08be 147a 973d
00000320: 5a99 98bd d749 643d a1ea 79bc 7d06 613d
00000330: b03b a43d f0ca 473e 24fd 2dbc c7b4 143e
00000340: c4c4 ed3c 6341 d23d 2d8d a7bd f5f0 a1bd
00000350: 1ce2 e3bb a109 3fbd 2f8f 3c3d 31e1 d7bd
00000360: c8b5 5cbb 9767 2ebe 872e e3bd c3a3 86bd
00000370: 6f20 c93b 3726 d73c 7f1b f0bd de09 bbbc
00000380: 84c2 ad3c 96a2 f63d 71cd 5f3d babc 923d
00000390: ca97 9abd b2b3 553e a24f d03d 79b4 b73c
000003a0: 60dc 13be d936 a03d 9f0e c03c 164c 863c
000003b0: 2bcf 28bd 6fe5 05bd 0edc 393d 3de7 11bd
000003c0: d082 983d cfd3 b0be fb01 e9bc 014b f0ba
000003d0: 65bb f83d 7010 9bbd e94c 43be b8d8 293e
000003e0: f217 533d 581d e3bc f08c c53b 3b93 e6bc
000003f0: cfbd 933b 0721 623e a659 be3c bd45 5c3c

fc1.bias f4 [128]
-0.033610087 0.07487584 0.02140328 -0.079563044 0.068090945 -0.06672375 -0.00026180595 0.008775892
0.10319899 -0.06345081 0.09265063 -0.010569058 0.0009846762 -4.8326077e-05 -0.08499381 0.015111632
-0.01621845 -0.04175308 0.0303569 -0.06669768 -0.023216888 -0.03597532 -0.07300768 0.008713802
-0.038168203 -0.035193145 -0.040488116 -0.03418989 -0.053624567 -0.050557077 -0.03361705 -0.0350117
0.06636311 -0.06365636 0.081116214 0.07350918 -0.02053314 -0.01794847 -0.04986893 -0.006561069
0.08000258 0.073213 0.041645993 -0.076602556 -0.014628089 -0.035647027 -0.0037713423 0.02774828
0.06215127 -0.006063316 0.038739227 0.027331924 0.048481256 0.08412232 -0.018753871 -0.003222145
0.0050691008 -0.046664864 -0.09118919 0.08327157 0.03181116 -0.08380869 0.003243609 0.061479643
0.041166898 -0.047375213 -0.04722282 0.028352946 -0.016065419 0.069685034 0.00031278442 0.04283034
-0.0037972084 -0.006949119 -0.0047075097 -0.011916343 -0.04557864 0.044975996 -0.05793567 0.012886293
0.09216251 0.090508275 0.05793189 0.025808085 0.06348524 0.04832924 -0.013659531 0.067034855
0.043369748 -0.07281624 0.052940946 0.0721328 -0.08243885 0.0014091268 0.036202453 -0.11384282
0.0019981472 -0.08201336 -0.05509465 -0.027930373 -0.04865973 0.004269871 -0.02325345 -0.049399614
0.012685176 0.029433232 0.036725808 0.020116523 -0.057756957 0.047334746 -0.011337738 -0.08509085
-0.01102223 0.067022555 0.0032947115 0.050343394 0.063159056 -0.028301649 -0.03447325 0.053449914
0.09129118 0.06957254 -0.066711046 -0.02579306 0.0340853 -0.05040167 -0.013806779 -0.06001382
00000000: bbaa 09bd 8158 993d ee55 af3c f3f1 a2bd
00000010: 4473 8b3d 76a6 88bd 0043 89b9 c2c8 0f3c
00000020: fe59 d33d 80f2 81bd 9dbf bd3d d829 2dbc
00000030: 4010 813a bbb1 4ab8 3c11 aebd c796 773c
00000040: 8edc 84bc 4705 2bbd 09af f83c cb98 88bd
00000050: 5831 bebc db5a 13bd 0d85 95bd 56c4 0e3c
00000060: 4356 1cbd b026 10bd ded6 25bd b30a 0cbd
00000070: 6fa5 5bbd f014 4fbd 08b2 09bd 6e68 0fbd
00000080: 62e9 873d 445e 82bd 4220 a63d fb8b 963d
00000090: 1e35 a8bc ab08 93bc 5d43 4cbd 3cfe d6bb
000000a0: 65d8 a33d b3f0 953d fd94 2a3d cde1 9cbd
000000b0: a7aa 6fbc 9e02 12bd a028 77bb 5c50 e33c
000000c0: 5592 7e3d c8ae c6bb 06ad 1e3d 33e7 df3c
000000d0: 4894 463d 5348 ac3d b8a1 99bc 9f2a 53bb
000000e0: b31a a63b a823 3fbd 66c1 babd 498a aa3d
000000f0: 6b4c 023d e4a3 abbd bb92 543b 14d2 7b3d
00000100: 9f9e 283d 830c 42bd b76c 41bd 7044 e83c
00000110: a09b 83bc 07b7 8e3d 37fd a339 de6e 2f3d
00000120: 96da 78bb 6fb5 e3bb 7441 9abb c43c 43bc
00000130: abb0 3abd c038 383d f44d 6dbd 0821 533c
00000140: b3bf bc3d 675c b93d fd49 6d3d 7a6b d33c
00000150: 8d04 823d e2f4 453d 3acc 5fbc 9249 893d
00000160: 7aa4 313d ae20 95bd 9bd8 583d 5dba 933d
00000170: b3d5 a8bd 73b2 b83a 0649 143d 6d26 e9bd
00000180: 59f3 023b 9ff6 a7bd edaa 61bd 3dce e4bc
00000190: 6d4f 47bd 46ea 8b3b 057e bebc 4057 4abd
000001a0: 7cd5 4f3c f61d f13c cd6d 163d 68cb a43c
000001b0: 8f92 6cbd 14e2 413d ebc1 39bc 1d44 aebd
000001c0: 9596 34bc 1f43 893d 16ec 573b e034 4e3d
000001d0: 8959 813d dcd8 e7bc d333 0dbd 4cee 5a3d
000001e0: dff6 ba3d 0c7c 8e3d cd9f 88bd f84b d3bc
000001f0: 079d 0b3d fb71 4ebd d435 62bc 0dd1 75bd

fc2.weight f4 [64, 128]
-0.0061505307 -0.06348842 0.030505065 0.15156606 0.07548301 0.07267809 0.03452108 -0.039305802
-0.058257442 0.006848231 -0.002122337 0.031883925 0.053686135 -0.02714573 0.09290213 -0.060788263
0.08565391 -0.18064989 -0.0906395 0.008614357 -3.6010657e-05 -0.22302446 0.005528083 -0.041017063
0.17649536 -0.03387882 0.17347069 0.05329286 0.059956025 0.1255851 0.04442665 0.16485068
0.2551777 0.043386318 -0.016136564 -0.0088122 0.15206389 0.08034758 -0.26467136 -0.18974532
-0.2727571 -0.081635416 0.0735539 0.07161838 0.2130171 -0.087934874 0.027338587 -0.07974453
-0.10205719 0.015454492 0.029172398 0.05982488 0.26882857 -0.15021735 0.20434633 -0.017543972
0.07689365 0.07386224 -0.0467337 0.14039388 0.013569731 0.0019232158 0.14379314 -0.1150078
-0.0043566814 0.06644041 -0.058427535 0.05222892 0.11458603 0.2422174 -0.048710328 0.064208575
-0.047970954 -0.38560164 0.0406925 0.1451491 -0.01948919 0.28631368 0.065199904 -0.03650512
-0.033181712 0.09172489 -0.058447774 -0.052914184 0.12060942 0.05769115 -0.023975717 0.030453613
-0.07283595 -0.04409155 -0.25238037 -0.060945414 -0.1161162 0.0019452324 0.058729 0.058272194
-0.02076561 0.052841507 -0.03182142 0.041039255 0.21264008 0.016281264 -0.31708863 0.08964755
-0.0025714394 -0.024172166 0.34661227 0.13863854 -0.3761293 0.0015322821 -0.1939337 0.13440588
0.101521105 -0.12767461 -0.16580327 -0.06772306 0.1239292 -0.061811112 -0.24659397 0.10698194
0.09976631 0.06913696 -0.026402922 -0.0046629226 0.005770573 0.081697136 0.09049472 0.102671124
0.08996135 0.08634788 -0.16306841 -0.13005641 0.04400882 0.117540404 0.03168176 0.036949757
-0.10026881 0.0854701 0.21169677 0.007409289 -0.06530983 -0.2031951 0.027182665 0.030951578
0.099224865 -0.124669574 0.10333502 0.062400784 -0.26317015 -0.0270133 -0.0066262954 0.108792864
0.30824205 -0.034265514 -0.025440965 0.07915002 0.02813029 -0.19542924 -0.009715785 0.10708692
0.2885047 0.03267564 -0.08471857 0.049864672 0.053129587 0.05739984 0.33842346 0.004756374
0.4376598 0.14770284 0.10435523 0.0008212921 -0.063117996 0.014979318 -0.07873864 -0.080724224
0.09888261 -0.17358115 0.0034891616 0.18778983 -0.46741152 -0.14965817 -0.0037674569 -0.046816517
0.3690938 -0.34964696 0.064559065 -0.14726289 0.079002954 0.16307285 0.02563324 0.25119284
0.055745505 -0.00083230436 -0.026681619 0.021880455 -0.019543733 0.17886998 -0.10456573 0.12001302
0.07787767 0.012822588 0.024238417 -0.063412376 0.12286072 0.18496314 -0.15720095 -0.005546175
-0.10145794 -0.048084978 0.006225258 0.0761757 0.01709291 0.008972757 0.05062904 0.06383669
0.0022435263 -0.071274586 0.07381365 -0.1001517 -0.04838396 -0.16188727 -0.06605194 0.09035534
-0.051447656 -0.080528446 0.025465 0.059051696 0.350215 0.086818 0.05731258 -0.018999822
-0.16140251 0.11930152 -0.17245339 -0.06324173 -0.15144397 0.13567285 0.16058889 0.00756035
0.05417682 -0.35482177 -0.06702138 -0.076702595 0.19804041 0.06027963 0.28733432 -0.036251478
-0.13010415 0.037036188 -0.035624985 0.06456924 0.056124732 0.040789824 -0.14819978 0.09126595
00000000: 648a c9bb 3706 82bd c2e5 f93c 2234 1b3e
00000010: d696 9a3d 40d8 943d fa65 0d3d 1fff 20bd
00000020: 5b9f 6ebd 2067 e03b e816 0bbb b898 023d
00000030: fee5 5b3d b960 debc 7943 be3d 1dfd 78bd
00000040: 516b af3d 49fc 38be 34a1 b9bd 3b23 0d3c
00000050: 260a 17b8 8660 64be ec24 b53b 8201 28bd
00000060: 33bb 343e 84c4 0abd 4da2 313e 9d49 5a3d
00000070: 7394 753d 6199 003e b8f8 353d 9ece 283e
00000080: a7a6 823e dab5 313d d430 84bc 0c61 10bc
00000090: a3b6 1b3e 468d a43d 0183 87be 994c 42be
000000a0: d2a6 8bbe 7830 a7bd 6da3 963d a8ac 923d
000000b0: 2821 5a3e 3317 b4bd 2cf5 df3c 1a51 a3bd
000000c0: 5c03 d1bd d634 7d3c f4fa ee3c ef0a 753d
000000d0: e6a3 893e 94d2 19be 2a40 513e 60b8 8fbc
000000e0: 6b7a 9d3d 1645 973d d66b 3fbd 6ac3 0f3e
000000f0: 9453 5e3c 6a14 fc3a 823e 133e 3689 ebbd
00000100: 7ec2 8ebb e911 883d b651 6fbd feed 553d
00000110: 15ac ea3d d707 783e 7b84 47bd c97f 833d
00000120: 317d 44bd 946d c5be 2ead 263d f7a1 143e
00000130: cba7 9fbc b597 923e 8787 853d 6586 15bd
00000140: 8ce9 07bd 42da bb3d ef66 6fbd 8bbc 58bd
00000150: 1202 f73d 8e4d 6c3d b968 c4bc db79 f93c
00000160: 042b 95bd 5799 34bd 0038 81be e6a1 79bd
00000170: 55ce edbd 2bf7 fe3a d28d 703d d3ae 6e3d
00000180: a41c aabc 5670 583d 2d57 02bd c718 283d
00000190: 52be 593e 4960 853c 7159 a2be 2299 b73d
000001a0: 9885 28bb b504 c6bc 2a77 b13e 43f7 0d3e
000001b0: 0594 c0be dbd6 c83a 8e96 46be b2a1 093e
000001c0: 4cea cf3d 22bd 02be 55c8 29be 63b2 8abd
000001d0: 98ce fd3d a62d 7dbd 2183 7cbe 5919 db3d
000001e0: 4752 cc3d ae97 8d3d f14a d8bc 6ecb 98bb
000001f0: 1317 bd3b d450 a73d 4c55 b93d 3d45 d23d
00000200: a83d b83d 28d7 b03d 68fb 26be 822d 05be
00000210: 9842 343d 06b9 f03d bcc4 013d a158 173d
00000220: bc59 cdbd f30a af3d 0ac7 583e 9fc9 f23b
00000230: 29c1 85bd 6012 50be 2eae de3c 2a8e fd3c
00000240: 6836 cb3d c352 ffbd 50a1 d33d f797 7f3d
00000250: 3dbe 86be ff4a ddbc 6521 d9bb cbce de3d
00000260: e7d1 9d3e ff59 0cbd 9269 d0bc 6819 a23d
00000270: 7e71 e63c 9a1e 48be f52e 1fbc 6350 db3d
00000280: e3b6 933e e4d6 053d ee80 adbd e63e 4c3d
00000290: 699e 593d 181c 6b3d d745 ad3e 5bdb 9b3b
000002a0: f214 e03e 6a3f 173e 32b8 d53d fb4b 573a
000002b0: 0244 81bd d06b 753c b941 a1bd be52 a5bd
000002c0: f782 ca3d 42bf 31be 6baa 643b fa4b 403e
000002d0: 9050 efbe fe3f 19be 70e7 76bb adc2 3fbd
000002e0: ddf9 bc3e ed04 b3be 8b37 843d 15cc 16be
000002f0: 4dcc a13d 92fc 263e cdfc d13c 599c 803e
00000300: 6655 643d 002f 5aba 6993 dabc a43e b33c
00000310: 2e1a a0bc b129 373e 8f26 d6bd 63c9 f53d
00000320: 547e 9f3d d515 523c a58f c63c 59de 81bd
00000330: 679e fb3d fa66 3d3e 49f9 20be b0bc b5bb
00000340: 2ec9 cfbd c1f4 44bd 40fd cb3b 0102 9c3d
00000350: 6e06 8c3c 7802 133c 6560 4f3d cfbc 823d
00000360: 2008 133b 69f8 91bd 9c2b 973d 561c cdbd
00000370: 422e 46bd c7c5 25be 3d46 87bd 380c b93d
00000380: c7ba 52bd 19ec a4bd fa9b d03c 31e0 713d
00000390: 614f b33e a3cd b13d 99c0 6a3d 84a5 9bbc
000003a0: b346 25be 5b54 f43d 9f97 30be e184 81bd
000003b0: 2114 1bbe d3ed 0a3e 6a71 243e d0bc f73b
000003c0: 83e8 5d3d 33ab b5be 8142 89bd 4016 9dbd
000003d0: 1bcb 4a3e c6e7 763d 7c1d 933e 6e7c 14bd
000003e0: 063a 05be 42b3 173d 81eb 11bd e13c 843d
000003f0: 0ce3 653d 3b13 273d afc1 17be a4e9 ba3d

fc2.bias f4 [64]
0.07995974 -0.117745325 -0.03626312 0.060552903 -0.0054102344 -0.029340798 0.033239093 -0.023248415
0.06579103 -0.12380511 0.0074437754 0.045595884 -0.019761335 0.018360091 0.06380227 -0.02925155
-0.05566353 -0.08383304 0.05772368 0.0039011333 0.008824405 -0.060414422 -0.0054045375 0.044823132
0.015252221 0.016417295 0.039639845 0.032934662 -0.053954083 -0.07887337 0.05322239 0.091015264
0.06259721 0.02811641 0.15628955 0.060870815 -0.051831245 0.0728268 -0.026598945 0.04591836
-0.021049567 0.01962003 0.007968488 0.052484926 -0.06377271 -0.02419744 0.12407641 -0.013590519
-0.00845598 -0.0777632 -0.01297407 -0.047792908 0.032861028 -0.059102383 0.14789583 0.046465125
0.14871542 -0.026365329 0.06548674 0.087547146 -0.013960604 0.0907842 -0.015468179 0.12886871
00000000: efc1 a33d 7624 f1bd a388 14bd 5206 783d
00000010: 5648 b1bb 1d5c f0bc b725 083d 7673 bebc
00000020: 73bd 863d 898d fdbd eaea f33b c0c2 3a3d
00000030: 86e2 a1bc e767 963c c4aa 823d f2a0 efbc
00000040: 71ff 63bd a8b0 abbd aa6f 6c3d 28aa 7f3b
00000050: 3d94 103c 1d75 77bd 8c18 b1bb 7698 373d
00000060: 74e4 793c 907d 863c 645d 223d 7fe6 063d
00000070: f5fe 5cbd 5d88 a1bd b9ff 593d 3666 ba3d
00000080: f732 803d 6354 e63c 5e0a 203e ad53 793d
00000090: 004d 54bd 3826 953d 08e6 d9bc e414 3c3d
000000a0: 2470 acbc 2fba a03c 438e 023c 6ffa 563d
000000b0: 449b 82bd b639 c6bc c61b fe3d c5aa 5ebc
000000c0: f38a 0abc 5042 9fbd 3291 54bc 7fc2 43bd
000000d0: 4999 063d 5715 72bd 0172 173e 3752 3e3d
000000e0: db48 183e 1afc d7bc e91d 863d eb4b b33d
000000f0: 04bb 64bc 11ed b93d 3f6e 7dbc 29f6 033e

fc3.weight f4 [32, 64]
0.13544007 -0.09958627 0.2616303 0.08450313 0.2309551 0.05214846 -0.005367854 0.07086929
0.12819016 -0.43185157 -0.14851926 -0.0453219 -0.122049816 0.062110566 0.35697773 0.20105748
0.02740103 0.115964495 -0.19317465 -0.10594511 -0.09272102 -0.039718002 0.00072356587 0.18773735
-0.17332846 0.017152647 0.16340312 -0.07830223 0.05622764 0.0028102677 -0.049607337 -0.0029522195
0.024523037 -0.12483011 0.07188116 -0.01424462 0.20278683 -0.38929474 -0.07331225 0.004154543
0.2204172 -0.09359867 0.045287963 0.10502019 -0.21054879 0.0009665474 0.04591854 0.15987322
-0.11383048 0.11461937 -0.1116946 0.35162285 0.07840392 0.038862024 0.014355139 0.43525663
0.004633621 0.3188588 0.21058753 0.1449193 -0.075611345 0.13675162 -0.044504758 0.018065521
0.20519628 -0.12871718 -0.15240002 -0.091016024 -0.06801778 0.089118876 -0.061272237 0.14271285
0.08788111 -0.09963883 -0.178821 -0.13741311 -0.11808913 0.26520398 0.14523795 -0.1694227
-0.026221031 -0.058014043 0.39785704 0.13627578 0.1036182 -0.09253231 -0.084124796 0.091650516
0.13270284 -0.021789879 -0.122180074 0.051981114 -0.076262906 -0.20546147 -0.010967716 0.15993029
0.024599912 0.21248578 0.32219562 0.18995905 0.13133553 0.09134978 0.121492065 0.04317269
-0.24118207 0.0999953 0.08466924 -0.03545166 0.09799734 -0.0641734 0.0091248555 0.4418593
-0.040561598 -0.119678535 0.10568662 -0.12207001 0.1688844 -0.021269651 0.27770355 -0.0065202527
0.092013136 0.1265502 -0.06747477 0.104826145 -0.06644663 0.12227746 0.11196427 0.26590627
-0.07808865 -0.2511335 -0.39913112 -0.06381318 -0.06373322 -0.018002795 0.04926187 0.15006165
0.054412898 0.2915304 -0.06013848 -0.07051857 0.13440534 -0.0054698405 -0.21996273 -0.093498304
0.40138632 0.0036747307 0.11994745 -0.0037707184 0.065647535 0.052304767 0.15333115 0.32301748
-0.18333004 -0.08118296 0.22398122 -0.121663444 -0.11233819 -0.019130843 -0.111799195 -0.056506474
0.3341564 0.12309827 -0.31203166 -0.1211041 0.1186516 0.3570439 -0.21018663 -0.08092564
0.28108478 0.20172878 -0.05986301 -0.26902753 0.3007041 0.17797862 0.074366815 -0.23318465
0.15745327 0.08586307 0.12458037 -0.09072397 0.059374776 -0.25552443 -0.055368695 0.042360824
0.24155666 0.069861606 0.08843605 0.24392748 -0.18443231 -0.0070033944 0.09198972 -0.12690197
0.0502598 0.1769549 0.11253792 0.059178054 -0.17361116 -0.09314824 -0.15389083 0.22088337
-0.010999694 0.10162034 0.13567558 -0.04856704 0.115303025 0.014515236 0.22958292 -0.31677112
-0.08932453 0.14654307 0.16621669 0.14877881 -0.09828355 -0.19866891 0.27166054 0.048841342
-0.07000282 -0.17742972 -0.09635891 0.20413777 -0.21113694 -0.21073608 0.17536564 0.10688298
0.1935577 -0.0070294435 0.23964027 0.18477978 -0.09623672 -0.0014919192 0.06467352 -0.067378975
0.00071172166 0.11654118 0.3972389 0.3349567 0.21709312 0.007032099 0.13091175 -0.2177496
-0.1189903 0.18059938 0.23073044 -0.08831472 -0.37670252 -0.16203983 0.14457716 -0.12572229
-0.06830036 -0.2794075 -0.18832947 0.07173511 0.05009378 0.18814433 0.039077587 0.38107803
00000000: cdb0 0a3e e3f3 cbbd 68f4 853e fa0f ad3d
00000010: 7e7f 6c3e a099 553d d3e4 afbb eb23 913d
00000020: 4844 033e a61b ddbe 6f15 18be 75a3 39bd
00000030: 41f5 f9bd a667 7e3d c9c5 b63e 03e2 4d3e
00000040: 2078 e03c cb7e ed3d 93cf 45be c0f9 d8bd
00000050: 85e4 bdbd 58af 22bd afad 3d3a 383e 403e
00000060: 047d 31be b583 8c3c 2653 273e eb5c a0bd
00000070: f44e 663d 782c 383b 1031 4bbd 067a 41bb
00000080: 89e4 c83c eea6 ffbd 6e36 933d 4462 69bc
00000090: 5aa7 4f3e a451 c7be bc24 96bd d522 883b
000000a0: 0cb5 613e a9b0 bfbd df7f 393d d314 d73d
000000b0: 1a9a 57be e65f 7d3a 1415 3c3d ceb5 233e
000000c0: f41f e9bd 8fbd ea3d 23c0 e4bd e907 b43e
000000d0: 3c92 a03d c92d 1f3d d131 6b3c f5d9 de3e
000000e0: a1d5 973b 7641 a33e 42a4 573e ba65 143e
000000f0: 1fda 9abd 9e08 0c3e 9f4a 36bd 25fe 933c
00000100: f91e 523e 70ce 03be c00e 1cbe 9c66 babd
00000110: e84c 8bbd f583 b63d 99f8 7abd 5123 123e
00000120: 03fb b33d 710f ccbd da1c 37be 06b6 0cbe
00000130: b7d8 f1bd d1c8 873e 42b9 143e 257d 2dbe
00000140: 7dcd d6bc 22a0 6dbd ebb3 cb3e e18b 0b3e
00000150: c735 d43d 9481 bdbd 9f49 acbd 44b3 bb3d
00000160: 41e3 073e b080 b2bc 8c39 fabd 26ea 543d
00000170: ba2f 9cbd 7e64 52be efb1 33bc c4c4 233e
00000180: c185 c93c df95 593e d3f6 a43e a084 423e
00000190: d27c 063e 9815 bb3d d5d0 f83d d9d5 303d
000001a0: 6ff8 76be 56ca cc3d 1167 ad3d c335 11bd
000001b0: d4b2 c83d 586d 83bd 6b80 153c 623b e23e
000001c0: eb23 26bd 051a f5bd 3a72 d83d d7ff f9bd
000001d0: 08f0 2c3e b13d aebc 292f 8e3e d8a7 d5bb
000001e0: 6271 bc3d 6096 013e 3630 8abd 17af d63d
000001f0: 2c15 88bd 9b6c fa3d 864d e53d de24 883e
00000200: f1ec 9fbd 9294 80be ea5a ccbe 7cb0 82bd
00000210: 9086 82bd 997a 93bc d1c6 493d c3a9 193e
00000220: 0fe0 5e3d 7943 953e c453 76bd 0a6c 90bd
00000230: 8ea1 093e 593c b3bb e93d 61be 0a7c bfbd
00000240: 8282 cd3e c0d3 703b 02a7 f53d 281e 77bb
00000250: 3772 863d 863d 563d d702 1d3e 8c62 a53e
00000260: dfba 3bbe 4043 a6bd 555b 653e af2a f9bd
00000270: 9111 e6bd 49b8 9cbc faf6 e4bd 5573 67bd
00000280: 8c16 ab3e f21a fc3d 9dc2 9fbe 6d05 f8bd
00000290: 9cff f23d 75ce b63e 2a3b 57be 58bc a5bd
000002a0: 58ea 8f3e fd91 4e3e ea32 75bd fabd 89be
000002b0: e3f5 993e 0740 363e a14d 983d f5c7 6ebe
000002c0: 6e3b 213e fad8 af3d fe23 ff3d 7dcd b9bd
000002d0: f732 733d 19d4 82be 49ca 62bd 8b82 2d3d
000002e0: a15a 773e 9a13 8f3d f61d b53d 20c8 793e
000002f0: d3db 3cbe bb7c e5bb 1b65 bc3d 97f2 01be
00000300: 38dd 4d3d aa33 353e 487a e63d b064 723d
00000310: 20c7 31be 81c4 bebd 8f95 1dbe 402f 623e
00000320: 0f38 34bc 531e d03d 8aee 0a3e 3cee 46bd
00000330: fe23 ec3d 50d1 6d3c c917 6b3e d32f a2be
00000340: c7ef b6bd 630f 163e b534 2a3e 7959 183e
00000350: e348 c9bd dd6f 4bbe 1717 8b3e dc0d 483d
00000360: a35d 8fbd 23b0 35be d257 c5bd 7e09 513e
00000370: 4834 58be 33cb 57be 0d93 333e 77e5 da3d
00000380: fd33 463e 3f57 e6bb 4264 753e e936 3d3e
00000390: c217 c5bd 808c c3ba 8d73 843d fdfd 89bd
000003a0: d592 3a3a 24ad ee3d e662 cb3e 727f ab3e
000003b0: a94d 5e3e 866d e63b bb0d 063e c0f9 5ebe
000003c0: 30b1 f3bd 0bef 383e 9a44 6c3e 59de b4bd
000003d0: 27df c0be c5ed 25be 090c 143e 58bd 00be
000003e0: 0fe1 8bbd 800e 8fbe 71d9 40be dbe9 923d
000003f0: 232f 4d3d e8a8 403e d20f 203d a91c c33e

fc3.bias f4 [32]
0.12050517 0.17167138 0.13297062 0.040922377 -0.060550317 0.0057803066 0.1346459 -0.062090416
0.011658371 0.06770841 0.20746513 -0.059003804 -0.037696663 -0.025124775 0.1210264 0.117335536
0.1746825 0.018235018 0.022948222 -0.06452991 -0.025559627 -0.101096 -0.079868406 0.21458922
-0.06938208 0.073949434 0.12609254 0.09905934 0.023435751 0.26067096 0.07462781 -0.0179307
00000000: 6acb f63d 9fca 2f3e 7329 083e 399e 273d
00000010: 9c03 78bd ba68 bd3b 9de0 093e 8552 7ebd
00000020: c102 3f3c b5aa 8a3d bd71 543e f9ad 71bd
00000030: d167 1abd 79d2 cdbc b0dc f73d 9d4d f03d
00000040: f8df 323e 9b61 953c e9fd bb3c 4228 84bd
00000050: 6c62 d1bc 6b0b cfbd 0c92 a3bd 47bd 5b3e
00000060: 3118 8ebd cd72 973d 671e 013e a0df ca3d
00000070: 55fc bf3c aa76 853e 77d6 983d 67e3 92bc

fc4.weight f4 [24, 32]
-0.19096142 -0.5778896 0.08144727 -0.38346103 -0.015092636 -0.45544922 -0.4859729 -0.7703476
0.070296444 0.27215642 -0.022587275 -0.2826912 -0.041552164 -0.19367273 0.19348316 -0.3788837
0.09346569 -0.34656018 0.06560076 -0.010600355 -0.160061 -0.063368514 -0.017734524 0.27875707
-0.2916253 -0.61136276 0.08901594 -0.011144633 -0.105978005 -0.31713912 0.014351331 -0.8341603
0.12851971 0.2019289 -0.2943433 0.28159535 0.12707411 0.19303726 -0.46863052 0.126788
-0.30514875 -0.107416004 -0.24773493 0.102512754 0.18596393 0.13544989 -0.76415336 0.085305
-0.32091367 -0.26776 -0.20089847 0.14012346 0.1573667 0.010744982 0.10070201 -0.07750249
0.15616219 -0.15542254 -0.7192821 -0.84662724 -0.07936834 0.17112277 0.17260702 0.04988643
0.1339164 -0.06450421 0.18252207 -0.44189876 0.10195169 -0.49517944 0.16739659 0.1624826
0.06666876 -0.1330194 0.1520344 -0.079136506 -0.60726124 -0.0063949525 0.10942152 -0.11989049
-0.10226756 0.0056769634 0.1200743 0.046155274 -0.61999595 -0.13585596 0.14438254 -0.074617736
-0.3062943 -0.052167267 0.15177935 0.05644998 -0.1807968 -0.4309568 -0.29791525 0.016622003
0.034007423 0.17828426 0.24973258 -0.44951266 -0.18671401 -0.10426611 -0.13075079 0.052327298
0.27378514 0.15283674 -0.4566549 0.15022062 0.0073525496 0.14844835 0.07341682 -0.025971383
0.068839684 -0.59426475 -0.53500146 0.28001696 -0.15539202 -0.029755507 -0.21190497 0.09125853
0.16680345 -0.27790463 -0.54999447 -0.15301175 -0.27640864 0.27382913 -0.22186051 -0.04341089
0.038557682 0.21995746 0.04079775 -0.25672337 -0.83829594 -0.26737523 0.22487868 0.17536232
0.15143754 0.029846014 0.0912542 -0.43126333 -0.18305004 -0.04820789 -0.54725933 0.034384523
0.29541424 0.14488618 -0.3691302 -0.034059323 -0.32055447 0.010987166 -0.03569507 -0.73545307
0.024609199 -0.24542548 -0.51499796 0.20206213 -0.007449341 0.1113485 -0.04594377 0.20023488
0.027954452 0.20520711 0.19506629 0.021349322 -0.4027989 -0.28092995 0.34166718 -0.014352816
0.094804265 -0.1633253 -0.5644109 -0.16451454 -0.14579776 -0.034740042 -0.06320201 -0.11593925
0.018478561 -0.28139746 -0.012774919 0.06931456 -0.518133 -0.10327236 0.013208704 -0.4655866
-0.06875371 -0.26910457 -0.047619402 -0.025843177 -0.584433 0.17558096 -0.13209623 0.23820022
0.15759468 -0.08070301 -0.034023665 0.1904295 0.041361716 -0.13300298 0.11428812 0.23985995
-0.043357 0.02109947 0.07628208 -0.35249582 0.08469275 0.08310747 -0.2282365 0.051421076
-0.04965418 0.051972713 -0.0378673 -0.5091388 0.20666361 -0.008134895 -0.11837205 -0.43308204
0.17547572 0.018546326 0.076501675 0.20182487 0.008918392 -0.18893641 -0.0015923117 0.014975623
-0.10921042 -0.5077633 0.18210073 -0.07912211 -0.2328005 0.026358793 -0.21046732 0.053862907
0.12885244 0.13312018 -0.3131089 -0.043696314 0.12986338 0.14223891 0.14104486 0.012936553
-0.21574974 -0.20153774 -0.4641839 -0.020602716 0.1117745 0.11326449 -0.09206745 -0.023557784
0.15434813 0.12077615 0.103286654 0.2738986 0.09687204 0.2018991 -0.43498486 -0.10825979
00000000: 648b 43be 93f0 13bf d4cd a63d 0155 c4be
00000010: 1b47 77bc a430 e9be 71d1 f8be 8035 45bf
00000020: 95f7 8f3d 1658 8b3e f308 b9bc e7bc 90be
00000030: 9a32 2abd 2552 46be 7320 463e 0bfd c1be
00000040: f16a bf3d 5670 b1be b159 863d 1dad 2dbc
00000050: 08e7 23be 5ac7 81bd fe47 91bc 3fb9 8e3e
00000060: e94f 95be 4582 1cbf fd4d b63d fb97 36bc
00000070: ff0a d9bd 0f60 a2be d821 6b3c 888b 55bf
00000080: ac9a 033e 73c6 4e3e 2ab4 96be 442d 903e
00000090: b71f 023e 8fab 453e 57f0 efbe b7d4 013e
000000a0: 753c 9cbe ecfc dbbd 3aae 7dbe 35f2 d13d
000000b0: 546d 3e3e 60b3 0a3e 8e9f 43bf 63b4 ae3d
000000c0: cc4e a4be d717 89be 54b8 4dbe 867c 0f3e
000000d0: bc24 213e b90b 303c db3c ce3d a0b9 9ebd
000000e0: fbe8 1f3e 1627 1fbe df22 38bf 90bc 58bf
000000f0: de8b a2bd cf3a 2f3e e5bf 303e b755 4c3d
00000100: 6121 093e c91a 84bd 11e7 3a3e 8e40 e2be
00000110: 0ccc d03d 2988 fdbe 036a 2b3e d761 263e
00000120: a189 883d 3d36 08be e8ae 1b3e 5212 a2bd
00000130: 7975 1bbf c08c d1bb 6418 e03d 2589 f5bd
00000140: a871 d1bd d205 ba3b 84e9 f53d 500d 3d3d
00000150: 0eb8 1ebf d31d 0bbe 04d9 133e 2fd1 98bd
00000160: 9bd2 9cbe 58ad 55bd 0c6c 1b3e 1838 673d
00000170: cc22 39be 5fa6 dcbe 5988 98be de2a 883c
00000180: 5e4b 0b3d 2690 363e e6b9 7f3e 8626 e6be
00000190: f531 3fbe 7889 d5bd 89e3 05be 2655 563d
000001a0: 912d 8c3e 3c81 1c3e acce e9be 6fd3 193e
000001b0: a8ed f03b d802 183e 8f5b 963d f0c1 d4bc
000001c0: d2fb 8c3d bc21 18bf dbf5 08bf 625e 8f3e
000001d0: 161f 1fbe d2c1 f3bc 9efd 58be c1e5 ba3d
000001e0: 86ce 2a3e 8449 8ebe 70cc 0cbf 1daf 1cbe
000001f0: 6f85 8dbe 5533 8c3e 672f 63be 9ecf 31bd
00000200: a9ee 1d3d 873c 613e 8b1b 273d 3f71 83be
00000210: 909a 56bf 68e5 88be 9946 663e 2e92 333e
00000220: 7112 1b3e a17f f43c 7be3 ba3d 8cce dcbe
00000230: 7871 3bbe a375 45bd 3019 0cbf c9d6 0c3d
00000240: 8940 973e 0b5d 143e a2fe bcbe ca81 0bbd
00000250: b71f a4be 8403 343c fe34 12bd a746 3cbf
00000260: 3b99 c93c d150 7bbe e8d6 03bf 60e9 4e3e
00000270: 9a19 f4bb af0a e43d 892f 3cbd 5f0a 4d3e
00000280: bc00 e53c d021 523e 75bf 473e c6e4 ae3c
00000290: a83b cebe 0dd6 8fbe 00ef ae3e 1328 6bbc
000002a0: bd28 c23d bf3e 27be 3c7d 10bf 8076 28be
000002b0: 024c 15be 934b 0ebd 0e70 81bd 8f71 edbd
000002c0: 5a60 973c 5413 90be e54d 51bc cbf4 8d3d
000002d0: 5da4 04bf 7680 d3bd 5269 583c 5e61 eebe
000002e0: bfce 8cbd 13c8 89be 900c 43bd 12b5 d3bc
000002f0: 679d 15bf 7fcb 333e 3c44 07be c2ea 733e
00000300: 8060 213e 9f47 a5bd 665c 0bbd f3ff 423e
00000310: e76a 293d ef31 08be e40f ea3d d99d 753e
00000320: 1c97 31bd ccd8 ac3c c739 9c3d 557a b4be
00000330: 6473 ad3d 4034 aa3d d4b6 69be e89e 523d
00000340: 2e62 4bbd 57e1 543d be1a 1bbd ec56 02bf
00000350: a09f 533e 3948 05bc 0c6d f2bd eebc ddbe
00000360: e8af 333e 77ee 973c e9ac 9c3d 2eab 4e3e
00000370: 721e 123c 8c78 41be 1db5 d0ba 515c 753c
00000380: b6a9 dfbd c7fc 01bf 9d78 3a3e c60a a2bd
00000390: 4163 6ebe 65ee d73c bf84 57be 5a9f 5c3d
000003a0: e5f1 033e a850 083e cf4f a0be e8fa 32bd
000003b0: e8fa 043e 14a7 113e 106e 103e d6f3 533c
000003c0: 80ed 5cbe e95f 4ebe 83a9 edbe 07c7 a8bc
000003d0: 07ea e43d 37f7 e73d dc8d bcbd 41fc c0bc
000003e0: 700d 1e3e 7c59 f73d f487 d33d 703c 8c3e
000003f0: d964 c63d a3be 4e3e 56b6 debe 4fb7 ddbd

fc4.bias f4 [24]
0.15804687 0.10634233 0.039769616 0.12859944 0.13333552 -0.014965648 -0.07501714 -0.098132364
0.016443413 0.029180516 -0.042877913 -0.035718843 0.27217877 -0.038820166 -0.06506851 -0.06804337
0.1134286 0.06304858 0.14918208 -0.015488191 -0.049701966 -0.09188531 0.15136527 0.17806718
00000000: 0ad7 213e 02ca d93d 77e5 223d 92af 033e
00000010: 1b89 083e 7a32 75bc 96a2 99bd 9ff9 c8bd
00000020: 56b4 863c fa0b ef3c c0a0 2fbd ec4d 12bd
00000030: 045b 8b3e e501 1fbd a442 85bd 535a 8bbd
00000040: 414d e83d 9d1f 813d 30c3 183e 2ec2 7dbc
00000050: 4a94 4bbd 5e2e bcbd 7fff 1a3e 3e57 363e

exp_avg f4 [128, 144]
-0.0015754332 -0.00036159402 -0.0016007565 0.00062981155 0.0013053969 0.00013633049 0.00014600367 0.00037778844
-0.00036645308 -0.0021143407 -0.00089697726 -0.00012603449 0.000982424 -0.00037604687 -0.00049599493 0.0028448734
-0.0012966965 0.0033516434 0.0012612063 0.00014856504 0.0009056702 0.00082439906 0.0019673978 -0.0024642886
-0.00051098317 -0.00011779368 -0.0022039819 -0.0019892137 -0.0010492916 -0.0020224114 -0.00237954 0.002266247
-0.0013260026 -0.0038614103 0.0006956782 -0.0013063108 0.0016844303 -0.0030316992 0.0013727592 0.0017033957
0.0012578861 0.0024553086 0.0002814578 0.0025813165 -0.0014857806 -0.00027642585 0.0032389627 -0.0020554608
-0.0007109116 -0.00010924903 -0.0022181566 -0.0018084813 -0.0009584951 -0.0022862453 -0.002941833 0.0019011039
-0.0014468594 -0.003727502 0.00050082477 -0.0011231685 0.0017783374 -0.0025491521 0.0013214184 0.0025685101
0.0015169194 0.002156686 0.00032923277 0.0026237206 -0.00090137124 -0.00023964909 0.0028908313 -0.0021735402
-0.000874544 -0.00012507499 -0.0022426685 -0.0019423151 -0.0008431724 -0.002980591 -0.0032366966 0.0017256092
-0.0014708969 -0.0035926546 0.00043507642 -0.0013726391 0.0018488944 -0.0022354568 0.0018302997 0.0025860963
0.0015426694 0.002287521 0.00031830277 0.0024727588 -0.0005225986 -0.0005406957 0.003250165 -0.0017488603
-0.00088531384 -4.2626867e-05 -0.0027652513 -0.0019631314 -0.0007187333 -0.0031541865 -0.0030232712 0.0014417195
-0.0015653954 -0.0035306423 0.0006273156 -0.0015322366 0.0019343761 -0.0017076577 0.0017999326 0.002256267
0.0012624977 0.002193945 0.00034996122 0.0026823115 -0.00012811879 -0.0004564947 0.0030448714 -0.0016974881
-0.00068805274 -4.6820147e-05 -0.0028236348 -0.0021158017 -0.0006119327 -0.0030428842 -0.002899704 0.0015006848
-0.0016712965 -0.0034187196 0.0005326348 -0.0014053495 0.0017056614 -0.0014486986 0.0018222452 0.0023313884
0.0013940312 0.0019539343 0.0003453549 0.00250547 -0.00019177003 -0.0005237004 0.0031351245 -0.002075798
0.002351023 0.0007054418 0.0018286102 0.00029261224 0.0014267361 0.0013913186 0.0010218768 0.0010901063
0.0027156188 0.0027413387 0.0008495955 0.0031608953 0.0013873465 0.0006852946 0.0013376374 -0.0002491512
0.0005735317 -0.002748924 0.003033835 0.0051893876 -0.0014790618 -0.002087923 -0.0017473514 0.0025965192
0.0032438822 0.0012966475 0.00039984286 0.00069009606 0.0017447155 0.002502477 0.0031778077 -0.0031152149
0.0042062104 0.005027993 -0.0027161026 0.004839589 0.00021284097 0.0022674957 -0.0011721096 0.0011116512
-0.0032582432 -0.0016687964 0.0036812485 0.004371198 0.0005080099 -0.0028569528 -0.0026045423 0.003314545
0.003072864 0.001203734 0.0003456124 0.0010353418 0.0016138034 0.002608907 0.0036287948 -0.0030347258
0.004188528 0.004691784 -0.0034724511 0.004744619 0.0004113745 0.002902875 -0.001190324 0.0006239682
-0.0027300532 -0.001430522 0.0036289026 0.0043297024 1.758337e-05 -0.0027223304 -0.0030186942 0.0029607005
0.002993587 0.0012059428 0.00030187983 0.00086513674 0.0016176119 0.002896528 0.004010268 -0.002530443
0.004227646 0.0043529645 -0.003490813 0.0047793277 0.0005801894 0.0025898435 -0.0019188161 0.00063185976
-0.0023838473 -0.0012708646 0.0036389204 0.0048267 -0.0006967173 -0.002269312 -0.0025774518 0.0023597162
0.002915436 0.001452862 0.00021219207 0.00094346143 0.0021127528 0.003087108 0.004097284 -0.0026104576
0.003954123 0.0049551707 -0.0037303455 0.0044438476 0.00030908175 0.0019345607 -0.0017548789 0.0009405727
00000000: c47e ceba 5494 bdb9 7ad0 d1ba f019 253a
00000010: da19 ab3a f0f3 0e39 9018 1939 e811 c639
00000020: 8020 c0b9 c090 0abb 2023 6bba 2028 04b9
00000030: aec4 803a 2828 c5b9 a805 02ba 0e71 3a3b
00000040: eaf5 a9ba 3fa7 5b3b 104f a53a 20c8 1b39
00000050: 806a 6d3a 7c1c 583a 75ef 003b e77f 21bb
00000060: 80f3 05ba 0008 f7b8 ae70 10bb 785d 02bb
00000070: 6288 89ba 6f8a 04bb 0ef2 1bbb 5185 143b
00000080: 44cd adba b70f 7dbb 2c5e 363a 8438 abba
00000090: 1ac8 dc3a 79af 46bb 28ee b33a 7a44 df3a
000000a0: a7df a43a 3ee9 203b a090 9339 4e2b 293b
000000b0: 86be c2ba 40ed 90b9 c744 543b e9b4 06bb
000000c0: 785c 3aba a01c e5b8 7e5e 11bb 900a edba
000000d0: 8443 7bba d5d4 15bb c5cb 40bb 762e f93a
000000e0: 8ca4 bdba 1b49 74bb c849 033a 4837 93ba
000000f0: 1a17 e93a ad0f 27bb 7233 ad3a 7354 283b
00000100: 5ed3 c63a 3057 0d3b e09c ac39 baf2 2b3b
00000110: 004a 6cba 504a 7bb9 1a74 3d3b f471 0ebb
00000120: a841 65ba 9026 03b9 bcf9 12bb 4895 feba
00000130: 5808 5dba 0556 43bb c21e 54bb d62d e23a
00000140: 1ccb c0ba be72 6bbb f81a e439 20ea b3ba
00000150: 9a56 f23a be80 12bb abe6 ef3a 7f7b 293b
00000160: 6533 ca3a 3cea 153b e0e1 a639 020e 223b
00000170: 00ff 08ba 79bd 0dba b800 553b 043a e5ba
00000180: 6814 68ba 40ca 32b8 3839 35bb e1a7 00bb
00000190: 6069 3cba 78b6 4ebb 1322 46bb 14f8 bc3a
000001a0: f42d cdba 5962 67bb 7072 243a 54d5 c8ba
000001b0: e48a fd3a 7cd3 dfba b7eb eb3a e1dd 133b
000001c0: 657a a53a 4ac8 0f3b 007b b739 b8c9 2f3b
000001d0: a057 06b9 ae55 efb9 778c 473b 407e deba
000001e0: 705e 34ba c060 44b8 bb0c 39bb 43a9 0abb
000001f0: 1c6a 20ba 206b 47bb f608 3ebb a0b2 c43a
00000200: 680f dbba 990c 60bb 84a0 0b3a b433 b8ba
00000210: 8090 df3a 42e2 bdba 67d8 ee3a 35ca 183b
00000220: edb7 b63a 940d 003b c010 b539 d032 243b
00000230: e015 49b9 f048 09ba a976 4d3b 1d0a 08bb
00000240: 9f13 1a3b 66ed 383a faad ef3a c069 9939
00000250: 5201 bb3a e85c b63a 7ff0 853a e6e1 8e3a
00000260: 86f8 313b 08a8 333b 64b7 5e3a 0627 4f3b
00000270: a0d7 b53a 58a5 333a aa53 af3a 82a0 82b9
00000280: 1059 163a 4b27 34bb 4ed3 463b bd0b aa3b
00000290: 14dd c1ba 89d5 08bb 6207 e5ba 5d2a 2a3b
000002a0: 5097 543b 45f4 a93a 00a2 d139 90e7 343a
000002b0: f0ae e43a 9900 243b c442 503b a228 4cbb
000002c0: 40d4 893b ddc1 a43b a400 32bb 6a95 9e3b
000002d0: 102e 5f39 449a 143b 79a1 99ba d3b4 913a
000002e0: 4088 55bb 84bb daba 1a41 713b 443c 8f3b
000002f0: f82b 053a b73b 3bbb f8b0 2abb d638 593b
00000300: 1a62 493b 9cc6 9d3a 5033 b539 4eb4 873a
00000310: 4286 d33a 32fa 2a3b 13d1 6d3b 40e2 46bb
00000320: eb3f 893b 89bd 993b 1092 63bb c078 9b3b
00000330: c0ad d739 293e 3e3b a504 9cba cc91 233a
00000340: b1ea 32bb 5a80 bbba e2d2 6d3b 2de0 8d3b
00000350: 0080 9337 2069 32bb 49d5 45bb 5008 423b
00000360: 0e30 443b ba10 9e3a a045 9e39 58ca 623a
00000370: 0c06 d43a add3 3d3b 9168 833b cad5 25bb
00000380: 1188 8a3b 50a3 8e3b 20c6 64bb e89b 9c3b
00000390: da17 183a 5dba 293b c980 fbba 64a3 253a
000003a0: 523a 1cbb 2493 a6ba f47a 6e3b 4b29 9e3b
000003b0: e8a3 36ba bdb8 14bb 77ea 28bb 78a5 1a3b
000003c0: e610 3f3b f66d be3a e07f 5e39 a052 773a
000003d0: 1c76 0a3b 1451 4a3b 8242 863b 3614 2bbb
000003e0: 9691 813b fc5e a23b d078 74bb b29d 913b
000003f0: 400c a239 1691 fd3a f703 e6ba c490 763a

exp_avg_sq f4 [128, 144]
0.00035841175 6.0076178e-05 0.00020206437 9.694676e-05 0.00014129562 0.00014208717 3.0519925e-05 3.8581413e-05
0.00023877036 8.844242e-05 6.981048e-05 0.00021379188 0.0001433321 4.0102248e-05 7.772955e-05 0.000104983556
0.00016527042 0.00017642393 0.00039904157 0.00015569637 0.00013950511 4.6392644e-05 6.304436e-05 8.175104e-05
0.0006369829 0.00016068868 0.00032784723 0.00021065485 0.00023868355 0.00025206307 0.00015959088 0.000120721656
0.00042313727 0.0001910632 0.00015728099 0.00038429364 0.00026582452 0.00016092446 0.00020565931 0.00019323357
0.000281705 0.00028452036 0.000657897 0.00027109237 0.00027039333 5.8627404e-05 0.00013413814 0.00018972754
0.00063602073 0.0001663965 0.000330195 0.00021128912 0.0002443381 0.00025621016 0.00016380813 0.00012891414
0.00042013085 0.00018951335 0.00015803255 0.0003832463 0.00026907586 0.0001647373 0.00020938697 0.00020342528
0.0002852282 0.0002892218 0.0006600396 0.00026818854 0.00027371533 5.8101872e-05 0.00013860813 0.00019754142
0.00063468056 0.00016017653 0.00032895253 0.00021253429 0.0002524257 0.0002585266 0.00016354492 0.00012462109
0.00042280098 0.00019209672 0.00016686585 0.0003823461 0.00026587097 0.00016392538 0.00020920968 0.00019805372
0.00028835484 0.00028774544 0.0006597716 0.00026776767 0.00027399036 6.0979823e-05 0.00014338762 0.000195387
0.0006354902 0.00016283101 0.0003291028 0.00021187324 0.0002563727 0.000251477 0.00016357724 0.00012687541
0.00042894454 0.00019268872 0.00016721492 0.00038150922 0.00026743877 0.00016044702 0.00020799976 0.00020101588
0.000285577 0.0002881096 0.00066024985 0.00027232946 0.00027488242 5.997682e-05 0.00013959718 0.00019812126
0.00063568715 0.00016087749 0.00032529564 0.00021053197 0.00025653647 0.00024900283 0.00016574629 0.00012585887
0.00042392724 0.00019233477 0.00016842605 0.0003795964 0.0002715815 0.0001653234 0.0002062139 0.00020472812
0.00028938815 0.0002903513 0.0006591336 0.00026730428 0.000276358 6.188024e-05 0.00014280845 0.00020078039
0.00054088613 4.7425914e-05 0.00043334631 0.0001300596 0.0001867959 0.00017658542 4.4114466e-05 7.61206e-05
0.00030181845 0.0001376533 0.00010578448 0.00027548856 0.0001786321 4.957984e-05 7.830019e-05 0.00016718596
0.00031590374 0.0002633302 0.00048257134 0.00021129035 0.00036778284 0.00011449918 0.00011757429 9.842467e-05
0.0009004165 0.00010644973 0.00069385814 0.0002755618 0.00032585303 0.00036010897 0.000117532596 0.00019410985
0.00047994938 0.00028504277 0.00022403848 0.0004956571 0.00035848867 0.00023659582 0.0002623251 0.0002837525
0.0005636238 0.0005116709 0.0008082031 0.00035377586 0.00061090465 0.00019208578 0.0002608363 0.00020020365
0.0008954506 0.000104451494 0.0007002459 0.0002756568 0.00032083548 0.00035460366 0.00012130096 0.00019853104
0.00048138612 0.00029919343 0.00022753 0.0005078142 0.00035623251 0.00023588738 0.00027064036 0.00029723177
0.00056496344 0.0005311864 0.0008014747 0.00035151566 0.0006109781 0.00018452232 0.00026347325 0.00021775358
0.0008932164 0.0001019409 0.00070131925 0.00027816417 0.00032126295 0.00035209188 0.00012072617 0.00020204151
0.00047850126 0.00029427765 0.00022694751 0.0005141279 0.0003563486 0.00023678539 0.00028282063 0.00029649513
0.0005619267 0.00052716007 0.0008014951 0.00035098428 0.0006178454 0.00018836031 0.00025655705 0.00022056974
0.00089339184 0.00010306708 0.0007032031 0.00027560798 0.0003185054 0.000354351 0.00011935905 0.00020830239
0.00049127964 0.0002870967 0.00022543351 0.0005184726 0.0003560537 0.00023266026 0.0002784506 0.00029981526
00000000: 36e9 bb39 4efa 7b38 3ee1 5339 e54f cb38
00000010: c128 1439 3cfd 1439 8502 0038 7ad2 2138
00000020: 6e5e 7a39 2a7a b938 3767 9238 522d 6039
00000030: 6b4b 1639 7633 2838 bc02 a338 9e2a dc38
00000040: 714c 2d39 70fe 3839 7436 d139 6d42 2339
00000050: 1e48 1239 b995 4238 af36 8438 c171 ab38
00000060: 33fb 263a 8a7e 2839 e9e2 ab39 3be3 5c39
00000070: 2147 7a39 5527 8439 da57 2739 f22b fd38
00000080: 86d8 dd39 2358 4839 cbeb 2439 057b c939
00000090: 5d5e 8b39 d5bd 2839 40a6 5739 be9e 4a39
000000a0: ceb1 9339 ad2b 9539 b876 2c3a 6721 8e39
000000b0: 94c3 8d39 b2e6 7538 6fa7 0c39 99f1 4639
000000c0: a1ba 263a b87a 2e39 061e ad39 7e8d 5d39
000000d0: 811a 8039 f253 8639 e9c3 2b39 202d 0739
000000e0: 0245 dc39 1ab8 4639 8ab5 2539 73ee c839
000000f0: c012 8d39 55bd 2c39 e38e 5b39 8f4e 5539
00000100: ae8a 9539 b1a2 9739 8206 2d3a a89b 8c39
00000110: 7381 8f39 69b2 7338 5657 1139 1f23 4f39
00000120: b160 263a 0ff5 2739 4377 ac39 bddb 5e39
00000130: 0158 8439 da8a 8739 417d 2b39 b8ac 0239
00000140: 63ab dd39 926d 4939 b6f8 2e39 a075 c839
00000150: 9964 8b39 62e3 2b39 4c5f 5b39 a4ac 4f39
00000160: 552e 9739 8adc 9639 86f4 2c3a 2b63 8c39
00000170: 5da6 8f39 96c4 7f38 525a 1639 cce0 4c39
00000180: 0797 263a 9ebd 2a39 6e8b ac39 4a2a 5e39
00000190: c369 8639 acd8 8339 ee85 2b39 dc09 0539
000001a0: f6e3 e039 7c0c 4a39 6a56 2f39 4d05 c839
000001b0: 0637 8c39 ab3d 2839 831a 5a39 cac7 5239
000001c0: 7fb9 9539 6a0d 9739 9e14 2d3a 71c7 8e39
000001d0: 181e 9039 9f8f 7b38 d560 1239 c5be 4f39
000001e0: 3ea4 263a 39b1 2839 718c aa39 3fc2 5c39
000001f0: be7f 8639 988c 8239 2ecc 2d39 fcf8 0339
00000200: 8d42 de39 79ad 4939 869b 3039 9104 c739
00000210: 0d63 8e39 aa5a 2d39 1f3b 5839 49ac 5639
00000220: 05b9 9739 4b3a 9839 b5c9 2c3a f924 8c39
00000230: 25e4 9039 b3c5 8138 dabe 1539 9388 5239
00000240: 41ca 0d3a 30eb 4638 c232 e339 9c60 0839
00000250: a5de 4339 ca29 3939 8c07 3938 f0a2 9f38
00000260: 633d 9e39 0757 1039 9cd8 dd38 736f 9039
00000270: 304f 3b39 f3f3 4f38 1835 a438 a44e 2f39
00000280: e29f a539 950f 8a39 a101 fd39 d28d 5d39
00000290: fad2 c039 471f f038 3792 f638 5869 ce38
000002a0: ee09 6c3a c33d df38 08e4 353a 4779 9039
000002b0: 41d7 aa39 02cd bc39 d57b f638 f789 4b39
000002c0: b7a1 fb39 cb71 9539 dfeb 6a39 fcee 013a
000002d0: 89f3 bb39 b516 7839 ae88 8939 9ec4 9439
000002e0: 27c0 133a a721 063a 98dd 533a fe7a b939
000002f0: 1e25 203a a26a 4939 dbc0 8839 c2ed 5139
00000300: acbc 6a3a f80c db38 b590 373a 0886 9039
00000310: cf35 a839 19ea b939 f562 fe38 c52c 5039
00000320: 8d62 fc39 10dd 9c39 1f95 6e39 d61e 053a
00000330: b8c4 ba39 8958 7739 bce4 8d39 c6d5 9b39
00000340: 0e1a 143a 513f 0b3a 0f1a 523a a24b b839
00000350: 0c2a 203a 557c 4139 c822 8a39 c854 6439
00000360: bd26 6a3a 1bc9 d538 bdd8 373a 90d6 9139
00000370: 2f6f a839 f998 b839 5e2e fd38 1bdb 5339
00000380: 5adf fa39 4749 9a39 c2f8 6d39 8ac6 063a
00000390: 4dd4 ba39 9849 7839 8b47 9439 e772 9b39
000003a0: 434e 133a 1d31 0a3a 6d1b 523a 5004 b839
000003b0: e7f6 213a 9682 4539 8182 8639 bd48 6739
000003c0: 8332 6a3a b825 d838 2957 383a 7a7f 9039
000003d0: 12fd a639 30c8 b939 6750 fa38 bf6b 5a39
000003e0: 38c9 003a 7785 9639 5962 6c39 1bea 073a
000003f0: b8ac ba39 43f6 7339 02fd 9139 8630 9d39

exp_avg f4 [128]
-0.0005092677 0.0018997523 0.005230994 0.0022989814 -0.0063203834 -0.008720469 0.0 0.0013391126
0.0028002989 0.0 -0.008404307 0.012815891 0.0 0.013111452 0.0063392427 -0.0017034187
-0.009862535 0.0013688402 -0.009305267 -0.0040013706 0.001470109 -0.008805828 0.0 7.452676e-06
-0.0073427055 0.0 -0.0062893736 -0.008171115 -0.0010628384 -0.0048466576 -0.0002379769 -0.008083125
-0.0012680133 0.0 0.001807163 -0.0030824537 -0.009460464 -0.00088363397 0.00018026074 0.00506063
0.0026913548 -0.009003423 -0.005476557 -0.00076495466 -0.0048835617 0.0 0.0 0.0
0.0007392233 -0.003320821 -0.0057168 0.0021322686 0.0027639987 0.023944672 -0.019224573 -0.0076449285
0.010289418 0.0048081446 -0.00087073573 -0.008077925 0.0029712836 0.003017402 -0.009955069 0.0040018004
-0.0036086626 0.0 -0.00045848824 -0.0031003477 0.004345432 -0.009407261 -0.004579724 -0.0029742583
0.0007558353 0.011883959 0.004541125 0.0034775687 -1.2284087e-05 -0.010287864 0.0019199246 0.0
0.003876555 0.0025970428 -0.0017478577 -0.001637934 0.0031296287 0.0 -0.00093162525 -0.004152126
0.0 0.0 3.9228238e-05 -0.005433642 0.00082287006 -0.0046347464 0.0 1.6504317e-05
0.01652349 -0.01680898 0.009044716 0.009786821 0.0035101576 -0.002155297 -0.012422934 0.004787077
-0.0068037193 -0.0106754135 0.0062608854 -0.0055573136 0.01991901 -0.0026711002 -0.0058449996 -0.0017859895
0.018136468 -0.0050295806 -0.0046549435 0.0038444991 -0.007921889 0.0 -0.0014176801 -0.008129787
0.006389017 0.0 0.0 0.004692666 0.009980049 -0.0012527374 0.003292323 -0.0012198419
00000000: 6080 05ba 1c01 f93a c268 ab3b 82aa 163b
00000010: 381b cfbb 4ce0 0ebc 0000 0000 2a85 af3a
00000020: 3885 373b 0000 0000 38b2 09bc bef9 513c
00000030: 0000 0000 6ad1 563c 6cb9 cf3b 3f45 dfba
00000040: 7896 21bc a86a b33a 1e75 18bc ee1d 83bb
00000050: acb0 c03a 5246 10bc 0000 0000 0012 fa36
00000060: 149b f0bb 0000 0000 1717 cebb 24e0 05bc
00000070: f04e 8bba b6d0 9ebb 7089 79b9 156f 04bc
00000080: 7733 a6ba 0000 0000 54de ec3a fe02 4abb
00000090: 1000 1bbc aca3 67ba 6004 3d39 a4d3 a53b
000000a0: 7161 303b 1883 13bc b174 b3bb 3d87 48ba
000000b0: 4906 a0bb 0000 0000 0000 0000 0000 0000
000000c0: 70c8 413a 22a2 59bb ff53 bbbb 88bd 0b3b
000000d0: 3424 353b 9e27 c43c da7c 9dbc 4f82 fabb
000000e0: f294 283c a48d 9d3b 1642 64ba 4659 04bc
000000f0: deb9 423b 9bbf 453b 961a 23bc 8921 833b
00000100: 507f 6cbb 0000 0000 4061 f0b9 342f 4bbb
00000110: 2064 8e3b ea20 1abc 8211 96bb c6eb 42bb
00000120: 4023 463a f0b4 423c b8cd 943b ece7 633b
00000130: c017 4eb7 6e8e 28bc fba5 fb3a 0000 0000
00000140: cd0d 7e3b 2633 2a3b 5f18 e5ba f2af d6ba
00000150: 751a 4d3b 0000 0000 5038 74ba 8f0e 88bb
00000160: 0000 0000 0000 0000 0089 2438 b10c b2bb
00000170: e0b5 573a 12df 97bb 0000 0000 c072 8a37
00000180: 455c 873c fcb2 89bc 4a30 143c e758 203c
00000190: ac0a 663b e23f 0dbb 9089 4bbc eadc 9c3b
000001a0: bcf1 debb eee7 2ebc 1d28 cd3b 201a b6bb
000001b0: 312d a33c a00d 2fbb 6987 bfbb dd17 eaba
000001c0: ee92 943c 2ecf a4bb 7f88 98bb fef3 7b3b
000001d0: d0ca 01bc 0000 0000 73d1 b9ba cc32 05bc
000001e0: f65a d13b 0000 0000 0000 0000 f0c4 993b
000001f0: 5c83 233c e432 a4ba 04c4 573b 1ae3 9fba
